src/rl/model/actor_model18-08-2024_13-06-17/120.pt (torch, 82671 bytes, 7 tensors)

logstd f4 [4]
00000000: ed1e 14bf c182 39bf c5dc 03bf 103a 43bf
-0.5785969 -0.7246514 -0.5150874 -0.7626047

mean_net.0.weight f4 [128, 23]
00000000: 6c40 ac3e 9022 ef3d 065e 2ebd 88de 60be
00000010: 2cf9 1c3f 5ebf 50be 5a00 0f3e 1939 3dbd
00000020: d64a 65bf 3cd7 8c3d 65b3 b2bd 4b99 f03e
00000030: bb1f 083c 3c3b 013f 6c87 f83c 72b9 51bd
00000040: 640b 00be 9613 0b3f 653d e8bf fc09 543d
00000050: 99d9 7b3f a61d 68bf 58ff 413f 3ed1 673e
00000060: 3cd4 0bbd f56a 12bd 9c85 133c eae2 9e3e
00000070: 54ba 443e f951 0ebe 849c febe 8777 2a40
00000080: 688c 9c3e 65c7 fa3e 6753 ec3e f0e6 c0bb
00000090: 8eb1 e2bd f738 18be bd72 863e 2ea3 1cbe
000000a0: 4e52 1f3f a8a9 a7bf 4861 7b3e c26f d8bc
000000b0: 047c 1a3e c98c 683d 73fa bf3e f6c3 44bd
000000c0: 0b4d 35bd 0c5e 93be 8003 9e3d 7d55 c33d
000000d0: ad8c 19bf dc5d 753e 3168 bfbf cc58 a1be
000000e0: 6208 df3e c646 71be 83f3 20bf 2712 223e
000000f0: b0f8 283e 01fd d8bd 84a7 dcba 0d3c abbe
00000100: 4c24 293f 7311 273e 2e8f e63e aeec fc3e
00000110: 548a afbf 9291 003f a6dd 833e fe56 46bd
00000120: 436b 1bbe 6462 483e c163 943e 5b26 b8be
00000130: 1560 44be 4276 1dbf 1a01 0ebf 5861 07bd
00000140: 9caf b33e eec4 c43f 98ab c7bd 3302 04be
00000150: 4db9 4f3e cbc8 2b3e 2895 c6bf 4e2f e1bf
00000160: 0783 133d 0062 05bf a6ee 3cbe a1bf 8b3d
00000170: 38e9 ab3e 1338 4e3e 2d46 023e 9d72 1e3f
00000180: 488e 203e 7f10 213c b5bb 35bf be33 b43d
00000190: f507 bc3f ca0a d73e ed16 a43e 9ad8 abbd
000001a0: aa5c b53f 253d a43d 0197 923e 6697 503e
000001b0: 201b 46be 2d85 d33f e33a b83f 1e53 b53e
000001c0: b072 98bd de0b b93d 85ec 703f 21c7 ba3e
000001d0: 918d 2dbf 2589 03be 00e5 6a3f f769 16bf
000001e0: e71d 143c 0dd3 40bf 00a0 b9bf 6c73 0fbf
000001f0: 2d32 afbf 4af1 c73e b1c0 533e 158d b83f
00000200: 78ef 3cbc 33fd 66be f7d6 bebd fabf adbd
00000210: 4446 91bf b6be 3ebf 183b debc c9f1 483d
00000220: e122 dbbe 513a 89bc f0df b1be 9b3f b7bc
00000230: 4b5b 543f 22ff 55be 8fcf 72be 2974 103e
00000240: ef54 0a3f 3c79 ebbe 1fe8 ec3e e970 4a3e
00000250: b32f 0dbe a4b0 a6be ee4f 573f 1ef4 b93e
00000260: eb59 3e3d c5b5 033d 252c 403e b5ef 13c0
00000270: f57d d6bf cbc5 0e3e e087 483e e532 8fbe
00000280: 65d5 a53f 6eb3 833f 4c27 48bf de41 8d3e
00000290: 5b19 af3e 5dd1 26bf b8d8 08bd 818c 2c3e
000002a0: 9b17 06bd 547d d43d 31d3 113e b5fc 38be
000002b0: 0ce3 dbbe 65e7 4c3c 8196 b1bd 68a6 0b3e
000002c0: 9515 0d3e fb47 14be e633 3540 66af eabf
000002d0: 56b3 4fbe 148b d4bd 9bd4 463e d660 54bf
000002e0: 2d6b 79bf 87c2 6fbe b125 a23e 9c69 8fbf
000002f0: c5b1 4e3d da36 5d3d c48c 86bf aa30 42bf
00000300: d3b2 23be 023b 133f b29c e9be 17f9 0dbd
00000310: 69d2 533e 58c7 34bd cf45 593d 88de 823e
00000320: 5b4f 31bb de6f 65be 2f70 cdbf e16a 06bd
00000330: 5b27 333e 6ec5 ad3e de82 4abf 01d6 753e
00000340: 292d 8bbe c23e 36be c53d 483c dd65 01bf
00000350: 8aca 39bc 5db5 943f 6e26 ebbf 2725 86bf
00000360: e681 923e d8cf ee3e 4b5f 28bd 2e0d 58bf
00000370: f981 0fbe 2ee4 683d ce1f 5a3e 4276 89bd
00000380: 0d60 54be 4630 89bf cf66 083e dbc7 a5bd
00000390: 4fe7 90be 7645 15bf d146 01bd 56bd b0be
000003a0: 749c 223d a190 eabe 2a2e 50bf a13b 583d
000003b0: 0910 3a3f 3d8c ee3f 5be2 80bf 04aa 7a3e
000003c0: 75f5 a53e a47c 453f 1150 253f 532a 183e
000003d0: 14c6 21bd d1e1 a63d e7c3 943c 5b46 52bf
000003e0: a8a3 333d 8451 bbbd d972 6f3d ffaa 0c3f
000003f0: 62eb 81be 5dfd e1be 7cfb 24be e329 b1be
0.336429 0.11676514 -0.042570136 -0.21959889 0.61317706 -0.20385501 0.13964978 -0.04619703
-0.89567316 0.0687699 -0.08725623 0.46991953 0.008308346 0.5048101 0.030338012 -0.051202245
-0.12504345 0.5432676 -1.8143736 0.051767334 0.983789 -0.9067024 0.7578025 0.22638413
-0.03413795 -0.035746533 0.009004023 0.31032497 0.19211704 -0.13898458 -0.49728787 2.6635454
0.3057587 0.4898025 0.4615738 -0.005886905 -0.11069022 -0.1486548 0.26259413 -0.15296623
0.6223496 -1.309865 0.24548829 -0.026420478 0.1508637 0.05677489 0.37495765 -0.048038445
-0.044262927 -0.2878269 0.07715511 0.0953779 -0.5998028 0.23961586 -1.4953672 -0.3151306
0.43561083 -0.23562154 -0.6287157 0.15827237 0.16501117 -0.10595132 -0.0016834592 -0.33444253
0.6607101 0.1631525 0.45031112 0.49399322 -1.3714089 0.5022212 0.25755042 -0.048422806
-0.15177636 0.19568783 0.28982356 -0.35966763 -0.19177277 -0.6150857 -0.5547043 -0.03305182
0.35094917 1.5372598 -0.09749526 -0.12891464 0.2028553 0.16775815 -1.5514269 -1.7592561
0.03601363 -0.5210266 -0.18450412 0.0682366 0.3357637 0.20138578 0.12722082 0.61893636
0.15679276 0.009830593 -0.70989543 0.087989315 1.4689928 0.4200042 0.3204874 -0.08390923
1.4168904 0.08019475 0.28630832 0.20370254 -0.19346285 1.6525017 1.4392971 0.35414976
-0.0744375 0.090354666 0.941109 0.36480048 -0.6779414 -0.12845285 0.91755676 -0.5875544
0.009040332 -0.7532204 -1.4501953 -0.56035495 -1.3687187 0.39051276 0.20678975 1.4418055
-0.011531703 -0.22557525 -0.09318345 -0.08483882 -1.1349568 -0.7450975 -0.027127787 0.04905871
-0.42800048 -0.01675144 -0.34741163 -0.022369197 0.829518 -0.20898107 -0.2371199 0.14106812
0.5403585 -0.45990932 0.46270844 0.19769634 -0.13787727 -0.3255664 0.8410634 0.3631906
0.04647247 0.03215577 0.1876684 -2.3115056 -1.6757189 0.1394264 0.19583082 -0.27968517
1.2955748 1.0289133 -0.7818496 0.27589315 0.34199032 -0.65163213 -0.033409804 0.16850473
-0.032737356 0.10375467 0.1424072 -0.1806515 -0.4294666 0.012506341 -0.086712845 0.13637698
0.13777764 -0.14480583 2.8312926 -1.8334777 -0.20283255 -0.103780895 0.1941704 -0.8296026
-0.9742916 -0.2341405 0.3166938 -1.1204104 0.050462503 0.05400739 -1.0511708 -0.75855505
-0.15986185 0.57511914 -0.45627362 -0.03466138 0.20685734 -0.04413542 0.05304509 0.25560403
-0.0027055356 -0.22405955 -1.6049861 -0.03281677 0.17495482 0.3393969 -0.7910594 0.24007417
-0.27182892 -0.17797378 0.012221758 -0.50546056 -0.011339793 1.1617848 -1.8371103 -1.0480088
0.2861473 0.46642947 -0.041106503 -0.8439511 -0.14014424 0.056858234 0.21301195 -0.06712009
-0.20739765 -1.0717857 0.13320468 -0.0809476 -0.28301474 -0.58309114 -0.031561676 -0.34519452
0.039699987 -0.45813468 -0.8132044 0.05279124 0.7268072 1.8636547 -1.0069078 0.24478918
0.3241383 0.7714331 0.64575297 0.14859895 -0.039495543 0.0814854 0.01815982 -0.82138604
0.043857247 -0.09146407 0.058459137 0.5494842 -0.25374895 -0.44138613 -0.16111559 -0.3460227

mean_net.0.bias f4 [128]
00000000: 8499 86be 4c24 3b3e 1b8f 74bb 957c 32be
00000010: d02d d13d 8fbc 63be 5040 8f3e e954 dabd
00000020: 9ca4 80be 7c0a 573c f4b0 26bd 42d7 373c
00000030: 11fa 7cbe 6205 063d f14a 123e b303 dfbd
00000040: 67e5 81bc f336 9bbd f662 1c3e b34e 81bd
00000050: a88f 063e 306e c23d ce0b 5f3d 39b9 5e3c
00000060: b5df 9bbd 9d72 17be db8c 303e a9ce 713e
00000070: 290a 1d3e c490 0ebe 0dab 13be 823b 03bd
00000080: d5ee a5be 2cdf 613e 31dc 4e3e b4f8 823e
00000090: 103b 3bbd dfca b33e 2285 2b3e ec9c 73be
000000a0: 06c6 573e dfb5 7dbe e3a1 263d b203 31be
000000b0: 7ca3 313e d3b1 123e d6a3 fdbd bf1a e73c
000000c0: ab7f fbbd d5e9 d33d 0811 90bd 5b53 27be
000000d0: d983 0c3e d88c e4bc 33cb 453e 2405 063e
000000e0: 5c66 a2bd 8463 91be e004 003e bf1e 0e3e
000000f0: 3130 ec3d a5ba 22bd 3c81 123e 9b96 b8bd
00000100: d5c3 983e 0f5c 3a3e f731 6bbd a574 ad3c
00000110: b8b9 e23d e79b 50be d7bf 94bd 8357 ea3d
00000120: 104b 7d3e 6e50 853e 42f0 63bd 148c 2cbd
00000130: 4991 0a3d 9c77 efbd 2483 31be 4f5d be3d
00000140: 77b1 0dbd 66fc 5bbe 18ab 3e3e c721 9d3d
00000150: 3d9f a33d 024f 983e 0458 803d f1d8 93bd
00000160: f783 e9bd 7753 b3be 9e2e 98bd 2121 033e
00000170: 0fe4 983e 0eb1 033e 6f43 28be 7005 803e
00000180: c121 32be d356 ed3d 2668 373e 2b6a 5d3e
00000190: 25e0 333e 8599 963e 3111 2b3d 5bdf 45bd
000001a0: 413b 013e be8a 293e 65ea c5bb b44e 0dbe
000001b0: 4c8d c5be ca9b 16be 7842 343e c8a9 bb3d
000001c0: 0b02 3cbe f117 d2bd 7c9a 1e3e 0df8 8f3e
000001d0: f42c 7c3d 45e6 aabd d22f 19be 78e1 bf3c
000001e0: 3bcf 4c3b cabd 873e 410a 2dbe a1d6 11bd
000001f0: 6cc1 90be 1798 3b3e 1e50 0bbe 7601 ccbe
-0.26288998 0.18275565 -0.0037316743 -0.17430337 0.10213816 -0.22239898 0.27978754 -0.106607266
-0.25125587 0.013125058 -0.0406961 0.011220755 -0.24704768 0.032719977 0.142864 -0.108893774
-0.015856458 -0.0757884 0.15272126 -0.06313839 0.13140738 0.09493673 0.054454617 0.013593965
-0.07611028 -0.14789815 0.17241232 0.23613991 0.15335907 -0.13922411 -0.1442072 -0.032039173
-0.32408777 0.2205779 0.20201184 0.2558037 -0.045710623 0.35115716 0.16750005 -0.2379033
0.21071634 -0.2477641 0.04068173 -0.17286566 0.1734752 0.14325647 -0.12384765 0.028210996
-0.1228021 0.10347334 -0.070344985 -0.16340391 0.13722171 -0.02789919 0.19315796 0.13087898
-0.0792968 -0.28396237 0.1250186 0.13878916 0.11532629 -0.03972878 0.14307112 -0.09013101
0.29836908 0.1819918 -0.057420697 0.021173785 0.11070579 -0.20371972 -0.07263153 0.11442473
0.24735665 0.26037925 -0.05564905 -0.042125776 0.03382996 -0.116927356 -0.17335182 0.09295141
-0.03459307 -0.21483001 0.18619955 0.07672458 0.07989357 0.29747778 0.06266788 -0.07219113
-0.114021234 -0.35024616 -0.074307665 0.12805606 0.29861495 0.1286051 -0.16431974 0.25004148
-0.17395689 0.11588826 0.17910823 0.21622531 0.17565973 0.29414 0.041764442 -0.04830871
0.1262026 0.16556832 -0.006039905 -0.13799554 -0.38584363 -0.14707866 0.17603481 0.091632426
-0.18360154 -0.10258473 0.15488619 0.28118935 0.06156631 -0.08344702 -0.14959648 0.023422942
0.0031251449 0.26511985 -0.16898443 -0.035605077 -0.2827257 0.18319736 -0.13604781 -0.39844865

mean_net.2.weight f4 [128, 128]
00000000: fdd9 833e 3bd2 f43d 0a8f 2bbe b943 b6bd
00000010: 84eb 94bd c161 59bc 91dd b1bd c98c 103e
00000020: 7fb9 1e3d cd72 0a3d 628c c63d 78d8 033e
00000030: 6d85 753e 2d05 dbbd 66b0 48bd f39e 4bbd
00000040: d9d6 003e 8d1e 92bc e930 293c 3fb2 4c3d
00000050: b5e9 4cbe c34a 8c3d 8c77 2e3e f13d 4c3e
00000060: fbf0 95bd 0609 ac3e 95c9 a53e e012 62be
00000070: 2b6a 0c3c 316a 5ebc a086 a5bd 338b 1fbe
00000080: b798 6a3d 5d16 16be a612 063d 6a26 013e
00000090: 94b6 493e 1fe7 b2bc 490c 93bd d4c1 be3d
000000a0: ee59 8fbe e442 893e d685 c9be 12a6 c63d
000000b0: 4657 a13e 77df 473d 8e77 29bd 40f0 11bd
000000c0: 0be1 9d3d f413 f3be 05f0 28be 88fd f5bd
000000d0: 0f89 223e 2326 813e a1c0 f6bd 8f56 e9bd
000000e0: 8185 a5bd f8d7 3bbc d980 ee3d 2067 2e3d
000000f0: d400 5a3e 20fc b83d c5cc 88bd b536 37be
00000100: 7ab8 ffbd 0d7d ea3c e8c4 9f3e 8a27 aabd
00000110: e5a7 903d 17ad a23e 69da 1ebf f2cc c43c
00000120: fe5f a73d 8e6f 443e d2b9 f83d 5ea4 0f3d
00000130: 4f50 ffbd d2b7 2cbe cc8a 903d 77c0 abbe
00000140: a522 a9be b3e2 86bd 1e68 383e 6bf8 643e
00000150: 1373 58be 1d74 9b3d 1a24 fe3e 82a6 9b3c
00000160: 98bb 913d 0831 a6bd 573c 68be d362 9d3d
00000170: bd05 503d cb0c b2be 920c d13e 84fb 053e
00000180: 36ac c03d 2624 333e 66d6 b5bd caf4 913d
00000190: d41a 18bc 6bda c53e e0d3 dd3d c50f 13bd
000001a0: def6 f9bd f624 973d b62c 2b3e f4b4 6e3e
000001b0: d97b 1abe 1f3d 30bc befe 973d 1484 b5bc
000001c0: 6c31 2dbe df5c 90be c4c1 a0bc de0c 23be
000001d0: 2856 f93e 77f6 32be a2c6 16be df74 04bf
000001e0: 1a3a b43a a2d5 2cbe c94a bcbc 2d1c bc3d
000001f0: 4b85 8c3e 659c 943e 647f ba3d 0050 583d
00000200: 3349 673e 8acc f93c 7565 a7be c95a 343d
00000210: 99f2 21bd e481 e9bd fbea 55bc c8e1 853e
00000220: 8516 8a3d 6fa6 823d 9b76 913e bb54 773d
00000230: d262 d0bd e059 93be 184b a03c 4456 033e
00000240: 29d5 803e e034 413d c3a5 36be 5355 75bd
00000250: 0877 ec3d d4a9 1cbd 2adf 9c3e 9669 f3bd
00000260: 31eb 883e b76e d7bd c708 4d3d ae50 fdbd
00000270: 9990 2d3d 9bb3 04be 379a 033e 332f f9bd
00000280: c7de 4a3e 5d06 94bc 891a ffbd fe04 3bbd
00000290: 649e 7dbe f00a 0abe 9ec1 afbd 9c7f a0be
000002a0: 9f2f 40be 64f5 4e3e 7625 4cbe 723b 1abd
000002b0: aac4 503e 4302 3d3e ffd6 d1bd b4db a23e
000002c0: f4b1 da3c 56e7 0a3e be9a d7bd 1db6 fc3b
000002d0: 272f 9e3d 5ce4 a73d dc8c 9cbd fc88 31be
000002e0: 3228 58bd 1dfd 8e3e 573a e6bd 89a6 16bb
000002f0: caf9 d9bd eedd 5c3b a476 1cbc 5f96 adbe
00000300: 3f0c 8cbd d2ca 233c dcbe ce3d 00db 8ebc
00000310: 6609 783e 86f8 a83e 5274 29be 00f2 31bd
00000320: 1e63 0fbe 3a65 a33d 11c9 e03d 754f 5cbd
00000330: c672 71bd cc23 2c3e ad59 543e 2cbf 6ebd
00000340: 01b9 953e 9e8b f3bd cf19 59be b0e2 fe3d
00000350: 22bc e6bd 407c c43b 6993 aebd f461 1c3c
00000360: 02a8 50be b9dc 563e 499b 75bb d57a 473d
00000370: aea4 0bbe 74c5 8d3c 8402 003e 11f1 8d3d
00000380: c91c 38be 0645 fb3d 8564 353e 0048 103e
00000390: 7eff bf3d 2b42 2f3d 2c26 6c3d 7a69 f6bb
000003a0: 21cf 4fbc 3b00 3fbe 1e2e fabc ddf5 6d3e
000003b0: 24e7 403e d5b2 8ebd 8712 8c3d 5479 283d
000003c0: 2127 c93d c67f bf3d b5ef e4bd 80ff d13d
000003d0: 4284 01be 73f7 3abe ccce e43c 4aab a8be
000003e0: 81b1 0b3c f944 9ebe 5137 a53c e710 993e
000003f0: 7895 ab3d f399 7a3d ee6d 09bc 6995 9b3e
0.2575225 0.11954161 -0.16753784 -0.08899636 -0.072714835 -0.013267935 -0.086848386 0.14116205
0.03875112 0.03380089 0.09694745 0.12875545 0.23976679 -0.106943466 -0.04899635 -0.049712133
0.12581958 -0.017836833 0.0103266025 0.049974676 -0.20011027 0.06850197 0.17037791 0.19945504
-0.07321354 0.33600634 0.32380357 -0.22077513 0.008570234 -0.013575123 -0.08082318 -0.15580444
0.057274546 -0.14656968 0.03273263 0.1261231 0.19698554 -0.021838723 -0.071800776 0.093143135
-0.27998298 0.26808846 -0.3935992 0.09699644 0.31511897 0.048797097 -0.04137378 -0.03562951
0.07708939 -0.4747616 -0.1649781 -0.12011248 0.15872596 0.25224409 -0.1204846 -0.11393463
-0.080821045 -0.011465065 0.116456695 0.042578816 0.21289378 0.09032464 -0.06679682 -0.17891963
-0.12486358 0.028624082 0.31204915 -0.08308323 0.07063273 0.31772682 -0.6205202 0.024023507
0.08172606 0.1918318 0.121448174 0.035068862 -0.124664895 -0.16866997 0.070577234 -0.33545277
-0.33034244 -0.06586208 0.18008468 0.22360389 -0.21137647 0.07590506 0.49636918 0.019000296
0.07115859 -0.08114821 -0.22679268 0.07684865 0.050786722 -0.34775385 0.40829903 0.13084227
0.09407847 0.17494258 -0.08878784 0.07126768 -0.00928374 0.38643202 0.108314276 -0.03590371
-0.12205289 0.073800966 0.16716275 0.23311216 -0.15086307 -0.01075676 0.07421635 -0.022157706
-0.16913384 -0.28195855 -0.019623645 -0.15922877 0.48698545 -0.17476831 -0.1472421 -0.5174083
0.0013750226 -0.1687837 -0.02298488 0.091850616 0.27445444 0.2902557 0.09106329 0.05281067
0.22586517 0.03049304 -0.32694593 0.044031892 -0.039538 -0.11401728 -0.013056512 0.2614882
0.067425765 0.06379401 0.284108 0.06038354 -0.101750985 -0.28779507 0.019567057 0.12825876
0.25162628 0.047169566 -0.1783667 -0.059895825 0.11546141 -0.0382479 0.3063901 -0.11885373
0.26741937 -0.10519164 0.0500572 -0.12368904 0.042374227 -0.12959139 0.12851797 -0.12167206
0.19811545 -0.01806944 -0.12456233 -0.045659058 -0.24767452 -0.13480735 -0.085818514 -0.31347358
-0.18768166 0.20210797 -0.19936165 -0.037654348 0.20387521 0.18457894 -0.102460854 0.31808245
0.026696183 0.1356481 -0.105275616 0.0077121393 0.07723837 0.08197853 -0.07644054 -0.17337412
-0.05277271 0.27927485 -0.11241596 -0.0022987446 -0.106433466 0.0033701616 -0.0095497705 -0.33903787
-0.06838273 0.009997087 0.10094997 -0.017438412 0.24222335 0.33002108 -0.16548279 -0.04344368
-0.14002654 0.07978292 0.109758504 -0.053786714 -0.058947347 0.1681053 0.20737334 -0.058287784
0.2924271 -0.11891864 -0.21201251 0.12445581 -0.11266352 0.005996257 -0.0852421 0.009544838
-0.2037659 0.20982637 -0.003747659 0.048701126 -0.13637039 0.017306067 0.1250096 0.069307454
-0.1797973 0.122690246 0.17714126 0.14089966 0.09374903 0.042787712 0.05765359 -0.007519898
-0.012683661 -0.18652432 -0.030539569 0.2323832 0.18838173 -0.06967703 0.06839471 0.041131333
0.09821916 0.09350543 -0.11178533 0.10253811 -0.12648109 -0.18258457 0.02793064 -0.32943183
0.008526207 -0.30911997 0.020167978 0.29895708 0.08378118 0.061181974 -0.008388026 0.30387428

mean_net.2.bias f4 [128]
00000000: b93c af3c 35b3 133d bec5 033c 5af6 c53d
00000010: 0a5a 10bd e17a cd3c 9d16 4f3d 959c f5bc
00000020: 1085 623d eabe 433b a539 7e3d a04a 7dbd
00000030: 20c2 00be c6c8 243e c750 ac3d c441 e2bd
00000040: 506e 4cbd f7f9 f2bc db5b e83d 6b41 dabd
00000050: f4ed a1bd fd7b 90bc f945 b43a d304 c0bd
00000060: 96b9 df3d 39ab b6bd 17ee c03d 1762 04be
00000070: e697 20be 0e8f 3dbe a71d 863d 9e5a 673c
00000080: 45ca 313e 4e2f 4ebd b3e6 3f3e 2db8 c1bc
00000090: 53da de3c 7121 77bd 79d1 e4bc 5c8e debc
000000a0: a6ff ac3c 0e78 afbd c822 1f3e 9ead 48bd
000000b0: 76e4 f9bd d34e fc3c 588e 903d a4df 263e
000000c0: 7004 e43d 52da 06bd 3759 e1bd 08d0 91bd
000000d0: dbe2 dfbc b626 bdbb 90c3 223e 24ad 483e
000000e0: 3825 7dbd b350 823d 2945 51bd e400 4abe
000000f0: c53f 09be b74c afbc 8d34 50bd f624 2f3c
00000100: 6e72 f3bc 654f a53d 7830 9e3d 1fb3 45bc
00000110: af28 64bd 7c0f 5dbc fd92 dc3d 3eb5 1bbe
00000120: 3b0e f5bb 84e6 18bd b297 793e 20d7 e93d
00000130: dc59 673e 2247 5bbc bf14 963d 5f35 c63d
00000140: 4e15 403d 9518 16bc 7d73 173e cf1f 07be
00000150: d73e 823d 06c1 643e b672 a1bd e272 2c3e
00000160: ba2c b23d b015 483d fdc2 f0bd d787 b5bd
00000170: 45f6 55bc 2e5b dbbd 3d56 07be 9031 0e3e
00000180: 18ba 253d 1d61 40bd fb33 373d b1fe 883d
00000190: 32f4 023d e61b dcbc 9f9e 1c3e aaeb 6fbd
000001a0: dbd3 d7bd 082c c8bd c579 0d3e 2e32 35bc
000001b0: 120a 073e cfc7 513c 0cb6 0dbe 1c86 d03c
000001c0: d1b7 57bd e3c6 2d3d a724 1e3e a452 b4bc
000001d0: bb27 df3d fc67 8f3d 44b9 813e 70cf 9fbd
000001e0: 8f2a a1bd 7e5d debd 0c5f b33d f4b8 183e
000001f0: 12c1 263d 240e 773d bf2e 953d 6723 55bb
0.02139126 0.036059577 0.008042751 0.096661285 -0.035242118 0.025083007 0.050558675 -0.02998189
0.05530268 0.0029868432 0.062066693 -0.061838746 -0.12574053 0.16092214 0.084138446 -0.110477
-0.04990989 -0.029660208 0.11345645 -0.10657009 -0.07906714 -0.017637247 0.0013753764 -0.0937592
0.109240696 -0.08919377 0.09420412 -0.12928043 -0.15682945 -0.18511602 0.065486245 0.014120726
0.17362316 -0.050338082 0.18740349 -0.023647392 0.027203714 -0.060334627 -0.027931916 -0.027167492
0.021117996 -0.085678205 0.15540612 -0.0489937 -0.122017786 0.030799305 0.070584 0.1629625
0.11133659 -0.03292305 -0.110033445 -0.07119757 -0.027329853 -0.005772437 0.15894914 0.19597298
-0.061803073 0.063630484 -0.051091347 -0.19726902 -0.13403232 -0.021398885 -0.050831366 0.0106899645
-0.02971765 0.08071784 0.077240884 -0.012066632 -0.05570286 -0.013492461 0.10770223 -0.15205857
-0.007478503 -0.03732921 0.24374273 0.11417985 0.22592872 -0.013383659 0.07328176 0.096781485
0.046895318 -0.009161134 0.14790149 -0.13195728 0.06359642 0.22339258 -0.078832075 0.168407
0.08699937 0.048848808 -0.11755941 -0.088638 -0.0130592035 -0.107107505 -0.13216491 0.13886094
0.040460676 -0.046967614 0.044727307 0.066892035 0.031971164 -0.026868772 0.15294884 -0.058574356
-0.10538455 -0.09774023 0.13815983 -0.011059327 0.13187435 0.012803986 -0.13838977 0.025454573
-0.052665535 0.042426 0.1544367 -0.022012062 0.1089625 0.07002255 0.2533666 -0.078032374
-0.078694455 -0.10857676 0.08758363 0.14914304 0.04071147 0.06031622 0.07284307 -0.0032522322

mean_net.4.weight f4 [4, 128]
00000000: 7805 a93d cc75 0bbe 7670 1ebe 9e89 293e
00000010: 7484 b53c b33a 0dbe 28f7 193e 6eaf b03e
00000020: bb34 e9bd 0342 9c3e 7436 dcbc d721 8b3d
00000030: 3c5a 043c ff10 c7bd 5231 1cbe 1e8e 0c3e
00000040: ccd5 123e 7f9f 6c3e 4d49 09bb fba8 2a3d
00000050: e10f 583e 829b eabc 1590 c23e ec85 8abe
00000060: f6b5 2b3e 716f 73bc 65d5 8bbc 2472 dbb7
00000070: 2418 ba3d ad65 14bd 9dc7 0dbe 1663 f43d
00000080: 1235 c0bd 6f71 06be c5d1 2a3e 03b9 2abe
00000090: f423 8fbe 4c2a 9e3e 3a40 d4bd bb38 afb8
000000a0: 8244 073f 02ab 90bc f114 46bd 4e05 873e
000000b0: de29 553d d0f3 3ebe d044 e33d 3e31 0bbf
000000c0: b4c0 3e3e 3965 8a3d 56b6 19be 4f2d d4bd
000000d0: 948e 713d 12b2 5f3d 9d96 94be 13aa f9bd
000000e0: 3b9a a2bd 47e8 323c d412 a63e 26a8 babe
000000f0: 6330 c8bd 6959 733e 65d9 a63e eaa9 093e
00000100: 1410 913e 9dd1 83be ded9 8c3d 7d6b cc3d
00000110: bfcb 01be 7126 97be 2898 c1be 88d6 7fbd
00000120: 6282 b3bc 4f97 e13e 7895 2c3e 0d25 483d
00000130: 005b 3bbd 7cae acbd e25e ecbd 2f8a ac3d
00000140: d667 623e 3ca5 15ba 1db1 e9be fa84 ca3d
00000150: d8bb 18be 933b 36be e2f5 703e 8274 bf3d
00000160: 61d8 02be 3399 d5bd 962a 933d 3460 813e
00000170: 5f9a 23be 89fc 9e3e 63dc 21be a325 9c3e
00000180: 46ed b1be ff12 b53d 6303 6fba fe76 cebe
00000190: 6be3 ddbc 497b d3be b7f6 c7bd 55f0 e83c
000001a0: e4c9 7bbe 6bfd 913d f341 2e3d 9473 23be
000001b0: 4eaf 943d bb1d 25be 1cc4 383d f3d7 4cbe
000001c0: 5802 65be 0d22 133d f1fe a4be 2128 10be
000001d0: f230 bebd 05b0 8abe d585 dd3d 84ca e93d
000001e0: 42e1 973e 05b5 a7bb f7b3 7c3e 2546 29bd
000001f0: d237 6ebe 46a3 1bbe ee9f f43b 3eec 20be
00000200: 5c72 3e3e 88ac bfbd 7b49 e33e 7e0c a43b
00000210: 1b3b e0bd 29e9 efbc cc9e 5cbe 01ba 1dbd
00000220: 9a36 81be 7b54 ab3d c40a 673e fa21 923c
00000230: d053 083c e4c0 11bf 1547 d1bd 229c a4be
00000240: cc27 6f3a 5e8d afbb a01f 8b3c e5e2 dd3d
00000250: d049 2fbe 13bc 903e dbc0 3c3d 047b abbd
00000260: 8ff5 ed3d fa7a 3dbe b4e2 5f3d b18f 32be
00000270: 2730 36be 063c 1f3e 17e7 00bd f366 69b9
00000280: 7daa 53bd 7c15 91be 75a2 61be c3df 2a3e
00000290: f1fd a9be cd7a 7c3e d0e9 dbbd 022e ab3c
000002a0: f696 5cbc b20a b13e 9a88 8cbd 9da9 8ebd
000002b0: 61c6 2dbd 56ce 3cbd 2cc9 813d d2ed 233e
000002c0: 491f acbd cd17 3c3e d537 a5be 746c a63e
000002d0: aa87 ae3d d8ac 043e 9074 ad3d b37b d2bd
000002e0: f9be b53e 1e00 68bd 5cde 7abe 5fb9 353e
000002f0: 966e 11be a9cd f83e a77a 79be f90b 0dbe
00000300: 4f30 cfbe cdf6 af3e ad7f f5bc 420d c2bb
00000310: f647 563d 4003 893d 973c 3dbc 5a13 ba3d
00000320: 168a 9d3c d57e f33d 1098 acbd b9c9 9abe
00000330: f49b ffbe 6262 77be c386 8d3a 481b c23e
00000340: 5783 6a3d 9c8f 783b 2ddb 043e fdd3 b33e
00000350: de28 603e 66ba babe a058 c73e fb65 d6be
00000360: 6242 8f3c 83fc 053d 1793 5b3d ef63 90bb
00000370: c086 a9be 9d7b 4f3e d105 3cbe 9b87 b9bd
00000380: 6b43 483e 7b47 1e3c 7cc0 f8ba a020 47be
00000390: 3517 cebd ca93 81bc c1a6 c13d 25bf 5a3e
000003a0: a30e 653e 11ec 78bd 356d b33d 1074 94be
000003b0: 636b 53be 3f1d 9fba 67a7 b3be 6502 8a3d
000003c0: b0a7 cf3e 0613 f33c ddb8 a1be 4228 c23e
000003d0: 7a8e fcbd 5a0f b13e 4ed3 453f 9f19 3cbe
000003e0: 3e0d 3dbd d13a b23d 3eb6 373d 8e7a 473d
000003f0: b2ec 0d3e 42b0 32be 1d46 f23b 4725 cbbd
0.08252996 -0.13619155 -0.15472588 0.16556403 0.022157885 -0.13791923 0.15035689 0.34508842
-0.11387011 0.30519113 -0.026881434 0.06793564 0.008078154 -0.097200386 -0.15253189 0.13726088
0.1433937 0.23107718 -0.0020948232 0.04166506 0.21099807 -0.028638605 0.3800055 -0.270553
0.16768631 -0.014858113 -0.017069528 -2.6159985e-05 0.09086636 -0.036229778 -0.13845678 0.11932962
-0.09385122 -0.13129209 0.16681583 -0.16672139 -0.27957118 0.30891645 -0.10363813 -8.355217e-05
0.5283891 -0.017659668 -0.048359815 0.26371235 0.05204188 -0.18647695 0.11097109 -0.5437201
0.18628198 0.06757588 -0.15010962 -0.103602044 0.058973864 0.05461318 -0.2902116 -0.12190642
-0.079395734 0.010919637 0.3243624 -0.36456412 -0.09774854 0.23764576 0.32587734 0.13443723
0.2833258 -0.2574586 0.06877492 0.09981439 -0.12675379 -0.29521516 -0.37811399 -0.062460452
-0.021912757 0.44060752 0.16853893 0.04886346 -0.04574108 -0.08431718 -0.11541535 0.08424794
0.22109923 -0.0005708521 -0.4564294 0.098886445 -0.14915407 -0.17796163 0.23531297 0.09348394
-0.12777855 -0.10429611 0.07185857 0.2526871 -0.15976857 0.31052044 -0.15806727 0.30497465
-0.34751338 0.08841514 -0.0009117631 -0.4032516 -0.02708598 -0.41304997 -0.09763854 0.028434912
-0.24588734 0.07128414 0.042543363 -0.15962058 0.07259999 -0.16124623 0.0451089 -0.20004253
-0.22364175 0.035921145 -0.32225755 -0.14077808 -0.09286679 -0.27087417 0.10816542 0.1141558
0.29664046 -0.0051180148 0.24678026 -0.04132666 -0.23263481 -0.15199003 0.007465354 -0.15715119
0.18598312 -0.093590796 0.44392 0.005006372 -0.109487735 -0.029285984 -0.21544951 -0.038507465
-0.2523697 0.08365723 0.225627 0.017838467 0.008320764 -0.5693495 -0.10218636 -0.3215037
0.00091230567 -0.0053574285 0.016982853 0.10834292 -0.17118001 0.2826849 0.04608236 -0.08373073
0.11619102 -0.18503943 0.05465956 -0.17437626 -0.17791806 0.15550241 -0.031470384 -0.00022258963
-0.051676262 -0.28336704 -0.22034629 0.16686921 -0.33201554 0.2465622 -0.107379556 0.020895962
-0.013463726 0.34578472 -0.06861992 -0.06965945 -0.042425517 -0.046095215 0.063371986 0.1600869
-0.08404405 0.18368454 -0.3226916 0.32504618 0.085219696 0.1295656 0.08469498 -0.102775
0.35497263 -0.056640737 -0.24498886 0.17746495 -0.14202341 0.48594406 -0.24363194 -0.13774098
-0.40466544 0.34367982 -0.029968107 -0.0059219906 0.05231472 0.06690073 -0.01155009 0.09085722
0.019230884 0.11889426 -0.08427441 -0.30232027 -0.4992367 -0.24158624 0.0010797608 0.3791144
0.05725416 0.0037927395 0.12974234 0.35122672 0.2189059 -0.36470336 0.38934803 -0.4187468
0.017487708 0.032711517 0.053607073 -0.0044064443 -0.3311062 0.20261998 -0.18361594 -0.09059068
0.19556968 0.009660597 -0.0018978263 -0.19446039 -0.1006302 -0.015817542 0.09455634 0.21361978
0.22368865 -0.060772005 0.08761064 -0.289948 -0.20646434 -0.0012139453 -0.35088655 0.06738738
0.40557623 0.029672157 -0.31586352 0.3792134 -0.12331863 0.34582025 0.7727555 -0.18369149
-0.046155207 0.087026246 0.044851534 0.04870086 0.13859823 -0.1745005 0.007393612 -0.099192195

mean_net.4.bias f4 [4]
00000000: 1519 67bd 5986 92bd 65bd 13bc 7604 9a3d
-0.056420404 -0.07154531 -0.009017323 0.07520382
