src/rl/model/actor_model18-08-2024_13-06-17/540.pt (torch, 82671 bytes, 7 tensors)

logstd f4 [4]
00000000: c442 08c0 caed f0bf 349f eebf b36a 00c0
-2.129075 -1.8822567 -1.8642335 -2.0065124

mean_net.0.weight f4 [128, 23]
00000000: abdd 333f 7674 683f 800b 6bbd 4398 c73e
00000010: 2552 b43f a6c4 45be 2807 5c3d 00f1 b13e
00000020: 7e7c b4bf eb75 813c 3230 c53a 52cb 593e
00000030: 0630 a3bd 82a9 2f3f 3c5d d73d bb0a 42be
00000040: 059c c9bd cf52 cc3f 9023 07c0 1602 933d
00000050: 6532 7d3f 7200 adbf 7a38 393f 67cc c23e
00000060: 6bfd d13e 9a06 58bd b22b 1f3f 3da6 6a3f
00000070: 9886 ad3e 371f 24be 2e5f 07bf 2723 6340
00000080: 664b 7f3e 9de4 003f e787 2a3f b790 6fbc
00000090: ccd2 3dbe bc2c f3bd 1328 973e b948 f5bd
000000a0: 4686 18be 6097 7dbf 8bf9 623e 17e8 3c3e
000000b0: 31ce e23e ba47 85bc d837 b03e 0f45 d13d
000000c0: 40b8 87bc 6e2c e1be e4bb 22be 341e 8a3e
000000d0: b41b 1abf 3a91 803e 7bb4 e1bf 79ee aebe
000000e0: f388 023f 97fe a9be 9bed 24bf 663c 543e
000000f0: 29c5 443e 8613 88bd 1b42 3fbd c396 13bf
00000100: d847 023f bc2c d93d 2877 b63e b232 133f
00000110: d822 b1bf 38f2 373f a908 513e 4f7d 92bd
00000120: 2e3e dbbc cec3 f13e 147b 823e da06 b5be
00000130: 80f2 10be e424 18bf 7419 06bf 40a2 3c3c
00000140: 5ccf ac3e ec48 c63f d7f5 18be b996 07be
00000150: 29f1 6d3e 4301 703e e896 2dc0 342c 0bc0
00000160: d0a0 b63c 79a5 2fbe 8c77 cbbe 9de3 2e3b
00000170: c6c4 073f cb9b 563e 5f04 d93d 3c51 543f
00000180: af89 3d3f 521b e83d 03f8 43bf 6e3e b8bc
00000190: f2f9 ce3f 9e40 f23e f2e8 a33e b0c7 dfbd
000001a0: 0d29 b73f b7de 8f3d 7132 ac3e 0e8e 5c3e
000001b0: d4be 51be 14a5 3340 5a79 e13f 98e1 c03e
000001c0: 350a 01be 79a8 b63d 1ec4 753f a1b5 613f
000001d0: 1755 2bbf 676b 1fbe 0a2f b33f ff5e 3abf
000001e0: 7f92 4f3e fc5a 33bf 626b ebbf b1cf 49bf
000001f0: 5868 b1bf 11d4 ab3e 54fd 933e 8a21 c33f
00000200: 4d93 03bd 3767 78be 1c2f 09bd e342 4cbe
00000210: 1e56 a7bf c0e8 67be 2234 c6bc 3de1 fa3c
00000220: 94b5 78be c83d 9c3d 1c48 cebe d169 fdbe
00000230: aa23 4c3f a218 e4be 54d1 bcbe bbf8 fb3d
00000240: 28dc 183f ecba a5be dd8e 2b3f b9c1 013e
00000250: 98b5 0fbd 8c16 c9be 172d 683f 07fe d83e
00000260: 587a 3a3c 68dd 5dba d290 6c3e 6da9 37c0
00000270: b0ed 1fc0 de21 223e 3163 833e bfd5 aebe
00000280: 8ea2 a23f e026 c03f 8e8a 94bf fb96 933e
00000290: 6369 da3e bd4a 71bf 97ed 0e3e e0f7 193e
000002a0: ca81 8d3d 77fa 503e 8973 d83d 1fd3 e4be
000002b0: 553b 21bf 5b10 763d 87b2 0bbe d4ed 943e
000002c0: 1470 263e 0ca3 05be aa92 6340 2f8f 63c0
000002d0: 3cda 5abe e3e4 c4bd 8367 8f3c a106 55bf
000002e0: a04b cdbf b5e8 963d 923a b13e 05b1 bbbf
000002f0: be62 993e 12ac de3d bd43 86bf 2907 7abf
00000300: 2d85 c83d 36af 0a3f 5310 e4be 3f43 393e
00000310: ccc4 4e3e 808c efbd 0bd5 b5b9 bd7d 823e
00000320: 2222 633d 0e34 26bf 3204 33c0 226a 14bd
00000330: 6fff 183e 61b3 bd3e db1e 66bf dcef a33e
00000340: 1f41 b3be 3bc7 2bbe c02b 493e 7574 59bf
00000350: bd9b 1c3e edf1 913f 3210 f4bf 2b6f 8fbf
00000360: 5d14 953e 0289 013f 5d35 89bd 38df 5bbf
00000370: 0ace 18be 0b7d 083e e8b0 8e3e e7ca 89bc
00000380: b7d4 81bf 0c1c 83bf ebf1 303e 716b 51be
00000390: a8a3 ecbe 4b65 1dbf f25c 11bf 3d51 bfbe
000003a0: e46e 043c 828e 26bf dce1 7dbf 498e 933e
000003b0: e5cc 323f 8edc 1040 5314 99bf 710b 753e
000003c0: 1e07 f03e a490 813f 99f9 2e3f a825 d93d
000003d0: 9bff acbd e479 063e 94c8 46bd 6405 c8bf
000003e0: 10bc 69ba 8461 d1bd 8ad9 5e3e c664 fc3e
000003f0: c3c1 e0bd de24 ecbe d27a a93e 3734 cfbe
0.70260113 0.90802705 -0.057384014 0.38983354 1.4087569 -0.19313297 0.053717762 0.3475418
-1.4100492 0.015803298 0.001504427 0.21268967 -0.07968144 0.68618023 0.1051583 -0.18949406
-0.098442115 1.5962771 -2.1115456 0.07178132 0.9890502 -1.3515761 0.723518 0.38046572
0.41013655 -0.05274067 0.6217605 0.9165991 0.3389175 -0.16027533 -0.5287961 3.5490205
0.24931106 0.50348836 0.6661362 -0.014621905 -0.18537444 -0.11873767 0.29522762 -0.11976761
-0.14894971 -0.99059105 0.22165506 0.1844791 0.44297937 -0.016269553 0.34417605 0.1021825
-0.01656735 -0.4397921 -0.15891987 0.26976168 -0.6019852 0.251108 -1.7633203 -0.34166315
0.5099022 -0.3320205 -0.6442506 0.20726165 0.19215836 -0.06644349 -0.046693902 -0.5765192
0.50890875 0.106042355 0.35637784 0.5749923 -1.3838758 0.7185397 0.2041346 -0.07152807
-0.026763048 0.472197 0.25484526 -0.3535679 -0.14155006 -0.5943129 -0.5238259 0.011513293
0.33751953 1.5491004 -0.1493753 -0.1324109 0.23236527 0.23437981 -2.7123356 -2.174573
0.022293478 -0.17152967 -0.39739645 0.002668596 0.5303463 0.20957868 0.10596537 0.82936454
0.74038213 0.11333336 -0.7655031 -0.022490706 1.6170027 0.47314924 0.3201366 -0.10926759
1.4309403 0.07024901 0.33632234 0.21538565 -0.20482951 2.8069506 1.7615159 0.37672114
-0.1260155 0.08918852 0.96002376 0.8816777 -0.6692671 -0.15568314 1.399873 -0.728012
0.20270728 -0.70060706 -1.8392146 -0.78832537 -1.3859968 0.3356023 0.28904212 1.524461
-0.0321229 -0.24258123 -0.033492193 -0.1994739 -1.3073156 -0.22647381 -0.02419478 0.03062498
-0.24288017 0.07628971 -0.4028939 -0.49494794 0.7974192 -0.44550043 -0.36878455 0.12303301
0.5971093 -0.32369173 0.6701487 0.12671556 -0.03508529 -0.39275014 0.906938 0.42381307
0.011381708 -0.0008463473 0.2310212 -2.869716 -2.4988823 0.15833232 0.25661615 -0.3414745
1.2705858 1.5011864 -1.1604784 0.28826126 0.4265853 -0.94254667 0.13957821 0.15035963
0.06909521 0.20408045 0.105689116 -0.44692323 -0.6298116 0.06007419 -0.13642322 0.29087698
0.16253692 -0.13050479 3.5558267 -3.5556142 -0.21372312 -0.09613969 0.017505413 -0.8321324
-1.6038704 0.07368604 0.34614998 -1.4663397 0.29958147 0.108726636 -1.0489422 -0.97667176
0.09791026 0.541736 -0.44543704 0.18092059 0.2019226 -0.1169672 -0.0003468174 0.25486556
0.055452473 -0.6492318 -2.797131 -0.03623403 0.1494119 0.37050918 -0.8989083 0.32018936
-0.3501062 -0.16775219 0.19645596 -0.84943324 0.15293784 1.1401955 -1.9067442 -1.1205801
0.29117098 0.5059968 -0.06699631 -0.8588748 -0.14922348 0.1332895 0.27869344 -0.016820384
-1.014304 -1.0242934 0.17279784 -0.20451142 -0.4621861 -0.61482686 -0.5678245 -0.37366667
0.008083079 -0.650612 -0.9917276 0.28819492 0.69843894 2.2634616 -1.1959327 0.23930146
0.4688043 1.0122266 0.68349606 0.106028855 -0.084471904 0.13132435 -0.04853113 -1.5626645
-0.0008916268 -0.10223678 0.21762672 0.49295634 -0.10974457 -0.46121877 0.33101517 -0.40469524

mean_net.0.bias f4 [128]
00000000: 4667 83be f2f2 2f3e c88d 133d 89f1 47be
00000010: eacd d13d 23e1 71be 22cd 873e 2168 f4bd
00000020: 4f14 88be aaef 253d 5e65 95bd 9412 9d3c
00000030: dc1d 7abe ae2c 91bc fbcb 163e 9e3e 9fbd
00000040: 54cf 4dbd 766e 61bd 939b 3f3e 0f6e bfbd
00000050: 2526 1b3e 2768 ac3d 09ba 883d 61ff 713d
00000060: 6fa2 b9bd 4c53 14be 2010 1d3e 3ff7 813e
00000070: 90ee 333e 7d89 f8bd df0d ddbd 0583 e6bc
00000080: ea3e a7be 2a0f 5a3e 1b2d 403e cb01 883e
00000090: ebdb 0bbe b721 9f3e eccb 333e 8c44 63be
000000a0: 179f 543e 9f98 5ebe 7ada 793d a8ab 22be
000000b0: d6b1 373e 645e 2d3e 33b2 aebd 7efb 6f3c
000000c0: e48d 07be 9e81 d73d 4700 8dbd 61b8 0bbe
000000d0: 34a8 ec3d 411f 59bc 5c09 023e 7dd4 053e
000000e0: 2ab2 a9bd 6973 7bbe ab87 de3d 4e38 063e
000000f0: 6fc4 0c3e 487c 7ebd 13f5 233e 3bcc b8bd
00000100: 8eaf 833e c2fe 563e 90b4 eebd db9b d7bc
00000110: d92b f73d 29c0 42be 7c58 b8bd 2dbd 123e
00000120: 16d1 6b3e 19f9 853e 62f8 2dbd b074 a5bc
00000130: 00e1 343d 283a f7bd 9a0e 25be af92 5b3d
00000140: 80e3 80bd 60df 5ebe 288b 443e b1ec 7e3d
00000150: 00ba e33d 3009 9b3e 6df0 ae3d f81d 8bbd
00000160: cb79 d9bd 1c93 aabe 88fb c4bd a4e9 b93d
00000170: 5ae4 643e 2058 c73d 6bc9 33be ec24 873e
00000180: b9a1 21be 99ab 7c3d 8346 3d3e 9ed4 483e
00000190: 6794 483e 4a77 9a3e 75ad ad3c d438 f3bd
000001a0: 8065 2c3e b026 303e a7a3 3dbc 0ca1 1abe
000001b0: 5ec3 d6be 721c 02be 8299 523e 0552 c43d
000001c0: 6316 19be a48d 84bd 4e28 4d3e 6c57 873e
000001d0: 8907 b83d 001d edbd 816c e1bd 07aa 0f3d
000001e0: e12e a23c aaa3 3f3e 6eb6 1bbe d59d cebc
000001f0: 95c0 8abe e0a8 563e ce54 bebd f331 d3be
-0.2566473 0.1718252 0.036023885 -0.19525732 0.10244353 -0.23621039 0.2652369 -0.119339235
-0.26577994 0.040511765 -0.07294725 0.019173898 -0.24425453 -0.0177215 0.1472625 -0.07775615
-0.05024655 -0.055036984 0.1871169 -0.09347164 0.1515127 0.08418303 0.066761084 0.05908144
-0.09064185 -0.144849 0.15338182 0.25383946 0.17571473 -0.12135599 -0.10793661 -0.028138647
-0.32665187 0.21294847 0.18767206 0.26563868 -0.13658111 0.3108041 0.17558259 -0.22194117
0.20763813 -0.21737908 0.06099937 -0.15885794 0.17938933 0.16930538 -0.085300826 0.014647363
-0.1323772 0.105227694 -0.068848185 -0.13644554 0.1155552 -0.01325208 0.12698883 0.13069339
-0.08285935 -0.24555744 0.1086572 0.13107416 0.13746808 -0.062130243 0.16011457 -0.09023329
0.25719875 0.2099562 -0.11655533 -0.026319435 0.1206891 -0.19018616 -0.09001252 0.14329977
0.23028979 0.2616661 -0.042473204 -0.020197242 0.04415989 -0.12071639 -0.16118851 0.053606685
-0.06293392 -0.21764898 0.19193709 0.062237445 0.11119461 0.30280447 0.08541951 -0.067928255
-0.10618933 -0.3331536 -0.09618288 0.090777665 0.22352734 0.097336054 -0.17557304 0.26395357
-0.15784349 0.061687086 0.1848393 0.19612357 0.19587861 0.30169135 0.021200875 -0.118760735
0.16835594 0.17202258 -0.011574662 -0.15100497 -0.41945928 -0.12706164 0.20566371 0.095859565
-0.14949946 -0.06472328 0.20034906 0.26433885 0.08985812 -0.11577797 -0.110070236 0.03507426
0.019797744 0.18714777 -0.1520631 -0.025221745 -0.27100053 0.20962858 -0.09293519 -0.41249046

mean_net.2.weight f4 [128, 128]
00000000: ccf6 853e 9ea2 0d3e ebd1 c4bd 6f96 1fbe
00000010: 43b0 d3bd 2030 81bc 5f86 59be 052e 1dbe
00000020: 2b8d 2ebd 9066 fd3d 89b0 313e 5d32 223e
00000030: 8375 af3e 8c3a e83c 2c70 84bc 1536 54be
00000040: 1833 fb3d 769e a13d a072 203e 94d2 c93d
00000050: 2abc a5be 2784 023e 23f1 ea3d dcf1 ae3e
00000060: a2ed 3abe f865 ba3e cac7 953e 3ba4 3abe
00000070: 003c 36bd f90f 953d a848 15be c3e4 8dbe
00000080: cd84 643e ab92 68bd cbdb 413c ab8b 233e
00000090: 2c2f 373e 6dfd cfbc 2a5b 69be 10dc 363e
000000a0: 87a5 a0be 66bb a33e d32a d4be 1f03 313e
000000b0: 2c68 a53e 6bbc 833d 8af1 7fbe d8b7 54be
000000c0: 428e e63e d4f8 0bbf c7c9 02be aa22 b1bd
000000d0: 6a55 153e 97dd 6b3e a9f0 95be 3063 45bd
000000e0: 0fd7 fabc a06b 313e 4ced eb3d b418 3c3e
000000f0: d792 153e 776c 2c3e c1d7 9f3c 46c8 ebbc
00000100: 0402 debd 5f57 27bd 504e 8f3e 7298 0dbe
00000110: 7e68 863e 17f5 de3e 3225 6ebf f98d 18bb
00000120: 593c 933d 5cca 443e bc44 713e e919 183e
00000130: e097 b1bd 039f 83bd e259 f23c b02e bbbe
00000140: 5bfe b1be 2132 b1bd c593 603e ec7d 0b3e
00000150: 6300 b8bd 5349 283e a3e7 fa3e 8b3c 3c3d
00000160: 61bc b33d 6b23 bebc ae1e c4be aa29 4a3d
00000170: a865 7bbc 6c1f fbbe 6e97 d73e 67ca 9dbd
00000180: dc4a 3f3e aac7 213e 3a61 72be dfd5 7e3c
00000190: e3fa f4bd 2b88 bc3e dc23 653c 3464 c1bd
000001a0: 7e9a 99bb 842f 503e 83bf 0a3e d477 233e
000001b0: 47e8 3bbe 8352 3bbe 9415 e83c 81df f8bd
000001c0: add3 ca3b 6dd3 3bbe a281 5a3d f4a7 53be
000001d0: 25e3 163f fc06 22be ca92 1cbe 266b eabe
000001e0: 5b11 023f 79ea f13c abc7 26be e3cd b13d
000001f0: 002d 9f3e 8b3a 7a3e ed03 fbbd 77b1 433d
00000200: f7a3 ef3e cb19 513d 705c c8be 16a4 1b3e
00000210: 1e79 47bd 05a2 12be db6a 12bb 3574 533e
00000220: dd28 6f3d 2d82 533d b500 bd3e 3535 c13d
00000230: 7c0c f7bd 7da6 dcbe b1af 9b3d 4daf 0b3e
00000240: e2f7 8d3e ea3d 8b3d 14d3 773d e671 92bd
00000250: 2898 bf3d 0d9d 243e 8955 e83e cdc3 c1bd
00000260: 145e 9d3e faa5 d4bd 7115 a03b 0085 54be
00000270: f58b ea3d 17a5 88be 6ea0 893d 1400 8abe
00000280: e22b 4b3e 68a9 65bd 206e 0fbe aa9d 50bc
00000290: a17e b3be d594 9fbd 558a 0abe c796 99be
000002a0: 2ffb 3fbe 57a6 553e aa74 51be 261c 6abd
000002b0: 76b4 803e d6a6 443e 7445 16be e64b c63e
000002c0: 9d5e a9be 2bbc a83d 418d ffbd 4d16 d9bc
000002d0: f70d 033e e22a a63d 8747 68bd e693 edbd
000002e0: b347 e73d b692 d23e 4971 f1bd fce0 a4bd
000002f0: a0d3 dcbd 5a77 ff3c d845 5a3d 4e46 80be
00000300: 59f1 e4bd 8787 34bc 197f ca3d 16bc bb3a
00000310: b227 c13e 7152 c13e ff50 c5be 0574 c6bd
00000320: ea19 59be 5e3b d23c d7d7 283e 1127 d0bc
00000330: 8241 cbbd e1d3 e43e 6e86 8f3e f2e2 84bd
00000340: be9c ba3e 0398 e3bd c515 1bbe 950f 013e
00000350: 0442 5fbe 1713 00be 921b 90be 4f25 623d
00000360: 7dfe 79be db18 563e fd1f 8d3d 0c45 dc3d
00000370: d82c 0cbe a8b2 4bbd 67e0 2d3e 0d16 643d
00000380: 9df3 6cbe 1907 493e 1a07 323e 3c9e 163e
00000390: 4b80 ce3d 52d2 013e a746 7ebd b600 0dbb
000003a0: 8f11 233d 0ca3 88be 977f 243d 7bcd a83e
000003b0: 27cb a23e 1ee1 d6bd c616 f23d b5a7 783d
000003c0: 5a38 3e3e 9a1b 2e3c 1f8b 3bbe cef9 773c
000003d0: 3e3c a8bd 2914 83be f6de d2bc 9414 2dbf
000003e0: 8763 163e 23a6 3ebe 6816 9d3d 414d 9c3e
000003f0: ca2f 3f3d ac7e 97bb 5128 87be 4395 cc3e
0.26164854 0.13831565 -0.09610351 -0.1558473 -0.10336354 -0.015770018 -0.21242665 -0.15349586
-0.042615097 0.12373078 0.17352499 0.15839525 0.34269342 0.02834823 -0.016166769 -0.20723756
0.12265605 0.07891552 0.15668726 0.09854618 -0.3237012 0.12745725 0.114717744 0.341689
-0.18254712 0.3640592 0.2925399 -0.18226711 -0.044490814 0.07278437 -0.14578497 -0.27713594
0.22316284 -0.0567805 0.011832188 0.15971248 0.17889088 -0.025389398 -0.22788683 0.17857385
-0.31376287 0.3197891 -0.41438922 0.17286347 0.3230604 0.06432422 -0.24994484 -0.20773256
0.4503041 -0.54676557 -0.12772284 -0.0864919 0.14583364 0.23033749 -0.29285172 -0.048190296
-0.030620126 0.17326212 0.1151987 0.18368798 0.14606796 0.16838251 0.01951206 -0.028782021
-0.10840228 -0.040854808 0.27989435 -0.13827685 0.26251596 0.43546364 -0.93025506 -0.0023277982
0.07189245 0.19217819 0.23561376 0.14853634 -0.08671546 -0.064268135 0.029583875 -0.36559057
-0.3476437 -0.086521395 0.2193137 0.13622254 -0.08984449 0.16434221 0.4900485 0.045956176
0.08776165 -0.023210248 -0.38304657 0.04935614 -0.015344061 -0.4904741 0.4210772 -0.07704621
0.186809 0.15798822 -0.23669901 0.0155539205 -0.11961915 0.36822638 0.0139856 -0.0944294
-0.0046876064 0.20330626 0.13549618 0.1596368 -0.18350326 -0.18293194 0.028330602 -0.12152005
0.0061897845 -0.18342371 0.053346284 -0.20669538 0.58940345 -0.15822977 -0.1529037 -0.45784873
0.5080773 0.02953075 -0.16287105 0.08681848 0.3108902 0.24436395 -0.12256608 0.047776666
0.46804783 0.05104999 -0.39133024 0.15199313 -0.04869949 -0.14319618 -0.0022341523 0.20649798
0.05838858 0.051637817 0.36914602 0.094339766 -0.12062928 -0.4309577 0.0760187 0.1364109
0.27728182 0.067989185 0.060504034 -0.07150631 0.093551934 0.16075535 0.45377758 -0.09461174
0.30735838 -0.1038322 0.0048853685 -0.2075386 0.11452476 -0.26688454 0.06720053 -0.26953185
0.19840959 -0.05606976 -0.14006853 -0.012732903 -0.35057548 -0.07792059 -0.13529332 -0.29997846
-0.18748163 0.20864235 -0.2045466 -0.05715575 0.2513768 0.19204268 -0.14674932 0.3872978
-0.33079997 0.08239015 -0.12478114 -0.026499892 0.12798296 0.08113648 -0.05670884 -0.11600475
0.112929724 0.41127557 -0.117891856 -0.08050725 -0.10782552 0.031184841 0.053289264 -0.25053638
-0.11178846 -0.01101864 0.09887523 0.0014323022 0.37725598 0.3775821 -0.38538358 -0.09690098
-0.21201292 0.025663074 0.16488586 -0.025409253 -0.09924604 0.446929 0.2803225 -0.06488599
0.3644771 -0.11112978 -0.15145023 0.126036 -0.21802527 -0.12507282 -0.28146034 0.05521136
-0.24413486 0.20907919 0.06890867 0.10755357 -0.13688982 -0.049730927 0.16980134 0.05568509
-0.23139806 0.19631614 0.17385522 0.14708799 0.10083064 0.12677887 -0.062079098 -0.0021515316
0.039811667 -0.26686895 0.04016074 0.3296927 0.31795618 -0.104921564 0.1182075 0.060706813
0.18576184 0.010626698 -0.18314789 0.015135242 -0.08214615 -0.25601318 -0.025741082 -0.67609525
0.14686404 -0.18618064 0.07670289 0.3052769 0.046676435 -0.0046232548 -0.26397946 0.39957628

mean_net.2.bias f4 [128]
00000000: 5b4a 6bbd 6ce3 bc3c 47f5 22bd aa0e e63d
00000010: a8f9 97bd d791 e3ba 1431 db3c 582d eabc
00000020: 6487 c23d 429a fbbc a68d a03d 3240 2bbd
00000030: 122d 14be 0815 593e 7299 dd3d 00af 0abe
00000040: f50a 91bd b90c 813c 4e58 153e 57fb 13be
00000050: 6343 9dbd d6c3 08bd 3e7e e0bc 7b96 17be
00000060: ccbd 153e 1513 c5bd bfed c43d 0b37 f4bd
00000070: 66bd 7abe 1567 3ebe 3eb7 443d f4a3 aa3c
00000080: 3dc0 5d3e d2d1 7abd 7163 153e 6222 86bc
00000090: e34c 2b3d 5176 8abd 37f0 b8bd 6a93 adbc
000000a0: 0059 1dbd bee7 ebbd b26e 363e 9a86 69bd
000000b0: d78f 1fbe 493f c53c 11b7 f63c bf83 423e
000000c0: fa95 063e ccb5 33bd 9395 e9bd ac8c d5bd
000000d0: 4dfb 44bd de30 de3c b4a2 413e 2cc5 5b3e
000000e0: 6c8b 01be a840 dc3d 59a3 69bd dbe1 75be
000000f0: 24dc d5bd 59cf c53c 1dc9 32bd b266 2b3c
00000100: 47ca debc ff0b 983d 09a3 b53d de47 d9b9
00000110: eb1a 85bd eeb5 8839 6a02 023e 82cb 20be
00000120: 393f f5bc 1af2 a0bd f087 a43e 99b3 0b3e
00000130: 7e0a 493e 4dbe adbc 901c 663d 805f 863d
00000140: 7f9a c5bc 1a84 b93b 54ac 923d 8075 18be
00000150: 26ad 863d 77b3 893e dcfb d5bd f4dc 413e
00000160: c733 bb3d 8a56 b13c e4cd 0ebe bb19 babd
00000170: b4ea 68bd d0cd 0cbe 29f6 01be 2c08 203e
00000180: a665 cabc 8e7c ddbc adf9 393d 6b27 b23d
00000190: 98c5 823d 57b0 33bd a0c5 4f3e e781 b0bd
000001a0: 14c1 f7bd 8199 a1bd 05bb 403e 3cb0 96bc
000001b0: 53cd 113e 5ef2 c03b 6a5c 31be faff 7d3b
000001c0: 2f35 4abd b22b 2d3d 26d8 0e3e 6f78 e2bc
000001d0: a168 743e 7193 cd3d 3fc7 933e c7f7 adbd
000001e0: 0877 9ebd 2456 fcbd daf6 cc3d 3c4c 4c3e
000001f0: 2697 003d 0f3d 8f3d d834 bb3d c29a babc
-0.057443958 0.023057662 -0.039784696 0.11233266 -0.07420665 -0.0017362189 0.0267568 -0.028586075
0.0949848 -0.030713204 0.07839517 -0.04180927 -0.14470318 0.21199429 0.10820283 -0.1354332
-0.07082168 0.015753137 0.14584467 -0.14451347 -0.076788686 -0.03338989 -0.027403947 -0.14803497
0.14623183 -0.0962278 0.09615659 -0.11924561 -0.24486312 -0.1859401 0.048026316 0.020830132
0.21655364 -0.061235256 0.14588715 -0.016373817 0.04182137 -0.06760848 -0.09030192 -0.021188457
-0.038414955 -0.11518811 0.17815664 -0.05701313 -0.15582214 0.024078028 0.03011659 0.1899557
0.13143149 -0.043874547 -0.11405482 -0.10427222 -0.04809122 0.027122911 0.18909723 0.21461934
-0.12650841 0.1075452 -0.057040546 -0.24011938 -0.10442379 0.024146723 -0.043648828 0.010461496
-0.027196063 0.07424163 0.08868987 -0.0004144301 -0.06499275 0.0002607549 0.12696233 -0.15702632
-0.029937373 -0.07858677 0.32134962 0.1364273 0.19632909 -0.021208907 0.056179583 0.06561184
-0.024121521 0.0056614997 0.07161775 -0.14888573 0.06575994 0.26894733 -0.10448429 0.18931943
0.09140735 0.02164771 -0.13945729 -0.09086939 -0.056864455 -0.13750386 -0.12691559 0.15628117
-0.024706673 -0.027036931 0.045404125 0.08698925 0.06385344 -0.043869343 0.20290232 -0.08618527
-0.120973736 -0.07890607 0.18821342 -0.018394582 0.14238481 0.0058882674 -0.1732041 0.003875731
-0.049367126 0.042278 0.13949642 -0.027645318 0.23868038 0.10037888 0.2886295 -0.084945254
-0.07737547 -0.123211175 0.10008021 0.19950956 0.031394146 0.06994068 0.091409385 -0.022778872

mean_net.4.weight f4 [4, 128]
00000000: b3cc a73d fe4c 4fbd 14d5 0ebe fc4d 123e
00000010: 5e74 8bbc ea95 9ebd 0654 a13d 1594 5d3e
00000020: eb22 cbbd d3bc 933e 3618 edbc cb65 bf3d
00000030: e5f1 a5bb 05cb c4bd 7d74 f8bd e1a6 f53d
00000040: 95d4 9f3d 3e74 723e 979b 893c ce16 273d
00000050: 5b8b 3c3e bfc7 64bd 8a53 ca3e 5536 9dbe
00000060: e8c7 3d3e 261b 80bb b628 acb9 8701 1abc
00000070: 45cc b13d 286c 7ebd 4f9d 71bb 008a c43d
00000080: 85a2 cdbd 23df 8fbd baab 973d 3649 e6bd
00000090: 50cd 88be bcdd 7e3e 7a26 65bd 9bbc 0bbc
000000a0: dcfb 083f 0628 ba3b 28e0 1fbc faac 833e
000000b0: e6ca 7a3c 5dbd dfbd 0683 353d 5797 07bf
000000c0: 0ca5 1b3e e629 943d 6fac 19be 3eab 11bd
000000d0: 85d5 963d 9ebf d03d b246 82be 2cda a8bd
000000e0: 91ca f4bd bd30 1b3d dfca 8a3e 06ad babe
000000f0: 0440 91bd ab32 5e3e c352 903e 484e ea3d
00000100: 417d c03d 3423 73be 09f5 f13c 9077 863d
00000110: 68bd 70bd 3e37 1ebe 2ea6 afbe 4de7 e5bb
00000120: d8a4 b4ba be11 dc3e 8faf 2d3e 0996 8a3d
00000130: 659a b5bd 9b96 0fbd d859 89bd d518 5b3d
00000140: 4e96 633e 7ff1 02bb f5cb 06bf 54f3 a93d
00000150: d91f 07be 896f 11be b58a 493e 7b32 953d
00000160: 51e3 bbbc 55ac 14be 9efb a23d 49c9 3c3e
00000170: d8f2 1cbe 557b 813e 9361 f8bd 5835 8a3e
00000180: 15f2 b1be 9927 1f3d 148e 213b 03d9 b0be
00000190: beb2 61bc c5b3 b4be 4d03 89bd 5f60 353c
000001a0: 7237 6abe 4157 793d 7083 903d afb7 09be
000001b0: b449 d83c a27c 76bd a4c7 0f3d 23db 10be
000001c0: d4fd 81be f075 8e3d 5b3f 8ebe 0e31 e3bd
000001d0: da65 7cbd 7d27 81be 1a1d 0f3d ac54 b03d
000001e0: 12f0 953e a2ff 18bb 88ca 893e d41d e8bb
000001f0: 67cc 18be 888b b1bd f174 0f3b 2329 e6bd
00000200: 2f47 473e 7936 a2bd 561b cd3e b7d6 ac3c
00000210: 5e32 1abe 7a9c cfbc 9b96 67be f46f a3bc
00000220: 5c00 78be 6cd6 8a3b 903f 343e 0d03 4d3d
00000230: 9e82 8bbc 57dc 08bf 3991 40bc ce81 9cbe
00000240: 973d 86bc b49c b63c d9c4 203d 731d 073e
00000250: dc84 3fbe 5fd0 bf3e 6910 513c a144 5c3b
00000260: 179f f93d f618 2cbe 0613 8cbd 8345 3cbe
00000270: 0cab 5abe b952 ed3d 4e0b dcbb 8b31 11bd
00000280: cae4 95bb a28d a3be dc4c 3bbe 520c 003e
00000290: 4492 8cbe 6344 813e 9979 8abd 56cf 8e3d
000002a0: 9d34 18bc 2046 973e 5668 e2bd ae3d 5abe
000002b0: bc64 1ebd ae14 ecbd bc69 c43d 538a 393e
000002c0: c485 6cbd 1688 6f3e d52c 9cbe df2f a03e
000002d0: 9faa 3f3c 37a7 883e a4d2 d83d 8db6 b0bd
000002e0: 67e9 fe3e 9d82 debd 109d 37be eb7c 1a3e
000002f0: 0707 42be 938b bb3e f513 65be 0cfd aebd
00000300: 285a 9bbe 0ec7 a33e c421 e73c 9d69 1cbe
00000310: b3d2 443d 2516 f43c 1a4d f4bc 906e 093e
00000320: 56bb 06bc 6aee 123e f555 ffbd 975a 7abe
00000330: dcde f2be 996d 79be ed62 4ebd f5a5 b33e
00000340: a0d7 223c eb7a 21bc 98f1 b33d 99bf b23e
00000350: 8430 913e 4b8d b5be a957 be3e 5ef1 debe
00000360: f15c 533d 09db 873d a87c 123d abf4 1b3c
00000370: 66cf dabe c8e3 453e 90e5 33be 1781 85bd
00000380: 7450 593e d5a7 953c 6924 253d b800 4ebe
00000390: 12c4 c1bd 1195 ebbc a43b e13d 02bc 753e
000003a0: aca7 5e3e 67c9 96bd a6ce b53d fa10 7dbe
000003b0: 08b4 5cbe 43de 6c3d b05a c0be 1f38 f83d
000003c0: d253 dd3e 4201 fa3c b159 a7be 2262 ac3e
000003d0: 434f ecbd 2ce3 9e3e 5440 473f 9bb8 55be
000003e0: f557 0abe c4f0 953d 72a2 f33c deb5 dd3d
000003f0: 6142 f73d fcec 56be 0e8e 7c3b bbd4 efbd
0.0819334 -0.050610535 -0.1394847 0.14287561 -0.017023262 -0.077434376 0.07877354 0.2163852
-0.099187694 0.28855 -0.028942209 0.09345587 -0.0050642365 -0.096090354 -0.121315934 0.1199472
0.07804219 0.23677155 0.016797824 0.040793233 0.18412535 -0.055854555 0.3951686 -0.30705515
0.1853329 -0.0039094863 -0.00032836728 -0.009399778 0.086815394 -0.062114865 -0.0036867445 0.09596634
-0.10040764 -0.07024982 0.07405801 -0.11244433 -0.2671914 0.24889272 -0.055944897 -0.008528854
0.53509307 0.0056810407 -0.009758033 0.25717908 0.015307164 -0.1092479 0.044314407 -0.529653
0.15199679 0.07234554 -0.15007184 -0.0355637 0.07364944 0.10192798 -0.2544456 -0.08244738
-0.11952699 0.037888277 0.27107903 -0.3646013 -0.07092288 0.21699016 0.28188142 0.11440712
0.0939889 -0.23743898 0.029535787 0.065657735 -0.058774382 -0.1545076 -0.34306473 -0.0070160986
-0.0013782037 0.42982286 0.16961502 0.06766898 -0.08867339 -0.035055738 -0.067065895 0.05349048
0.22225305 -0.0019980369 -0.52654964 0.08298364 -0.13195743 -0.14202704 0.19681819 0.07285019
-0.022935541 -0.14518864 0.079581484 0.18436159 -0.15327013 0.25289407 -0.12127986 0.26993823
-0.34755006 0.038856123 0.0024651336 -0.34540567 -0.013775526 -0.35293403 -0.06690083 0.01107034
-0.22872713 0.060874227 0.0705632 -0.13448976 0.026402332 -0.060177453 0.0351025 -0.14146094
-0.25388968 0.069560885 -0.2778271 -0.11093341 -0.06162057 -0.2522544 0.034939863 0.086099
0.29284722 -0.0023345728 0.26912332 -0.007083634 -0.14921723 -0.086691916 0.002188977 -0.11238315
0.19460748 -0.07920546 0.40059918 0.021098478 -0.15058276 -0.025343169 -0.22616045 -0.019950844
-0.24218887 0.004236987 0.17602372 0.050051738 -0.017030057 -0.5346121 -0.011753374 -0.30567783
-0.01638679 0.022291519 0.03925023 0.13194828 -0.18703026 0.37463662 0.01276026 0.0033610242
0.12188547 -0.16806397 -0.06839566 -0.18385892 -0.21354312 0.11588044 -0.006715215 -0.03544764
-0.004574393 -0.31943995 -0.18291038 0.125047 -0.27455342 0.25247487 -0.06761474 0.0697314
-0.009289888 0.2954569 -0.11055057 -0.21312591 -0.038670287 -0.11527382 0.0959048 0.18119173
-0.057744756 0.23391756 -0.30502954 0.31286523 0.011698394 0.26690075 0.105870515 -0.08628569
0.49787447 -0.10864756 -0.17931008 0.15086715 -0.18947993 0.36629924 -0.22370894 -0.085443586
-0.3034222 0.31987804 0.028214343 -0.15274663 0.0480525 0.029795716 -0.029821921 0.13421082
-0.008223375 0.1434876 -0.12467567 -0.2444862 -0.47435653 -0.24358214 -0.05038731 0.35087553
0.009939104 -0.009855966 0.08786315 0.34911802 0.28357327 -0.3545936 0.37176254 -0.43543524
0.051602308 0.066335745 0.035763413 0.009518783 -0.42736357 0.19325173 -0.1756804 -0.065187626
0.21222097 0.018268505 0.040317927 -0.20117462 -0.094612256 -0.028757604 0.10997704 0.239975
0.21743649 -0.07362633 0.08877306 -0.24713507 -0.21553051 0.057829153 -0.3756919 0.12120079
0.43228012 0.030518178 -0.32685617 0.3366862 -0.115385555 0.31032693 0.7783253 -0.20871203
-0.13510115 0.07321313 0.029740546 0.10825704 0.12073208 -0.2098884 0.003853682 -0.11710497

mean_net.4.bias f4 [4]
00000000: 26c3 68bd 19ad a7bd fdbf 28bd af17 d13d
-0.056826733 -0.08187313 -0.04119872 0.102095954
