src/rl/model/critic_model25-09-2024_16-12-21/320.pt (torch, 23095 bytes, 5 tensors)

critic_network.0.weight f4 [64, 15]
-0.25605527 1.3728735 1.2612692 -1.557691 -0.7011692 0.055210657 -0.004128786 -0.764322
-0.8805147 0.12041164 0.013866361 -0.041454066 -0.34124935 -0.4219961 0.22372645 0.7017099
0.2826832 0.16602121 -1.1843554 0.65339905 0.006188986 0.00041234953 -0.039171714 0.041803107
-0.12728345 0.03340538 0.045137595 0.012483466 0.10104508 -0.83736646 0.23946355 -0.10988003
-2.162414 2.0412016 0.111853786 -0.0037418862 0.011402938 0.2837441 -0.04417925 0.3869184
-0.26774314 0.22230513 -0.2080743 -0.803131 -0.65812445 -0.43758634 0.5504468 0.7229711
0.15668178 0.10977027 -0.014520646 -0.0051291543 1.3315363 0.25238517 -0.2847635 0.59900177
-0.16958562 0.44332862 -1.2296962 0.25926578 -1.0739129 0.2352122 0.52540016 -1.0895128
-0.41536677 0.038261496 0.0031488135 -1.6946776 -0.16713607 0.065535836 0.03939325 -0.113827124
-0.31093028 -1.5938735 0.48541468 -0.051147826 -0.23713894 -0.1022255 -1.1795459 0.4146675
0.0609659 -0.004407543 0.23665766 -0.056065243 -0.2373009 -0.096546784 -0.18649852 -0.30019253
-1.2449545 -0.4962853 -0.73546433 -0.3873865 -5.0844226 -1.8064361 -0.15731603 -0.043183398
0.0024795055 -0.40318185 0.14758389 -0.01950923 0.3626697 0.07183531 -1.6062553 -1.768754
0.51325625 0.43515706 -0.17723526 0.19887012 0.10494517 0.07018855 0.0087297745 0.00809029
-2.4243107 0.18465959 0.03242413 0.7597586 -0.12748796 -0.020107063 -0.14200646 -0.15672408
0.04335215 -0.37385687 -2.0070665 0.39695278 -0.6759085 -0.0063635316 0.009603206 0.10364718
-0.1610347 -0.083455406 -0.14705777 -0.12709102 -1.9570785 0.16015717 -1.145326 0.84349936
-0.1092269 0.61665416 -0.5641322 0.20471703 0.001739692 0.0008707473 -0.7945753 -0.029499946
-0.08226101 0.01672543 -0.026133962 0.9119219 -1.2206407 -1.1556748 0.46239406 -0.2774853
-0.048292276 1.2373359 -0.7752821 0.012572051 0.0057270634 -0.02565463 -0.14290018 -0.14072958
-0.099363424 -0.08085701 -0.26106656 -0.31097025 -0.027255548 -2.7002106 -0.25250077 -0.0132018
0.5952017 -0.17858978 -0.015810363 0.0023032052 0.27251685 -0.088349566 -0.22544008 -0.032383505
-0.13482238 -0.15804404 -0.2837184 2.2474966 -1.9348204 -0.11029531 6.1465445 -1.9584348
-0.0003360018 0.0072558806 0.012883246 -0.25643533 -0.061580922 -0.041837063 -0.09769878 0.009350819
1.2574419 0.5812876 1.5183437 -0.24817991 -0.014755729 0.34296566 0.1389584 0.048995603
-0.11228293 -3.1259916 -0.22171988 -0.08770063 0.16599193 -0.50272226 0.17213242 -0.10286809
0.3487825 -0.37456247 0.5880379 0.05202971 -0.8139471 0.5305942 0.8770031 0.004920196
-0.009609309 0.2510279 0.03954535 -0.34689492 0.11424883 -0.21665575 0.15918146 -0.5648662
-0.0852641 0.4502157 -0.72209543 0.37721667 1.0267638 -0.5665762 -0.005525956 0.0037051402
0.036410995 0.014903672 -0.019724103 0.09119793 -0.0061590876 -0.24492253 0.81704897 -0.26286873
-0.45242497 0.41417593 0.0003785524 -0.7371861 0.48875353 0.024304211 0.004431802 -0.41293237
0.143641 0.055476017 0.1208977 0.25373772 0.6886943 0.3137157 0.32173875 2.1564307
00000000: ad19 83be 52ba af3f 4571 a13f 6b62 c7bf
00000010: d37f 33bf 9224 623d c44a 87bb 9baa 43bf
00000020: 6969 61bf 619a f63d bc2f 633c bdcb 29bd
00000030: 3cb8 aebe df0f d8be 8c18 653e 43a3 333f
00000040: dabb 903e 7701 2a3e f598 97bf 2945 273f
00000050: facc ca3b 9e30 d839 8572 20bd bc39 2b3d
00000060: 9856 02be 14d4 083d 33e2 383d 7487 4c3c
00000070: b9f0 ce3d a65d 56bf ef35 753e c808 e1bd
00000080: fe64 0ac0 0ca3 0240 9913 e53d 6f3a 75bb
00000090: 63d3 3a3c e846 913e 4df5 34bd 2b1a c63e
000000a0: a115 89be f5a3 633e 6e11 55be fe99 4dbf
000000b0: d87a 28bf 510b e0be 15ea 0c3f a214 393f
000000c0: 3071 203e 3ccf e03d 01e8 6dbc 7712 a8bb
000000d0: c86f aa3f a138 813e 85cc 91be 2e58 193f
000000e0: daa7 2dbe f8fb e23e af66 9dbf 7cbe 843e
000000f0: fa75 89bf 78db 703e a080 063f 2875 8bbf
00000100: f4aa d4be 16b8 1c3d 535c 4e3b 32eb d8bf
00000110: b825 2bbe a737 863d d15a 213d 321e e9bd
00000120: 4132 9fbe 0c04 ccbf 4688 f83e 6280 51bd
00000130: 8dd4 72be 9a5b d1bd 5cfb 96bf 4c4f d43e
00000140: 61b7 793d 276d 90bb 6356 723e aba4 65bd
00000150: 02ff 72be 52ba c5bd 78f9 3ebe d6b2 99be
00000160: ab5a 9fbf 1b19 febe 6447 3cbf 8657 c6be
00000170: 97b3 a2c0 4c39 e7bf 7417 21be 13e1 30bd
00000180: 337f 223b da6d cebe 3b20 173e d2d1 9fbc
00000190: d8af b93e 641e 933d c699 cdbf 8866 e2bf
000001a0: c364 033f e8cc de3e 297d 35be 9ca4 4b3e
000001b0: 7eed d63d 04bf 8f3d 5407 0f3c 238d 043c
000001c0: e827 1bc0 6717 3d3e 2acf 043d 8a7f 423f
000001d0: 348c 02be 91b7 a4bc 246a 11be 477c 20be
000001e0: 0692 313d 2b6a bfbe c773 00c0 653d cb3e
000001f0: 5708 2dbf 2c85 d0bb c456 1d3c f944 d43d
00000200: 48e6 24be abea aabd 5096 16be 2624 02be
00000210: 8c81 fabf 3e00 243e 0b9a 92bf 93ef 573f
00000220: 5ab2 dfbd 0cdd 1d3f f86a 10bf 57a1 513e
00000230: 6006 e43a dd42 643a 4969 4bbf dfa9 f1bc
00000240: 7678 a8bd c503 893c e416 d6bc b773 693f
00000250: f43d 9cbf 27ed 93bf eabe ec3e 8e12 8ebe
00000260: 1fce 45bd 0661 9e3f e378 46bf 01fb 4d3c
00000270: 17aa bb3b a929 d2bc 6d54 12be 6a1b 10be
00000280: 0d7f cbbd 5c98 a5bd 84aa 85be 7e37 9fbe
00000290: 0747 dfbc 40d0 2cc0 c847 81be 5d4c 58bc
000002a0: 235f 183f 3de0 36be bc84 81bc 5ff1 163b
000002b0: 5487 8b3e 9ef0 b4bd c4d9 66be 91a4 04bd
000002c0: e10e 0abe 4cd6 21be 8a43 91be fcd6 0f40
000002d0: 32a8 f7bf 82e2 e1bd 7eb0 c440 fead fabf
000002e0: 6629 b0b9 bdc2 ed3b 4014 533c 7e4b 83be
000002f0: 473c 7cbd 575d 2bbd 4c16 c8bd 2d34 193c
00000300: dbf3 a03f 44cf 143f 1659 c23f e022 7ebe
00000310: 03c2 71bc 3299 af3e 1c4b 0e3e 9daf 483d
00000320: 98f4 e5bd 3f10 48c0 890a 63be 639c b3bd
00000330: caf9 293e 68b2 00bf 7b43 303e 81ac d2bd
00000340: 9f93 b23e a7c6 bfbe a789 163f 1b1d 553d
00000350: d65e 50bf 06d5 073f 4683 603f 9839 a13b
00000360: 5d70 1dbc bb86 803e 4efa 213d 369c b1be
00000370: 4afb e93d 01db 5dbe 7700 233e 129b 10bf
00000380: f29e aebd ac82 e63e 3fdb 38bf 8b22 c13e
00000390: ff6c 833f 230b 11bf 1413 b5bb f0d1 723b
000003a0: b223 153d 882e 743c 7194 a1bc fbc5 ba3d
000003b0: 2cd2 c9bb f9cc 7abe 1f2a 513f bb96 86be
000003c0: 3fa4 e7be de0e d43e 7178 c639 3ab8 3cbf
000003d0: e73d fa3e a019 c73c a638 913b df6b d3be
000003e0: a016 133e d23a 633d 3799 f73d e9e9 813e
000003f0: 454e 303f 589f a03e f1ba a43e f602 0a40

critic_network.0.bias f4 [64]
1.3793613 -0.42816353 0.66882104 -1.2079438 0.3445455 0.88459265 0.9241587 0.14024624
-0.9376589 -0.9259177 -0.3025574 0.3430967 0.7300682 -0.102599435 -0.211568 -0.7001175
0.71706724 0.106703304 0.49206582 -0.74172896 1.0926425 -0.40657082 0.09940551 0.92776275
0.008295936 -0.5760949 0.4385999 0.10886898 -0.54231316 1.5114064 -0.47149184 -0.08630795
-0.73685426 -0.56337553 -0.370106 -0.25161177 0.45764333 1.1522613 0.5373492 -0.4304699
0.5852587 -0.4658623 -1.2491477 -1.102945 0.25258377 0.40843484 -0.9533861 0.8559458
0.5216184 -0.49935082 -0.36853272 0.9278585 -0.2581664 -0.9046566 0.338381 0.037211657
0.07749984 0.103993416 -0.006573438 0.5961273 -0.42629763 -1.2278782 -1.0796888 0.6228648
00000000: e98e b03f 4038 dbbe db37 2b3f e79d 9abf
00000010: 4568 b03e aa74 623f aa95 6c3f b69c 0f3e
00000020: 6a0a 70bf f108 6dbf cee8 9abe 5faa af3e
00000030: c0e5 3a3f a71f d2bd 48a5 58be e73a 33bf
00000040: b891 373f 4387 da3d 0df0 fb3e f3e1 3dbf
00000050: b6db 8b3f 0d2a d0be 1e95 cb3d dc81 6d3f
00000060: adeb 073c f57a 13bf 2b90 e03e b3f6 de3d
00000070: 09d5 0abf c475 c13f 6167 f1be 39c2 b0bd
00000080: 7ba2 3cbf 6139 10bf 897e bdbe 42d3 80be
00000090: 3a50 ea3e 4c7d 933f b88f 093f 8d66 dcbe
000000a0: 84d3 153f 8185 eebe 12e4 9fbf 4d2d 8dbf
000000b0: a952 813e 5f1e d13e 1d11 74bf 441f 5b3f
000000c0: c988 053f e9aa ffbe 52b0 bcbe 2288 6d3f
000000d0: 632e 84be 9397 67bf 4640 ad3e 406b 183d
000000e0: 3cb8 9e3d 80fa d43d ff65 d7bb cc9b 183f
000000f0: af43 dabe 1d2b 9dbf 3e33 8abf 1174 1f3f

critic_network.2.weight f4 [64, 64]
0.3562808 0.25059783 -0.2838353 -0.27984127 -0.10392636 -0.48551515 0.40779024 0.68803936
0.003070046 0.5882425 0.3211652 0.16460657 0.18797906 0.17467943 0.15518901 0.096867435
0.47599617 -0.36035687 -0.015346485 -0.2614832 0.24025932 -0.0058947033 -0.6876712 0.37515968
-0.04889962 0.16185558 -0.17212364 -0.02799414 0.20654263 -0.8518809 0.1792631 0.04229025
-0.18961081 0.11581097 0.99431896 -0.10847575 0.09972784 0.1812459 0.67344165 -0.04955353
-0.581145 0.054387383 0.27112937 -0.08880482 -0.40908533 -0.046621364 -0.046359103 0.012254176
0.042054337 -0.23480138 -0.61766565 -0.3949465 0.68401366 -0.31895247 0.36705548 -1.1110272
0.2965564 0.23706214 0.027540654 0.1303669 -0.1487459 0.3166249 0.31911826 -0.123831265
0.36473843 0.49192968 0.26434356 0.053352512 0.45146883 -0.12215284 0.263529 0.20930567
-0.28211176 -1.049587 0.031834465 -0.21878885 0.17280544 -0.07783264 0.04935115 0.087068215
-0.06454552 0.51622164 -0.15270616 -0.40992334 -0.008114974 -4.547909e-05 -0.1875145 0.5501434
0.046876837 -0.07068448 -0.12035727 0.6816902 0.20066692 0.299233 0.039294757 0.031224016
-0.35799223 -0.15928859 -0.6040284 -0.031712774 0.009381058 0.2180394 0.12795153 0.15997842
0.17835847 0.19490036 -0.097438514 -0.27949712 -0.21447326 -0.23392841 -0.06511913 0.45242423
0.21631253 -0.021601634 0.033348124 0.055122618 0.5861606 0.12175076 -0.08332966 -0.55663925
-0.14536871 -0.25558588 -0.02371276 -0.1083856 -0.023318198 -0.56307036 -0.32953107 -0.0131296385
0.0358739 0.023782298 -0.42401934 -0.04950651 0.006836263 -0.21452262 -0.13630788 0.138565
-0.05125609 -0.9165195 0.15152332 0.39812353 -0.08864643 -0.027519545 0.104167305 0.27417082
-0.058203794 -0.34719652 -0.007254835 0.16273996 0.023137124 -0.060769577 0.080118336 -0.41049892
0.17977066 0.034197938 0.018356295 -0.5899657 0.13516496 -0.2598179 -0.077037126 -0.00045591913
0.26984385 0.26646653 -0.02897658 0.06271246 0.00090519426 -0.3226171 -0.3655498 0.16621329
-0.098940745 -0.052931134 0.031333208 -0.10140868 0.06710245 0.024726367 -0.01924681 -0.22202727
-0.27949864 0.0015990982 0.081964284 -0.13670298 0.06508595 -0.15942729 0.07282534 -0.11144278
-0.16920261 0.45692152 0.0053074793 0.08769068 -0.28513265 0.17687848 0.15950333 0.01620863
0.0044507277 0.16626698 0.3178176 0.022527326 0.19572222 0.41843763 0.48883185 0.17562623
-0.3027005 -0.015325086 0.14732717 -0.024571044 0.13857558 -0.29507327 -0.01838173 0.05200903
-0.020810548 -0.24882218 -0.12293021 -0.5187363 -0.12434268 0.17788208 -0.360336 0.5518602
-0.4751629 -0.05012706 -0.16565213 -0.16579284 0.08628143 0.0927149 0.090931006 -0.008051876
-0.1442696 0.033788316 -0.37411353 0.28077894 0.03893371 -0.0634767 0.50418675 -0.0070181284
-0.29041553 -0.2048599 -0.001501027 -0.24260752 -0.1557585 0.0520358 -0.035363805 0.3963403
0.041281495 0.15531899 0.12920985 -0.0035867807 0.5939102 -0.042466596 -0.4009667 -0.48317724
-0.027589483 -0.45356995 0.09995768 -0.029888386 0.11864659 -0.43635657 -0.30413884 -0.21883154
00000000: 706a b63e 5c4e 803e dc52 91be 5b47 8fbe
00000010: 58d7 d4bd 7195 f8be e2c9 d03e 5923 303f
00000020: d332 493b 0f97 163f c46f a43e a08e 283e
00000030: 957d 403e 2adf 323e dee9 1e3e 6f62 c63d
00000040: c5b5 f33e b280 b8be d36f 7bbc 20e1 85be
00000050: 8a06 763e 5b28 c1bb 380b 30bf ee14 c03e
00000060: f84a 48bd 78bd 253e 2e41 30be f753 e5bc
00000070: e97f 533e de14 5abf bf90 373e 8b38 2d3d
00000080: 5629 42be 4d2e ed3d b08b 7e3f 8928 debd
00000090: 1c3e cc3d 8698 393e ac66 2c3f a4f8 4abd
000000a0: ebc5 14bf 4ec5 5e3d 78d1 8a3e 4ddf b5bd
000000b0: a273 d1be 0bf6 3ebd 0be3 3dbd bdc5 483c
000000c0: 2b41 2c3d c66f 70be 561f 1ebf 6d36 cabe
000000d0: 851b 2f3f bd4d a3be b2ee bb3e 2436 8ebf
000000e0: 3ed6 973e 6bc0 723e f09c e13c e77e 053e
000000f0: d850 18be a91c a23e 7863 a33e 3f9b fdbd
00000100: ffbe ba3e 35de fb3e 0a58 873e 2a88 5a3d
00000110: ec26 e73e 452b fabd 46ed 863e 3a54 563e
00000120: f470 90be de58 86bf db64 023d 2f0a 60be
00000130: e9f3 303e b866 9fbd 6e24 4a3d d250 b23d
00000140: 7130 84bd 1a27 043f 015f 1cbe 79e1 d1be
00000150: abf4 04bc cdc0 3eb8 cd03 40be 33d6 0c3f
00000160: ed01 403d 06c3 90bd df7d f6bd 4083 2e3f
00000170: a17b 4d3e 1135 993e 8af3 203d 82c9 ff3c
00000180: c24a b7be 8c1c 23be 9ba1 1abf 41e5 01bd
00000190: 02b3 193c b845 5f3e ba05 033e 62d1 233e
000001a0: 9aa3 363e f693 473e d88d c7bd 3f1a 8fbe
000001b0: e19e 5bbe ee8a 6fbe 2e5d 85bd 26a4 e73e
000001c0: 0881 5d3e e9f5 b0bc 0b98 083d 41c8 613d
000001d0: 9f0e 163f 7658 f93d bea8 aabd e97f 0ebf
000001e0: 89db 14be 27dc 82be 4341 c2bc 45f9 ddbd
000001f0: ce05 bfbc 6125 10bf 4cb8 a8be b21d 57bc
00000200: 83f0 123d 18d3 c23c 1019 d9be 57c7 4abd
00000210: bb02 e03b d1ab 5bbe 4b94 0bbe fce3 0d3e
00000220: e8f1 51bd 06a1 6abf ee28 1b3e d9d6 cb3e
00000230: 428c b5bd ab70 e1bc ab55 d53d 1e60 8c3e
00000240: 1a67 6ebd bec3 b1be f8b9 edbb 4ea5 263e
00000250: 118a bd3c 85e9 78bd 1515 a43d ea2c d2be
00000260: cd15 383e 2313 0c3d f15f 963c fe07 17bf
00000270: af68 0a3e da06 85be a4c5 9dbd 6e08 efb9
00000280: f928 8a3e 4d6e 883e 4b60 edbc 646f 803d
00000290: 8f4a 6d3a 122e a5be 5829 bbbe d133 2a3e
000002a0: 72a1 cabd 51ce 58bd 4057 003d 5baf cfbd
000002b0: 026d 893d f38e ca3c 7cab 9dbc 1e5b 63be
000002c0: 721a 8fbe d598 d13a e4dc a73d defb 0bbe
000002d0: c84b 853d e840 23be 7425 953d 1d3c e4bd
000002e0: 7343 2dbe 9ef1 e93e 5dea ad3b 2c97 b33d
000002f0: e8fc 91be a21f 353e d754 233e f6c7 843c
00000300: 69d7 913b e441 2a3e fdb8 a23e 3a8b b83c
00000310: 686b 483e 753d d63e 2b48 fa3e 5dd7 333e
00000320: 8ffb 9abe 1216 7bbc efdc 163e 3749 c9bc
00000330: c2e6 0d3e d813 97be 4895 96bc 6c07 553d
00000340: e27a aabc 3ecb 7ebe d5c2 fbbd e7cb 04bf
00000350: 60a7 febd b826 363e f67d b8be b646 0d3f
00000360: 8d48 f3be 0852 4dbd b6a0 29be 99c5 29be
00000370: 52b4 b03d 4fe1 bd3d 093a ba3d 04ec 03bc
00000380: 69bb 13be 9e65 0a3d cf8b bfbe 42c2 8f3e
00000390: f478 1f3d 1200 82bd 6212 013f 54f8 e5bb
000003a0: 58b1 94be cbc6 51be 1cbe c4ba 1b6e 78be
000003b0: 287f 1fbe 7e23 553d a3d9 10bd 1eed ca3e
000003c0: c916 293d f10b 1f3e 964f 043e 3210 6bbb
000003d0: 800a 183f 74f1 2dbd 824b cdbe 0263 f7be
000003e0: 5703 e2bc 523a e8be 9db6 cc3d 7dd8 f4bc
000003f0: fcfc f23d 216a dfbe 16b8 9bbe 6015 60be

critic_network.2.bias f4 [64]
0.13223413 -0.07801403 -0.08542993 0.006708505 0.03513419 -0.04301588 -0.110553324 0.43827918
-0.35509434 0.21930274 0.36085784 -0.259204 -0.3777677 0.106207505 -0.01300137 0.00714971
-0.15352271 0.40233803 0.12284357 -0.077086486 0.3695766 -0.34352154 0.08466297 -0.21168809
-0.34129512 -0.5454531 -0.18158385 -0.16509427 -0.21550831 -0.41330293 0.031806186 0.44472936
-0.054066543 -0.032953557 0.21246994 -0.1451689 0.36381906 0.119717486 -0.06694999 0.19271494
-0.41259435 -0.019959781 0.22588253 -0.45624596 -0.25606117 -0.24862106 -0.60454184 0.35720244
-0.021887712 -0.20364915 0.8074781 -0.23179094 0.37688687 0.03881622 -0.0058039967 0.4430118
0.45104203 -0.113032624 0.021274682 -0.3311658 0.4359468 0.29950786 -0.4356028 -0.09631177
00000000: 6268 073e d2c5 9fbd e3f5 aebd 05d3 db3b
00000010: dee8 0f3d 6b31 30bd c869 e2bd 2166 e03e
00000020: edce b5be e690 603e 5cc2 b83e 63b6 84be
00000030: c56a c1be 5283 d93d b303 55bc 1d48 ea3b
00000040: 0f35 1dbe 40ff cd3e 6995 fb3d 85df 9dbd
00000050: 2539 bd3e 0ee2 afbe c763 ad3d c3c4 58be
00000060: 3cbe aebe d0a2 0bbf 1ef1 39be 790e 29be
00000070: 36ae 5cbe 719c d3be 3447 023d 91b3 e33e
00000080: e174 5dbd 4ffa 06bd b891 593e 28a7 14be
00000090: 7e46 ba3e 712e f53d 141d 89bd 1157 453e
000000a0: 913f d3be b282 a3bc c04d 673e 1299 e9be
000000b0: 731a 83be 8596 7ebe 41c3 1abf 3de3 b63e
000000c0: dc4d b3bc 6789 50be e2b6 4e3f 9b5a 6dbe
000000d0: 51f7 c03e c2fd 1e3d 742f bebb 71d2 e23e
000000e0: fbee e63e a67d e7bd 3e48 ae3c 908e a9be
000000f0: 6b34 df3e 1859 993e 5507 dfbe 1b3f c5bd

critic_network.4.weight f4 [1, 64]
-1.9558274 2.66928 -2.4546988 2.5930893 -2.6140714 -2.654724 2.4936075 -2.0735166
2.0883107 -2.0447958 -2.0136762 2.0530403 1.9793917 2.48687 2.6529763 2.5105202
2.7240744 -2.0229723 -2.6619816 2.513638 -2.041577 2.0847976 2.659987 2.0360613
2.0174422 2.0207272 2.676946 2.057047 2.3161497 2.0947387 2.4894228 -2.0496635
2.5795753 -2.453137 -2.027703 2.062733 -2.073414 -2.209399 2.9847586 -2.3829234
2.0532405 2.6176786 -2.1128373 1.9983164 2.1337612 2.0232072 2.0262663 -2.0845141
2.620567 1.8322951 -1.8734466 2.2348592 -2.038703 -2.559586 -2.660484 -2.0073242
-2.0929809 1.7660308 2.7221155 2.007278 -2.0322127 -2.122748 2.066094 -2.6144452
00000000: 8d58 fabf 7cd5 2a40 c919 1dc0 2df5 2540
00000010: f24c 27c0 ffe6 29c0 4497 1f40 7fb4 04c0
00000020: e2a6 0540 efdd 02c0 12e0 00c0 0365 0340
00000030: b55c fd3f e128 1f40 5dca 2940 5dac 2040
00000040: 3c57 2e40 6178 01c0 e85d 2ac0 72df 2040
00000050: 33a9 02c0 536d 0540 3a3d 2a40 d44e 0240
00000060: c61d 0140 9853 0140 1553 2b40 a8a6 0340
00000070: cc3b 1440 3310 0640 b452 1f40 b02d 03c0
00000080: c317 2540 3200 1dc0 e3c5 01c0 d103 0440
00000090: d1b2 04c0 cb66 0dc0 4906 3f40 d181 18c0
000000a0: 4b68 0340 0c88 2740 ba38 07c0 d5c8 ff3f
000000b0: 8b8f 0840 3a7c 0140 59ae 0140 ae68 05c0
000000c0: 5fb7 2740 a588 ea3f 19cd efbf ef07 0f40
000000d0: 1c7a 02c0 42d0 23c0 5f45 2ac0 0078 00c0
000000e0: 66f3 05c0 4c0d e23f 2437 2e40 3e77 0040
000000f0: c60f 02c0 1adb 07c0 e23a 0440 1253 27c0
