src/rl/model/critic_model15-08-2024_20-47-30/150.pt (torch, 82999 bytes, 5 tensors)

critic_network.0.weight f4 [128, 27]
00000000: f8c4 88be da92 72be 3b7c 77bd 49ca 53bf
00000010: 4a61 aabe c066 613e 3a12 033e 6f95 8e3f
00000020: a459 853e be34 e33e be3b a93d d75a e0bd
00000030: a477 ddbf c208 2abc bf85 883d bddf dcbd
00000040: d41e e63d f236 e53f dcca 5bbf 68d8 32bd
00000050: 5b85 f1bd dce1 4f3e 7863 9c3e 2fda 94bd
00000060: 23c4 5dbd cb37 7abd e57f 053e e586 813d
00000070: 9a76 d33d 0ca6 80be bbf4 203e 2137 99be
00000080: 388e 5f3e c9b8 863d 7b4b d7bd 33d3 b0be
00000090: 600b 1b3d 5336 443e 0c81 3bbe d929 d6be
000000a0: 948a c83b 0b4c 85be d6ff 9ebc f18c 35be
000000b0: 3dad 793e 2b1e 0ebf e598 de3d 9301 193d
000000c0: 0e73 c2be 85d8 c73e c502 4abe 78b6 a6bd
000000d0: 80a8 e93d debd 843c 15e8 0b3f 724c 62bf
000000e0: 760c 7abe e705 c8be 9b7b 473f 1a9c c53d
000000f0: 231e 87be 84a8 133f 7cde 743e dba3 283e
00000100: c612 c93e 10ba 83bd 4961 803f 22f7 0b3e
00000110: 171f 8cbb 61bc 33be ec45 b6bc 59ac 473f
00000120: d0d7 173f 9bcc b83d 3b5c 2fbe 003f 83be
00000130: 5d9d 49bf 09ee 8d3e d3d0 253e 073a a33e
00000140: 7c2d 1e3e 9ece e4bc 2427 21bd 5455 11bf
00000150: 809b 6ebd ae08 1c3e c3ec 993e 9f6f 1cbe
00000160: 7c0f a73e f400 2f3e 6192 3cbe efa5 cebc
00000170: 503c 9d3d 2580 0bbf a64e 84be 5435 acbe
00000180: d52f 0bbf d2df fdbe acf6 aebe cd67 c0be
00000190: 7856 91be 0fcc f63d 50a1 9d3d dba4 833e
000001a0: 66e1 00bf 2e77 e7be c614 e4be f6b1 babe
000001b0: d9ec 45bc c71b 25be d352 5dbc b5a9 dd3c
000001c0: 62c9 77bd bedf 973e c44d ac39 91db 20be
000001d0: 059f 20be b74c a9bc 6b0e a4bc 42a7 2cbc
000001e0: 1ab6 3abf ba8c c23c 42d1 b13c fc32 b2bc
000001f0: afbb 1e3e 991a 4cbe 8a19 083e 067b 413e
00000200: 3ac2 9a3e 323d 98bd 3fe1 dd3c a9e0 9d3e
00000210: cf45 203e 7dc9 4a3c c5dd 523e 4e8a 183f
00000220: 60f5 b4be 5b7a 003d 074e 403e 90b8 c33d
00000230: 1fc2 023e 9385 ae3e 5189 803f 0c57 8c3e
00000240: af5d f03e 3dae 3abc 97bd 26be b872 39be
00000250: 201d 3fbd 04e0 8f3d 41a1 d4bd 7e2f 29be
00000260: 670e 8f3e 5914 743e 75df 6ebd ccff 59bc
00000270: b395 ccbd 7cf9 22be 79b3 823e 418c 163e
00000280: 24b6 5c3e 2912 de3d 16a6 393d 1208 793d
00000290: 4860 31bf 18b4 223e 81db 3a3e 53f4 bd3e
000002a0: a6f0 04be 882e 7c3e f47b 0fbd 8f87 d6bd
000002b0: 135f 47be b290 893d d67e 14bf 8d65 abbe
000002c0: ae9f b0be 60e7 b1be d314 e9be 0b02 a03e
000002d0: b82e a63f 12d0 4cbe 1f1c 84bd b3c7 1f3d
000002e0: 4dcb b33c cc7b dbbe 88fb c1be f4ed 1bbf
000002f0: a4f1 1fbf f364 42be f8b2 413e c8ea 003f
00000300: 9ab4 0a3e cb6b b53c bbf7 593e 500f 773e
00000310: 0456 06bf 87ee 993d 3585 a53e 2c6a 16bf
00000320: f88a 4dbf 6a5f 27be 420f 2f3e 5f92 31be
00000330: 4aed b3be 9e1e fcbe a577 503e 40ac 14c0
00000340: 1769 1abe 1c2c bf3f ba6d 39bf f97d 953f
00000350: a02e 66be 0361 4bbe a431 a6be ea99 2ebd
00000360: dc29 5cbd 900c 02be c57d f2bc 4474 45bd
00000370: a239 d13e 3ce6 973e 8d40 19bf 25de 4cbf
00000380: 6220 71bf 3b78 233d 1cd8 ed3d abd5 afbd
00000390: f20a cebe 3f45 11be f529 09bf df1d eabd
000003a0: 9a17 9abd 4452 6d3f ef8b eebe b3e6 b4be
000003b0: b1e6 6abd 4f4e 51be 6ac8 7c3d 2bc0 b7be
000003c0: f046 81be 9a65 2cbe c8fb e6be aaf6 96bd
000003d0: 408b 8bbf 2597 76be e7b9 303e 84d5 4fbf
000003e0: 0287 e03d 28fa 84be 9e87 2e3f 5d45 833e
000003f0: 717f fe3e 16cc a2bd 93da ccbe d761 943e
-0.26712775 -0.23688832 -0.06042121 -0.8273054 -0.3327735 0.22011852 0.12799922 1.1139354
0.26044953 0.44376177 0.08263348 -0.10954826 -1.7302136 -0.010378065 0.06666135 -0.10784862
0.11236349 1.7907393 -0.85856414 -0.043663412 -0.11793014 0.20301002 0.3054464 -0.07268178
-0.05414213 -0.061088365 0.13037069 0.06324557 0.10325356 -0.25126684 0.15718357 -0.29924873
0.21831596 0.06578214 -0.10512444 -0.34536132 0.037852645 0.19161348 -0.18310946 -0.41828802
0.0061200354 -0.2603458 -0.019409101 -0.17729546 0.24382491 -0.5551478 0.10869006 0.037355017
-0.37978405 0.3903238 -0.19727619 -0.08140272 0.11409092 0.016203817 0.54651004 -0.88397896
-0.24418816 -0.39067003 0.7792298 0.09648915 -0.2639018 0.5767901 0.23912996 0.16468756
0.39272135 -0.06431973 1.0029689 0.13668492 -0.004276167 -0.1755233 -0.022250138 0.77997357
0.5931368 0.090234004 -0.17125027 -0.25634003 -0.7875574 0.2772067 0.16192941 0.3188021
0.15447038 -0.027930554 -0.039343968 -0.56770825 -0.058253765 0.15237686 0.30063447 -0.15276955
0.32629 0.17090207 -0.18415214 -0.025225608 0.07677519 -0.5449241 -0.25841254 -0.33634436
-0.5436986 -0.49584824 -0.3417257 -0.37579194 -0.28386283 0.1205064 0.076967835 0.25711712
-0.5034393 -0.45208114 -0.445471 -0.36463898 -0.012080395 -0.16123877 -0.013508516 0.027058462
-0.060494788 0.2966289 0.00032864336 -0.15708758 -0.15685661 -0.020666463 -0.020026406 -0.010537924
-0.72934115 0.023748744 0.021706227 -0.021752827 0.15501283 -0.19932021 0.13290992 0.18894586
0.30226308 -0.07433547 0.027084945 0.30835465 0.1565163 0.01237714 0.20592411 0.59586036
-0.35343456 0.031366687 0.18779765 0.09556687 0.12769364 0.34086284 1.0041906 0.27410161
0.46946475 -0.011394081 -0.1628326 -0.18110168 -0.046658635 0.070251495 -0.10382319 -0.16522023
0.27940676 0.23835887 -0.058318574 -0.013305616 -0.0998949 -0.15915483 0.25527552 0.1470194
0.21553856 0.108433075 0.045324408 0.060798712 -0.6928754 0.15889013 0.18247797 0.37100467
-0.12982425 0.24627125 -0.03503032 -0.104750745 -0.19469862 0.067170516 -0.58006036 -0.33475915
-0.34496826 -0.34746838 -0.455237 0.3125156 1.2983007 -0.20001248 -0.06450676 0.039008807
0.021947527 -0.42867887 -0.37887216 -0.6090996 -0.6247809 -0.18983822 0.18915927 0.5035825
0.13545457 0.022146126 0.21285908 0.24126935 -0.52475 0.075161986 0.3232819 -0.58755755
-0.80290174 -0.16344991 0.17095664 -0.17340992 -0.35141975 -0.4924211 0.20358141 -2.3230133
-0.15079151 1.4935336 -0.72433054 1.1679069 -0.22478724 -0.19861226 -0.32459748 -0.042627253
-0.053750858 -0.12700105 -0.029600987 -0.048206583 0.40864283 0.29667842 -0.5986412 -0.80026466
-0.9419004 0.039909583 0.11613485 -0.08585676 -0.40242726 -0.14186572 -0.53579646 -0.11431479
-0.07524033 0.9270365 -0.46591136 -0.3533226 -0.05734891 -0.20440029 0.061714567 -0.358888
-0.25249434 -0.16835633 -0.4511397 -0.07371266 -1.0901871 -0.24081095 0.17258416 -0.81185174
0.10963251 -0.25972104 0.68175685 0.25638857 0.49706605 -0.079490826 -0.4001051 0.28980896

critic_network.0.bias f4 [128]
00000000: 6c8e f43d a57b efbe f38a 7ebe 1e19 bdbe
00000010: cda0 9fbe cb2c 63be a94e e6be 2573 a0be
00000020: 6e95 debe 2c11 dc3d d877 163f cb92 89be
00000030: bdaf 503e 295d 98be 29d8 223f f983 06be
00000040: 87f5 60be 7ed7 623d bd48 91be d90d 013f
00000050: 4238 993d 33fb 843e 4eb9 833b 50da 2dbc
00000060: 6166 12bd 373c 8b3e d51d af3e 9403 73be
00000070: 62f4 8cbd 3256 963e 7196 4dbe 94d0 e7bd
00000080: c5df 66bd 6a84 963e c68e 863d bac1 173e
00000090: b840 8a3e 36c9 503e 01a1 0d3f efa7 a7bd
000000a0: fd53 463e 5bce a2be fc02 bcbe f409 27bf
000000b0: 254f b5be 2f17 4e3e 8f5a 1a3f 9281 fbbd
000000c0: 01db b53e 2a53 0d3f 6988 30bf 87c4 4fbe
000000d0: 0654 15bf 111e ac3e 529e 5ebc 2da3 0cbf
000000e0: a693 0f3f e90a 273f 5a3d b6bc d64b 77be
000000f0: 4499 283f 4811 06bf 84ab 8a3e cf48 ed3e
00000100: da54 0abe da06 333e d9c6 b0be 013a 11bf
00000110: 270d c83e e461 db3e df10 e73e 9cd6 163e
00000120: 2bc2 c83e 1b51 afbe 6bf6 983e 041a fb3e
00000130: 1690 14be b8e9 813e 5cdf eb3c 3322 d13e
00000140: c679 e9be dae3 df3e cd4c 893e 7103 3cbe
00000150: 4556 1f3f 8874 78bd c86c f63b 4774 35be
00000160: 273f 5a3e 3d90 fcbe b52e 18be d2a3 033e
00000170: 3ee5 853e a8c5 1e3f b658 ca3e e866 21be
00000180: a340 c7be e152 57bd b0f1 05be 6707 04bf
00000190: c06c 1abe cea4 de3e 85b7 ccbe 0273 5b3e
000001a0: 8ddb 053e 26ff 88bd bb52 9d3b 7ee1 bc3e
000001b0: 95f5 d6bc dc4c d4be 5aac a6bc e541 023f
000001c0: e54b 0fbe 466e e73e 1f93 15bf 532f 1d3e
000001d0: 88d3 d23e e6d7 d33e cc03 af3d 8a1b f2be
000001e0: cca9 02be 572a 02be 46ff 163f 8bba 073e
000001f0: 7bc2 11bf fdaa f5bd 7cb3 b13c cca2 c63e
0.11941227 -0.4677402 -0.24857692 -0.36933225 -0.3117737 -0.22185056 -0.44981888 -0.31337848
-0.4347338 0.10745463 0.5877662 -0.26869807 0.20379539 -0.29758576 0.63611084 -0.13136281
-0.21968661 0.05538129 -0.28375807 0.50411755 0.074814335 0.259729 0.004019893 -0.010611132
-0.035742167 0.27194378 0.34202448 -0.23731834 -0.0688255 0.29362637 -0.2007692 -0.1131908
-0.056365747 0.293979 0.065702006 0.14819995 0.270025 0.20389256 0.553238 -0.08186328
0.19367976 -0.31798062 -0.36721027 -0.6524956 -0.35411945 0.20126031 0.6029443 -0.12280573
0.3551865 0.55205023 -0.68958145 -0.20289813 -0.58331335 0.3361669 -0.013587551 -0.54936486
0.5608467 0.6525102 -0.022246052 -0.24150023 0.65858865 -0.5237012 0.2708398 0.4634461
-0.13508931 0.17483082 -0.3452671 -0.5672913 0.39072534 0.42848122 0.4513006 0.14730304
0.39210638 -0.34241566 0.29875502 0.49043286 -0.1450809 0.25373626 0.02879303 0.40846404
-0.45600718 0.43728524 0.26816407 -0.18360688 0.6224101 -0.060658008 0.007520292 -0.17720138
0.21313153 -0.49328795 -0.14861567 0.12855461 0.2615146 0.6202035 0.39520806 -0.15761912
-0.389165 -0.052569274 -0.13080478 -0.51573795 -0.15080547 0.4348511 -0.39983764 0.21430591
0.13072033 -0.06689291 0.004801122 0.36890787 -0.02624015 -0.4146489 -0.020345856 0.508818
-0.13993795 0.4520132 -0.58427614 0.15350084 0.4117701 0.41375655 0.08545646 -0.47286636
-0.12760085 -0.12711464 0.58983266 0.13254754 -0.5693738 -0.11995504 0.02169203 0.3879608

critic_network.2.weight f4 [128, 128]
00000000: d2d4 13bd 4467 2abd fe07 593d 9731 48bd
00000010: 9315 a0bd 7781 11be fd4e 15be 8270 5ebe
00000020: 16ff 43be a223 b03d d5c1 603e 3bad 27be
00000030: d566 8a3d b875 3fbd 6380 b63d 60fc 1ebd
00000040: 0a21 9dbd 5852 60bd 4afa 38be c17b d23d
00000050: c853 2bbc 6f85 0e3e cd0d debd 353d 243d
00000060: 6bec dbbd 9ca7 113d 8a58 193c 53f2 48be
00000070: 0c22 b93d b4c6 353e ccb5 25be a8da 5f3d
00000080: 436e 4f3d c999 8c3d 1fcc adbd 8696 0d3e
00000090: 1cd5 e13b 9fa4 e8bd 1a8c d73d b6af 373d
000000a0: 16e2 303e d68a 1cbe aed1 79be 509d 0abe
000000b0: a66b 97bd 4406 57be b4f6 0b3e 5c42 53bd
000000c0: ff92 3e3e 49ab 453e 1207 e3bd 121c 9b3d
000000d0: 7ffe 8fbd 7daa 9e3c b39b dabd 8039 b4bd
000000e0: 83c6 5e3e 23c4 023e 1d4f 383e e1b4 08bd
000000f0: b81c 103d 2b32 69bd 2541 f03d 2174 1f3e
00000100: 9a93 0b3d cecf 293c 4228 2dbe 0268 f8bd
00000110: bed9 163e 8bd7 fc3d b1d1 d03d 8458 09bd
00000120: 9c6e 3a3e 36b3 fdbd 93ef ff3d 671e 283e
00000130: 10fc 5e3d c117 343e 8f89 f8bc 8b48 4c3d
00000140: ff34 26be e41f 1d3e 737f 7abc 98e6 393d
00000150: 5af2 b53d 3803 403b 0d08 e23d fb59 b0bd
00000160: 3f72 933d 032e 38be d488 44bd 2d54 513d
00000170: b479 5f3e 5514 c13d cf86 623e ffc2 4dbe
00000180: 5931 84bd 292f f23d 9fed 103e 07ed 35bd
00000190: b159 4cbc aaf1 753d 280d 0ebe a977 d23d
000001a0: 4165 c5bd c176 21bd ad18 e4bb d88e 923b
000001b0: 9759 a13d dc25 d8bd dd17 b9bd c25c 353e
000001c0: 5ab6 3e3d 3b03 383e 22c1 21be 7f97 223e
000001d0: 6a7b da3d c5b1 c23d eaa1 40bb 3d97 58be
000001e0: c3cd 353e 0916 813d f068 e03d 7f5d 47bd
000001f0: 2ecc 49be 9aaf fcbd 5e1d ad3c 184b 243e
00000200: 156c 37bf 1c6a 97bd 8d03 183f 1cc8 e03c
00000210: aba3 c6be 3c2c 833e 9a6d 1dbd 5271 a63d
00000220: ad67 74bc 63d0 ee3d f6c8 223e 6f1b 1fbe
00000230: d305 a2be a5bc 0cbe f025 85bb 329e 413e
00000240: b076 9a3e d18c 7bbe 9acb 333b 58a0 693d
00000250: ab01 8a3e ef38 a33d 1adf 76bd 8313 d23e
00000260: dcb7 b43c e656 863e 6b1c 303e 9d20 16be
00000270: a977 033c fc78 763d 1a6d 86be d27a 3fbe
00000280: 48d5 cc3d 5bfb 913e c652 67be 1117 823e
00000290: 9db8 53be 5125 d7be b521 913d 6d41 fe3d
000002a0: 83b8 d8bd 517c 7cbd 381c a53d af91 7dbd
000002b0: 6b82 e93d 0d9a 69bf c230 fc3c bbe0 b73d
000002c0: 564a a83d 1008 013e 0f0a 9abd 1d62 573f
000002d0: 9af0 57bc 0ccd b83d f27e bcbe 350e 1cbe
000002e0: 32c6 e83d 652a 073e f03d 033e a812 ff3d
000002f0: ec5a 813c 33f8 03be 7a0e 263e d54f 933d
00000300: 09a1 b43e acf5 4a3e 4d5b e9be b118 b1bd
00000310: 8637 ad3d 0739 2a3c 9c15 a33d a962 d1bd
00000320: f8da fc3d 4c85 77bd 5a7f 3e3b 1bc6 6d3d
00000330: 210a 303e 56ad 783e e9f5 1d3e fba5 6b3d
00000340: 0a3f f43d 6540 2b3e 3c48 c9be 537c 363f
00000350: 9e0d c73c 7b5e f13d 7dad 1d3d ecb6 31be
00000360: 98a7 893d ad5f 06bc a241 d0bb b8fc 4a3e
00000370: a09e 2ebe e22b a83d 476d 0b3d 00e8 ddbd
00000380: 55d0 2bbd a73a 3d3e 9498 c5bd ccda c8bb
00000390: e53f ecbe 94fa 373d 8b4c 52bb 44aa 39bd
000003a0: df94 f5be 4f16 9f3e 56da d13e d675 b9bc
000003b0: 4139 22bd 1065 16bd 833c d4bc b6c7 e0bc
000003c0: 8fa8 8e3e 3691 223e 923f 03be 02b8 023e
000003d0: b63c 3e3e 7800 463c 4b6b b6be 6d87 f5bd
000003e0: 8467 673e 42c2 9c3e 6e13 bd3d 0975 493e
000003f0: 2ade a0bd 74f8 1bbf fcbe 603c 91d4 5bbe
-0.036091633 -0.041602388 0.052986138 -0.048875418 -0.07816615 -0.14209543 -0.14580913 -0.21722606
-0.19140276 0.086005464 0.21948941 -0.16374676 0.06757895 -0.046743125 0.089112066 -0.038814902
-0.07672317 -0.05476603 -0.18064228 0.102775104 -0.010456987 0.13918088 -0.10842476 0.040097434
-0.107384525 0.035560235 0.009359488 -0.1962369 0.09039697 0.1775158 -0.16182631 0.054651886
0.050642263 0.0686527 -0.08486199 0.13826951 0.0068918597 -0.11359524 0.10524769 0.044845305
0.17273745 -0.15287337 -0.24396393 -0.13536572 -0.07393579 -0.20998484 0.13668329 -0.051576957
0.18610762 0.19303621 -0.11085333 0.07573713 -0.07030963 0.019368405 -0.106742285 -0.0880003
0.21755414 0.12770133 0.1799893 -0.033375625 0.03518364 -0.05693261 0.11731175 0.15571643
0.03407631 0.010364486 -0.16909888 -0.12129213 0.147315 0.12345799 0.101962455 -0.03353168
0.18206257 -0.123876974 0.12496867 0.16417848 0.054439604 0.17587186 -0.03033903 0.04987387
-0.16231154 0.15344197 -0.015289175 0.045385927 0.088841155 0.0029298794 0.11036692 -0.086109124
0.07199525 -0.17986302 -0.047982052 0.051105667 0.2182377 0.09427706 0.22121738 -0.20093916
-0.06454725 0.11825401 0.14153145 -0.0444155 -0.012472556 0.060044922 -0.13872206 0.102767296
-0.09638453 -0.039419893 -0.0069609494 0.0044725947 0.07878416 -0.10554096 -0.09037755 0.17711166
0.046560623 0.17969982 -0.1579633 0.15878104 0.106680706 0.09506563 -0.0029393383 -0.21151443
0.17754273 0.06303031 0.10957515 -0.04867315 -0.19706795 -0.12338181 0.021132167 0.16044271
-0.71649295 -0.07393286 0.5938042 0.02743917 -0.38796744 0.25619686 -0.038434602 0.08127083
-0.014917296 0.1166084 0.15896973 -0.15537809 -0.3164507 -0.13743837 -0.0040633604 0.18908003
0.30168676 -0.24565436 0.0027434588 0.05703768 0.26954398 0.079698436 -0.06027136 0.4103051
0.022060327 0.26238173 0.1719834 -0.14660878 0.008024135 0.060173973 -0.26255113 -0.18699196
0.10001618 0.28512082 -0.2259017 0.25408223 -0.20675893 -0.42020658 0.07086507 0.12414823
-0.10582068 -0.061641995 0.08062023 -0.061906513 0.114018284 -0.9125069 0.030784968 0.08978411
0.082173035 0.12600732 -0.0752145 0.84134084 -0.0131799225 0.090234846 -0.36815602 -0.15239795
0.11365928 0.13199766 0.12816596 0.1245473 0.015790425 -0.12887649 0.1621646 0.07192961
0.3527911 0.19820279 -0.4557747 -0.08647288 0.08457856 0.010389573 0.07963106 -0.10223896
0.123464525 -0.060429856 0.0029067607 0.058050256 0.17191364 0.24284872 0.15425839 0.05753134
0.11926086 0.16723783 -0.39312923 0.71283454 0.024298485 0.11785599 0.03849553 -0.17354935
0.06721419 -0.008201522 -0.0063554803 0.19822967 -0.17052698 0.08211495 0.034039762 -0.10835266
-0.041946728 0.18479405 -0.096482426 -0.0061295982 -0.46142498 0.044916704 -0.003208908 -0.045328394
-0.47965142 0.31071708 0.4098689 -0.022639196 -0.039605383 -0.036717474 -0.02590776 -0.02743898
0.27862975 0.15875706 -0.12817219 0.12765506 0.18577847 0.012085073 -0.35628733 -0.11988721
0.22598082 0.30616957 0.092322215 0.19673552 -0.078548744 -0.60925984 0.013717409 -0.21467806

critic_network.2.bias f4 [128]
00000000: 3add f43d 720e f23c 349c 91bd b91c fbbd
00000010: 7f94 d2bd dd73 c93d 7922 17bd 061c ddbd
00000020: f967 0fbd 2cc4 423d 1f28 263d 3c27 0bbe
00000030: 96ec f63d 864b c5bd 3f36 6bbe aedb 513d
00000040: de96 20bc 48fa 4dbd 654e be3c dc33 d0bc
00000050: 9a74 133e a0a3 e4bd 2164 0c3e 374d 1f3d
00000060: c334 c43d 1c64 aa3d 79c3 833d aec9 13bd
00000070: e419 15be 481a 193c 44df 41bc a163 f0bc
00000080: 67ad 123e b9c7 32be b959 9ebd 347a f63c
00000090: 0a95 fc3d dde5 cabd 0091 debd 2523 34be
000000a0: 0f3a e9bd 0ead 23be 3172 eabd c567 e1bd
000000b0: 2a56 d63d 80b8 f13d 1149 ca3b eb79 03be
000000c0: a8b6 58bd ffd8 7cbd 0806 aa3d fc4e 6fbd
000000d0: fd50 273c 1c93 dc3c d0ae c7bd 1a1c 4b3e
000000e0: ab77 173e 54b1 013e ac93 8e3c 760d dbbd
000000f0: 492f 593e 5d66 bc3c 39fb 453e 155c 6bbe
00000100: 6b35 393e ffe4 a23d 535e ebbd 42cd afbd
00000110: 9cea a5bd 8a1d 1fbe 808c 803d df28 0a3e
00000120: cb28 a23d 342e c53d e957 74bd 918b ce3d
00000130: 4c9f 20be f024 e2bc e06f 003e 42ab 63bc
00000140: 1914 19be ffb4 20be 4138 aebd fbc3 eebd
00000150: bae5 0dbe 790a 23bc 021d 94bd 51b3 703c
00000160: c208 693b 4660 0b3e 123a 603e 0f26 bb3d
00000170: 02eb 1a3e bdb2 0d3e 6f1f 3c3d 9d2a dc3d
00000180: d5f8 bbbd c585 92bd d097 29be 180b ea3d
00000190: 7338 51bd 562e 12be c306 cf3d e84a c73c
000001a0: cc23 8dba 7670 d6bc 87d2 1bbd 869e acbc
000001b0: cf08 943d d1f1 0dbe 3a48 633b 9e85 8d3e
000001c0: 05b1 21bd bc0d 72bd 85fb 35be fe54 d0bd
000001d0: b4ab 2cbd 8042 30be 71b2 f3bd 7c57 613d
000001e0: fa10 26be 8503 6bbc 80f3 af3d c9c1 343e
000001f0: 29ef bf3d 828b 36be 32dd 9ebd c2ae 4a3c
0.11956258 0.029547904 -0.071098715 -0.12261338 -0.1028223 0.09836552 -0.03689811 -0.10796361
-0.035011265 0.047550365 0.040565606 -0.13589185 0.12056844 -0.096335456 -0.22969912 0.051234894
-0.009801595 -0.050287515 0.02323074 -0.025415353 0.14399949 -0.111640215 0.13710071 0.038891997
0.09580376 0.083198756 0.06433768 -0.03608101 -0.14560658 0.009344645 -0.011833016 -0.029344382
0.1432396 -0.17459 -0.07731957 0.030087568 0.123331144 -0.09907124 -0.108675 -0.17591532
-0.11388027 -0.15983984 -0.114475615 -0.110061206 0.10465653 0.11802769 0.006173261 -0.12839477
-0.05290857 -0.06173038 0.083019316 -0.058424935 0.01021218 0.026925616 -0.0975014 0.19834939
0.14791743 0.12665302 0.0174044 -0.10695927 0.21209444 0.02299803 0.19334115 -0.22984345
0.18086784 0.07953834 -0.114926 -0.08584072 -0.08101389 -0.15538612 0.06276798 0.13492154
0.07917937 0.09627953 -0.05965415 0.10085214 -0.15685767 -0.027605504 0.12542677 -0.0138958115
-0.14949073 -0.15694045 -0.08506823 -0.11658474 -0.13857165 -0.009951227 -0.07232095 0.01469119
0.0035558199 0.13610944 0.21897152 0.091381185 0.15128711 0.13837714 0.045928415 0.10750315
-0.0917832 -0.07154421 -0.16561818 0.11427897 -0.051079225 -0.14275488 0.101087116 0.02432771
-0.0010768115 -0.026176672 -0.03804257 -0.021071684 0.072282426 -0.13861777 0.0034680502 0.27641004
-0.03947546 -0.05909513 -0.17771728 -0.10172461 -0.042155936 -0.17212868 -0.11899269 0.055015072
-0.16217414 -0.014344101 0.08591366 0.17652048 0.09371788 -0.17826656 -0.077570334 0.012370767

critic_network.4.weight f4 [1, 128]
00000000: 6bba 85c0 813f 85c0 e1d1 8540 479c 8540
00000010: bbbb 8740 f03e 86c0 ef79 8940 6ed4 8a40
00000020: d781 8940 f429 84c0 14f8 86c0 66b1 8940
00000030: b0b3 89c0 f5aa 8940 0118 8a40 f232 88c0
00000040: 9153 8640 73c2 8640 ecb0 85c0 be09 8840
00000050: bf91 86c0 c3cf 8640 4cfe 84c0 9a16 88c0
00000060: 615a 85c0 3b4f 86c0 afed 85c0 f7a9 85c0
00000070: 85b5 8540 4473 86c0 374b 8740 6cc2 8440
00000080: 5c02 89c0 ad81 8840 0867 8a40 e1d1 85c0
00000090: 682f 8bc0 ad7d 8940 27ea 8a40 c87a 8a40
000000a0: 9789 8a40 1544 8a40 eae5 8a40 935f 8540
000000b0: bfb9 85c0 f8ae 87c0 f6e7 87c0 5e6d 8640
000000c0: f6ac 8a40 b97d 8740 652c 87c0 3735 8540
000000d0: acbc 87c0 e92c 88c0 cb9b 8540 a66a 89c0
000000e0: 7ad3 85c0 bc0e 86c0 f37f 89c0 68bf 8740
000000f0: c54a 8bc0 c0f4 85c0 8d88 89c0 d81a 8c40
00000100: 98ce 85c0 58d0 8ac0 cfb8 8540 1e26 8940
00000110: 041b 8840 b0f5 8540 ea5a 85c0 d8c0 89c0
00000120: 70cd 88c0 df24 86c0 e8b8 8640 aa78 89c0
00000130: 5394 8740 568d 8540 1827 8ac0 3abe 8740
00000140: 6665 8540 3edb 8640 b3f6 8940 22c4 8940
00000150: 5fce 8640 77ec 86c0 a32e 8b40 d601 88c0
00000160: 933d 8640 ac7e 8bc0 6dbc 88c0 39cd 85c0
00000170: a4a9 86c0 f8a9 86c0 6485 85c0 cc05 8bc0
00000180: 89fb 8540 e010 8740 d1aa 8a40 253e 89c0
00000190: 0374 8640 a1b8 8b40 5151 85c0 b508 8ac0
000001a0: 3695 8740 1d37 8a40 8cda 8540 32d4 86c0
000001b0: 0434 88c0 5ffe 8a40 1c1b 87c0 4d83 89c0
000001c0: 1c02 8640 e1ff 8740 eef0 8540 baa6 8740
000001d0: 68b8 8940 97e8 8640 75ba 8840 929c 89c0
000001e0: 9f76 8b40 b920 8740 a6e0 87c0 f3df 8ac0
000001f0: d0a2 86c0 64b6 8640 2842 8940 84b4 86c0
-4.179006 -4.164002 4.18187 4.175327 4.2416663 -4.195183 4.2961345 4.3384314
4.2970996 -4.130121 -4.217783 4.302905 -4.3031845 4.302119 4.31543 -4.256219
4.197701 4.2112365 -4.177847 4.251189 -4.2052913 4.2128615 -4.156042 -4.252759
-4.1672826 -4.1971717 -4.185264 -4.1769977 4.178408 -4.2015705 4.2279315 4.148733
-4.281538 4.2658296 4.325077 -4.18187 -4.349537 4.2965913 4.341083 4.327488
4.3292956 4.320811 4.3405657 4.167917 -4.178924 -4.2401085 -4.2470655 4.2008505
4.3336134 4.234097 -4.2241693 4.162746 -4.241781 -4.255482 4.1752677 -4.2942686
-4.182065 -4.1892986 -4.296869 4.242115 -4.352877 -4.1861267 -4.297919 4.378277
-4.181469 -4.3379326 4.1788096 4.285903 4.253298 4.186241 -4.167348 -4.3047905
-4.275078 -4.192001 4.2100716 -4.2959795 4.236856 4.173503 -4.317272 4.241971
4.1686277 4.214263 4.3113647 4.305192 4.212692 -4.2163653 4.349443 -4.250224
4.1950164 -4.359213 -4.273001 -4.1813016 -4.208208 -4.208248 -4.172533 -4.3444576
4.186955 4.22081 4.3333516 -4.288836 4.2016616 4.3662877 -4.1661763 -4.313563
4.236964 4.3192277 4.182928 -4.2134027 -4.2563496 4.343551 -4.2220592 -4.297278
4.1877575 4.249985 4.1856604 4.2391024 4.3037605 4.2158923 4.272761 -4.3003626
4.35823 4.2227445 -4.246173 -4.3398376 -4.2073746 4.2097645 4.2893257 -4.2095356
