src/rl/model/critic_model15-08-2024_20-47-30/1890.pt (torch, 83007 bytes, 5 tensors)

critic_network.0.weight f4 [128, 27]
00000000: 12c8 79bf 3827 fcbe 0774 a8bd 487d c8bf
00000010: ba75 0abf 6bda 46bd 0275 0e3e 4b8d 543f
00000020: 3e2b d7be 4e9e 823e 94eb a73e d386 313e
00000030: 6009 fabf 3e4e 54be e044 583e 7b73 87be
00000040: 595c 2b3e 10e7 503f d271 f7be 3810 4abe
00000050: 62a5 f53e 3d32 eebd 6921 073f 37c9 eabe
00000060: 43ee 933d 0896 b2be c71c 493e 8b3f da3d
00000070: 0c34 0e3e 6c1a 13be 0f02 bd3b 8180 3fbd
00000080: 115d 803e 60aa df3d a8bb 9a3e b077 debe
00000090: 8f75 813e 712a c83d 5bf9 5fbe 989e edbe
000000a0: b841 cc3d 5e88 58be a60f 673c c98a 0abe
000000b0: be24 e0bd 3107 a0be 22cc 183e 3f7a b6bc
000000c0: 147f 2abc 8857 713e 3d18 43be fbc1 57bc
000000d0: 78db 283e b98d ca3d 243a d43e d1f4 6ebf
000000e0: 8a14 bebe 4246 93be e01e 3d3f 8710 05be
000000f0: 3d0c 5dbe 3202 333f b551 9b3e e52d c3bd
00000100: 2c4c 073f 2608 24bd 7f9b 8c3f a0bf 633e
00000110: c93a dabd d4fc 6dbe e5ae 7ebe 43e4 883d
00000120: 2a5d df3e 8962 313e 62f2 533e b127 a23e
00000130: 41b6 02bf 672d eb3e 01f8 063e a679 123f
00000140: ae38 f93d 4b03 353e d4c9 6fbe 0ac2 fdbe
00000150: a483 aebd 0104 323d dcc0 173e 29dd 3c3e
00000160: f15f b03e b3b3 c73e 93bc e8bd 9c57 483c
00000170: 9518 0e3e 26f6 99be 79ed 45be 9d4f a6be
00000180: 2b2f efbe 9851 e6be 10d4 363e 8074 333e
00000190: 3c13 7cbe 7b39 7dbe 9aae 5e3d d8de 0b3f
000001a0: f781 0dbf 83ad f9be cd71 01bf d513 c1be
000001b0: 92f7 bc3e 1154 16bf ee43 083e d1dc 033e
000001c0: c9fb f93e 1c97 333f 6dd5 d03d c47d 943d
000001d0: 6a32 9dbe a695 2fba f5a3 bd3d 600f 3f3d
000001e0: 0fba 18bf 9019 b13c c77a a73d 8a48 cb38
000001f0: 6233 373e 8918 d5bd 9aab c33e 8d4b 563e
00000200: 6b35 bf3e 3a90 163e 2e9a f4bc eeac 9d3e
00000210: 8535 8d3e ad08 f03c 2bb8 9f3e 754b 123f
00000220: 85b7 5fbf c29f dd3d fb4e 6f3f fd27 a4bd
00000230: 9f0e 7f3e 929e 673e d6b6 8f3f 6659 f93e
00000240: 5898 383f da48 7b3e 42e8 86bd 8e6a 45be
00000250: 38ac 67bd 74c6 e33d fe7d 58bd 964f 0ebe
00000260: 1ad8 b23d 2b54 453e b6d0 ccbc 5064 32be
00000270: 37b8 093e 0e93 b3bd cdb9 793e df90 693e
00000280: e996 633e b5e5 2d3e 1c74 103d 6f13 793e
00000290: 3fb8 e6be 407f af3e 863e d83c 7de3 f73e
000002a0: ff96 87bf 77ad 38bf 7daf 8d3f 3a76 d93d
000002b0: 105e 06bf 8c7d a1be 93f7 14bf f71b 45be
000002c0: b1c2 aabe a511 82be c446 eebd 4b3e 27bf
000002d0: 6571 dc3d 67f0 63bd ecd8 45be 0513 1ebf
000002e0: 4866 a2bf 2883 8abe 766a 7dbe ed08 4cbf
000002f0: 2328 05bf 4c99 8b3c 7783 153f ccf1 8e3e
00000300: 38b5 ef3c d61e 773f d666 0cbf 01a3 be3d
00000310: 178b 6ebf ddee 193f c5d0 77be 1250 83bf
00000320: 0c66 333e 74cf babe 506c b63e 05b8 d33d
00000330: b19d c4be 1ab2 21bf 25e3 73be 5bc9 84c0
00000340: 6ba1 e8bd f9f8 2a3e aec0 4bbe 56ed ca3e
00000350: a3ba b2be df25 d0be d0cf cbbe 6682 18be
00000360: 69ef 54bd ae73 843d 04ed 9bbb f429 bb3a
00000370: c9f3 023d 1cbf 4a3e 5290 d9be 047e c7be
00000380: 7115 38bf f875 bebd ef60 7dbc 7d3c 1ebd
00000390: 0d59 04be 6e73 e1bd 8629 e6be d28d 8dbd
000003a0: f593 57bd cd14 803f cde6 7ebe 70d8 a0be
000003b0: 7699 7c3e dcdb 3ebe 6420 afbd d72c 92be
000003c0: 38e3 96be a6d9 9bbe 700a f6be b996 a8bf
000003d0: cfe3 c7bf ab50 e0be 955e 68be 6e9d c6bf
000003e0: a066 cdbc f5a3 97be 8f00 b03e 7d81 f8bc
000003f0: b5e4 2d3d 125a 19be b331 19be 2438 a33e
-0.9757091 -0.49248672 -0.082252555 -1.5663233 -0.54085886 -0.048548143 0.13911822 0.83028096
-0.4202518 0.25511402 0.3279692 0.17336588 -1.9534111 -0.20732972 0.21120024 -0.26455292
0.16734447 0.81602573 -0.48329026 -0.1973275 0.4797774 -0.11630676 0.52785355 -0.4585664
0.07223179 -0.3488009 0.19639884 0.10656651 0.13887042 -0.14365548 0.0057680677 -0.04675341
0.25071004 0.10921168 0.30221295 -0.4345069 0.25285003 0.0977372 -0.21872465 -0.4641006
0.09973472 -0.2114577 0.014102852 -0.13529505 -0.10944508 -0.31255487 0.1492162 -0.022275088
-0.010406274 0.23568547 -0.19052215 -0.013168807 0.1648997 0.09890313 0.41450608 -0.9334231
-0.37125045 -0.2876454 0.73875237 -0.12994586 -0.215867 0.69925225 0.30335775 -0.09530238
0.52850604 -0.040046833 1.0984954 0.22241068 -0.10655744 -0.23240978 -0.24871404 0.066841625
0.43625766 0.17322744 0.2069793 0.31670907 -0.5105935 0.45933077 0.13180543 0.5721687
0.12169014 0.17677037 -0.23416835 -0.49562103 -0.08521202 0.04346085 0.14819664 0.18443741
0.34448197 0.39004287 -0.11364093 0.012227919 0.13876565 -0.3007061 -0.1932887 -0.32482615
-0.46715674 -0.44984126 0.17854333 0.1752491 -0.24616712 -0.24728958 0.05436573 0.5463691
-0.55276436 -0.4876519 -0.5056427 -0.37710443 0.3690763 -0.58722025 0.13307163 0.12877204
0.4882491 0.7015245 0.10196958 0.072505504 -0.30702525 -0.00066980196 0.09259788 0.046645522
-0.596589 0.021618634 0.08177715 9.693306e-05 0.17890695 -0.1040507 0.3821686 0.20927258
0.37345442 0.14703456 -0.029858675 0.30795997 0.27579895 0.029301012 0.31195197 0.5714639
-0.87389404 0.10821487 0.9347989 -0.0801544 0.24907921 0.22619084 1.1227672 0.48701018
0.7210746 0.2453951 -0.065872684 -0.19278929 -0.056560725 0.11121836 -0.05285453 -0.13897547
0.08732624 0.19270389 -0.025001865 -0.17421079 0.13449179 -0.08768283 0.24387284 0.2280917
0.22225536 0.16982158 0.03526698 0.2432382 -0.45062444 0.34276772 0.026397001 0.48415747
-1.0592955 -0.72139686 1.106918 0.10618253 -0.5248728 -0.31541097 -0.5819027 -0.19248949
-0.33351663 -0.25404087 -0.11634591 -0.65329427 0.10763816 -0.055649187 -0.1932103 -0.6174777
-1.2687464 -0.2705319 -0.24747643 -0.7970112 -0.5201437 0.017040871 0.58403724 0.2791885
0.029261217 0.96531427 -0.54844415 0.09308434 -0.93180984 0.601301 -0.24200733 -1.025881
0.17519397 -0.364864 0.3562951 0.10337833 -0.3840156 -0.63162386 -0.23817118 -4.1495795
-0.11358913 0.16696538 -0.1989772 0.39634198 -0.34908018 -0.40653893 -0.39806986 -0.14893493
-0.05198613 0.06467377 -0.004758479 0.0014279471 0.031970773 0.19799465 -0.4249292 -0.3896333
-0.71907717 -0.092998445 -0.015465005 -0.038631905 -0.12924595 -0.110083446 -0.44953555 -0.06911816
-0.052631337 1.0006348 -0.24892731 -0.3141513 0.24667916 -0.18638557 -0.085511 -0.28549835
-0.2947023 -0.3043949 -0.48054838 -1.3170997 -1.5616397 -0.43811545 -0.2269233 -1.5516794
-0.02507335 -0.29617277 0.34375426 -0.030335182 0.04245444 -0.14975765 -0.14960365 0.3187877

critic_network.0.bias f4 [128]
00000000: 18f7 503e d8f5 cebe ca64 a1be 91a5 d0be
00000010: e5c2 62be c8bd 2fbe 9743 bebe f94d f2be
00000020: 39ac f0be d85f d4bc ef95 103f b878 4fbe
00000030: 0d90 793e 58e9 9fbe f3b7 2c3f c9de 36be
00000040: 271e 9abe 60b6 143e 123a 85be 6291 f23e
00000050: 5b63 f4bc cc90 7d3e ca31 a6bc bb46 0dbe
00000060: 13e6 5ebd f38c 5e3e 7b14 8c3e 25c0 4abe
00000070: 4987 24bc f489 7b3e c39b fdbd 4911 8cbd
00000080: 1a1b cbbd 862a 813e 36f8 263e f445 3a3e
00000090: c14c cc3e 67cd 6e3e 22b1 103f 1ea2 09be
000000a0: 8a17 8d3e c4d6 87be 23e4 d9be 994d 2fbf
000000b0: 8bcc e3be 9302 803e 327a 1f3f 13b0 99be
000000c0: a5fa a73e d322 073f 8450 3bbf a17b 90be
000000d0: f085 0ebf 133f b73e 3818 8cbd 229b febe
000000e0: 015b 0a3f 0bd5 2d3f 236a c03b 0ab4 62be
000000f0: f5b2 423f 6e14 04bf 3d1a 873e 89a5 dd3e
00000100: 747e fcbd e772 573e 4d57 98be f7a8 0bbf
00000110: bccd cb3e d99d e03e e30f c93e 53e4 773e
00000120: b6d0 ae3e 6658 a1be 0598 5d3e fcd4 e83e
00000130: d031 dfbd d55d 753e f08f 96bd aeb7 d13e
00000140: 6f8a fdbe fd39 c73e 89a0 b83e 27b2 6dbe
00000150: eff5 213f 3122 eabd cf96 f93d 7efe 56be
00000160: e353 063e 7b91 f2be b27e bdbd f334 55bd
00000170: 3fde ae3e 12a5 1c3f a5f4 ad3e b3d0 2dbe
00000180: a00b abbe a13b 16be 145f 1abc 5088 02bf
00000190: d013 c4bc 4f66 ce3e 50f0 c5be c259 9c3e
000001a0: 3ec1 453e 9c4d 2abe 8d48 b3bd c5db b13e
000001b0: c0c0 bdbd 77a2 dabe 883c 15be cec9 073f
000001c0: 7bbd 7ebe 5b73 d43e 522d 12bf b4b0 333e
000001d0: ca42 c33e 65af c53e a98b d83c 6018 f8be
000001e0: 393e 55be 416c 8abe 9ddf 163f 1833 283d
000001f0: 0f09 0dbf 7417 d2bd e771 b83b 6acd c63e
0.20406759 -0.4042194 -0.31522208 -0.40751317 -0.22144659 -0.1716224 -0.37160942 -0.47325113
-0.47006395 -0.025924608 0.5647878 -0.20260894 0.24371357 -0.31232715 0.67468184 -0.17858423
-0.3010113 0.14522696 -0.26020867 0.47376543 -0.029832533 0.24762267 -0.020287413 -0.13796513
-0.054418635 0.21733455 0.27359375 -0.1979986 -0.01004202 0.24564344 -0.12383225 -0.068392344
-0.099172786 0.25227755 0.16305622 0.18190747 0.3990231 0.23320542 0.56520283 -0.13440749
0.2755702 -0.2653104 -0.42556867 -0.6847778 -0.4449199 0.25001964 0.6229583 -0.30017146
0.32808414 0.5278751 -0.7316973 -0.2821932 -0.5567312 0.3579031 -0.06840557 -0.49727732
0.5404511 0.679032 0.0058720275 -0.22138992 0.76054317 -0.51593673 0.26387206 0.43290356
-0.123288065 0.21039926 -0.29754105 -0.54554695 0.398054 0.43870428 0.39269933 0.24208193
0.3414361 -0.31512755 0.21640022 0.45474994 -0.10898173 0.23961575 -0.07351673 0.4096045
-0.4951968 0.3891143 0.3605998 -0.23212491 0.6326589 -0.11432303 0.121869676 -0.20995519
0.13117938 -0.47376618 -0.09252681 -0.05205245 0.34153935 0.6118938 0.3397571 -0.16974144
-0.33407307 -0.14671184 -0.009422082 -0.50989246 -0.023935229 0.4031243 -0.38659906 0.3053723
0.19311997 -0.16631168 -0.08754072 0.34737983 -0.0926528 -0.42702076 -0.14573872 0.53042305
-0.24876969 0.4149426 -0.57100403 0.17547876 0.38136894 0.38610378 0.026433783 -0.48456097
-0.20824517 -0.27035716 0.58934957 0.04106435 -0.5509195 -0.102583796 0.0056288126 0.38828593

critic_network.2.weight f4 [128, 128]
00000000: 2817 5a3d 9ec1 92bd e776 263c bbd9 0dbe
00000010: 4494 bf3a 0d55 b6bd 783b 5ebe 16e6 cabe
00000020: 6d71 99be a471 fdbc 2a1a bb3e aaa7 70be
00000030: de11 733d d6ba 643c bb77 333e fccc d63c
00000040: a83b d1bd 97fd cf3d 6ec8 8abe de4f 513e
00000050: c1a5 30be 9e9b 043e f05b 2ebd baf2 0e3e
00000060: de62 12bd 4c66 a2bb 694c 5dbd 4788 4cbe
00000070: 1a2e 903c c50c 683e 4a9b 9dbd b2c4 163e
00000080: 2a93 48bb 699c 6abb eae9 843c 8eee c93d
00000090: de32 dd3b fa0b 6bbd 4408 433e 6aa3 16bd
000000a0: 3d91 f33d 3a12 e7bd e524 87be 4eeb 5bbe
000000b0: 2d95 9ebd b764 cfbd f9f1 683e 6e4f 23bd
000000c0: 5f52 8b3e 0b69 983e 60eb 47be c59b 06bc
000000d0: d6e5 14be 6551 b83d 0904 5cbd c1c9 2abe
000000e0: f483 ab3e e547 523e a3cb 263e fe65 d3bc
000000f0: 616a f73d 24bb 12be 50e7 993d 3450 7d3e
00000100: 2d5f fbbc 5cc4 d0bc 0950 1ebe 6801 80be
00000110: 1707 7b3e 9716 833e a3c4 1e3e 9c83 3a3d
00000120: b0ef a63d eeb5 63be d634 333e de22 813e
00000130: 60dc 0e3d a166 003e c685 21be e69e f23d
00000140: 28a1 5bbe 5f74 523e b690 193e a4ba f3bb
00000150: c34f 303e 5f9c 12bd 05bc 7a3d 60a0 45be
00000160: bcaa e63d 1665 8fbe 3d5e 82bd 4d4a 3c3d
00000170: ae7c 323e e3a5 273e 7ba2 973e b5f7 acbe
00000180: 6e56 06be c5e4 a03c 450c a13e 9207 10be
00000190: a4bf 8f3d ca48 ba3d c97a 51be 6a16 d73c
000001a0: 7bf9 3b3c cfd9 83bd 27b8 3bbe f3eb 263d
000001b0: 1652 9fbd 18af 43be ab91 70be b78c 7e3e
000001c0: b91e 11bd 39e2 9a3e 30b6 88be 2599 853e
000001d0: 4322 2c3e ab69 0d3e 721c 623d 9936 a1be
000001e0: d7af 083e 8fb8 933c 68d0 413e 01cb 1ebe
000001f0: c7c5 9abe b3a1 b7bd 0acf edbc 1bdf de3d
00000200: baf2 5fbf 2c71 5dbd 6336 a73e 7962 563d
00000210: 4dc8 c6be c2f2 8cbe 6b9f 76bc b475 003e
00000220: ef27 5e3c 4963 8b3e 1318 0b3e debb 24be
00000230: 3bd7 cabe 8145 3dbe e111 9abc 206f 2b3e
00000240: ea0a 123f 2663 81be d412 2abb d604 0f3d
00000250: e960 df3e b816 263e f677 9fbd d8fa 793e
00000260: 1d98 2d3c e1a0 eabd c6f2 123e e354 493c
00000270: 5140 2b3e 6a75 523d add2 50be 09fa 1dbe
00000280: 589a 64bd 1fd7 9abb 296a aabe 9378 763e
00000290: 4eee b5be af55 14bf b166 353d ae3a 553e
000002a0: ffc7 683d f64f 7e3e 9a51 cc3e 5b63 14bd
000002b0: cee8 013f 1911 a7bf 9cdb c33b 5a84 323f
000002c0: 9706 8f3d 7c40 e93d f674 44bd 54a5 683f
000002d0: 652b 383c 5481 583d 86a7 0fbf dd26 06be
000002e0: 37ac ac3d 1371 db3d 088d 2a3e cfad 4b3e
000002f0: 5d5d 3dbc 336e d4bd ac14 053e e621 4f3d
00000300: 5ca5 ea3e e0a8 c3be f1e4 f0be 7dbc a3bd
00000310: 5949 7b3d f3c6 54bc e546 d43d 2e8a 68be
00000320: ceab 8b3b d6af 48bd bb73 79bb ad75 463d
00000330: 9de0 3d3e 42f7 9e3d 61f2 3b3e 1429 17ba
00000340: 6cb6 793e 6185 2f3e f2c5 34bf 05fe 773f
00000350: f174 4c3a 34a7 9c3e b82d 57be 8667 533c
00000360: 3297 e43b 6a62 b13c 6dd1 3bbe eed6 dd3d
00000370: c6ed 13bd d3ea 6b3d 8cb7 debb eba4 143d
00000380: 5892 03bd 46b1 103e 7621 92be b244 283c
00000390: 7bc3 10bf f1ac 52bd 9f21 e03c f377 b7bb
000003a0: da38 25bf c22d ff3e 3dec 033f cb58 24be
000003b0: f202 043d 1725 49bc 20e0 5d3e 8b32 68bd
000003c0: 9f2f e93e 5b6d 423e 9d71 f4bd ee10 983d
000003d0: 58f5 283e 7df8 ccbd 33a2 39bf 6caf bebd
000003e0: a055 a83e 2086 113f bd23 7f3d 83cc 973e
000003f0: 65c6 71bd 5252 83bd 39ba 02bc 968d 08bf
0.05324474 -0.07165836 0.010160184 -0.13852589 0.001461633 -0.08902941 -0.21702373 -0.39628667
-0.2996935 -0.030937977 0.365434 -0.23501459 0.05934321 0.013960561 0.17526142 0.026220791
-0.10216457 0.1015579 -0.2710604 0.20440623 -0.1725073 0.12949988 -0.042568147 0.1395978
-0.03573882 -0.0049560424 -0.05402795 -0.1997386 0.017600108 0.22661121 -0.07695635 0.14723471
-0.0030605295 -0.0035798794 0.01622482 0.09859954 0.0067504486 -0.05738447 0.19046122 -0.036776938
0.118929364 -0.11282773 -0.26395336 -0.2147648 -0.07743297 -0.10126632 0.22748555 -0.039870672
0.27211282 0.2976764 -0.19523382 -0.008215849 -0.145408 0.089999 -0.053714786 -0.16678526
0.3349911 0.20535238 0.16288619 -0.02580547 0.12080837 -0.14329201 0.075148225 0.24737626
-0.030685032 -0.025484256 -0.15460218 -0.25001073 0.24514423 0.25603172 0.15504698 0.04553567
0.081511855 -0.2223737 0.17500624 0.25221914 0.034878135 0.1253915 -0.15773687 0.11846714
-0.21448195 0.20552205 0.14996609 -0.007438021 0.17217927 -0.03579366 0.061214466 -0.1929946
0.11263034 -0.2800681 -0.06365631 0.045969296 0.17430374 0.16371875 0.2961615 -0.33782735
-0.13118908 0.019640336 0.31454673 -0.14065388 0.070189744 0.09095915 -0.20456995 0.026255805
0.011473055 -0.06438028 -0.18331967 0.040752362 -0.077793285 -0.19109762 -0.23493068 0.24858366
-0.03542969 0.3025072 -0.26701498 0.26093403 0.16809945 0.1380984 0.05520291 -0.31486967
0.13348328 0.01803234 0.18927157 -0.15507127 -0.30229017 -0.089663886 -0.029029388 0.10882398
-0.87479746 -0.054063007 0.3265868 0.052340005 -0.38824692 -0.2752896 -0.015052657 0.125449
0.013559326 0.27224186 0.13583402 -0.1608729 -0.39617333 -0.18483545 -0.018807353 0.1674161
0.57047904 -0.25270957 -0.0025951164 0.03491672 0.43628624 0.16219604 -0.077865526 0.24412096
0.010595349 -0.114564665 0.14350423 0.012288305 0.16723754 0.051381506 -0.20392866 -0.15427412
-0.055811256 -0.0047253515 -0.3328412 0.24069433 -0.35533375 -0.5794324 0.044287387 0.20823166
0.056831356 0.2483519 0.39906007 -0.036227565 0.50745857 -1.3052093 0.005977107 0.697332
0.06983679 0.113892525 -0.047963105 0.9087727 0.011240815 0.052857712 -0.56114995 -0.13100763
0.08431285 0.107149266 0.16655362 0.19890521 -0.011557904 -0.10372581 0.12996167 0.050569437
0.45829284 -0.3821478 -0.47049668 -0.07994936 0.061349247 -0.012986886 0.103650846 -0.22708961
0.004262424 -0.048995815 -0.0038063366 0.048452068 0.18542714 0.077620044 0.18354179 -0.0005766314
0.24385995 0.17140724 -0.7061454 0.9687198 0.0007799408 0.30596316 -0.21013534 0.0129031
0.0069760317 0.021653373 -0.18341608 0.1083201 -0.03611543 0.057596993 -0.006796783 0.03629009
-0.032121986 0.14130124 -0.28541154 0.0102702845 -0.5654828 -0.05143446 0.027359782 -0.005599016
-0.64539874 0.49839598 0.51532346 -0.16049497 0.03222937 -0.012276909 0.21667528 -0.056688827
0.45544145 0.18987028 -0.119357325 0.07425104 0.16499841 -0.10008333 -0.7251312 -0.09310803
0.32877827 0.56845284 0.062289942 0.29648218 -0.059027094 -0.06412186 -0.007978969 -0.53341043

critic_network.2.bias f4 [128]
00000000: 9d0d 413e 8828 133b a33e 2bbd aa83 adbd
00000010: 689f 7ebe b635 733e 8499 a8bd aa91 08be
00000020: 043c 95bd ccd7 be3c f99b 053e 8cee 0bbe
00000030: 6257 eb3d 9d73 f0bd 3cfe 5fbe f937 fe3d
00000040: a4f3 bcbd e24e 00be 989a bd3c bee6 18be
00000050: 3e92 103e 5dfb 0abe 17cc 583e 392b 073c
00000060: 4a8f bb3d 515c 593e 006f 243e 78d4 87bc
00000070: 7b7a 0abe 1139 503c d92b bfbd dc3a dfbd
00000080: 81d4 333e 6c31 47be 2328 b1bd 9a34 883c
00000090: 6d04 fb3d 9c48 4cbe 3645 d0bd 0021 5ebe
000000a0: 9c65 31be 9fef 37be a94b 16be 7b4f b5bd
000000b0: 1d5a e63d df7b 173e 3777 d93d 3e8d 3cbe
000000c0: f51a ddbd 6f7b 05be 685a 1f3e f910 fcbd
000000d0: 99c4 283e 8600 dc3d 31dc 30be 5c39 573e
000000e0: 4049 313e 6786 383e 55d3 123e 841d 35be
000000f0: 3894 803e 6b28 d53d 8e5f 953e 5d1a 6fbe
00000100: 8778 883e 3490 bc3d 6bf3 c5bd c875 2cbe
00000110: f642 36be e949 97be 0478 c83d 2279 ee3d
00000120: 2ae5 353e 37b3 253d 9468 55bd 7703 023e
00000130: ed5d a6be 0b03 49be f3cd 303e 17a8 06be
00000140: 3cd3 1abe 5a04 6dbe ebf4 25be 6d95 4dbe
00000150: e6a9 a5be 00cf 423d 8858 f1bd 09e4 c6ba
00000160: 8dfe d6bc a2ac 5b3e dac7 603e b230 803d
00000170: 6b5b 513e d249 5a3e a72f 1d3e be34 b73d
00000180: c6e5 8fbd 2a5b 63be d1a7 12be 71e1 0a3e
00000190: aa64 f9bd 24a1 2bbe dbee 513d 3529 c83d
000001a0: bc99 abbd 87a6 1cbe 6a08 1fbc 0247 993d
000001b0: d591 253e d177 5bbe cea1 993d 4e31 a33e
000001c0: 61ba 97bc d573 d2bc f3f1 80be af42 5ebe
000001d0: 04a8 08be 8c1a 7cbe aafb 63be 583f 193e
000001e0: eba1 16be a7ff 6f3d 907b 2a3e da13 4c3e
000001f0: 43e1 cf3c ba70 81be 4e87 3bbe b58d e73d
0.1885285 0.0022454578 -0.041807782 -0.084723786 -0.24865496 0.23750958 -0.08232406 -0.13336816
-0.07286838 0.02329626 0.1304778 -0.13665217 0.11491276 -0.117408015 -0.21874326 0.1241302
-0.09226158 -0.12530091 0.023145005 -0.14931771 0.14118287 -0.1357245 0.21171604 0.008250051
0.091581896 0.21226622 0.16057968 -0.016580805 -0.13523285 0.012708918 -0.09334535 -0.108998984
0.17561533 -0.19452447 -0.086502336 0.016626645 0.122567035 -0.19949573 -0.10169451 -0.21692276
-0.17323917 -0.17962502 -0.146773 -0.0885305 0.112476565 0.14793347 0.106184416 -0.18413255
-0.10796157 -0.13035367 0.15561831 -0.12307925 0.16481246 0.10742287 -0.17271496 0.21017975
0.17313099 0.1802002 0.1433843 -0.1768704 0.25113082 0.104081 0.29174465 -0.233499
0.26654455 0.09207192 -0.09665569 -0.16841805 -0.17798981 -0.29548576 0.09788516 0.11644198
0.177632 0.040454116 -0.052101687 0.12696634 -0.32493535 -0.19630067 0.17266063 -0.13150059
-0.15119642 -0.23146191 -0.1620671 -0.20076533 -0.32356185 0.04756069 -0.11784464 -0.0015174161
-0.026244426 0.21452573 0.21951237 0.06259288 0.2044503 0.21317223 0.15350209 0.08945607
-0.07026248 -0.22202745 -0.1432183 0.13562562 -0.12177403 -0.16760689 0.05125318 0.097734846
-0.08378932 -0.152979 -0.009706596 0.07484247 0.16168912 -0.21432425 0.07501565 0.31873554
-0.01852149 -0.025689999 -0.25184593 -0.21705125 -0.13345343 -0.24619502 -0.22263971 0.1496557
-0.14710204 0.05859342 0.16648698 0.19929448 0.025375968 -0.25281316 -0.18313333 0.11306325

critic_network.4.weight f4 [1, 128]
00000000: 39f3 87c0 a387 89c0 ac69 8840 1152 8640
00000010: 5b4e 8940 366f 88c0 ed5e 9240 f5a4 9640
00000020: 1409 9240 5a4d 87c0 de30 89c0 649e 9440
00000030: b792 92c0 8cb5 9140 fcad 9240 cc6b 8ac0
00000040: 5c8c 8840 48fb 8840 dfea 87c0 fb10 8a40
00000050: 5512 89c0 a00c 8740 0837 87c0 beff 8cc0
00000060: e63f 8dc0 a183 88c0 8026 88c0 58c8 8bc0
00000070: 132a 8340 b51f 8bc0 0084 8940 2dfb 8640
00000080: 86d6 93c0 5a4c 9140 af79 9540 f1ce 86c0
00000090: 157c 93c0 257c 9240 8ce5 9440 b4e5 9440
000000a0: 3e10 9440 2186 9640 a237 9640 42d3 8940
000000b0: eca0 8bc0 5195 89c0 12c0 89c0 a1a8 8e40
000000c0: c1e6 9240 93a2 8f40 4265 89c0 056e 8740
000000d0: c7af 90c0 bc65 8ac0 9ad4 8740 773a 94c0
000000e0: 2b7f 87c0 b4d5 8dc0 5279 92c0 43f8 8940
000000f0: b415 92c0 8c2d 88c0 a0ba 91c0 4253 9840
00000100: 5f07 88c0 4390 93c0 3192 8b40 c7ed 9140
00000110: 0353 8a40 2c29 8840 82ab 88c0 cd02 91c0
00000120: 60c4 91c0 04ef 8bc0 1684 8740 0212 95c0
00000130: 18d8 8940 1e9f 8740 eef4 93c0 31f6 9040
00000140: cc0f 8640 1514 8940 6131 9240 cdf8 9240
00000150: 1b54 8840 1296 8dc0 a848 9340 38b0 89c0
00000160: a114 8940 8525 94c0 a415 90c0 edbe 89c0
00000170: f059 85c0 cce2 88c0 1abe 87c0 a8cb 91c0
00000180: 5f4c 8b40 a43a 8940 c868 9240 a896 95c0
00000190: d9ac 8840 1155 9340 843b 89c0 ec03 93c0
000001a0: c1e6 9040 fd54 9340 4af3 8a40 85fb 8fc0
000001b0: 7e4e 91c0 4ed7 9240 ea53 89c0 c1bd 93c0
000001c0: 8651 8c40 d0ff 8a40 c729 8840 6795 9040
000001d0: 8fbc 9140 6e21 8940 2759 9140 8e24 92c0
000001e0: aefe 9340 1cee 8b40 7619 8ac0 eed4 92c0
000001f0: 5494 8ac0 38ef 8840 7fc8 9140 f45b 8fc0
-4.2484403 -4.297807 4.2628994 4.197518 4.290815 -4.2635756 4.5740876 4.7076364
4.563608 -4.2281923 -4.287215 4.644335 -4.5804095 4.5534115 4.5837383 -4.325659
4.2671337 4.280674 -4.247421 4.314573 -4.283488 4.220291 -4.2254677 -4.4062185
-4.41405 -4.266068 -4.2546997 -4.368206 4.098886 -4.3476205 4.2973633 4.218161
-4.619937 4.5405703 4.671104 -4.2127614 -4.6088967 4.5776544 4.653021 4.65304
4.6269827 4.703873 4.694291 4.3070383 -4.363394 -4.299477 -4.304696 4.4580846
4.590668 4.4885955 -4.2936106 4.23218 -4.521457 -4.3249187 4.2447023 -4.632137
-4.2342734 -4.432337 -4.5773096 4.3115554 -4.5651493 -4.25556 -4.5540314 4.7601633
-4.2509 -4.61136 4.3615956 4.5602756 4.3226333 4.255026 -4.270936 -4.531592
-4.5552216 -4.3729267 4.234874 -4.658448 4.3076286 4.2381735 -4.6236486 4.5300527
4.1894283 4.2837014 4.5685277 4.592871 4.260267 -4.424569 4.602619 -4.302761
4.283768 -4.62958 -4.5026417 -4.3045564 -4.1672287 -4.277685 -4.2419558 -4.5561104
4.3530726 4.2884083 4.5752907 -4.6746407 4.2710996 4.604134 -4.288515 -4.5942287
4.528168 4.6041245 4.3421984 -4.499453 -4.5408316 4.5887823 -4.2914934 -4.6169133
4.3849516 4.343727 4.2551 4.5182376 4.5542674 4.285331 4.542133 -4.5669622
4.624839 4.372816 -4.315608 -4.5884924 -4.3306065 4.2792015 4.5557246 -4.4799747
