src/rl/model/critic_model15-08-2024_20-47-30/7240.pt (torch, 83007 bytes, 5 tensors)

critic_network.0.weight f4 [128, 27]
000000 6a 3e 85 bf 73 90 4c bf ed 51 87 be cf d5 0b c0
       -1.0409672 -0.7990791 -0.26429692 -2.1849248
000010 11 90 4b bf 35 c6 7e be 68 f6 a3 3e 8e 29 24 3e
       -0.795167 -0.24880297 0.3202393 0.16031477
000020 e6 7c 1b bf c7 a5 64 3e 76 0b 1a be 62 88 c1 be
       -0.60737455 0.22328864 -0.15043435 -0.37799364
000030 e9 0f 01 c0 9c 94 e6 3c 1a 39 43 3e d1 cf 91 bd
       -2.016596 0.028147034 0.19064751 -0.07119716
000040 2a 38 02 bd 55 44 94 be 6d 23 16 3e c6 7d aa bc
       -0.031791843 -0.28958383 0.14661951 -0.020811927
000050 85 9b 83 3d ce 8e a3 bd f7 f8 2d 3f 8b 11 46 bf
       0.06426147 -0.07986222 0.67958015 -0.7737052
000060 dc 99 db 3e db 04 2b bf a5 f5 0f 3f 4d a1 39 3e
       0.42890823 -0.66804284 0.562342 0.18127938
000070 2f c9 73 bc f8 1e a0 bd 7b 1e 10 bd 3e 59 8c bd
       -0.014879509 -0.07818407 -0.03518532 -0.06852959
000080 81 6c 14 3e f2 17 a5 bd 9e b3 9b 3d 30 aa 4f be
       0.14494516 -0.08061208 0.07602619 -0.20279765
000090 b0 50 aa 3d a2 dd f6 3d aa 2a b2 bd f7 d6 19 bf
       0.08316171 0.12053992 -0.08699544 -0.60093635
0000a0 85 75 03 3e 7c c6 57 be 9b 55 1d 3d 25 84 ab bd
       0.12837799 -0.2107181 0.038411718 -0.08374814
0000b0 36 c5 65 3e 5d 28 a2 be c2 b3 63 3e a2 af f1 bd
       0.22438511 -0.3167142 0.22236541 -0.118010774
0000c0 c3 4b f0 3d 06 72 af bd 6a c5 54 be 71 5b 89 bc
       0.117332004 -0.0856667 -0.20778432 -0.016767235
0000d0 cf 62 8e 3e d9 11 c9 3d 93 93 19 3e af f3 91 bf
       0.2780976 0.09817857 0.14997701 -1.1402491
0000e0 ce 33 c3 be 7f cc d9 3c c5 20 32 3f 64 89 dc be
       -0.3812546 0.02658677 0.6958125 -0.4307357
0000f0 6b 82 1f be 77 88 ee 3e 33 4b 01 3f d5 85 f9 bc
       -0.15577094 0.4658849 0.5050537 -0.030459324
000100 74 5b e8 3e e0 bf fa bc 72 c5 82 3f b7 aa 21 3d
       0.45382273 -0.030609071 1.0216506 0.039469447
000110 a0 7a d6 3b 7c cc 76 be 7c d6 ab bd 2e c7 99 3c
       0.0065453798 -0.24101442 -0.08390519 0.018771734
000120 ae 73 cb 3e 67 34 3f 3e 2d cb 98 be 42 52 8f 3d
       0.39736694 0.18672334 -0.2984251 0.06998111
000130 06 25 12 bf 5a b4 15 3f 40 1e a6 bc 23 50 35 3f
       -0.57087743 0.5847832 -0.020278096 0.70825404
000140 f2 1f 40 bd bf 75 dd 3d 20 b2 4f be 0d 3c 80 be
       -0.046905465 0.10813474 -0.20282793 -0.25045815
000150 e1 6b 35 3d dc f6 d2 3b f1 55 ec 3d 43 78 ce 3e
       0.044292334 0.0064381193 0.115398295 0.40326127
000160 3a a2 2b 3f c2 73 af bd 83 8f 92 bd 5a 6d 85 3e
       0.67044413 -0.08567001 -0.07156279 0.2605999
000170 6d fd 11 3e 96 3c 1e be 0c 72 05 be 60 5e 00 bf
       0.1425683 -0.15452799 -0.13031787 -0.50144005
000180 a1 1a 0d bf 28 a8 d3 be d5 47 1a 3e 6c 1e 78 be
       -0.5511876 -0.4133923 0.15066464 -0.24230355
000190 f4 96 ae be 6f 43 76 be 34 cd 20 bd 18 75 97 3f
       -0.34099543 -0.24049161 -0.039258197 1.1832609
0001a0 7c e5 b9 be 04 8c c9 be 17 89 b3 be 55 58 56 be
       -0.36307895 -0.39364636 -0.3506553 -0.20932133
0001b0 f0 c6 c3 3e 47 e2 5b bf 54 65 be 3d 5b dd cc 3e
       0.38237715 -0.85892147 0.092966706 0.4001263
0001c0 e4 ab 16 3f 6d 10 82 3e 15 c3 05 3e 3c e9 6d 3e
       0.58856034 0.25403157 0.13062699 0.23233503
0001d0 89 2f 63 bb 7c ef 0e bd 6c 93 a6 3c df 7f 48 bd
       -0.0034665784 -0.03489636 0.020333968 -0.048950072
0001e0 d8 26 e2 be eb 9e 21 3d 0d c0 6e 3e b5 55 02 3e
       -0.4417026 0.039458197 0.23315449 0.12728007
0001f0 5f e3 48 3e 0a 1e 35 bd 5b 1d 33 3e e4 0a a7 3e
       0.19617985 -0.0442181 0.17491667 0.32625496
000200 a9 6a f9 3e 72 7b a3 3d 5f c3 5f 3d 66 90 be 3e
       0.48714188 0.0798253 0.05462968 0.37219542
000210 07 77 c2 3e 58 7a 23 3e 40 52 c5 3e 41 cc 93 3e
       0.37981436 0.15964639 0.38539314 0.2886677
000220 5a 8e 51 bf 6c 4d 28 3e e8 16 63 3f 12 f8 c4 be
       -0.81857836 0.16435784 0.8870683 -0.38470513
000230 57 2c 80 3e 9c 6b 50 3e 54 6a ae 3f d8 88 a3 3e
       0.2503383 0.2035355 1.3626199 0.3194034
000240 8d 0c 4c 3f 88 3d 6b 3e 9a c8 b1 be 66 72 5a be
       0.7970665 0.22972691 -0.3472336 -0.21332702
000250 54 29 b2 bd 7b 0c 53 3b 45 42 a1 bd d2 d7 91 bd
       -0.08699289 0.0032203484 -0.07873968 -0.071212426
000260 87 c5 66 3c 6f 50 2b 3e a0 ec 6e bd d6 59 9c be
       0.01408518 0.16729902 -0.058331132 -0.3053729
000270 68 e0 84 3b 0f a9 6f 3e b1 64 4c 3e 42 bf 60 3e
       0.0040550716 0.23404334 0.19960286 0.21947959
000280 57 82 6c 3e 0f c3 06 3e 99 04 8b 3e 97 9b a1 3d
       0.23096596 0.13160346 0.27151945 0.078910045
000290 3f 13 61 be b4 77 6e 3f e8 cd 96 3e 36 12 66 3f
       -0.21979998 0.931514 0.2945397 0.8987154
0002a0 13 98 9d bf b3 cc a6 bf db 3b 83 3f 77 9f 00 bf
       -1.2312034 -1.3031219 1.0252641 -0.50243324
0002b0 24 a3 3e bf 5d 7b 86 3e b6 d0 3f bf bd 28 94 be
       -0.7446768 0.26265994 -0.7492784 -0.2893733
0002c0 b0 53 2d bf 06 c3 99 be c7 78 e4 3d 75 94 59 3e
       -0.6770582 -0.30031604 0.11155849 0.21248038
0002d0 37 c0 80 3f 12 06 83 be 95 f0 a0 be f4 46 16 bf
       1.0058659 -0.2559057 -0.3143355 -0.58702016
0002e0 80 b5 ce bf ed d6 bb be a1 b8 a3 be 2e 14 8f bf
       -1.614914 -0.36687413 -0.31976798 -1.1178033
0002f0 b6 b1 1a bf e8 d8 f9 3d ed b3 15 bf c2 72 39 3e
       -0.60427415 0.12199575 -0.5847767 0.18110183
000300 f3 90 4b 3d 57 80 af 3e 23 35 57 bf e4 eb 21 3d
       0.04969878 0.34277603 -0.84065455 0.039531603
000310 54 b4 c6 be 25 60 83 be 1e 66 4a 3e ea 6d 81 bf
       -0.38809454 -0.2565929 0.19765517 -1.0111668
000320 ff 7a cc 3e 0e 51 04 bf 67 df 72 3e 2d 8a 46 be
       0.3993759 -0.5168618 0.23718034 -0.19388647
000330 7c 00 e3 be 4e 45 12 bf df 41 a2 be d6 95 6e c0
       -0.44336307 -0.57137 -0.3169088 -3.7278953
000340 9f 17 ad be 83 80 9e be a6 53 6e be 36 d6 72 3e
       -0.33807084 -0.30957422 -0.23274097 0.23714527
000350 95 ec 07 bf f9 36 1e bf 35 1b 12 bf 1a 00 be be
       -0.5309537 -0.6180263 -0.57072765 -0.37109452
000360 c8 0b f4 3d db 97 ae 3d ae 78 b2 3c ce ac 94 be
       0.119163096 0.08525058 0.02178606 -0.2903809
000370 3b 44 26 3e a1 36 a6 3e 18 1c 00 bf 71 ac 09 bf
       0.16236965 0.32463554 -0.5004287 -0.5377875
000380 6c 2d 56 bf 31 63 2f be c7 ee c7 bc a8 26 9e bc
       -0.8366306 -0.17127682 -0.02440585 -0.019305542
000390 3f 71 03 3d 88 c1 37 be 8f bf ee be aa ac 0c bd
       0.03209042 -0.1794492 -0.46630523 -0.034344353
0003a0 b2 97 3f 3d 4f 35 a9 3f b5 91 11 bf 49 ba 9f be
       0.046775527 1.3219393 -0.56862956 -0.31196812
0003b0 9e 54 8f bd ad c1 0a 3e df f2 96 be ce b5 64 be
       -0.06998561 0.13550444 -0.2948217 -0.22334978
0003c0 ea 1c 9f be 88 32 a2 be ef 29 03 bf 2c de a2 bf
       -0.31076747 -0.31679177 -0.5123586 -1.2724051
0003d0 a2 e5 02 bf d0 af b5 be 31 91 5c bf f7 1d d3 bf
       -0.5113164 -0.35485697 -0.86159045 -1.649352
0003e0 45 7e ae 3e f5 c5 01 bf 20 89 19 bf 3d 36 03 3f
       0.3408071 -0.50692683 -0.5997486 0.51254636
0003f0 0a ec 43 3d bd 89 45 3d 42 75 2f 3e 13 43 ca 3d
       0.047832526 0.04822706 0.17134574 0.09876075

critic_network.0.bias f4 [128]
000000 51 83 bc 3e 5d 7f c3 be 90 56 da be 61 e4 7b be
       0.36818936 -0.38183108 -0.42644167 -0.24598838
000010 d0 12 f3 bd 65 ec 3d be fb 94 ea be 30 8c 27 bf
       -0.118688226 -0.18547209 -0.45816788 -0.65448284
000020 74 61 f0 be 1b 18 5e be 6b b5 0a 3f d5 db 5c be
       -0.4694935 -0.21688883 0.5418307 -0.21568234
000030 c5 35 98 3e 3c f8 b5 be 69 f1 27 3f ba 4c 2b be
       0.29728523 -0.3554095 0.6560274 -0.16728488
000040 cc df bb be 8b 6e 6a 3e 09 d3 6d be f8 1f eb 3e
       -0.3669418 0.22893731 -0.23225035 0.45922828
000050 55 d2 83 bd 31 13 79 3e 08 54 17 bd 4f 86 85 be
       -0.06436602 0.24323727 -0.036945373 -0.26079032
000060 9f 75 16 be 7f 00 24 3e 0f aa 41 3e 1e 4d 18 be
       -0.14693306 0.16015814 0.18912528 -0.14873168
000070 c0 09 16 be 09 e1 4e 3e 48 91 81 bd f6 f9 8f bb
       -0.14652157 0.20203032 -0.06326538 -0.0043938113
000080 a3 5e 00 be f3 e3 88 3e 11 bf 3f 3e fa 28 54 3d
       -0.12536101 0.2673641 0.1872523 0.05179689
000090 1b a7 d6 3e 50 6f b3 3e b5 f9 fc 3e 1a ce 2e be
       0.41924366 0.35045862 0.4940926 -0.17070809
0000a0 99 b1 a1 3e fe 22 d0 be 7d 80 ee be 0a 8b 12 bf
       0.3158081 -0.40651697 -0.46582404 -0.57243407
0000b0 5c 7a fe be d4 2a e1 3e 4c 1a 1e 3f 90 c1 7e be
       -0.49702728 0.43977988 0.61758876 -0.24878526
0000c0 66 52 a3 3e 79 6d 10 3f 38 cf 18 bf ab 29 cc be
       0.31898803 0.5641704 -0.5969119 -0.3987554
0000d0 f9 da 07 bf 07 14 d8 3e 91 cd 80 bd 08 ea e4 be
       -0.530685 0.4220278 -0.06289209 -0.44709802
0000e0 4d af 12 3f 83 62 38 3f 86 50 5d be 08 70 86 be
       0.5729874 0.72025317 -0.21612749 -0.26257348
0000f0 ff 5f 3e 3f 71 71 f5 be cb 3d 7a 3e c1 7c c0 3e
       0.7436523 -0.4793811 0.24437635 0.3759518
000100 61 02 c5 be a3 ef 4d 3e 0d b9 6e be e6 10 0d bf
       -0.38478377 0.20110945 -0.23312779 -0.5510391
000110 6a b1 c9 3e 60 16 d4 3e 25 e6 ab 3e 7a 30 b7 3e
       0.3939317 0.4142332 0.33574024 0.35779172
000120 9a 2a a7 3e 7c 6c a5 be e1 78 88 3e 1b 2b e2 3e
       0.3264969 -0.3230933 0.26654723 0.44173512
000130 29 1d 5c be 58 3e 68 3e 2f 7a 43 be 7b c1 d2 3e
       -0.21495499 0.22680032 -0.19089578 0.4116324
000140 74 34 07 bf b2 b1 bd 3e 91 aa 03 3f e6 f0 0a bf
       -0.5281441 0.37049633 0.5143214 -0.5427383
000150 ea 6c 1b 3f 76 bc 1f be 6d 58 02 3e d6 11 8e be
       0.60713065 -0.15599236 0.12729044 -0.27747983
000160 d2 88 cd 3d 23 a0 eb be c2 8e 4c bd 19 bf 9a bd
       0.10035862 -0.46020612 -0.049940832 -0.0755598
000170 a3 9c f3 3e 32 9f 28 3f d6 5a 8f 3e 2e c4 7f be
       0.47580442 0.6586791 0.2799899 -0.2497718
000180 fd 05 9e be 09 fc 38 be 88 99 91 3c 12 85 e1 be
       -0.30863944 -0.18064894 0.017773405 -0.44046837
000190 11 76 94 3d 3c 13 c2 3e 96 64 b2 be 60 d0 96 3e
       0.07249082 0.379053 -0.34842366 0.29455853
0001a0 9b 35 a5 3e ff a2 41 be 6c 6d 5e be 5a 89 ad 3e
       0.3226746 -0.18909834 -0.21721429 0.33893853
0001b0 71 5d 84 be 17 2a aa be b8 23 17 be cc 77 1c 3f
       -0.2585254 -0.33235237 -0.1475972 0.61120296
0001c0 e2 28 ba be 0a 31 cc 3e ea 2f 08 bf 1c 32 45 3e
       -0.36359316 0.39881164 -0.5319811 0.19257396
0001d0 ce 7d ab 3e 42 9d bc 3e 9d b1 a7 3e 02 86 e1 be
       0.3349442 0.36838728 0.32752696 -0.44047552
0001e0 59 de 57 be 2a d3 dc be 62 6b 26 3f 0f ef 96 bd
       -0.21080913 -0.43129855 0.65007603 -0.073698156
0001f0 9a 54 f6 be 3a 42 28 bc 46 13 fd 38 bb f5 01 3f
       -0.4811142 -0.010269696 0.0001206757 0.5076558

critic_network.2.weight f4 [128, 128]
000000 0e bb 81 3d f4 3e b8 bd ee b5 d6 bb 6c ac 31 be
       0.06334506 -0.08996382 -0.0065524494 -0.1735093
000010 0a 9e e3 bb b7 ed 97 bd 94 3f 6d be f9 ca d0 be
       -0.00694633 -0.074183874 -0.23168784 -0.40779856
000020 d1 fa a7 be 3e 21 9e bc fb c6 c1 3e b3 cd 87 be
       -0.32808545 -0.01930296 0.37847123 -0.26524124
000030 3c 99 a9 3d 8e fa 90 3c 3c aa 37 3e ec a5 30 3d
       0.0828118 0.017697599 0.17936033 0.043126985
000040 c4 95 db bd 15 18 af 3d fe 37 92 be 9c 56 70 3e
       -0.10721925 0.08549515 -0.28558344 0.23470539
000050 7c 0d 49 be dc 40 e5 3d 4b 18 00 bd c5 8e e1 3d
       -0.1963405 0.111940116 -0.031273168 0.11013559
000060 e0 1a 8a bd 74 82 96 3c 7a cf fa bc cd 9b 35 be
       -0.06743407 0.018372752 -0.03061651 -0.17735215
000070 57 06 fd 3b 90 6f 7a 3e ed 00 4d bd 9e 3c fa 3d
       0.007721703 0.2445662 -0.05004971 0.12218593
000080 74 7d b3 3c f6 46 b8 3c 53 ea 3d 3d 04 77 05 3e
       0.021910407 0.022494774 0.046366047 0.13033682
000090 d5 bc 2a 39 c8 79 52 bd 42 14 67 3e 46 f5 d3 bc
       0.00016282809 -0.05138567 0.22566321 -0.025873791
0000a0 3b 6e 0c 3e 10 d7 ce bd f4 37 74 be 9a da 78 be
       0.13713925 -0.10099614 -0.2384947 -0.2430214
0000b0 60 b0 92 bd a1 2d e7 bd 5f 0e 86 3e b3 9a 08 bc
       -0.07162547 -0.11288 0.2618284 -0.008337664
0000c0 42 14 97 3e 57 04 a9 3e 8c 5f 4c be 31 e3 2d bd
       0.29507643 0.33011124 -0.19958323 -0.042452995
0000d0 3d ad 27 be 63 18 f9 3d 05 8b a3 bd ec 37 34 be
       -0.16374679 0.121628545 -0.079855 -0.17599458
0000e0 29 b7 b7 3e 0d ea 6c 3e 15 8e 46 3e 5e 19 27 bc
       0.35881928 0.23136158 0.19390137 -0.010198919
0000f0 fb c6 1c 3e ac 70 34 be c2 f2 5c 3d 52 c5 86 3e
       0.1531028 -0.17621106 0.05394245 0.26322418
000100 ab a1 63 bd bb 6d 46 bd 9c ae 33 be b3 7f 8f be
       -0.0555741 -0.04844449 -0.17547077 -0.28027114
000110 81 16 8e 3e e7 e3 88 3e 6e 09 30 3e 87 aa 88 3c
       0.27751544 0.26736376 0.17191097 0.016682876
000120 12 be d1 3d 5d 74 6f be 2a e0 4f 3e 6e de 90 3e
       0.10241331 -0.23384233 0.20300356 0.282947
000130 27 cb 51 3d 52 94 17 3e e4 c3 1d be 0e 66 12 3e
       0.05121913 0.14802673 -0.15406758 0.14296743
000140 0c c0 67 be a8 ac 6a 3e 7f 84 18 3e c5 c3 08 bd
       -0.22631854 0.22917426 0.14894293 -0.033389825
000150 4f ef 51 3e a9 df 45 bd 95 eb c0 3d 9c a1 34 be
       0.20501445 -0.048309002 0.09419934 -0.17639774
000160 79 f6 08 3e fd 71 9d be 2d 4e a1 bd 96 ed 7d 3d
       0.13375272 -0.3075103 -0.07876239 0.061994158
000170 34 99 56 3e 1d 47 48 3e 02 5b 95 3e f2 99 a8 be
       0.2095688 0.19558378 0.29170996 -0.3292995
000180 24 c6 28 be e6 f5 d0 bb c9 88 a5 3e 27 18 30 be
       -0.16481835 -0.0063769696 0.3233092 -0.17196713
000190 08 9b a2 3d b1 8c e1 3d b0 72 63 be 83 fa 1c 3d
       0.07939726 0.11013163 -0.22211719 0.038324844
0001a0 4d 3f 62 bb 7c 79 92 bd 34 51 2f be 9f 8c 7c 3c
       -0.0034522593 -0.071520776 -0.1712082 0.015414386
0001b0 53 05 b3 bd 6b 04 67 be f9 cf 85 be 73 61 90 3e
       -0.0874125 -0.22560279 -0.26135233 0.28199348
0001c0 40 77 4b bc 90 42 a6 3e b8 9b 99 be 3c ca 6e 3e
       -0.012418568 0.32472658 -0.30001616 0.23319334
0001d0 a8 9a 48 3e 21 a0 1c 3e cd b0 94 3d 60 d6 a7 be
       0.19590247 0.1529546 0.072602846 -0.32780743
0001e0 b6 06 1e 3e 22 cf 23 3d 3e 58 5d 3e 4e 6e 1b be
       0.15432248 0.03999246 0.21615693 -0.15178797
0001f0 59 94 ab be 1a de f6 bd e1 8f 60 bd 7b 29 a9 3d
       -0.33511618 -0.12054081 -0.054824714 0.08259865
000200 02 ee 5c bf 16 88 78 be e6 39 31 3e 4e bc cb 3b
       -0.8630067 -0.24270663 0.17307243 0.006217516
000210 b6 de c4 be 56 09 e4 be 9f e6 24 bd c2 0d 19 3e
       -0.38451165 -0.44538373 -0.040259 0.14946654
000220 e7 9f 8b bc 41 41 a7 3e b4 d0 4a 3e 00 8e 55 be
       -0.01704402 0.32666972 0.19806176 -0.2085495
000230 c6 16 25 be 15 a7 26 bf ad 33 15 3b 02 a6 62 be
       -0.16121969 -0.65098697 0.0022766397 -0.2213364
000240 ae 26 9b 3e 7d db 99 be 0b c5 49 3c 5d 0a 95 3d
       0.30302948 -0.3005027 0.012315045 0.07277367
000250 4b f2 d4 3e 28 96 89 3e 3e d4 ba be b8 6a 81 3e
       0.41591105 0.26872373 -0.36490053 0.25276732
000260 a0 3c 9f bd fa 2f ce bd f6 84 35 3e 48 7f 33 3d
       -0.07775235 -0.100677446 0.17726502 0.043822557
000270 2d e8 03 be 9b c7 43 3e 6a 04 96 be 52 fe 36 be
       -0.12881537 0.19119112 -0.29300243 -0.17870453
000280 41 9c de bb 29 ac 21 3e 09 11 b4 be 56 eb 20 3f
       -0.0067935293 0.1578833 -0.35169247 0.62859094
000290 4d c2 8d be 26 ef 21 bf b8 5f b5 3d 2f b7 7f 3e
       -0.27687302 -0.63255537 0.088561475 0.24972223
0002a0 68 13 0f 3e b4 c7 e7 3d 21 74 6a 3e ae d3 ae bd
       0.13972247 0.11317387 0.22895862 -0.085364684
0002b0 e6 10 bc 3e 13 26 99 bf 85 fc 42 3d a7 50 02 3f
       0.36731642 -1.1964744 0.047604103 0.50904316
0002c0 4f 85 7c bc b4 a3 15 3e 5a cd e2 bd a9 e3 05 3f
       -0.015412643 0.14613229 -0.11074324 0.52300507
0002d0 b8 e6 12 bd dd e7 7e 3d 1e 75 13 bf 20 f4 73 bd
       -0.03586456 0.06223284 -0.5760058 -0.059558988
0002e0 e8 0c e3 3d 8f 4e 21 3e 6f cd 5f 3e 95 9b cb 3e
       0.11086446 0.15752624 0.2185571 0.39767137
0002f0 56 1c ea 3c 90 b0 1b be c9 05 84 3e c3 e3 db 3d
       0.028577965 -0.15204072 0.25785664 0.107368015
000300 8d 2e ea 3e c5 2a df be 84 84 00 bf d6 7f ac bd
       0.4573864 -0.43587318 -0.502022 -0.0842282
000310 80 63 04 3e 9a 08 08 3d 46 6d ef 3d 65 db 98 be
       0.12928581 0.033211328 0.11690764 -0.29854885
000320 99 62 e6 3d 16 fc d5 bd 63 85 00 bd ae 7c de 3d
       0.11249275 -0.10448472 -0.031377207 0.108636245
000330 f4 64 a1 3e db e1 8a bd 76 7d 64 3e 55 7c a4 3d
       0.31522334 -0.0678136 0.22313485 0.08031527
000340 5c 4e 09 3e 80 a6 82 3e ed c2 6d bf d2 d2 63 3f
       0.13408798 0.25517654 -0.9287556 0.8899356
000350 a5 90 3f 3d bc 41 8e 3e 54 21 36 bd 46 16 99 3d
       0.046768803 0.27784526 -0.044465378 0.074749514
000360 b8 d6 01 3e ce c6 13 bd e3 ba 9a be 0e 52 85 3e
       0.12679565 -0.036078267 -0.30220708 0.26039165
000370 a0 59 b4 bd 6d c3 c3 3d ea 3b 08 bd 4d 81 e9 3d
       -0.08806157 0.09558759 -0.033260264 0.11401615
000380 01 a9 de bd 01 2f 3a 3e 5d 8b a9 be a6 8e 0a bd
       -0.10872079 0.18181993 -0.33114138 -0.033827446
000390 44 71 08 bf 34 2c d1 bc fe e8 39 3b a4 d3 63 3d
       -0.5329783 -0.025533773 0.0028367634 0.055621758
0003a0 3c cd 03 bf bd e0 9c 3e 32 3e 2c 3f 67 a5 cb be
       -0.5148504 0.30640212 0.672824 -0.3977463
0003b0 fb 44 85 3d 57 09 79 bd b7 49 2a 3e a2 43 e3 bc
       0.065072976 -0.060799923 0.16629682 -0.02774221
0003c0 46 31 01 3f 10 38 39 3e 28 a0 1e be 06 24 21 3e
       0.5046581 0.18087792 -0.15490782 0.15736398
0003d0 51 23 d0 3d 6b ba 50 3e f5 55 4b bf d7 b4 09 be
       0.10162986 0.20383613 -0.79428035 -0.13447891
0003e0 7b 58 82 3e 51 2b 0d 3f f0 5b ac 3d 92 4d ad 3e
       0.2545813 0.5514422 0.08415973 0.33848244
0003f0 d2 78 d6 bd 9f e9 02 be e9 50 88 3d df c2 05 be
       -0.104722634 -0.12784432 0.066560574 -0.13062619

critic_network.2.bias f4 [128]
000000 61 63 65 3e 9f 23 34 3d b4 a2 a0 bd ef 2d e0 bd
       0.22401191 0.043979283 -0.07843533 -0.10946261
000010 4c 3d a3 be 06 2f 90 3e 1a e0 ac bd ab 03 0e be
       -0.31882703 0.28160876 -0.084411815 -0.13868587
000020 72 39 68 bd 9a 5f 85 3d 33 6f 28 3e 28 9b 1f be
       -0.05669541 0.06512375 0.16448669 -0.15586531
000030 9c 11 12 3e ae ef 08 be 20 34 80 be 36 15 21 3e
       0.1426453 -0.1337268 -0.25039768 0.15730748
000040 97 b7 02 be 17 00 29 be 12 18 8e 3d 40 bc 01 be
       -0.12765346 -0.1650394 0.06938185 -0.12669468
000050 dd 25 2d 3e 33 bf 12 be 48 e2 78 3e 74 a4 73 3d
       0.16908975 -0.14330749 0.2430507 0.059483007
000060 1b 33 a6 3d 52 d4 89 3e 51 ac 46 3e 1f 97 25 3d
       0.08115216 0.269198 0.19401671 0.040427323
000070 f8 52 2c be af 36 3a 3d 65 f1 00 be 54 8f 16 be
       -0.16828525 0.045462307 -0.12592085 -0.14703113
000080 6d 23 4b 3e ee 83 34 be 2e 27 e9 bd ac 37 df 3c
       0.19837733 -0.17628452 -0.11384426 0.027248226
000090 1c 72 14 3e d4 9e 42 be 36 91 05 be d6 26 67 be
       0.14496654 -0.190059 -0.13043675 -0.22573408
0000a0 02 09 3d be 6f f3 3f be 09 16 22 be 64 c2 03 be
       -0.18460467 -0.18745206 -0.15828718 -0.12867123
0000b0 37 33 2e 3e f5 f6 55 3e f0 b2 33 3e ad 8d 5a be
       0.17011724 0.20894988 0.17548728 -0.21343108
0000c0 a1 f0 df bd 34 bc 2b be 9e e8 42 3e 11 79 23 be
       -0.10934568 -0.16771013 0.19034049 -0.15964152
0000d0 8a 6e e1 3d 76 58 0f 3e 99 14 4e be e5 39 82 3e
       0.11007412 0.13998589 -0.20125045 0.25434795
0000e0 76 f1 09 3e eb 02 18 3e 5f 03 57 3e 7f d3 55 be
       0.13471016 0.14844863 0.2099738 -0.2088146
0000f0 95 29 96 3e 6e a7 0e 3e 57 b7 c2 3e 0e 34 77 be
       0.293286 0.13931057 0.38030502 -0.24140951
000100 56 06 9a 3e 83 5a 00 3e 11 1d 31 be c6 dc 47 be
       0.3008296 0.12534527 -0.17296244 -0.19517812
000110 2c 0a 51 be 22 f9 80 be 22 c8 12 3e 3f f0 27 3e
       -0.20414037 -0.25190073 0.14334157 0.1640024
000120 27 c7 5a 3e cd 3d de 3d fd c1 a8 bd 4d 8e 17 3e
       0.21365033 0.10851631 -0.08240125 0.14800377
000130 57 b6 bf be af a2 79 be 2c 7f 42 3e 1c f2 32 be
       -0.37443802 -0.24378465 0.18993825 -0.1747517
000140 08 23 34 be 33 d2 87 be 87 6c 23 be 8c 2d 62 be
       -0.17591488 -0.26527557 -0.15959369 -0.22087687
000150 61 d2 d2 be 6f 11 c2 3d c9 8e a6 bd b9 69 82 3c
       -0.4117613 0.094759814 -0.08132703 0.015919553
000160 3e a2 3f bd 94 e2 37 3e 05 a6 6b 3e 6e 7c 0d 3e
       -0.046785586 0.17957526 0.2301255 0.13816997
000170 c9 6d 4c 3e 26 23 7e 3e 0b ff 31 3e 3a 6d 50 3e
       0.19963755 0.24818096 0.17382447 0.20354167
000180 ec 47 05 be 86 0c 8a be 9f 0a 42 be 72 67 15 3e
       -0.13015717 -0.2696268 -0.18949364 0.14590243
000190 50 49 1c be 82 92 49 be 05 70 f1 3d 48 70 9e 3d
       -0.15262341 -0.19684795 0.11788944 0.0773626
0001a0 92 a7 f4 bd ad b7 4b be c6 85 76 bd 36 66 f6 3d
       -0.11946024 -0.19894286 -0.06018617 0.12031214
0001b0 52 37 02 3e 8d 3e 31 be 1c 1d e0 3d 60 ab af 3e
       0.12716416 -0.17309017 0.10943052 0.34310436
0001c0 02 d8 a2 bd f0 18 8d bd 46 0d 92 be 49 bb 81 be
       -0.079513565 -0.06889522 -0.28525752 -0.253382
0001d0 70 0f a5 bd 0e 8b 91 be cc 67 88 be 92 6f 32 3e
       -0.08059585 -0.28426403 -0.2664169 0.17425373
0001e0 68 ab 43 be 67 a5 a1 39 90 81 4b 3e 57 37 30 3e
       -0.19108355 0.00030831547 0.19873643 0.1720861
0001f0 d7 a3 9e 3d 4f c2 92 be d5 ac 2e be 4a 6c b8 3d
       0.07746094 -0.2866387 -0.17058118 0.090050295

critic_network.4.weight f4 [1, 128]
000000 60 b3 c2 c0 d3 6a d7 c0 52 48 c3 40 9b 83 cf 40
       -6.0843964 -6.73179 6.102578 6.484815
000010 82 0e c4 40 5d 2f c3 c0 ef 1f cd 40 c1 97 ea 40
       6.126771 -6.0995317 6.410148 7.3310246
000020 6e 0f cd 40 ac a9 df c0 05 f1 c3 c0 e4 de e4 40
       6.4081335 -6.989462 -6.1231713 7.1522083
000030 c5 8b dd c0 d7 d7 cc 40 cc 79 df 40 f3 2b c5 c0
       -6.9233117 6.4013476 6.983618 -6.161615
000040 83 4c c3 40 6f bb c3 40 4a d8 c2 c0 de f1 c4 40
       6.10309 6.11663 -6.0889025 6.154525
000050 f5 fa d6 c0 56 e3 cb 40 2f f7 c1 c0 19 9d c7 c0
       -6.7181344 6.371501 -6.061424 -6.237927
000060 42 40 e2 c0 c8 43 c3 c0 a7 e6 c2 c0 ba 77 e0 c0
       -7.070344 -6.102024 -6.090656 -7.014615
000070 62 eb cd 40 6b a7 e1 c0 27 44 c4 40 54 bb c1 40
       6.4349833 -7.051687 6.1333194 6.054117
000080 f9 d0 e8 c0 34 09 cc 40 59 7e e8 40 f3 4f d0 c0
       -7.2755094 6.3761234 7.2654233 -6.5097594
000090 86 44 e0 c0 8c 49 cd 40 09 f5 e4 40 72 8e eb 40
       -7.0083647 6.415228 7.1549115 7.3611383
0000a0 b6 dd e2 40 4a 67 ea 40 8f bc e9 40 b1 3e da 40
       7.0895643 7.3251085 7.3042674 6.8201528
0000b0 a4 7c e2 c0 79 89 c4 c0 39 80 c4 c0 d2 12 ca 40
       -7.077715 -6.1417813 -6.140652 6.3147974
0000c0 68 a8 cd 40 2e 3c cb 40 69 25 c4 c0 2c 2e c2 40
       6.4268074 6.351096 -6.1295667 6.068136
0000d0 aa 91 cb c0 e3 25 c5 c0 c1 94 c2 40 42 12 eb c0
       -6.3615313 -6.160875 6.0806584 -7.3459787
0000e0 49 7c cc c0 e9 9e c8 c0 ab 0e ce c0 6a b8 c4 40
       -6.3901715 -6.269398 -6.4392905 6.1475115
0000f0 fb d4 cc c0 b3 ed c2 c0 94 2d cd c0 a0 1c ec 40
       -6.4009986 -6.091516 -6.4118137 7.3784943
000100 86 c7 c2 c0 ca e8 e6 c0 78 93 dd 40 3b b9 cc 40
       -6.086856 -7.2159166 6.9242516 6.397611
000110 af 1b c5 40 5c 11 c3 40 d9 29 d9 c0 5c 6d d7 c0
       6.1596293 6.095869 -6.7863584 -6.7320995
000120 2b 85 cc c0 70 af e1 c0 94 a3 d1 40 b7 51 ec c0
       -6.391256 -7.0526657 6.551218 -7.384975
000130 3f 98 c4 40 45 5f c2 40 6c c8 e8 c0 43 b8 cc 40
       6.1435847 6.0741296 -7.2744656 6.397493
000140 4f 7b ce 40 3c d4 c3 40 d3 49 cd 40 db d6 ce 40
       6.4525523 6.1196575 6.4152617 6.4637275
000150 42 14 c3 40 33 9b c8 c0 7e f5 db 40 1d 85 d5 c0
       6.096223 -6.268945 6.8737173 -6.672499
000160 03 22 d6 40 f7 76 cf c0 8a bc ca c0 c1 cc de c0
       6.691652 -6.483272 -6.335515 -6.9624944
000170 a5 2a c9 c0 f3 a2 c3 c0 41 7e c2 c0 42 d8 dc c0
       -6.2864556 -6.1136413 -6.077912 -6.9013987
000180 73 3d e1 40 cb fa c3 40 ff 52 dc 40 d6 2f ea c0
       7.038751 6.1243644 6.8851314 -7.3183393
000190 00 6d c3 40 f7 e7 cd 40 20 17 dc c0 20 dd cd c0
       6.1070557 6.434566 -6.877823 -6.433243
0001a0 63 7d cb 40 cd 68 ce 40 80 5c e1 40 b6 66 cb c0
       6.359056 6.450293 7.0425415 -6.356288
0001b0 c0 1e cc c0 8b 9e cd 40 11 14 c4 c0 5f d6 e8 c0
       -6.3787537 6.4256034 -6.1274495 -7.2761683
0001c0 a4 2e e1 40 51 a9 da 40 ee e9 c2 40 fe 09 cc 40
       7.0369434 6.8331685 6.091056 6.3762197
0001d0 d8 a3 cc 40 95 e1 c3 40 61 a9 cc 40 f4 e4 cc c0
       6.3950005 6.121287 6.395676 -6.4029484
0001e0 e6 13 de 40 a4 ed e1 40 9d d9 c4 c0 63 cd cd c0
       6.939929 7.060259 -6.151564 -6.4313216
0001f0 5b 1c e0 c0 5f af c3 40 27 a6 cc 40 b8 4b ca c0
       -7.0034614 6.1151576 6.3952823 -6.321743
