src/rl/model/critic_model15-08-2024_20-47-30/7640.pt (torch, 83007 bytes, 5 tensors)

critic_network.0.weight f4 [128, 27]
00000000: c6be 88bf 4a4b 4ebf 82e4 8bbe fc24 0bc0
00000010: c2eb 52bf 2a34 88be 43c5 9a3e 46c7 1f3e
00000020: 6924 23bf 7a6b 643e 7ad5 33be e9e1 bfbe
00000030: e5e3 ffbf 7b3d 8e3c d0da 383e 68e1 9abd
00000040: 5760 f7bc afb7 7fbe 9ddb 0c3e 8ed4 8fbc
00000050: 0159 273d 0328 dcbd 06c9 2e3f e36b 47bf
00000060: 7a48 d93e 5aa7 2bbf 96a8 0f3f 1188 323e
00000070: 6a2c 89bc 7ebc 9fbd 1f36 2fbd 7d1f 7bbd
00000080: c65e 073e 0f2e afbd bd6e aa3d 0729 40be
00000090: 3d20 963d 62dd f23d c16a bbbd 0bd1 1abf
000000a0: f2cf 033e 1b1d 55be ad84 273d 8026 afbd
000000b0: 45a2 613e d8e7 9bbe 3fd7 633e d15c dabd
000000c0: 2e24 e63d 45b5 ccbd 7cd8 51be 017f 84bc
000000d0: b915 8e3e 01a1 c83d 384c 1e3e d7c1 90bf
000000e0: f0f8 c5be a75b e93c bb8b 3b3f a357 ddbe
000000f0: 73e0 1abe 282b f43e 4602 023f ae84 91bc
00000100: f82e f83e d31b 09bd 0dae 803f 05f2 e33c
00000110: 6709 943b 474c 75be 822f abbd de02 943c
00000120: 3143 c43e bf97 373e 7313 8bbe 62d2 ef3d
00000130: be61 06bf b920 163f 124a aebc 590a 343f
00000140: 512d 47bd e3f5 043e d731 45be 6693 85be
00000150: 7e45 e73c 1f56 8ebc 1635 ec3d 851e c63e
00000160: 5b57 353f 9e8a febd b6fc 59bd 63b9 7b3e
00000170: 7c62 223e e120 0dbe 2c7b fabd 22db 00bf
00000180: a8b6 09bf 8438 d4be e7f3 163e f9bd 74be
00000190: c6d5 acbe 128b 8bbe 5336 6a3c b449 a23f
000001a0: 1f5f bebe f7b7 ccbe 0ee4 b2be 989a 5cbe
000001b0: f074 bb3e ca2c 5dbf 094b b43d 7022 c83e
000001c0: 5665 163f 697d 893e 4be5 fd3d eb04 843e
000001d0: f4b5 223c 5ae9 5abc 7716 0a3b 509f 63bd
000001e0: ecf1 dfbe 1c7f 1a3d 07b2 693e 15ac f83d
000001f0: e995 3f3e 537d 48bd 689c 313e 8a92 a53e
00000200: 7c97 fa3e a410 983d 8b42 9f3d 4bce be3e
00000210: 946e c13e c77e 213e 7090 c33e be7e 9a3e
00000220: c10b 4bbf d859 263e 63f9 633f 8ba2 b6be
00000230: 149d 533e a406 2c3e b52b ae3f d9ac b13e
00000240: 8d8d 4d3f 5915 803e 0a41 acbe 9106 71be
00000250: bff0 a7bd 7d1c 843b 775a 9dbd 6d1b 8abd
00000260: 0417 f9bb c6c6 4a3e 2af6 65bd c81e 80be
00000270: 6109 52bc c428 813e a403 4f3e 4a1b 633e
00000280: 45e3 6c3e d946 073e c2a0 5f3e 42c2 973d
00000290: 3cd9 45be b07f 693f 1ee9 913e c461 683f
000002a0: 43d2 9bbf 926d aebf f336 813f 7b35 03bf
000002b0: 4330 41bf 7daa 8a3e 7a59 3cbf 1392 96be
000002c0: d465 2dbf 34a3 9cbe d3bc 033e 3fc2 5a3e
000002d0: 25b6 703f e10c 81be 4a4b a7be 7a87 0bbf
000002e0: a3b7 cebf 2873 bbbe 713c a4be d249 8fbf
000002f0: b2ac 1bbf 6586 f03d 0cab 15bf deb6 463e
00000300: 9aa6 5d3d 9c5d b73e 3dea 5bbf 76b3 3c3d
00000310: 9de4 bfbe e473 98be befb 443e 4780 81bf
00000320: 0048 de3e 88cc 03bf 5011 7b3e 5bea 32be
00000330: 7d06 e1be f184 0abf 90f6 8dbe ddac 6ec0
00000340: 9239 a5be 77b2 a2be e26c 66be 9c3f 773e
00000350: 81b8 05bf f0be 1bbf 7416 10bf 70ee b7be
00000360: 2fcc ec3d bd56 b13d 9493 cb3c 7119 9cbe
00000370: 9f53 443e 8c2f b73e 5808 03bf 3afa 06bf
00000380: c780 5bbf 2694 27be f9d2 dfba 3b04 6ebd
00000390: 6edc 3c3d 806e 3cbe dbb4 edbe 6542 09bd
000003a0: cdb3 603d a28d a93f 1adb 0dbf 68fb 9ebe
000003b0: ef14 98bd 5285 913d 8d0e 8abe a216 62be
000003c0: 2ebf 9ebe 8c36 a0be f105 03bf 1047 9ebf
000003d0: bce0 fabe 8f79 bebe 9fa8 5abf d1c0 d3bf
000003e0: 9a7b a93e 3b96 02bf 54cf 16bf f1cb fd3e
000003f0: 37da ac3d 0403 a43d 2b7f 543e 1afa d13d
-1.068322 -0.8058363 -0.27322775 -2.1741323 -0.8239099 -0.26602298 0.30228624 0.1560336
-0.6372743 0.22306624 -0.17561904 -0.37477043 -1.9991423 0.0173633 0.1805222 -0.07562524
-0.030197306 -0.24972413 0.13755651 -0.017557409 0.040856365 -0.10749819 0.6827549 -0.77899
0.42438108 -0.67052233 0.56116617 0.17434718 -0.016744811 -0.07799624 -0.042776223 -0.061309326
0.13219747 -0.08553707 0.08321903 -0.1876565 0.07330368 0.11858632 -0.09151221 -0.60475224
0.12872294 -0.20811884 0.040898014 -0.08552265 0.22034557 -0.3045032 0.22250079 -0.106622346
0.112373695 -0.09995512 -0.20492738 -0.016173841 0.27750948 0.09796334 0.15458763 -1.1309155
-0.38666487 0.028486086 0.73260087 -0.43230924 -0.15124683 0.47689176 0.5078472 -0.017763462
0.48473334 -0.0334738 1.0053116 0.027825365 0.0045177224 -0.23954879 -0.08358671 0.018067773
0.38332513 0.1792898 -0.27163276 0.11710049 -0.5249289 0.5864368 -0.021275554 0.7032829
-0.0486272 0.12984423 -0.19257294 -0.2608902 0.028231379 -0.01737505 0.11533563 0.3869516
0.7083642 -0.12428783 -0.05321952 0.24582438 0.15857881 -0.13782074 -0.122305244 -0.5033437
-0.53794336 -0.41449368 0.14741479 -0.23900594 -0.33756846 -0.2725454 0.014295178 1.2678742
-0.37181947 -0.39984104 -0.34939617 -0.21543348 0.36612654 -0.8639647 0.08803374 0.39088774
0.58748376 0.26853493 0.1239725 0.25785002 0.009931076 -0.013361299 0.002107052 -0.055571854
-0.4373926 0.037718877 0.22821818 0.12142197 0.1870953 -0.048947643 0.1734482 0.32338363
0.48943698 0.07425049 0.07776364 0.37266764 0.37779677 0.15771018 0.38196135 0.30174822
-0.7931481 0.1624521 0.8905241 -0.35670885 0.2066539 0.16799408 1.3607088 0.34702185
0.80294114 0.25016287 -0.3364337 -0.23537661 -0.082002155 0.0040317164 -0.076832704 -0.06743512
-0.0076016206 0.19802389 -0.056142963 -0.25023484 -0.012819619 0.25226414 0.20216233 0.22178379
0.23133571 0.1321062 0.21838668 0.074100986 -0.1932115 0.9121046 0.28498167 0.9077418
-1.2173542 -1.3627188 1.0094894 -0.5125348 -0.75464267 0.27083197 -0.7357403 -0.2940832
-0.677335 -0.30593264 0.12865 0.21363162 0.9402793 -0.25205138 -0.32674628 -0.54503596
-1.6149791 -0.36611295 -0.32077363 -1.1194403 -0.6081039 0.11744384 -0.5846412 0.19405696
0.05411396 0.35813606 -0.85904294 0.046069585 -0.37479106 -0.29775918 0.19236657 -1.0117272
0.43414307 -0.51483965 0.24518323 -0.17472212 -0.43950263 -0.541091 -0.27727175 -3.7293007
-0.32270485 -0.31776783 -0.22502473 0.24145359 -0.52234656 -0.6083822 -0.5628426 -0.359241
0.115623824 0.08659122 0.024850644 -0.3048816 0.19172524 0.35778463 -0.51184607 -0.52725565
-0.85743374 -0.16365108 -0.0017076425 -0.058109503 0.046108656 -0.18401527 -0.46427044 -0.033510584
0.05485897 1.3246348 -0.5541245 -0.31051183 -0.07425868 0.07105507 -0.26964226 -0.22078946
-0.31005234 -0.31291616 -0.5118094 -1.2365437 -0.48999584 -0.37202117 -0.85413545 -1.6543218
0.33102113 -0.51010484 -0.5891011 0.49569657 0.08440059 0.08008388 0.20751636 0.10252781

critic_network.0.bias f4 [128]
00000000: 55bf ba3e 377d c3be 9092 dbbe f51e 81be
00000010: 4230 fabd 1ba7 3dbe b61f ecbe ac54 24bf
00000020: 2a1a f0be 1814 65be 5fd6 0b3f 218b 5dbe
00000030: 4d77 993e 045d b7be cbe5 2a3f ca06 2cbe
00000040: 25fc bcbe fcc0 6a3e a02c 6ebe 0a81 ec3e
00000050: 0766 83bd 5a83 753e 9f10 3cbd 5268 85be
00000060: 0a69 13be c924 233e 9f39 423e 9e90 19be
00000070: fc12 0cbe 482a 503e c189 83bd be7c 8bbb
00000080: f2a9 00be 7b13 893e 8804 3d3e ea6d 4f3d
00000090: 81ad d63e c2a6 b43e e0e5 fe3e 0487 32be
000000a0: 769b a43e 0697 d1be 946f eebe 63a8 13bf
000000b0: 93c5 febe 420e e13e 5676 1e3f 292f 80be
000000c0: 0258 a43e 3f0e 113f 635a 1abf cec4 ccbe
000000d0: 2bae 08bf da2c d93e 7cb9 acbd 2115 e4be
000000e0: c70a 143f 51d9 3b3f 3619 60be 3ebf 85be
000000f0: 181f 3e3f 99b5 f5be e866 813e 05bd c03e
00000100: c5a6 c5be c61b 4e3e 0c24 70be 7ab0 0dbf
00000110: 0167 cb3e 4e5d d93e e4df ab3e 7da8 b93e
00000120: 2311 a73e 2dd6 a6be d721 873e 6a22 e33e
00000130: c806 5ebe 1561 713e f9a7 4cbe dd9e d43e
00000140: 9ecf 06bf d42c be3e 5373 033f 802e 0abf
00000150: 5a5b 1c3f 4aa7 29be 0fdd fd3d 731a 91be
00000160: 5d7d ca3d 1a66 ecbe 5044 43bd 58bc 65bd
00000170: d072 f33e 9a00 2b3f 72cc 8e3e 54ed 7dbe
00000180: a304 9fbe 65aa 3dbe fc8f 9d3c c266 e1be
00000190: b41d a53d 9b4c c03e 9a45 b2be cb1d 983e
000001a0: d267 a33e 452f 41be a3ae 57be 908e ae3e
000001b0: 2f2f 85be c642 aebe 7d4e 0dbe ee21 1b3f
000001c0: 6255 bfbe 3fb5 cc3e 2a87 09bf f684 493e
000001d0: 106d ab3e 74f7 bc3e ba95 a83e f3ab e5be
000001e0: 7205 5cbe b12a e2be 66bb 283f fc84 85bd
000001f0: 06d6 f7be 13d9 51bc 0733 24ba d41b 023f
0.364741 -0.3818147 -0.42885256 -0.2521893 -0.12216236 -0.18520777 -0.46117944 -0.641917
-0.46894962 -0.22370946 0.5462398 -0.21635105 0.29973832 -0.35813153 0.66756886 -0.16799465
-0.3691112 0.2292518 -0.2325921 0.461922 -0.064159445 0.23975888 -0.04591429 -0.26056153
-0.14395538 0.15932001 0.18967293 -0.14996573 -0.13679117 0.20328629 -0.06422759 -0.004256814
-0.12564829 0.26772675 0.1845876 0.05064193 0.41929248 0.35283476 0.49784756 -0.17434317
0.32149857 -0.40935534 -0.46569502 -0.5767881 -0.49760112 0.4395619 0.61899316 -0.2503598
0.32098395 0.5666236 -0.6029417 -0.399939 -0.5339076 0.42417032 -0.08433816 -0.4454737
0.57828945 0.73378474 -0.21884617 -0.2612247 0.74266195 -0.4799011 0.25273824 0.3764421
-0.38603798 0.20127782 -0.23451251 -0.55347407 0.39727023 0.42453998 0.33569252 0.3626136
0.32630262 -0.32585278 0.26393005 0.44362193 -0.21682274 0.2357219 -0.19985951 0.41527453
-0.5266055 0.37143576 0.51347846 -0.53977203 0.6107689 -0.16567722 0.12395679 -0.28340492
0.098871924 -0.46171647 -0.04767257 -0.05608782 0.47548532 0.6679779 0.27890354 -0.24797565
-0.31058225 -0.18522032 0.019233696 -0.4402371 0.08062306 0.37558445 -0.34818727 0.2971023
0.31915146 -0.18865688 -0.21062712 0.34093142 -0.2601256 -0.3403532 -0.13799472 0.6059865
-0.3736983 0.3998203 -0.5372187 0.19679627 0.33481646 0.36907542 0.32926732 -0.4485775
-0.21486452 -0.44173196 0.6591095 -0.065195054 -0.48405474 -0.012808102 -0.0006263707 0.5082371

critic_network.2.weight f4 [128, 128]
00000000: c08e 813d b131 b8bd ea58 d4bb 1bbe 31be
00000010: a1eb e0bb 05d2 97bd a647 6dbe 1dd3 d0be
00000020: 1c05 a8be 83ca 9ebc 6fd1 c13e 6ace 87be
00000030: b771 a93d 87ad 903c f5b8 373e 0a58 303d
00000040: ff70 dbbd fa40 af3d 0141 92be cf6a 703e
00000050: 41fe 48be 0935 e53d 3d2f 00bd be91 e13d
00000060: 5a42 8abd ab45 963c 48f1 fabc 3bb0 35be
00000070: 121c fc3b b274 7a3e c2b3 4cbd 965e fa3d
00000080: 10dd b23c 25a6 b73c b7f6 3d3d 6a66 053e
00000090: e9de 8039 5827 52bd 4a28 673e f36e d4bc
000000a0: 9a58 0c3e c3b3 cebd 8a35 74be 17ee 78be
000000b0: b9d7 92bd f82f e7bd 7718 863e 1d49 09bc
000000c0: b419 973e 320d a93e 8874 4cbe 9701 2ebd
000000d0: 99ba 27be 4340 f93d 9472 a3bd 9046 34be
000000e0: 6cc1 b73e 3a00 6d3e 897c 463e d368 28bc
000000f0: 9cd9 1c3e d681 34be 3c40 5d3d 72cf 863e
00000100: c554 63bd 6b2c 46bd ed9e 33be 4386 8fbe
00000110: d317 8e3e b4ee 883e 570d 303e 8c31 893c
00000120: 46b2 d13d 3787 6fbe aad6 4f3e 5ae7 903e
00000130: 4972 513d 7a93 173e c6d1 1dbe 427a 123e
00000140: deaa 67be 5eba 6a3e 1b9a 183e f11a 09bd
00000150: 7403 523e 408b 45bd 4d17 c13d 56b4 34be
00000160: 3cf2 083e 697b 9dbe 5f55 a1bd ac98 7d3d
00000170: 15a9 563e f25a 483e 0f63 953e 84a4 a8be
00000180: 08d3 28be c6bc d3bb 1294 a53e 642b 30be
00000190: 2670 a23d efa7 e13d 6c74 63be 97ca 1c3d
000001a0: 8117 5dbb b54d 92bd 8166 2fbe 1980 7d3c
000001b0: 0500 b3bd 9615 67be 10c9 85be ef6b 903e
000001c0: 54c8 4cbc a248 a63e 20a6 99be 2fbc 6e3e
000001d0: fba4 483e 2e90 1c3e afba 943d eae0 a7be
000001e0: 88f5 1d3e e17b 233d 0f6b 5d3e b284 1bbe
000001f0: a28e abbe b9dd f6bd 74ba 60bd e03e a93d
00000200: e8f6 5fbf 79f9 75be 912a 313e 8a82 873b
00000210: e0e1 c3be 005e e2be 9d2b 2cbd bcbf 163e
00000220: d266 99bc b05a a63e d12a 4c3e 6dd5 57be
00000230: 1143 35be f8d4 28bf a3c5 873b a163 80be
00000240: 2ef8 9e3e 74e0 98be c409 1f3c 4d0f 993d
00000250: fdf2 d33e 69b5 873e 17d1 bcbe ea38 813e
00000260: 44ae a1bd a1bf d5bd d770 333e 3191 473d
00000270: ac63 13be 8ab1 453e c4bb 94be 7ee8 34be
00000280: a308 76bb 3e44 163e 91dd b0be 53ce 1e3f
00000290: f0a9 8ebe 206f 21bf 5577 b93d 81e2 7d3e
000002a0: 5b0a 103e 142d db3d dae2 693e 0040 b3bd
000002b0: fba8 b93e 8475 99bf 5684 4a3d 9fa3 133f
000002c0: 86d8 84bc 02a4 173e 2cfc e6bd 6b9a 053f
000002d0: c8e2 1abd 9091 813d bb20 10bf ae83 52bd
000002e0: ef71 e43d bf6a 233e a78b 5a3e 3dbf c93e
000002f0: 8234 f93c a3f6 1dbe 3cf3 823e 9980 e03d
00000300: 083a ea3e bff0 e0be 1b74 fabe c01e afbd
00000310: cc64 063e cb10 103d 58f6 ce3d 60de 97be
00000320: 0eb1 e33d 4fab dbbd 2e8b e5bc daa7 e23d
00000330: 6526 a13e c36c 7ebd c856 623e 97be a83d
00000340: 7abf 043e 5e05 833e a32b 6fbf 7c3a 613f
00000350: b295 473d f7f5 8f3e ad09 4ebd 2d6a 953d
00000360: f468 043e e768 1fbd 5e05 99be c3b1 853e
00000370: 9926 f0bd c6a2 c73d 2151 eabc c516 e53d
00000380: 69e5 e3bd d956 3f3e 0a09 a8be 2164 13bd
00000390: 25a5 07bf 83df a2bc 6e85 f13a 1493 583d
000003a0: 73fc 03bf e3f0 9a3e 5b7d 2b3f 4066 c9be
000003b0: 9724 823d 1ea2 80bd 949e 273e bd64 d1bc
000003c0: 0fcc 003f 541d 363e 3b91 20be 6ddb 203e
000003d0: bc6c ba3d 00ee 323e d447 49bf 86bd 0bbe
000003e0: 6da7 833e a27a 0f3f 6a81 af3d 5f36 ac3e
000003f0: 2d8d dabd f31b 04be f93e 803d a05e 17be
0.063260555 -0.08993853 -0.006480326 -0.17357676 -0.0068640267 -0.07413105 -0.23171863 -0.40786067
-0.32816398 -0.019383674 0.37855098 -0.2652467 0.082736425 0.01766087 0.1794165 0.04305271
-0.10714912 0.08557315 -0.2856522 0.23478244 -0.1962824 0.11191756 -0.03129505 0.11014126
-0.06750937 0.018343767 -0.03063263 -0.17743008 0.007693776 0.24458578 -0.049976118 0.12225072
0.021833926 0.022418091 0.046377864 0.13027349 0.00024580144 -0.051307052 0.22573963 -0.025931811
0.13705674 -0.100928806 -0.23848549 -0.24309574 -0.07170052 -0.11288446 0.2619054 -0.008379248
0.29511797 0.3301788 -0.19966328 -0.042481985 -0.16379775 0.1217046 -0.079808384 -0.17605042
0.35889757 0.23144618 0.19383444 -0.010278898 0.15317386 -0.17627653 0.054016337 0.26330143
-0.055500764 -0.048382204 -0.17541094 -0.2803212 0.2775255 0.26744616 0.17192589 0.016747259
0.10239081 -0.23391424 0.20296732 0.28301507 0.05113438 0.14802352 -0.15412053 0.1430445
-0.22623774 0.22922656 0.14902537 -0.03347296 0.2050913 -0.048228502 0.094282724 -0.17646918
0.13373655 -0.30758217 -0.07877611 0.061913177 0.20962937 0.19565943 0.29177138 -0.32938015
-0.16486752 -0.0064617125 0.3233953 -0.17204052 0.07931547 0.11018359 -0.2221238 0.038279142
-0.0033735933 -0.07143728 -0.17128946 0.015472435 -0.08740238 -0.22566828 -0.2612996 0.28207347
-0.012498934 0.3247729 -0.30009556 0.23313974 0.19594185 0.15289375 0.072621696 -0.32788783
0.15425694 0.039913062 0.21622871 -0.15187338 -0.33507258 -0.12054009 -0.054865316 0.082639456
-0.87486124 -0.24020948 0.17301394 0.0041354345 -0.38258266 -0.4421234 -0.04203378 0.14721578
-0.018725786 0.32491064 0.19938208 -0.21077509 -0.17701365 -0.65949965 0.004143433 -0.2507601
0.3104872 -0.29858744 0.009706918 0.074736215 0.41396323 0.26505592 -0.36878273 0.25238734
-0.07894567 -0.10436941 0.17523514 0.04872245 -0.1439349 0.19306007 -0.29049504 -0.17666814
-0.003754177 0.1467447 -0.34544042 0.62033576 -0.27864027 -0.6306019 0.09055964 0.24793436
0.1406645 0.10701957 0.22840443 -0.087524414 0.36261734 -1.1988988 0.04944261 0.5767154
-0.016216528 0.14808658 -0.11278567 0.5218875 -0.03781393 0.06326592 -0.5629994 -0.05139511
0.111545436 0.15958689 0.21342336 0.39403716 0.030420545 -0.15426116 0.25576198 0.10962028
0.457474 -0.43933675 -0.48916706 -0.08550787 0.13124388 0.035172265 0.1010558 -0.29661846
0.11117755 -0.10726034 -0.028020468 0.110671714 0.31474605 -0.062115442 0.22103417 0.08239477
0.12963668 0.25590032 -0.9342596 0.87979865 0.048726745 0.28117344 -0.050302196 0.07295642
0.12930661 -0.038918402 -0.29886907 0.26112184 -0.11726112 0.097478434 -0.028603138 0.111859836
-0.11127741 0.18685474 -0.32819396 -0.035984162 -0.52986366 -0.01988197 0.0018426606 0.05287464
-0.5155708 0.30261907 0.6698815 -0.39335823 0.06354635 -0.062809214 0.16369087 -0.025560731
0.5031137 0.17784625 -0.15680401 0.15708704 0.09102771 0.17473602 -0.78625226 -0.13646516
0.25713673 0.560465 0.08569606 0.33635232 -0.106714584 -0.12901287 0.06262011 -0.1478219

critic_network.2.bias f4 [128]
00000000: 7278 653e d04d 3c3d 2d33 acbd 3170 e4bd
00000010: 4646 a3be 332f 903e 6ed0 afbd bd7b 0fbe
00000020: 0959 7bbd 5b53 853d c876 283e c854 1ebe
00000030: f4f6 113e 97e7 0bbe 50d3 7fbe d420 213e
00000040: 9fbc 02be ea07 29be 4fd3 903d 2800 f9bd
00000050: 5ddb 2d3e 751b 14be acfd 783e f2c6 733d
00000060: 525f a83d acd4 893e d7ae 463e 984a 223d
00000070: 2d72 2ebe 9b57 3a3d 7106 01be c78b 16be
00000080: 5a06 4b3e 4898 3cbe 1b35 ebbd d9fc ea3c
00000090: fdae 133e 341c 49be 499e 05be bc4c 68be
000000a0: 61f8 3ebe f380 3ebe 0b6a 23be 8781 03be
000000b0: 03b4 2e3e 6cb4 543e ce8f 333e 9cc8 5bbe
000000c0: 583d e2bd a567 2fbe 4cfc 423e 8c87 23be
000000d0: 9a66 f03d c55c 0f3e 5522 4ebe fd13 833e
000000e0: 08f6 093e 6c2a 213e e681 5b3e e5dd 55be
000000f0: bec9 943e b4b2 0e3e 9b87 c33e e0bc 77be
00000100: dd09 9a3e 672c 003e 6502 31be de99 49be
00000110: aaf5 4ebe 3143 81be 1ada 143e 4c98 283e
00000120: d686 5b3e d97a dd3d 6599 a9bd bbbc 173e
00000130: b4a3 bfbe 419e 79be 0224 433e 1589 32be
00000140: da04 36be 81e4 87be 01f0 21be 2997 64be
00000150: cdd1 d2be c4c3 c93d 7fb0 a4bd 5845 8a3c
00000160: b0d1 3fbd e274 2e3e 243d 653e 8b34 0e3e
00000170: 542d 4d3e 1626 7e3e 8bff 313e a524 513e
00000180: bc72 05be 4010 8abe 5af8 40be 0138 153e
00000190: e160 1cbe 8749 41be bf23 ee3d 749f a53d
000001a0: b103 fbbd 0667 4ebe 7b55 75bd 24ca f13d
000001b0: d4fe 053e 78df 34be fc45 e03d f5bc b03e
000001c0: 20df a1bd 22ea 91bd 2813 92be ca58 81be
000001d0: f3bc 9abd 9391 91be e880 89be aba7 313e
000001e0: fa2c 42be a95c 1a3b 2e97 4b3e 7377 343e
000001f0: ff42 9e3d 7ed4 92be f9c4 31be c4cc ca3d
0.22409227 0.045972645 -0.084081985 -0.11154211 -0.31889552 0.2816101 -0.08584677 -0.14012046
-0.061364207 0.065100394 0.16451561 -0.15462029 0.14254361 -0.13662563 -0.24982953 0.15735179
-0.12767266 -0.16506925 0.07071554 -0.12158233 0.16978212 -0.14463599 0.24315518 0.0595159
0.08221306 0.26920068 0.19402634 0.03962192 -0.17035742 0.045493703 -0.12600113 -0.14701758
0.19826642 -0.18417466 -0.114847384 0.02868502 0.14422221 -0.19639665 -0.13048662 -0.22685522
-0.18649437 -0.18603878 -0.15958421 -0.1284238 0.17060857 0.2077195 0.17535326 -0.21463245
-0.11046857 -0.17129381 0.19041556 -0.15969676 0.1173832 0.14000233 -0.20130284 0.25601187
0.1347276 0.15738839 0.21436271 -0.20885427 0.29060167 0.13935357 0.38189396 -0.24193144
0.3008565 0.12516938 -0.1728607 -0.19687602 -0.20210901 -0.25246575 0.14536324 0.16464347
0.21438155 0.10814447 -0.08281211 0.14818089 -0.37429583 -0.24376775 0.19056705 -0.17435105
-0.17775288 -0.26541522 -0.1581421 -0.22323288 -0.4117569 0.098517925 -0.080414765 0.016878769
-0.046830833 0.17036775 0.22386605 0.13887231 0.20036823 0.24819216 0.17382638 0.20424135
-0.13032049 -0.26965523 -0.18844739 0.14572145 -0.15271331 -0.18875705 0.11627912 0.08087054
-0.122565635 -0.20156488 -0.059895974 0.118061334 0.1308549 -0.17663372 0.109508485 0.34519163
-0.07903886 -0.071247354 -0.2853024 -0.25263053 -0.075555705 -0.28431377 -0.2685616 0.17349117
-0.1896247 0.0023553765 0.19881889 0.17623691 0.07727622 -0.28677744 -0.17360295 0.09902337

critic_network.4.weight f4 [1, 128]
00000000: 281a c3c0 b608 d8c0 48b7 c340 0013 d040
00000010: 4a75 c440 2596 c3c0 818c cd40 4786 eb40
00000020: a17d cd40 c600 e1c0 cd57 c4c0 2daf e540
00000030: 9f2e dec0 4f49 cd40 a927 e040 bb92 c5c0
00000040: 4bb3 c340 3722 c440 af3f c3c0 bf5a c540
00000050: 43d3 d7c0 ad8f cc40 f75d c2c0 850c c8c0
00000060: 5e08 e4c0 90aa c3c0 6f4d c3c0 bf5c e1c0
00000070: cd9f ce40 6d0a e3c0 efaa c440 1c22 c240
00000080: ac07 eac0 0677 cc40 9875 e940 85f9 d0c0
00000090: 52df e0c0 bdbb cd40 c4c0 e540 3641 ed40
000000a0: 5fc1 e340 de38 eb40 5bf6 ea40 1020 db40
000000b0: fe9a e3c0 6ff0 c4c0 01e7 c4c0 378e ca40
000000c0: 021b ce40 41b0 cb40 318c c4c0 f494 c240
000000d0: a003 ccc0 ab8c c5c0 89fb c240 3f93 ecc0
000000e0: c6b8 cec0 210f c9c0 eb82 cec0 321f c540
000000f0: ed41 cdc0 7b54 c3c0 84a0 cdc0 aeed ec40
00000100: 4e2e c3c0 7eef e7c0 ba66 de40 b22d cd40
00000110: b282 c540 dc78 c340 f7f8 d9c0 a3ff d7c0
00000120: 76f9 ccc0 d7a9 e2c0 5449 d240 f55d edc0
00000130: 07ff c440 0dc6 c240 d06c eac0 732c cd40
00000140: 4212 cf40 043b c440 1cc0 cd40 3646 cf40
00000150: 0a7b c340 1c03 c9c0 cd6c dc40 683c d6c0
00000160: 15dc d640 e5e1 cfc0 432c cbc0 2ce1 e0c0
00000170: acf1 c9c0 bb09 c4c0 09e5 c2c0 ee3a dec0
00000180: 332f e240 9361 c440 3cf1 dc40 e115 ebc0
00000190: c8d3 c340 ba56 ce40 c5b0 ddc0 a64f cec0
000001a0: 7ff1 cb40 a3d2 ce40 5cee e240 62e0 cbc0
000001b0: 868a ccc0 180c ce40 d97a c4c0 3413 ebc0
000001c0: 3c38 e240 1474 db40 b650 c340 f079 cc40
000001d0: 9318 cd40 5d48 c440 db19 cd40 fb53 cdc0
000001e0: 0ab7 de40 290d e440 6540 c5c0 b843 cec0
000001f0: 9a27 e2c0 2716 c440 ed17 cd40 52c1 cac0
-6.096943 -6.7510633 6.116123 6.5023193 6.1393175 -6.112078 6.4234014 7.3601413
6.4215856 -7.0313444 -6.135718 7.177634 -6.943191 6.415199 7.0048413 -6.1741614
6.1156363 6.1291766 -6.101524 6.1673274 -6.744539 6.3925385 -6.0739703 -6.2515283
-7.1260214 -6.1145706 -6.1032023 -7.0425715 6.457007 -7.0950227 6.145866 6.0666637
-7.3134365 6.389529 7.2956047 -6.530459 -7.027261 6.4291673 7.179781 7.4142103
7.117355 7.350692 7.3425727 6.847664 -7.11267 -6.15435 -6.1531987 6.32986
6.440797 6.3652654 -6.142113 6.0806828 -6.3754425 -6.1734214 6.093205 -7.3929744
-6.4600554 -6.283097 -6.453481 6.160058 -6.4142976 -6.1040626 -6.425844 7.4040136
-6.0994024 -7.247985 6.95004 6.411828 6.172204 6.1085033 -6.811641 -6.7499557
-6.405452 -7.0832324 6.571451 -7.4177194 6.1561313 6.086676 -7.325783 6.411676
6.4709787 6.132204 6.429701 6.4773207 6.1087694 -6.2816296 6.8882813 -6.694874
6.7143655 -6.496325 -6.349153 -7.027487 -6.310751 -6.126188 -6.0904584 -6.9446936
7.0682616 6.136911 6.9044476 -7.346421 6.119602 6.4480867 -6.9278283 -6.4472227
6.3732295 6.4632125 7.0915966 -6.3711405 -6.3919096 6.4389763 -6.139996 -7.346094
7.0693645 6.8579197 6.1036024 6.389885 6.40925 6.1338334 6.409406 -6.4165015
6.9598436 7.1266065 -6.1641107 -6.4457664 -7.067334 6.127704 6.4091706 -6.3360987
