src/rl/model/critic_model15-08-2024_20-47-30/8120.pt (torch, 83007 bytes, 5 tensors)

critic_network.0.weight f4 [128, 27]
-1.0580915 -0.72936857 -0.2892642 -2.2058241 -0.7840911 -0.27596274 0.29449314 0.13506652
-0.65646213 0.21369486 -0.21064076 -0.36674812 -2.0072773 0.02412149 0.17318049 -0.088594735
-0.029524535 -0.25933316 0.1573047 -0.010447031 0.05564377 -0.11552832 0.692171 -0.7867619
0.42025724 -0.67768466 0.55966824 0.18284813 -0.011923251 -0.07790902 -0.05274863 -0.06943776
0.1103696 -0.10455765 0.075431846 -0.18461566 0.06870708 0.11099776 -0.10385438 -0.61285937
0.13013887 -0.20333123 0.043516364 -0.08835264 0.20497482 -0.30695555 0.22434723 -0.10087973
0.10127185 -0.10324386 -0.20149003 -0.0152781205 0.2782028 0.098609924 0.15935577 -1.1438133
-0.39207622 0.045555115 0.72033006 -0.4506692 -0.1419252 0.45716944 0.50372636 -0.028284587
0.5012981 -0.04405354 0.97354084 0.019532172 0.010313328 -0.24273492 -0.08271074 -0.0028131742
0.351235 0.17407416 -0.22837216 0.12732072 -0.5326958 0.5872246 -0.02271393 0.70075977
-0.049742334 0.12182058 -0.19829881 -0.26150405 -0.0027314462 -0.04110657 0.11823218 0.37433353
0.7277249 -0.12741978 -0.009665867 0.27752465 0.1613654 -0.115984514 -0.12450149 -0.5073532
-0.5284694 -0.41989753 0.1627943 -0.24336837 -0.33957672 -0.28008488 0.027229007 1.302909
-0.37374547 -0.4018118 -0.34631997 -0.21658497 0.35680294 -0.8433533 0.079397224 0.36520627
0.5921978 0.23634966 0.13380416 0.2670605 0.0022300386 -0.031081576 -0.026734306 -0.05106378
-0.44056472 0.05088299 0.232148 0.12151845 0.19067112 -0.050985742 0.18727806 0.33040756
0.44872275 0.047153488 0.08539203 0.37731066 0.37879 0.15878868 0.38342953 0.3013621
-0.7810304 0.15624712 0.8753079 -0.306018 0.17415664 0.15497097 1.3668047 0.3442093
0.8018799 0.216282 -0.32858133 -0.25945914 -0.08027396 0.005861725 -0.07499784 -0.061378624
-0.025472691 0.23379031 -0.053417925 -0.24506435 -0.015414129 0.26137605 0.20480219 0.22057433
0.22804542 0.12937005 0.17831089 0.13925949 -0.16609305 0.911281 0.27240807 0.9407621
-1.2341833 -1.4210072 0.9901218 -0.53588784 -0.7527282 0.27690232 -0.7173625 -0.27808195
-0.689128 -0.31139275 0.13110535 0.21269993 0.83242315 -0.25430718 -0.31733447 -0.4852682
-1.5813669 -0.3614712 -0.31943867 -1.1152018 -0.607286 0.10401802 -0.6212563 0.2139518
0.058530167 0.3760734 -0.83815306 0.053112183 -0.36008245 -0.28465566 0.18046767 -1.0188915
0.4460501 -0.5142512 0.23014143 -0.18972065 -0.4399888 -0.55350107 -0.28185594 -3.7335913
-0.34469682 -0.32108733 -0.18221633 0.24213518 -0.52684015 -0.6111453 -0.57670814 -0.36095682
0.06941002 0.08078931 0.031027345 -0.33248433 0.22401167 0.42037582 -0.53983873 -0.5565351
-0.84379524 -0.15817027 0.052460715 -0.046804447 0.03820368 -0.1788342 -0.45985946 -0.026906468
0.06169061 1.3168867 -0.57642645 -0.30822694 -0.047807194 0.058385547 -0.28006613 -0.21373622
-0.30585417 -0.31110844 -0.50652933 -1.2120492 -0.4482469 -0.3864897 -0.825226 -1.6462561
0.33379278 -0.511923 -0.5793431 0.5145488 0.10026903 0.09993841 0.21882924 0.09385127
00000000: 8b6f 87bf e6b7 3abf 701a 94be 392c 0dc0
00000010: 32ba 48bf fd4a 8dbe cec7 963e e14e 0a3e
00000020: e70d 28bf d3d2 5a3e 36b2 57be 69c6 bbbe
00000030: 3b77 00c0 6e9a c53c 3a56 313e 2871 b5bd
00000040: 70dd f1bc 51c7 84be 7c14 213e 062a 2bbc
00000050: b9ea 633d 1d9a ecbd 1e32 313f 3a69 49bf
00000060: f52b d73e be7c 2dbf 6b46 0f3f 8a3c 3b3e
00000070: bd59 43bc c48e 9fbd f30e 58bd 6235 8ebd
00000080: 7509 e23d 5222 d6bd 037c 9a3d e30b 3dbe
00000090: 4cb6 8c3d cb52 e33d 9bb1 d4bd 5ae4 1cbf
000000a0: 2043 053e 1036 50be 373e 323d 3bf2 b4bd
000000b0: ebe4 513e 4729 9dbe 48bb 653e 089a cebd
000000c0: 9e67 cf3d 8471 d3bd 6753 4ebe 1551 7abc
000000d0: 9970 8e3e 00f4 c93d 292e 233e 7968 92bf
000000e0: 37be c8be 0098 3a3d 8d67 383f 1dbe e6be
000000f0: d754 11be 1d12 ea3e 36f4 003f 14b5 e7bc
00000100: 1355 003f 7c71 34bd f939 793f ef01 a03c
00000110: 3cf9 283c 818f 78be 4064 a9bd 3b5d 38bb
00000120: 13d5 b33e 7f40 323e 64da 69be 5d60 023e
00000130: c05e 08bf 5a54 163f 9012 babc fe64 333f
00000140: 9ebe 4bbd 117d f93d d80e 4bbe dce3 85be
00000150: 1002 33bb 5d5f 28bd b723 f23d a5a8 bf3e
00000160: 2e4c 3a3f 557a 02be 965d 1ebc b617 8e3e
00000170: f93c 253e 4a89 edbd a3fa febd e6e1 01bf
00000180: c549 07bf cffc d6be 8db3 263e 8f35 79be
00000190: 00dd adbe 4967 8fbe 5e0f df3c b9c5 a63f
000001a0: 915b bfbe 47ba cdbe da50 b1be 73c8 5dbe
000001b0: e0ae b63e 00e6 57bf 039b a23d 51fc ba3e
000001c0: 469a 173f a505 723e f503 093e 27bc 883e
000001d0: d725 123b ca9e febc e701 dbbc 4128 51bd
000001e0: b391 e1be af6a 503d 35b8 6d3e aade f83d
000001f0: 4a3f 433e 6dd6 50bd d2c5 3f3e 2e2b a93e
00000200: fdbe e53e 0424 413d 04e2 ae3d dd2e c13e
00000210: c3f0 c13e 8099 223e e050 c43e 224c 9a3e
00000220: 9cf1 47bf 3fff 1f3e 2e14 603f 64ae 9cbe
00000230: 1e56 323e b6b0 1e3e 75f3 ae3f 343c b03e
00000240: 0048 4d3f 0779 5d3e d03b a8be d4d7 84be
00000250: ad66 a4bd b713 c03b 7898 99bd 2768 7bbd
00000260: 1bac d0bc ba66 6f3e c1cc 5abd 26f2 7abe
00000270: 8b8b 7cbc 15d3 853e aab7 513e 3dde 613e
00000280: bd84 693e 9579 043e 2197 363e 0a9a 0e3e
00000290: 4c14 2abe b649 693f 1279 8b3e c9d5 703f
000002a0: b8f9 9dbf 90e3 b5bf 9f78 7d3f f22f 09bf
000002b0: ccb2 40bf 24c6 8d3e 12a5 37bf c260 8ebe
000002c0: b16a 30bf df6e 9fbe 7b40 063e 03ce 593e
000002d0: af19 553f 8d34 82be aa79 a2be 1375 f8be
000002e0: 3b6a cabf c112 b9be 778d a3be efbe 8ebf
000002f0: 1877 1bbf 6607 d53d a70a 1fbf 2e16 5b3e
00000300: 54bd 6f3d b18c c03e 3391 56bf 298c 593d
00000310: ba5c b8be 63be 91be 84cc 383e 096b 82bf
00000320: ae60 e43e f7a5 03bf 32aa 6b3e 2146 42be
00000330: 3646 e1be 3fb2 0dbf 6c4f 90be 29f3 6ec0
00000340: 1a7c b0be 8f65 a4be eb96 3abe 49f2 773e
00000350: ffde 06bf 0574 1cbf 25a3 13bf 55cf b8be
00000360: d726 8e3d de74 a53d 0f2d fe3c 633b aabe
00000370: 5163 653e 803b d73e df32 0abf 1679 0ebf
00000380: f702 58bf 63f7 21be 0ce1 563d 05b6 3fbd
00000390: 767b 1c3d 5020 37be b372 ebbe f46a dcbc
000003a0: 4baf 7c3d be8f a83f af90 13bf eccf 9dbe
000003b0: 7ad1 43bd af25 6f3d d464 8fbe abdd 5abe
000003c0: eb98 9cbe 9b49 9fbe e8ab 01bf 6e24 9bbf
000003d0: 9e80 e5be fae1 c5be 0342 53bf 85b8 d2bf
000003e0: e3e6 aa3e 630d 03bf d44f 14bf 78b9 033f
000003f0: d959 cd3d 82ac cc3d c614 603e 1835 c03d

critic_network.0.bias f4 [128]
0.36030862 -0.38097456 -0.43102935 -0.25293 -0.12082127 -0.18728296 -0.45963487 -0.64504296
-0.4636665 -0.24265705 0.5466389 -0.21558644 0.3038668 -0.36460024 0.67056686 -0.16486408
-0.36495137 0.23392858 -0.23356679 0.4624705 -0.06655946 0.23319983 -0.050160266 -0.26631916
-0.14285508 0.16116118 0.18755832 -0.16187729 -0.14780986 0.20452425 -0.05322216 -0.006529874
-0.12740687 0.26526135 0.18375674 0.044493567 0.43107814 0.3559368 0.49458113 -0.1848832
0.31936702 -0.40908274 -0.4670879 -0.57863474 -0.49763045 0.44575074 0.61522394 -0.25392026
0.32007694 0.566843 -0.6075021 -0.40450308 -0.5364776 0.4162267 -0.106893726 -0.4459615
0.5780881 0.73613995 -0.21323565 -0.260568 0.73769474 -0.47941476 0.26228347 0.37203857
-0.38970006 0.20557988 -0.23463129 -0.55358547 0.39683723 0.4296422 0.3359675 0.3670622
0.3281081 -0.32470846 0.26105055 0.44395015 -0.21925408 0.24071234 -0.20254974 0.41631317
-0.5149605 0.37168998 0.51859057 -0.53739214 0.6106111 -0.17125061 0.12123019 -0.27680305
0.09704915 -0.4603136 -0.048981316 -0.06939192 0.4786813 0.6759553 0.278155 -0.24929011
-0.31120145 -0.18407437 0.02323208 -0.43615124 0.09748779 0.36852226 -0.34498677 0.29940426
0.316798 -0.19141167 -0.21020588 0.33548248 -0.268903 -0.3434442 -0.1361772 0.5997391
-0.37645045 0.39960405 -0.5370595 0.20046017 0.3357224 0.37249726 0.33376387 -0.44701606
-0.229132 -0.44650596 0.6569867 -0.07818897 -0.4864804 -0.018218357 -0.0021844485 0.5095274
00000000: 5f7a b83e 190f c3be e1af dcbe 0a80 81be
00000010: 2471 f7bd 1bc7 3fbe 4355 ebbe 8921 25bf
00000020: b265 edbe 177b 78be 87f0 0b3f b1c2 5cbe
00000030: 6e94 9b3e e2ac babe 45aa 2b3f 21d2 28be
00000040: e8da babe f98a 6f3e 222c 6fbe efc8 ec3e
00000050: 5350 88bd f0cb 6e3e da74 4dbd fc5a 88be
00000060: 9a48 12be 7007 253e 4a0f 403e 29c3 25be
00000070: 785b 17be ce6e 513e 7bff 59bd 8ef8 d5bb
00000080: f276 02be 56d0 873e ba2a 3c3e e33e 363d
00000090: 46b6 dc3e 593d b63e bd39 fd3e 0652 3dbe
000000a0: 1384 a33e 4b73 d1be 2526 efbe 6821 14bf
000000b0: 6bc9 febe 7139 e43e 517f 1d3f d601 82be
000000c0: 20e1 a33e 9f1c 113f 4285 1bbf 071b cfbe
000000d0: 9956 09bf ab1b d53e 19eb dabd 1155 e4be
000000e0: 95fd 133f ab73 3c3f 725a 5abe 2b69 85be
000000f0: 90d9 3c3f da75 f5be 054a 863e d77b be3e
00000100: c486 c7be 8883 523e 2f43 70be c7b7 0dbf
00000110: 402e cb3e 10fa db3e ef03 ac3e 94ef bb3e
00000120: c9fd a73e 3040 a6be 6ba8 853e 6f4d e33e
00000130: 2484 60be 4c7d 763e 3369 4fbe 0027 d53e
00000140: 74d4 03bf 264e be3e 5ac2 043f 8892 09bf
00000150: 0251 1c3f 525c 2fbe 8947 f83d 21b9 8dbe
00000160: b4c1 c63d 39ae ebbe a2a0 48bd 5a1d 8ebd
00000170: b715 f53e 680b 2d3f 556a 8e3e e845 7fbe
00000180: cc55 9fbe fe7d 3cbe 3451 be3c 374f dfbe
00000190: aea7 c73d f3ae bc3e 1ba2 b0be 844b 993e
000001a0: 5933 a23e 6c01 44be 3640 57be 5cc4 ab3e
000001b0: a7ad 89be ebd7 afbe 0972 0bbe 8088 193f
000001c0: 1dbe c0be e798 cc3e bb7c 09bf 6e45 4d3e
000001d0: cee3 ab3e f6b7 be3e 19e3 aa3e 4adf e4be
000001e0: 94a1 6abe 6e9c e4be 4830 283f 8a21 a0bd
000001f0: f613 f9be aa3e 95bc f728 0fbb 6370 023f

critic_network.2.weight f4 [128, 128]
0.063275196 -0.08995057 -0.0064652557 -0.17354299 -0.0069001773 -0.07411158 -0.23168181 -0.40782902
-0.3281289 -0.019346923 0.37851438 -0.26522475 0.082764745 0.017624203 0.17937796 0.04308662
-0.107104674 0.0855354 -0.28563192 0.23474886 -0.19630681 0.11194347 -0.03125528 0.110106066
-0.06747381 0.018345948 -0.030601226 -0.17738701 0.007699313 0.24460337 -0.049982946 0.12222536
0.021867204 0.022447834 0.046411272 0.13030525 0.00021151644 -0.051302724 0.22570671 -0.02589462
0.13709384 -0.10095078 -0.2384495 -0.2430597 -0.07169048 -0.112912 0.2618737 -0.008359441
0.29509237 0.33014938 -0.19962579 -0.04250519 -0.16375741 0.12166798 -0.07983523 -0.17603712
0.35885903 0.23140931 0.19387324 -0.010241363 0.15313533 -0.17625219 0.05399557 0.26327583
-0.055546947 -0.048394404 -0.17543527 -0.28032565 0.27749753 0.26741037 0.17194946 0.016713796
0.1024267 -0.23388657 0.2029877 0.28299263 0.051169973 0.14803974 -0.15408108 0.14300968
-0.22627623 0.22921446 0.14898668 -0.033445906 0.20505664 -0.04826519 0.094247125 -0.17644818
0.13373251 -0.30755493 -0.07880667 0.061950665 0.20964903 0.19562398 0.29180476 -0.32934287
-0.16484927 -0.006431542 0.32335988 -0.17200696 0.079337195 0.11019962 -0.222082 0.03831904
-0.0034144695 -0.071471855 -0.17125238 0.015429034 -0.08736787 -0.22563633 -0.26134187 0.28203687
-0.012462413 0.3247575 -0.30006173 0.23311213 0.19594327 0.15284702 0.072593704 -0.32785118
0.15429501 0.039954316 0.21618992 -0.15183754 -0.33507854 -0.12055581 -0.05489188 0.0826338
-0.87469363 -0.23725799 0.16861379 0.0048260405 -0.382282 -0.44244343 -0.041211788 0.14734907
-0.017575542 0.3249612 0.19911005 -0.21112438 -0.19252776 -0.6672705 0.0038217164 -0.27450633
0.31339976 -0.2995917 0.009067681 0.073922224 0.41392654 0.26682228 -0.37405124 0.24831846
-0.07891099 -0.105283156 0.17553759 0.0524436 -0.15253125 0.19237472 -0.28867063 -0.17612454
0.00080440566 0.13779603 -0.34197068 0.6113153 -0.27083942 -0.62486607 0.08987934 0.24794926
0.12681147 0.09704815 0.23569798 -0.08695245 0.35809213 -1.19956 0.04866929 0.6484979
-0.020142773 0.1477493 -0.112086974 0.51900053 -0.037411638 0.06311951 -0.5511101 -0.045481697
0.11148723 0.15916784 0.20626244 0.39149353 0.02970247 -0.1538384 0.25609234 0.10842802
0.45922822 -0.4389812 -0.45259607 -0.084529854 0.12990652 0.034381684 0.10081295 -0.2969417
0.11118209 -0.10679515 -0.026320744 0.11008129 0.3083217 -0.059140492 0.22146486 0.08158999
0.12828062 0.25704736 -0.9337522 0.84865683 0.04805699 0.28149018 -0.05147653 0.071002334
0.12902042 -0.03828151 -0.29667222 0.25771552 -0.12520178 0.0966539 -0.023784399 0.11104749
-0.11170508 0.18483461 -0.32721198 -0.035435732 -0.5292987 -0.01807773 0.0017932111 0.05025826
-0.5107884 0.29800928 0.654545 -0.39031947 0.063980564 -0.061953206 0.16427332 -0.02609113
0.5033971 0.175341 -0.15641181 0.16078018 0.07699303 0.1745501 -0.7858955 -0.13572094
0.25287583 0.55592304 0.085504994 0.33563095 -0.10583253 -0.12871088 0.060993176 -0.14510404
00000000: 6d96 813d 0138 b8bd 7fda d3bb 41b5 31be
00000010: e21a e2bb d0c7 97bd ff3d 6dbe f7ce d0be
00000020: 8300 a8be 707d 9ebc a3cc c13e 8acb 87be
00000030: 9080 a93d a260 903c dbae 373e 987b 303d
00000040: b259 dbbd 2f2d af3d 593e 92be 0162 703e
00000050: a704 49be 9e42 e53d 8905 00bd 4a7f e13d
00000060: b52f 8abd 3e4a 963c 6caf fabc f1a4 35be
00000070: 854a fc3b 4e79 7a3e ebba 4cbd 4a51 fa3d
00000080: da22 b33c 85e4 b73c bf19 3e3d bd6e 053e
00000090: 83ca 5d39 ce22 52bd a91f 673e f420 d4bc
000000a0: 5462 0c3e 48bf cebd 1b2c 74be a4e4 78be
000000b0: 75d2 92bd 683e e7bd 4f14 863e 09f6 08bc
000000c0: 5916 973e 5709 a93e b46a 4cbe ec19 2ebd
000000d0: 06b0 27be 102d f93d a780 a3bd 1343 34be
000000e0: 5fbc b73e 90f6 6c3e b586 463e 64cb 27bc
000000f0: 82cf 1c3e 747b 34be 752a 5d3d 17cc 863e
00000100: 3285 63bd 3639 46bd 4ea5 33be d886 8fbe
00000110: 2814 8e3e 03ea 883e 8513 303e 5feb 883c
00000120: 17c5 d13d f67f 6fbe 02dc 4f3e 69e4 903e
00000130: 9b97 513d bb97 173e 6ec7 1dbe 2171 123e
00000140: f5b4 67be 32b7 6a3e f78f 183e 93fe 08bd
00000150: 5efa 513e b8b1 45bd a304 c13d d5ae 34be
00000160: 2df1 083e d777 9dbe 6465 a1bd fbbf 7d3d
00000170: 3cae 563e a751 483e 6f67 953e a19f a8be
00000180: 3fce 28be afbf d2bb 6d8f a53e 9822 30be
00000190: 8a7b a23d 57b0 e13d 7769 63be 6df4 1c3d
000001a0: 4bc5 5fbb d65f 92bd c95c 2fbe 0fca 7c3c
000001b0: eded b2bd 360d 67be 9ace 85be 2367 903e
000001c0: 262f 4cbc 9d46 a63e b1a1 99be f2b4 6e3e
000001d0: 5aa5 483e ee83 1c3e 02ac 943d 1cdc a7be
000001e0: 83ff 1d3e 23a7 233d e460 5d3e 4d7b 1bbe
000001f0: 6a8f abbe f7e5 f6bd 4fd6 60bd e93b a93d
00000200: eceb 5fbf c2f3 72be 18a9 2c3e c323 9e3b
00000210: 77ba c3be f287 e2be b1cd 28bd ade2 163e
00000220: 95fa 8fbc 5061 a63e 81e3 4b3e fd30 58be
00000230: ff25 45be 3dd2 2abf c375 7a3b 188c 8cbe
00000240: ef75 a03e 1564 99be 9c90 143c 8964 973d
00000250: 2eee d33e ee9c 883e a583 bfbe 3247 7e3e
00000260: 169c a1bd b29e d7bd 20c0 333e 1acf 563d
00000270: 2731 1cbe e1fd 443e a3cc 93be fe59 34be
00000280: c0de 523a 671a 0d3e c816 afbe 297f 1c3f
00000290: 77ab 8abe 39f7 1fbf a912 b83d 69e6 7d3e
000002a0: deda 013e 2ec1 c63d d05a 713e 2014 b2bd
000002b0: da57 b73e 2f8b 99bf 7359 473d f503 263f
000002c0: 7502 a5bc 984b 173e db8d e5bd 38dd 043f
000002d0: f23c 19bd cd44 813d 8d15 0dbf 044b 3abd
000002e0: 6b53 e43d e5fc 223e 7636 533e d771 c83e
000002f0: 9852 f33c d087 1dbe 891e 833e 820f de3d
00000300: f61f eb3e 25c2 e0be acba e7be fd1d adbd
00000310: 3706 053e cfd3 0c3d 0577 ce3d be08 98be
00000320: 70b3 e33d 6ab7 dabd 9a9e d7bc 4d72 e13d
00000330: 58dc 9d3e 4d3d 72bd afc7 623e a718 a73d
00000340: ff5b 033e b69b 833e 620a 6fbf 9341 593f
00000350: 68d7 443d 7b1f 903e 0ed9 52bd ac69 913d
00000360: ee1d 043e 13cd 1cbd 6ce5 97be 4af3 833e
00000370: e534 00be 7bf2 c53d 80d7 c2bc de6c e33d
00000380: a2c5 e4bd 4945 3d3e 5488 a7be 0f25 11bd
00000390: 1f80 07bf bf17 94bc 2e0a eb3a 9bdb 4d3d
000003a0: 07c3 02bf ac94 983e 4390 273f f4d7 c7be
000003b0: 3e08 833d a5c2 7dbd 4437 283e 11bd d5bc
000003c0: a2de 003f 978c 333e 6b2a 20be 8fa3 243e
000003d0: 86ae 9d3d 43bd 323e 7330 49bf 6efa 0abe
000003e0: f178 813e f950 0e3f 3e1d af3d d2d7 ab3e
000003f0: babe d8bd c9cc 03be fbd3 793d 2796 14be

critic_network.2.bias f4 [128]
0.2240553 0.045260184 -0.084292874 -0.111574836 -0.31880072 0.28156617 -0.07643961 -0.14079659
-0.064532794 0.06551056 0.16447061 -0.15443331 0.14197753 -0.13633731 -0.24857533 0.15729707
-0.12762739 -0.16501452 0.073987044 -0.12431394 0.16554931 -0.14666449 0.24316835 0.056400992
0.08355762 0.26920903 0.19405007 0.03836058 -0.17020644 0.04443542 -0.1259207 -0.146982
0.19900097 -0.17700621 -0.11580033 0.026386298 0.14444393 -0.18683724 -0.12777317 -0.22783004
-0.18532242 -0.18380468 -0.16007902 -0.1280117 0.17302684 0.20640503 0.1751809 -0.21208507
-0.11034872 -0.17156512 0.19033684 -0.15961733 0.1087727 0.13995753 -0.20124283 0.25590992
0.13558586 0.15016559 0.21379004 -0.20881441 0.2919647 0.13931142 0.3825159 -0.24392769
0.30081144 0.12525977 -0.17255661 -0.19836664 -0.20083535 -0.25259534 0.14563647 0.16305809
0.2108008 0.10571291 -0.08286435 0.14803466 -0.37435293 -0.24360989 0.19151768 -0.16680853
-0.17951569 -0.2653717 -0.15349965 -0.22463508 -0.41178036 0.10062118 -0.08039472 0.01601906
-0.049165286 0.18421134 0.2261819 0.13654748 0.20027693 0.24816118 0.1738307 0.20515172
-0.13069387 -0.26966858 -0.18708491 0.14514641 -0.15263785 -0.1966748 0.11414627 0.075230755
-0.11808643 -0.19927567 -0.057802074 0.11911414 0.13929431 -0.18044296 0.109428026 0.34352034
-0.07703645 -0.07292911 -0.28526095 -0.25604016 -0.06772106 -0.28426087 -0.27386615 0.16982003
-0.18680677 0.0029099062 0.19883193 0.1683952 0.078577794 -0.28676078 -0.17024513 0.0952649
00000000: c16e 653e be62 393d bea1 acbd 5981 e4bd
00000010: d939 a3be 7129 903e 5f8c 9cbd fb2c 10be
00000020: c529 84bd 672a 863d fc6a 283e c423 1ebe
00000030: 8f62 113e 029c 0bbe 888a 7ebe 7c12 213e
00000040: c1b0 02be 91f9 28be 8586 973d 4f98 febd
00000050: c285 293e 372f 16be 2001 793e ba04 673d
00000060: 4220 ab3d c4d5 893e 10b5 463e fc1f 1d3d
00000070: 994a 2ebe ea01 363d 5bf1 00be 7382 16be
00000080: e9c6 4b3e 1e41 35be b928 edbd 1428 d83c
00000090: 1ce9 133e 4352 3fbe f8d6 02be 474c 69be
000000a0: 29c5 3dbe 4b37 3cbe c1eb 23be 8015 03be
000000b0: f32d 313e d75b 533e 9f62 333e d42c 59be
000000c0: 82fe e1bd c4ae 2fbe a9e7 423e ba72 23be
000000d0: 39c4 de3d 0751 0f3e 9a12 4ebe a006 833e
000000e0: 05d7 0a3e 02c5 193e c7eb 5a3e 72d3 55be
000000f0: 667c 953e a7a7 0e3e 20d9 c33e 2ec8 79be
00000100: f503 9a3e 1944 003e aeb2 30be a020 4bbe
00000110: c8a7 4dbe 2d54 81be ba21 153e b3f8 263e
00000120: 2adc 573e 0380 d83d c9b4 a9bd 6696 173e
00000130: 30ab bfbe df74 79be 361d 443e dbcf 2abe
00000140: f6d2 37be cdde 87be 032f 1dbe bd06 66be
00000150: e0d4 d2be 7a12 ce3d fda5 a4bd 673a 833c
00000160: 8a61 49bd e6a1 3c3e 3a9c 673e 1ad3 0b3e
00000170: 6515 4d3e f71d 7e3e ad00 323e 4b13 523e
00000180: 9dd4 05be 0012 8abe 3093 3fbe 43a1 143e
00000190: 194d 1cbe 1e65 49be 85c5 e93d 9512 9a3d
000001a0: 4cd7 f1bd ec0e 4cbe dec1 6cbd 1df2 f33d
000001b0: 2ba3 0e3e 0ac6 38be cd1b e03d e6e1 af3e
000001c0: 49c5 9dbd db5b 95bd b90d 92be b217 83be
000001d0: 57b1 8abd a48a 91be 2f38 8cbe 4de5 2d3e
000001e0: 464a 3fbe 20b4 3e3b 999a 4b3e cb6f 2c3e
000001f0: 65ed a03d 4fd2 92be bd54 2ebe 3e1a c33d

critic_network.4.weight f4 [1, 128]
-6.1072416 -6.7531166 6.12185 6.51203 6.1496162 -6.122377 6.429124 7.377651
6.427945 -7.0564923 -6.1460166 7.192616 -6.9549637 6.421125 7.018561 -6.18446
6.125935 6.1394753 -6.111884 6.178706 -6.7650166 6.409234 -6.084269 -6.25706
-7.158619 -6.1248693 -6.113501 -7.0644336 6.473586 -7.124745 6.1561646 6.0769625
-7.33723 6.3956428 7.313496 -6.5452166 -7.0382667 6.4359264 7.1954546 7.4463
7.1542335 7.3664284 7.367134 6.8678164 -7.1373725 -6.1646924 -6.1634974 6.336556
6.4472976 6.371286 -6.152412 6.0909815 -6.382037 -6.18372 6.1035037 -7.4209614
-6.5014105 -6.2893867 -6.45925 6.1703568 -6.420645 -6.1143613 -6.4315057 7.4200063
-6.109701 -7.267034 6.970162 6.418369 6.182501 6.119033 -6.8300385 -6.7610087
-6.412057 -7.104153 6.5859447 -7.437391 6.16643 6.096975 -7.3559947 6.4174776
6.4833446 6.142503 6.4357514 6.4831986 6.119068 -6.286031 6.9008994 -6.714366
6.7312603 -6.5023932 -6.3553534 -7.067424 -6.328896 -6.1364865 -6.100757 -6.97109
7.0895433 6.1472096 6.9165707 -7.36216 6.129901 6.4539337 -6.959867 -6.4535675
6.379991 6.468192 7.1204705 -6.376944 -6.3976197 6.4448175 -6.150295 -7.386504
7.0929503 6.875436 6.113901 6.3950257 6.4159875 6.144132 6.4154177 -6.422257
6.972264 7.165955 -6.1744094 -6.452351 -7.1068797 6.138003 6.415773 -6.3426166
00000000: 866e c3c0 8819 d8c0 32e6 c340 8d62 d040
00000010: a8c9 c440 83ea c3c0 62bb cd40 b815 ec40
00000020: bab1 cd40 c9ce e1c0 2bac c4c0 e929 e640
00000030: 108f dec0 db79 cd40 0d98 e040 19e7 c5c0
00000040: a907 c440 9576 c440 8e94 c3c0 f6b7 c540
00000050: 047b d8c0 7218 cd40 55b2 c2c0 d639 c8c0
00000060: 6813 e5c0 eefe c3c0 cda1 c3c0 d70f e2c0
00000070: 9e27 cf40 e9fd e3c0 4dff c440 7a76 c240
00000080: 97ca eac0 1ba9 cc40 2908 ea40 6a72 d1c0
00000090: 7b39 e1c0 1cf3 cd40 2a41 e640 1748 ee40
000000a0: 7bef e440 c8b9 eb40 90bf eb40 27c5 db40
000000b0: 5b65 e4c0 2945 c5c0 5f3b c5c0 11c5 ca40
000000c0: 4350 ce40 93e1 cb40 8fe0 c4c0 52e9 c240
000000d0: a639 ccc0 09e1 c5c0 e74f c340 8478 edc0
000000e0: 8e0b d0c0 a842 c9c0 2db2 cec0 9073 c540
000000f0: ed75 cdc0 d9a8 c3c0 e5ce cdc0 b170 ed40
00000100: ac82 c3c0 8b8b e8c0 910b df40 4763 cd40
00000110: 0cd7 c540 1ecf c340 ad8f dac0 2f5a d8c0
00000120: 922f cdc0 3955 e3c0 0fc0 d240 1bff edc0
00000130: 6553 c540 6b1a c340 4f64 ebc0 fa5b cd40
00000140: 8f77 cf40 628f c440 adf1 cd40 5d76 cf40
00000150: 68cf c340 2a27 c9c0 2bd4 dc40 16dc d6c0
00000160: 7c66 d740 9b13 d0c0 0e5f cbc0 5628 e2c0
00000170: 5186 cac0 195e c4c0 6739 c3c0 2b13 dfc0
00000180: 8add e240 f1b5 c440 8c54 dd40 d196 ebc0
00000190: 2628 c440 a086 ce40 3bb7 dec0 a083 cec0
000001a0: e328 cc40 6efb ce40 e5da e340 ed0f ccc0
000001b0: 4db9 ccc0 f23b ce40 37cf c4c0 3e5e ecc0
000001c0: 73f9 e240 9203 dc40 14a5 c340 0da4 cc40
000001d0: c54f cd40 bb9c c440 1a4b cd40 2183 cdc0
000001e0: c91c df40 814f e540 c394 c5c0 a979 cec0
000001f0: 8f6b e3c0 856a c440 034e cd40 b7f6 cac0
