src/rl/model/actor_model06-08-2024_15-55-14/10.pt (torch, 82662 bytes, 7 tensors)

logstd f4 [4]
00000000: 307d db3c 9ec7 323d 6448 b43b a8b0 c6bc
0.026793092 0.0436474 0.0055017937 -0.024254158

mean_net.0.weight f4 [128, 23]
00000000: 6a0a 043e b09e 31be d8b1 223e d784 10be
00000010: d114 fd3c 5689 81bd 9940 483e 445c bfbe
00000020: 8be1 4b3f 38c1 64bf c973 0d3e 1f8e 9fbd
00000030: c352 5dbe e224 63bd a5ed d2bc 2371 bc3c
00000040: 6e99 9ebc 5042 08bf 5194 74bd 0125 06be
00000050: 7afd d03e 65da f2be 43ca d7be 9b41 11be
00000060: 0af5 d3bd 5178 933e 7053 a9bc c74b 003e
00000070: a36c 8d3c d65b 8c3d 2800 7e3e 7660 d23e
00000080: 38c4 373e 43ec 80be 4f67 b3bd e73c 003e
00000090: a6c4 ee3c 1109 373e a748 44be 7f79 19be
000000a0: 2702 76bd 3f98 1dbf 8bcd 30be d9b1 bfbe
000000b0: bb9c f13d bcb6 c9be 3bbd 413e cfef a8bd
000000c0: 4552 053d 2651 e539 0ebe 65be ecd7 143e
000000d0: 427e 80be e71d e63e 459f acbf 751b 19bf
000000e0: b433 18bc 2052 03bd bf9c 233c b23e 5abc
000000f0: e031 51bd ab8f 85bc 7b82 423e b1b8 8abe
00000100: b99e b73f 0b2a 6dbd c479 cbbe fcce 57be
00000110: 402e a7be 19d0 8dbd 7fd6 54be d6ce 843d
00000120: 1962 8dbe 519a 583e 6ee5 98bd 6b40 2cbe
00000130: 55c5 63be 870a 0abf ef8a 40be 9a85 303d
00000140: 877d 95bd ecaf 29bc 11d0 41bd 0a0d 9abd
00000150: 1184 9cbd a5a8 83be d596 80be e8ff 2fbd
00000160: 950a 90be 838e 30be 0e0a 83bd f14c 65bd
00000170: 3a77 14bd 2296 2e3e c9d5 9f3d c771 593d
00000180: 30b3 21bd ab9f 163d 65ba 293f d22a a63d
00000190: a764 56bd 91c6 eebd b289 e33d f483 593c
000001a0: e744 85bc e2ae 52bd 9583 3b3e be25 13be
000001b0: 0303 25be 5074 8a3e e9da 3ebf 6698 3abd
000001c0: e711 203e 891b 36be e703 f0bd de45 f0bc
000001d0: fed8 bf3e cd2a 2abc eacd c9be 4bde 2e3e
000001e0: 7612 b43d 7da3 2bbf 3418 b0be 5cc1 6fbe
000001f0: 64f7 b3bd 9562 96bc cedb b63b dcbf 9d3d
00000200: e96d 0b3e e01d 45ba 5d23 073e fc03 2b3d
00000210: 6683 f8be 1f12 1cbe 54c8 c1bd 7584 fd3c
00000220: 8a38 1ebe b8ab d23e 7479 603c e5c8 ca3d
00000230: 6909 d13c 025f 2a3e 64a6 02be 9127 ddbd
00000240: e13f 39bd 8623 4c3e 10c0 7c3e fe13 5a3e
00000250: 46dc 243e c7e4 17be 333b bebc b20f 84bd
00000260: ee09 523d 9cd0 393e e728 3cbe c022 54be
00000270: 28c7 2bbe 4e83 cbbd c786 d93d 09db f83d
00000280: 6cc4 8c3e 5f02 0cbe 8811 b03e 7bdd 5fbd
00000290: 7614 0fbc 09a1 df3b 1934 b6bd 57f8 10bf
000002a0: 498b 623e c63f 7b3c 94e7 b4bd 25b3 2a3b
000002b0: 4b7b 27be fe90 fd3d 5aa9 29be 66e9 4bbe
000002c0: 0577 9f3b 8e0c 01bc dfda 393e 67f2 b33d
000002d0: 1a81 093e 856b 723e cd51 97bd 593f 34be
000002e0: af3a 0a3e b4c2 733e 91d3 b33d 493e 87bd
000002f0: 83d6 15be c2c6 3abe f008 633e 562f eabd
00000300: 553d cebd 8a39 bc3e 1b59 133e cd90 29be
00000310: 15d1 76bc 60bc fa3d c04c 81be 180e 06be
00000320: 6a26 0dbe ea05 55be 67b4 8dbd 79b4 373d
00000330: 8329 313e 953a 68bd 8756 bf3e 8ea2 9bbd
00000340: cc05 a9bd 2d26 92bc 336b 523e 4adb 1ebe
00000350: 9420 4bbe be42 f73e b5a8 97be 319f dfbc
00000360: 6019 cebd fe6d 83be 7ddb 2abd 4548 02be
00000370: 4309 0bbe 1bc7 963c f826 1e3b 68fa 193d
00000380: 4dd2 8dbe 146d 443f 785b 22bd b40f d63d
00000390: ad40 0fbe 4049 dbbe bc6b c03d 2d41 3ebe
000003a0: 5e3c b13b 7c85 4cbc 6faa 4bbd 65ea b6bd
000003b0: b857 30bf fdc6 b03f a6e5 7a3d fb45 5a3e
000003c0: b72e 10be 4cb6 753c c6fe 933d 8274 6cbd
000003d0: 8578 133e 3e2a 893e 04b0 88bd 4706 89be
000003e0: b1bf 91be 03a4 c63d 1c53 04bd c18c d0bd
000003f0: 9712 6cbe 4ae4 51be c22a db3c ace0 103e
0.12894598 -0.1734569 0.15888155 -0.14113174 0.030893715 -0.06325023 0.19555892 -0.3737508
0.79641026 -0.8935733 0.138137 -0.07790779 -0.21613602 -0.055455096 -0.025748083 0.023003167
-0.01936027 -0.53226185 -0.059711758 -0.13100053 0.40818387 -0.47432247 -0.421465 -0.14185183
-0.10349472 0.28802732 -0.020669669 0.12528907 0.017263716 0.06853454 0.24804747 0.4108922
0.17945945 -0.25180253 -0.08759939 0.12523232 0.029146504 0.17874552 -0.1916834 -0.14987753
-0.060060646 -0.61560434 -0.17265908 -0.37440374 0.11797472 -0.39397228 0.18919842 -0.08248865
0.03254916 0.00043738744 -0.22435781 0.14535493 -0.25096327 0.4494469 -1.3486105 -0.5980752
-0.009289671 -0.032060742 0.009986102 -0.013320612 -0.051072955 -0.016303858 0.18995087 -0.27094033
1.4345313 -0.057901423 -0.39741337 -0.21075052 -0.32652473 -0.06924457 -0.20784949 0.06484763
-0.27613905 0.21152617 -0.07465635 -0.16821449 -0.22243245 -0.53922313 -0.18802999 0.043096162
-0.07299333 -0.010356884 -0.04731757 -0.07522018 -0.07642377 -0.25714603 -0.25115076 -0.04296866
-0.28133073 -0.17241864 -0.06398402 -0.05598158 -0.036246516 0.17049459 0.07804448 0.053087022
-0.039477527 0.036773365 0.6630004 0.08113636 -0.052342083 -0.11658967 0.11110248 0.013276089
-0.016268207 -0.051436312 0.18311913 -0.14369866 -0.1611443 0.27041864 -0.7455278 -0.045555495
0.15631829 -0.17783941 -0.11719494 -0.02933019 0.3747024 -0.010386181 -0.39414912 0.17076986
0.08792584 -0.6704634 -0.34393466 -0.23413604 -0.087874204 -0.018357554 0.005580402 0.0770261
0.13616146 -0.00075194053 0.13197084 0.041751847 -0.4853775 -0.15241288 -0.09462038 0.03094695
-0.15451255 0.41146636 0.013700832 0.09901599 0.025517182 0.16637805 -0.12758785 -0.10798562
-0.045226935 0.19935426 0.24682641 0.21296689 0.16099653 -0.14833365 -0.023221588 -0.06448306
0.051279 0.18145984 -0.18374978 -0.20716381 -0.16775191 -0.09937154 0.1062141 0.12151153
0.27493608 -0.1367278 0.34388375 -0.05465458 -0.008732906 0.006824617 -0.088966556 -0.56628937
0.22123446 0.015335029 -0.088332325 0.002604672 -0.16355626 0.12381171 -0.16568509 -0.19913253
0.004866483 -0.007876528 0.18149899 0.08786469 0.13428155 0.23673828 -0.07388649 -0.1760229
0.13498949 0.23804742 0.087805875 -0.06603677 -0.14632611 -0.18239883 0.22171378 -0.1143481
-0.10070292 0.3676265 0.1438946 -0.16559143 -0.0150644975 0.12242961 -0.25253868 -0.13091314
-0.13784185 -0.20803037 -0.06919175 0.044849847 0.17300992 -0.056696493 0.37370703 -0.07599364
-0.08253059 -0.01784047 0.20548706 -0.1551334 -0.19836646 0.48293108 -0.296209 -0.027297588
-0.10063434 -0.25669855 -0.041713227 -0.12722881 -0.13577752 0.018405488 0.0024132114 0.03759232
-0.2769951 0.7672894 -0.039638013 0.10452214 -0.13989516 -0.42829323 0.09395549 -0.1857955
0.0054088077 -0.012482997 -0.049723085 -0.08931426 -0.6888385 1.3810726 0.061254166 0.21315758
-0.1408032 0.014997076 0.072263286 -0.057728298 0.14401443 0.2679004 -0.06674197 -0.26762602
-0.2846656 0.096992515 -0.03230582 -0.10183097 -0.23053966 -0.20497242 0.026753787 0.14148206

mean_net.0.bias f4 [128]
00000000: 9525 d23d 9320 4f3e 0bfd 52bd e72d 3fbd
00000010: fa3c e13d 879b 2c3d f087 863b b9e8 86bd
00000020: 1001 543d eb41 fc3d 5d70 88bd 968a 37bd
00000030: 49b9 bfbd 9a88 7e3d c4ec 543e 578e cd3c
00000040: 8f2e 6abe b0cd ad3b 4826 e6bd 762d 983c
00000050: be20 6bbe 8e3d 3b3e 3e4c 2a3e 4614 fa3d
00000060: f587 943d 785c ba3d 444c 063e 8338 ab3d
00000070: a04c 92bd de90 2cbe 0e48 7a3d 54ce 493e
00000080: b7e0 543c 395c a33d bd67 4bbe 8488 493e
00000090: 2cfb db3b c2d2 8abd b2b4 a03d c5b1 9b3d
000000a0: dfe5 78bd 8fa9 e93d 69ba d23d 8168 9b3d
000000b0: a7bd 1bbe be7d 81bd 46fc b0bd 2761 2fbe
000000c0: c6ea 3dbe 30fd e93c 3061 debd 9d74 80be
000000d0: e827 173e 5e2d 3b3e 9214 273e 770d 8e3d
000000e0: cfed 4f3c 8cec 96bd c5a6 093e f26a e63c
000000f0: 7a54 23be 80ee 0f3e 4bad b6bd ff0b f0bd
00000100: 8332 1cbe 1dc5 ab39 ccfa e8bd 04cd 063e
00000110: efab c4bd a443 37be d3f8 fbbd 3912 44be
00000120: d1ec f5bd 94a2 e8bc 050c e2bd b436 443c
00000130: 820f 33be 29f6 453d 6023 ccbc 8c4f 4fbe
00000140: 6b61 623e 6d94 f5bd b3d4 f8b9 1f9f a8bd
00000150: 38df 35bd 9222 aebd 5def 2ebe cd64 e0bd
00000160: 1580 ea3d a927 3b3d f06b 0f3e ceee 1b3e
00000170: 90d7 b6bc e0c0 ff3c d860 20be e606 693d
00000180: b1d8 273e bcbc 063e bd20 dbbd 44e6 65be
00000190: b154 7abe 6b2e bc3d 0220 83bd f0ef 23bc
000001a0: dea3 6a3e 6447 713d 7f31 95bd d4bd 60bd
000001b0: 66a0 153e 2b05 a9bc bf38 efbd 48bd d03d
000001c0: 6165 aebd 6707 ebbd a601 b5bd 62e7 8b3d
000001d0: 2130 0e3e ae19 eebd 89a0 1b3e e80e 4a3e
000001e0: 190f 3b3e b002 b0bd 21cd 49be 9f04 033e
000001f0: 855d 72be 4f5e 62bd 5188 f23d ce09 30be
0.102610745 0.2022727 -0.05151085 -0.046674635 0.109979585 0.04214051 0.0041055605 -0.06587357
0.051758826 0.1231726 -0.066620566 -0.0448099 -0.09361512 0.062141992 0.20793444 0.025092287
-0.22869323 0.005304061 -0.1123777 0.018576365 -0.22961709 0.182852 0.16630647 0.12210898
0.07252494 0.09099668 0.1311503 0.08360388 -0.07143521 -0.16852137 0.061103873 0.19707614
0.012993029 0.079765745 -0.19863792 0.19680983 0.0067132916 -0.0677848 0.07846965 0.07602266
-0.060766097 0.11409294 0.10289461 0.07588292 -0.15209065 -0.063228115 -0.08641867 -0.17126904
-0.1854659 0.028563112 -0.10858381 -0.2508897 0.14761317 0.18279025 0.1631644 0.06936162
0.012690975 -0.073693365 0.13442524 0.028127167 -0.15950194 0.14055824 -0.08919772 -0.11721038
-0.15253644 0.00032762522 -0.11375961 0.13164145 -0.09603106 -0.17896897 -0.12303319 -0.19147576
-0.1200806 -0.028397836 -0.11037449 0.011975933 -0.17486385 0.04833046 -0.024919212 -0.20245188
0.22107475 -0.119912006 -0.0004746072 -0.08233475 -0.04440233 -0.085026875 -0.17083497 -0.10956726
0.11450211 0.04569212 0.14006019 0.15227816 -0.022319585 0.0312199 -0.15661943 0.056891344
0.16391255 0.13157934 -0.10699604 -0.2245112 -0.2444637 0.09188541 -0.064025894 -0.010005936
0.22914073 0.058905974 -0.07284831 -0.054868534 0.14611968 -0.020632347 -0.11680745 0.101923525
-0.0851543 -0.11476021 -0.08838205 0.06831242 0.13885547 -0.11625992 0.15197958 0.19732249
0.18267478 -0.085942626 -0.19707157 0.12794732 -0.23668487 -0.05526572 0.118424065 -0.1719124

mean_net.2.weight f4 [128, 128]
00000000: c9eb a83d 936a b23d 46ec 49bd 41b4 6d3c
00000010: 3755 a03d 1a95 9cb9 5c5e 973d 37fd bf3d
00000020: 3b9a 56bd b6c4 05bc abc6 883d f199 763d
00000030: 9d0f 93bd 2fde 4a3d 591a 123d 3b75 17bd
00000040: af6d cb3d e732 aab9 4d7c 35bd 9549 c0bc
00000050: 1432 bebd 2ad6 03bc 4c97 9abd 58fd 253d
00000060: 1965 f13d 429d ec3d ef6b 003e 5b0f 2abc
00000070: ede7 0c3d 65fc d9bc c5f7 493d 38f8 6339
00000080: fe34 f1bc addb fd3d 14c8 3a3d ae0f 0e3d
00000090: 3f3f 9a3d d627 893d f509 b73d b63e b53d
000000a0: c9b4 5fbd 9831 39bd 2262 9a3d 7200 6e3d
000000b0: 7124 6f3c fd54 a0bd 3935 3ebd 4411 a53d
000000c0: aa13 1a3d ff6a 073d 9390 803d 189e 55bd
000000d0: 43d9 8bbc c5a0 8fbd d987 7cbc 64a1 a7bd
000000e0: 4a9b 253d f4df 84bd 8a6f 0e3e 5c22 be3c
000000f0: 74a2 353c f3c1 b33d 3886 3e3d 7d92 083c
00000100: 8dd4 05bd b1f7 273d 918e 203c 1693 583c
00000110: d83a f1bc 8f40 793d 655b fb3d ef7c 40bc
00000120: 19dd 7cbc 61f0 18bd d9f2 9a3c 4614 94bd
00000130: 2f0c 95bd 9ce7 a83c 2658 5abd f451 83bd
00000140: d65f cd3d 6f46 87bc 2706 983d 0b0c ab3b
00000150: 5aa1 b0bd c030 493d 5e40 06bd 069c f3bc
00000160: ccbe b73d 3157 f0bb 396a 913d 5dbc afbd
00000170: 21bf 673d 82cb 343d fa91 9e3d e839 303d
00000180: f082 72bc 02a0 cf3d cbcb 233e 417f f73c
00000190: 2921 95bd a79a 3f3d 2465 623b c0e1 68bd
000001a0: 8908 c0bc 6e23 623b d885 20bc 7cef a7bc
000001b0: 827d 1d3d 7139 86bd 3070 21bd 9d0a 6e3d
000001c0: f852 83bd 6694 4fbd e331 ddbd b578 19bd
000001d0: ff79 b1bd 057e 2bbd 8844 233d 65cb f3bd
000001e0: f308 373d adeb d3bc 16e0 d03c eeac b33c
000001f0: d43b 973c 9b72 763d f192 813d 6403 53bc
00000200: 683c 75bd 29d0 bebc 4962 38bd 2916 c7bd
00000210: e9a8 a9bb 1b5d e03c 5717 6ebc 5df7 123d
00000220: e57f e3bb c01e b83d cad9 2f3e bf6c a73d
00000230: 3b2a 15bc c625 e33d 44fc d83c a753 94bd
00000240: f546 233e 5d41 93bd 8ba5 413c 1845 a43d
00000250: 1aed 5ebc 50b5 653b 3258 29bd f858 c43b
00000260: 3be9 883b 35a3 46bd 5e1f 9d3d c30e 5dbd
00000270: be32 9abd 13f1 9fbd e4ca ae3c 59d3 0dbd
00000280: 5b94 bcbd 07f9 c5bb 34ca 633d 1da8 453d
00000290: c2fc 3bbd 5e68 09bd 271a c03c cc78 c13d
000002a0: bb42 f23c 1475 eabb 8780 3a3b 1984 9b3c
000002b0: 1bb3 0fbd 954a 7cbd dbe5 33bc 2c91 08bd
000002c0: ba17 e13d 2036 a93c 4d29 213d 1609 81bd
000002d0: 0325 983c cba3 43bd 01bc 52bd bb96 a63d
000002e0: 4f7b 00bd 3287 a3bc 96c4 b33c fea9 34bd
000002f0: 2e5f 043e a07c 27bd 3066 2abd 0a33 84bd
00000300: 8028 1ebd 091a ccbd 6e2f d73c aaef 18bc
00000310: 0f93 5c3d 23f8 443d 8758 443d 66a9 b13d
00000320: bfc5 623d e358 2c3d 4e7a 0bbe 16f3 683c
00000330: 4dc5 e8bc 292f 343c 91bb c4bd 55ec 013d
00000340: 7263 713d 8fc2 2b3c ff93 853d e08c 9abd
00000350: 1599 c4bb 5cc2 02bd 8fea 85bd 1282 8fbc
00000360: 2147 8f3d 69cb cd3d c4a9 1f3d b4da 21bd
00000370: 1c3b 103d 4cbc 88bd faa0 3a3d ac00 9bbd
00000380: 9162 be3b 7774 3dbc 4400 753b 1060 fcbd
00000390: a340 21bb 0fb4 213d cc85 9fbb d4d6 753d
000003a0: 1512 1cbd 0574 f33c 12be dabb 1a70 843d
000003b0: 8ee4 753c 4cc4 6a3d 1f45 73bc b608 4dbd
000003c0: 7f4e a7bc 4648 83bd 3dde 7cbd 6c5e b33c
000003d0: 6306 23bd b988 b23c 20a5 91bd 65a3 08bd
000003e0: 70f7 693a de28 ca3d 8682 98bc 978c d3bd
000003f0: 85eb 76bd 6b7d 4f3c 020d c03c f4af 873d
0.082480974 0.08711734 -0.049297594 0.014508308 0.078287534 -0.00029865728 0.073910445 0.09374469
-0.05239318 -0.008164575 0.06678518 0.060205404 -0.07180712 0.049528297 0.03566966 -0.036977034
0.0993303 -0.00032462852 -0.044307996 -0.023472587 -0.092868954 -0.008046666 -0.07548389 0.04052481
0.11786861 0.11553432 0.12541173 -0.010379638 0.03440087 -0.026609609 0.049308557 0.00021740876
-0.029444214 0.123954155 0.045600966 0.034682922 0.075315945 0.06697051 0.08937446 0.08849852
-0.05461577 -0.045213312 0.075382486 0.058105893 0.014596091 -0.0782871 -0.046437476 0.08059934
0.03761641 0.033061024 0.06277575 -0.052152723 -0.017071372 -0.07013086 -0.015413248 -0.0818508
0.0404313 -0.06488028 0.13909736 0.023209743 0.011086095 0.08777227 0.04651472 0.008335707
-0.032673407 0.0410077 0.0097996155 0.013218662 -0.029447004 0.060852583 0.122732915 -0.0117485365
-0.015433573 -0.03733862 0.018914627 -0.07230429 -0.072777145 0.020618252 -0.05330672 -0.06412116
0.10028045 -0.016513078 0.074230485 0.0052199415 -0.08624525 0.049118757 -0.03277623 -0.029737484
0.089719385 -0.007334613 0.071003385 -0.08580849 0.05657876 0.044139393 0.077426866 0.043023974
-0.014801726 0.10137941 0.1599571 0.030212047 -0.072817154 0.046778347 0.0034545148 -0.056855917
-0.02344157 0.003450598 -0.009797536 -0.020499937 0.03844977 -0.06553925 -0.03941363 0.05811559
-0.064123094 -0.050678633 -0.10800531 -0.03746863 -0.08665847 -0.04186823 0.03986028 -0.11904029
0.04468627 -0.025869215 0.025497478 0.021933045 0.018461145 0.06016789 0.06326855 -0.012879226
-0.05987206 -0.023292618 -0.045015607 -0.097210236 -0.0051776064 0.027388146 -0.014531932 0.035880435
-0.0069427365 0.0899024 0.17172924 0.081750385 -0.009104307 0.11091189 0.026487477 -0.07242518
0.15945037 -0.071902014 0.011819254 0.08020991 -0.013606334 0.0035050698 -0.041343875 0.005992051
0.004178194 -0.04849549 0.076719984 -0.053969156 -0.075292096 -0.07809653 0.02133698 -0.034625385
-0.09207984 -0.0060416493 0.055612758 0.04825603 -0.045895346 -0.033546798 0.02344997 0.09446868
0.029572835 -0.00715507 0.0028457956 0.018983888 -0.035082918 -0.061594564 -0.010980095 -0.03334157
0.109908536 0.020655692 0.039346028 -0.06300561 0.018572336 -0.047763627 -0.051448826 0.08134218
-0.031367596 -0.019961927 0.021944325 -0.04410743 0.12926933 -0.040890336 -0.04160136 -0.064550474
-0.038612843 -0.09965903 0.026267733 -0.009334484 0.053851184 0.048088204 0.04793599 0.08674888
0.055364367 0.042076956 -0.13620874 0.014218112 -0.028414393 0.010997572 -0.09606088 0.031719524
0.05893273 0.010483398 0.06522369 -0.07546401 -0.005999694 -0.031923637 -0.06538879 -0.017518077
0.06995989 0.10048563 0.03898026 -0.039515212 0.03521262 -0.0667654 0.045563675 -0.075684875
0.00581009 -0.011563412 0.0037384192 -0.1232301 -0.0024605177 0.039478358 -0.0048682448 0.06001933
-0.038103182 0.029718408 -0.00667549 0.06466694 0.015008105 0.05731611 -0.014848023 -0.050057136
-0.020423172 -0.064102694 -0.06173538 0.02189561 -0.039801013 0.02179371 -0.07111573 -0.03335895
0.00089251157 0.09871076 -0.018616926 -0.1032955 -0.060283203 0.012664179 0.023443703 0.06625357

mean_net.2.bias f4 [128]
00000000: 9145 3e3c 3c52 c53d 0fbe adbc 1323 a93d
00000010: 2995 ad3d d29d 8aba 5ce6 a1bc 0c4d 56bd
00000020: 469e 9a3d 2c10 97bd 6a14 bf3c 9c36 923d
00000030: 1112 303d e0e9 2d3c c7c0 a13a 8a22 963d
00000040: cbfe d6b7 471c 84bd bfca 97bc 507c 943c
00000050: 0163 e1bc b690 4fbd 17fe a33d 3df4 9ebd
00000060: 99b7 5fbd d5a0 81bd 489b 093d 8bb9 6dbb
00000070: 4738 873d aa29 203d 24b6 64bd 75de 75bd
00000080: ede9 7fbc 49a5 9f3d 42fe 043b 02a5 d0bb
00000090: 155b 92bd 3267 6c3d f174 953d 064e 9ebb
000000a0: c4fb e23c 6134 b4bd d0b5 343d 3e18 a9bd
000000b0: 1bae 73bd 90eb 59b9 2e00 e0bb babd b8bd
000000c0: 9440 62bd 3258 67bd f514 e23c 5143 92ba
000000d0: fbb2 413c b9de c4bd 829c 813d cf10 3ebc
000000e0: 61ac 2abc a3ed 25bd 5a83 43bd d40e 2fbc
000000f0: ea8a 8eba 386d cbbd c12e 4fbd c77e 39bc
00000100: f298 56bd 06e7 abbc 6f3b 5b3c 29de 7abc
00000110: 694f 843d 558b c43c 7419 95bd 500b d9bc
00000120: c554 76bd 8b42 c43d 9c50 adbd 6afd fd3b
00000130: 06fe 5bbc a166 acbc a653 493d 8f03 5abd
00000140: dfe4 8bbc 1b47 7a3d 1a0c 673d 4653 3fbd
00000150: 2558 5abd 05e0 a3bc 4c2c 973d ff65 fdbc
00000160: c562 2cbd 7272 a03c 53cd dcbb bd92 103d
00000170: caa5 853d 4c23 f4bc 6181 94bd 5c9d c13c
00000180: 910d 3ebb b0aa 1a3d fa3e 9cbd 891f c43d
00000190: a454 d0bd 3770 bb3b 8892 75bc 5950 f4bc
000001a0: 102c 7a3d 3f65 0dbd 6958 e53c cfd7 92bd
000001b0: 6a5e 6e3b ff5a 91bd ae94 863c 6935 75bb
000001c0: d9ec 893d 3d34 78bd be8f 873c 8c82 91bc
000001d0: 575c 82bd 5c30 1bbd 68de c63c 25af 173d
000001e0: 01d2 1a3c c5cb 4cbd 1576 dabc 3abe f2bc
000001f0: 8bea 333d 1a6c 3a3d 14f0 ba3d 935d d3bc
0.011613266 0.096348256 -0.021208791 0.08258643 0.08475716 -0.0010575599 -0.019763164 -0.05231957
0.075497195 -0.073761314 0.023325164 0.07139322 0.04298598 0.010614842 0.0012340777 0.073308066
-2.5629435e-05 -0.06450706 -0.018529294 0.018125683 -0.027513029 -0.050675116 0.08007448 -0.077614285
-0.05461845 -0.063295044 0.033595353 -0.0036273922 0.06602531 0.039102234 -0.055837765 -0.060026605
-0.015619737 0.077951975 0.002029315 -0.0063673267 -0.07146279 0.057715602 0.072976954 -0.0048310785
0.027707942 -0.08799053 0.044118702 -0.08256577 -0.05949221 -0.00020782487 -0.006835959 -0.090205625
-0.055237368 -0.056480594 0.027597884 -0.0011158978 0.011822457 -0.096127935 0.063286796 -0.011600687
-0.010417075 -0.04050983 -0.04773269 -0.010684688 -0.001087514 -0.09932941 -0.050581697 -0.01132173
-0.052391954 -0.020984184 0.013380869 -0.015311756 0.06460459 0.02399222 -0.072802454 -0.026494652
-0.060139436 0.095830046 -0.08462641 0.0077511566 -0.013427263 -0.021045031 0.04915204 -0.05322605
-0.017076908 0.061102968 0.056408025 -0.046710275 -0.053306717 -0.020004282 0.07381496 -0.030932425
-0.04208638 0.019585822 -0.0067383437 0.03529619 0.065257624 -0.029801987 -0.072512396 0.023634605
-0.0028999785 0.037760437 -0.07629199 0.09576327 -0.10172394 0.005720164 -0.014988549 -0.029823469
0.061077178 -0.034520384 0.027996259 -0.071700685 0.0036372193 -0.07097434 0.016428318 -0.0037415868
0.06734628 -0.060596693 0.016548034 -0.017762445 -0.06365269 -0.037887916 0.024275973 0.037032265
0.009449483 -0.049999017 -0.026667634 -0.029631723 0.04392485 0.04551325 0.091278225 -0.025801456

mean_net.4.weight f4 [4, 128]
00000000: 5e60 893d ea24 5c3d a8aa f8bd 81cd 90bc
00000010: c9b4 27bc 64c3 3c3d 0cba a9bd 2ac9 d13c
00000020: 1160 373d 5935 42bd 16b6 29bd 0192 383d
00000030: 6c3c b4bd c4ea 67bd 288d fb3c 8c0b a4bc
00000040: 8085 90bd 570d a5bd 3808 bbbd 1dca 653d
00000050: 56af fdbc 4c19 933d 4847 073d 7490 39bc
00000060: 67e9 a1bb 6c04 a03d fd70 41bc a7fa a4bb
00000070: 7c15 4cbd c948 dabc 5f93 d03b db4d 6cbd
00000080: e308 613d 1a5a 4e3c 55a9 d1bd af39 203d
00000090: 4603 593d b8b1 473d 8fe0 6abc 56e9 c3bc
000000a0: c277 493c 14f8 da3d 561c 36bd 5d3b 75ba
000000b0: 5fe0 f4bc 6c67 26bc 05dc f03d 5c0b 8bbc
000000c0: 2850 bc3d 336c 0a3d 6bfb 30bc e4d5 87bd
000000d0: c75b debd 273b b4bd 9b48 673d 4775 1e3d
000000e0: 34ec e4bc e950 503c 3396 b2bd 02ae babc
000000f0: a26c b2bc 7c2c c83c f3dd e53c 34e2 163d
00000100: 71da dd3d 77d3 8fbd 2d19 8bbc 3ef8 99bd
00000110: a55a 36bd b4c6 723d b745 4ebd a5f4 1fbd
00000120: 893f 0dbd c6d5 443d c932 dabd ec5d 0f3c
00000130: 61d9 b03c 385f 15bc 8e9d f8bb 92b6 19bd
00000140: aca5 813d bff4 e23c ae86 00bd a552 73bb
00000150: dd49 0c3d 60a2 8c3c b459 29bd a4c6 1abd
00000160: 971d a93c f5c7 97bc bbf2 033d 4d19 3f3d
00000170: 4670 383d 63bc 543d 6704 ccbc f7d5 333c
00000180: 66d7 b33b 927b 583d dd3b 033c ce8c 873c
00000190: fd84 83bc 2124 80bd ff3e 543d deba 143d
000001a0: 7fbd cb3b 4a4c 093d 2d3b 06bd 1e91 493c
000001b0: 609c 2abd ef35 a63d cfae 0d3d c424 79bd
000001c0: e399 c23d aa39 f43c 9dad 5d3c 731f 28bd
000001d0: 766b c33d afe2 5fbd 3b11 b5bd 1726 1a3d
000001e0: 20bb df3c 121f 94bd cf0c 46bd 9849 983d
000001f0: 8944 10bc fb6b 17bb a2ef 94bd 13e1 3cbd
00000200: 2d7d 883d e100 413c 5e57 ab3c 9fda 973d
00000210: dad5 47bc 8acd 333c a78c 88bd c62f 813c
00000220: 8a8a e9bc 0f92 a13c 9249 983d 7cb3 1b3d
00000230: 735e 86bd 2221 f73c 141c 1d3d 4b06 1d3c
00000240: e9ac a53b d978 e3bb 0eda 9d3c 176d a2bd
00000250: 4983 c4bb 8876 883d e02a b93d 48d1 53bd
00000260: b472 a5bd b074 853d 71be ecba 026d 4bbc
00000270: 1114 42bd 6a24 c8bd 0600 04bd d0f8 8c3c
00000280: 661c 4f3d 162b 9bbd df98 26bd 0ebf 343d
00000290: 4d5e e0bd f198 e6bc ab23 083c a7bd b43d
000002a0: 924d 17bd b539 363d a85c 353d 296b 90bc
000002b0: 2b3c 163c 9d41 c7bc 2165 a03b b39c debd
000002c0: b113 42b9 64fe 333d 4c15 433d 2d11 8dbd
000002d0: fa2d ef3b b1ec dcbc 7487 0c3d 9c9f 47bc
000002e0: 5f82 823d dcc8 94bd 8df3 b93c 6696 953d
000002f0: 1a2d 73bd f568 9d3b 2fbf e1bc 82d9 c33c
00000300: 5ec9 593d 47dd 5a3d da28 123b ed85 1bbd
00000310: 5c8e 343d ac0a c2bd 3724 04bd 6af7 91bd
00000320: a4ca adbc df26 9fbd 9b12 09bd e16d c53c
00000330: 8716 1dbc 36c6 0abd 8e8b a5bd 1e62 3a3d
00000340: cf3b dfbd 1fe1 2f3d 4c3f 1b3b 9b12 0f3d
00000350: e673 8abd 0a64 81bd 50ed 42bb 81c4 983d
00000360: 65fe 0ebd afea b8bc 26d6 ec3c 105d a93a
00000370: 84a6 93bd 824c 043c a08a 093c 1083 4d3c
00000380: 97d8 9abd 96ec 2e3d c03f b4bd 1e5f 72bd
00000390: c651 643c 866f b83c a904 7ebd f3fc d3bc
000003a0: 098a 263c 8f72 8c3d 7a59 47bd 2df3 35bd
000003b0: 9057 f7bc 0850 c53d 04c4 983d 7eaa 843c
000003c0: 01a5 01bd 7986 903d f70d 163d 5117 24bd
000003d0: c2d5 d1bb a434 29bd 7cc7 863d 2d41 c6bc
000003e0: ee07 c43d 3918 22bd 82d2 313d d63f 623d
000003f0: 69ad 63bd 8b17 b83b 70bf e03d 410a 0a3d
0.06707834 0.05374614 -0.12141925 -0.017676117 -0.010235974 0.046084777 -0.08287439 0.025608618
0.04476935 -0.047414158 -0.041433416 0.045061115 -0.08800587 -0.056620374 0.030706957 -0.020025037
-0.07056713 -0.08059185 -0.09132427 0.056100953 -0.030967396 0.07182559 0.033026963 -0.011325944
-0.004941154 0.078133434 -0.011806724 -0.005034763 -0.049825177 -0.026646035 0.0063652243 -0.057691436
0.054940116 0.012594724 -0.10237376 0.03911751 0.052981637 0.04875347 -0.0143357655 -0.023914974
0.012296619 0.106918484 -0.044460617 -0.0009354854 -0.029892145 -0.010156494 0.117607154 -0.01697319
0.09194976 0.033794593 -0.01080213 -0.06632593 -0.10857349 -0.08800345 0.056465726 0.038686063
-0.027944662 0.012714603 -0.087200545 -0.022788052 -0.021780316 0.024435274 0.028059935 0.036836818
0.1083268 -0.070227556 -0.016979778 -0.075180516 -0.04452004 0.05927153 -0.050359454 -0.03905167
-0.03448442 0.048055433 -0.10654218 0.00875042 0.02158803 -0.00911694 -0.0075871414 -0.03752763
0.063304275 0.027704595 -0.03137844 -0.0037128117 0.03425013 0.01716727 -0.041345313 -0.037787095
0.020643992 -0.018527964 0.032213908 0.046654988 0.045028947 0.051937472 -0.024904443 0.010976306
0.005488324 0.05285222 0.008009878 0.016546633 -0.016054625 -0.06256891 0.05181789 0.036311023
0.006217658 0.03352002 -0.03277128 0.012302665 -0.041653037 0.08115756 0.03459054 -0.060826078
0.09502008 0.029812653 0.013530162 -0.041045617 0.09541981 -0.05465954 -0.08841177 0.03763398
0.027310908 -0.07232489 -0.04835206 0.07435912 -0.008805403 -0.0023105133 -0.07272269 -0.046113085
0.066645004 0.011779995 0.020915683 0.074147455 -0.012196982 0.010974297 -0.06667452 0.01576985
-0.028508443 0.019722966 0.074359074 0.038012967 -0.065609835 0.030167166 0.038356856 0.00958402
0.005056013 -0.0069418964 0.019269016 -0.079309635 -0.0059970957 0.06663233 0.09041381 -0.051713258
-0.080785185 0.06516397 -0.0018062127 -0.012416126 -0.047382418 -0.097725704 -0.032226585 0.017208487
0.050564192 -0.07576577 -0.040673133 0.044127516 -0.109554864 -0.0281491 0.008309285 0.08825236
-0.03693921 0.044488627 0.044277817 -0.017629223 0.009169619 -0.024323279 0.004894868 -0.10869732
-0.00018508617 0.043943778 0.047627732 -0.06888042 0.007299182 -0.026968332 0.034308866 -0.01218405
0.063725226 -0.072648734 0.022699142 0.07304077 -0.059369184 0.0048037716 -0.027556984 0.023907427
0.053170554 0.053433683 0.0022302181 -0.03796952 0.044081077 -0.09474692 -0.0322611 -0.071272686
-0.02121479 -0.07771086 -0.03346501 0.024100246 -0.0095878905 -0.033880435 -0.080832586 0.045503728
-0.109000795 0.0429393 0.002368885 0.034929853 -0.06760387 -0.06317909 -0.00297435 0.07459355
-0.03491058 -0.022572843 0.028910708 0.0012921412 -0.07209495 0.0080748815 0.008394867 0.012543455
-0.075608425 0.042706095 -0.08801222 -0.059172742 0.013935512 0.022514116 -0.062016163 -0.025877452
0.010164746 0.06857788 -0.048669316 -0.044421364 -0.03019312 0.096344054 0.07459262 0.016194578
-0.0316515 0.070568986 0.03663441 -0.0400613 -0.0064036557 -0.041309968 0.065810174 -0.024201
0.09571825 -0.03957388 0.043413647 0.05523666 -0.0555853 0.005618041 0.10974014 0.033701185

mean_net.4.bias f4 [4]
00000000: 812f ebbc 3ac1 9c3d c269 f1bc 39a8 36bd
-0.028709175 0.076540425 -0.029469375 -0.044594023
