src/rl/model/actor_model20-08-2024_11-05-37/560.pt (torch, 82671 bytes, 7 tensors)

logstd f4 [4]
0	0xc00c69d7	-2.19396
1	0xc01a4448	-2.4104176
2	0xc0198ac2	-2.399094
3	0xc01ff38e	-2.4992404

mean_net.0.weight f4 [128, 23]
0	0x3f21ff9a	0.6328064
1	0xc0002a4d	-2.0025818
2	0x3e7a8c99	0.24467696
3	0x3f84849b	1.0352968
4	0xbf712cdc	-0.94209075
5	0x3df900f4	0.12158385
6	0x3f8e9823	1.1140178
7	0x3d892cfe	0.06698035
8	0x3e6adf89	0.22936834
9	0x3f9e6adf	1.2376364
10	0xbddbde49	-0.10735757
11	0x3e657d66	0.22411117
12	0x3e792cad	0.24333449
13	0xbe2102c9	-0.15723719
14	0x3deb38ea	0.11485465
15	0x3e217786	0.15768251
16	0x3dd016a5	0.10160569
17	0xc01c98fc	-2.4468374
18	0xbf19019f	-0.597681
19	0xbd38c9f5	-0.045114476
20	0x3e46768b	0.19381158
21	0xbe9b6fe4	-0.30358803
22	0x3f3b1669	0.7308107
23	0xbf774e5b	-0.96603936
24	0xbf2f5316	-0.68486154
25	0xbd528b99	-0.051402662
26	0xbf876067	-1.0576295
27	0xbf0630f1	-0.5241843
28	0xbe4dea8c	-0.20109004
29	0xbfac36ce	-1.3454225
30	0xbf0d65bb	-0.55233353
31	0xbd79d383	-0.06099273
32	0x3e2509f2	0.16117075
33	0x3d4b277a	0.049598195
34	0xbbba0e9a	-0.00567801
35	0xbef714ed	-0.48258153
36	0xbe279fed	-0.163696
37	0xbe9b3593	-0.3031431
38	0x3df0bf8d	0.117552854
39	0x3d43beb6	0.047789298
40	0xbfd16579	-1.6359092
41	0x3f06979b	0.5257508
42	0x3ec6a919	0.38800886
43	0x3f599f74	0.8500893
44	0xbe5e0efc	-0.21685404
45	0x3f68461f	0.90731996
46	0x3d5d909f	0.054093
47	0xbe1eccf0	-0.15507865
48	0x3ef4feb7	0.47850582
49	0xbe832b2b	-0.25618872
50	0xbeb09478	-0.34488273
51	0x3e95379c	0.2914399
52	0xbeb24606	-0.3481905
53	0xbfb10774	-1.38304
54	0xbfd5d574	-1.6705766
55	0x3f30274c	0.6880996
56	0x3e62751c	0.22114986
57	0x3e289953	0.16464739
58	0xbe97caee	-0.2964701
59	0x3d961ead	0.0733007
60	0x3e1f4b1a	0.15555993
61	0x3e2f577f	0.17123221
62	0x3e63f075	0.22259696
63	0x3ca689c5	0.020329366
64	0x3f62aa9f	0.885416
65	0x3d4ac843	0.04950739
66	0xbe9d8a99	-0.30769804
67	0xbeae4af1	-0.3404155
68	0x3f0303d4	0.51177716
69	0x3fba958e	1.457689
70	0xbf13f09a	-0.57789004
71	0x3dc1c538	0.094614446
72	0x3f87b54b	1.0602201
73	0xbe8c8f68	-0.2745316
74	0xbe7fdec3	-0.2498732
75	0x3eeaab4a	0.45833808
76	0x3f04cfb1	0.5187941
77	0xc0053328	-2.0812473
78	0xbfc7d4e4	-1.5611844
79	0xbe1ea43f	-0.15492342
80	0xbe624f36	-0.22100529
81	0x3f8bc53c	1.0919566
82	0xbe8bb4b7	-0.27286312
83	0xbe0076c4	-0.12545305
84	0x3d37b614	0.044851378
85	0xbda5038a	-0.08057316
86	0xbf40ae12	-0.7526561
87	0xbf3563fb	-0.70855683
88	0xbe81d252	-0.25355774
89	0xbed0e297	-0.40797874
90	0x3da2c0e9	0.07946951
91	0x3ffa89f4	1.957335
92	0x3dfc6f0e	0.123258695
93	0xbd41cbd1	-0.047313515
94	0x3ea62d4c	0.32456434
95	0x3e9302c0	0.28713036
96	0xbf0e446d	-0.5557316
97	0x3e70874d	0.23489113
98	0x3da54c55	0.080712
99	0x3e3adc87	0.18248187
100	0x3f8c94db	1.0982927
101	0xbb711618	-0.003678685
102	0x3f5764e1	0.84138304
103	0xbe7b644e	-0.24549982
104	0x3e06c8c1	0.13162519
105	0x3d137ce7	0.036007788
106	0xbe220b09	-0.15824522
107	0xbd830d8c	-0.06399068
108	0xba3aec04	-0.0007130506
109	0x3fd3d6df	1.6549948
110	0x3fca7e55	1.5819803
111	0x3d5fa0b4	0.054596618
112	0x3e980579	0.29691675
113	0x3f05345e	0.5203303
114	0xbf2fc707	-0.68663067
115	0xbf0ff0c3	-0.5622675
116	0xbf7adb6c	-0.9799106
117	0x3ed330d3	0.41248187
118	0x3f900c02	1.1253664
119	0xbe8eb127	-0.27869532
120	0x3f19f87c	0.6014478
121	0xbd494223	-0.04913534
122	0x3d9af661	0.07566524
123	0xbc9699da	-0.018383909
124	0x3d777147	0.060410764
125	0xbe0b7038	-0.13617027
126	0x3eba61b3	0.36402664
127	0x3f2fdd54	0.68697095
128	0xbe5c3ed8	-0.21508348
129	0xbeb35280	-0.3502388
130	0x3d43619a	0.047700502
131	0x3e2dbd23	0.16966681
132	0xbebeec94	-0.3728987
133	0x3fb9161a	1.445987
134	0x3cb5e373	0.022203183
135	0x3f06c309	0.5264135
136	0x3f18b0b1	0.5964461
137	0xc00e33c3	-2.2219093
138	0xbf2a2f35	-0.6647828
139	0x3d522a0e	0.051309638
140	0x3ea7a76b	0.32744917
141	0xbf5a9dfc	-0.85397315
142	0x3ed54f00	0.41661835
143	0x3e40b0d2	0.18817452
144	0x3d6a6505	0.057225246
145	0xbe158723	-0.14602332
146	0xc007220f	-2.1114538
147	0x3f4baf06	0.7956394
148	0x3ee69699	0.45036772
149	0x3e8c3689	0.27385357
150	0x3ebc14c3	0.3673459
151	0x3de88b08	0.11354643
152	0x3e8e3314	0.27773345
153	0x3e5c0ecd	0.21490021
154	0xbd7bf90a	-0.0615168
155	0xbf05e3b0	-0.5230055
156	0x3df24280	0.1182909
157	0x3cbbe4a1	0.022936167
158	0x3f7b27e2	0.9810773
159	0x3ed06586	0.40702456
160	0x3fa1c48d	1.2638108
161	0xbf8232d4	-1.0171762
162	0xbe3dc5b0	-0.18532443
163	0x3e962c05	0.2933046
164	0xbe5231bb	-0.20526783
165	0xbde1e86e	-0.110306606
166	0x3cb43a49	0.022000449
167	0xbc0f17e4	-0.008733723
168	0xbf24341b	-0.64142007
169	0x3f60f3a9	0.87871796
170	0x3c12e177	0.008964888
171	0xbee13376	-0.43984574
172	0xbe94a717	-0.2903373
173	0xbea53c04	-0.3227235
174	0xbe58c7ce	-0.2116997
175	0xbea3bd1c	-0.31980217
176	0x3dc1b4b1	0.09458292
177	0x3c9d00df	0.019165454
178	0x4007beb2	2.121014
179	0xbf041297	-0.51590866
180	0xbe06f5e2	-0.13179734
181	0x3f354046	0.708012
182	0x3fd40440	1.6563797
183	0x3fe022a2	1.7510569
184	0xbec2f685	-0.38078704
185	0xbc5cf36a	-0.013485769
186	0x3e6a1cee	0.22862598
187	0x3dd30c9b	0.10305139
188	0xbdbda617	-0.09260195
189	0xbec031bb	-0.3753794
190	0xbe4ff2fa	-0.20307532
191	0xbf0e6ca1	-0.55634505
192	0x3eacc3a0	0.33743
193	0xbd035324	-0.03206171
194	0xbf199951	-0.5999957
195	0xbe846386	-0.2585718
196	0xbfb6fbf0	-1.4295635
197	0xbd769e84	-0.060209766
198	0x3e77c58e	0.24196455
199	0x3e04b2eb	0.12958877
200	0x3e1c7681	0.1527958
201	0x3f3a40e6	0.7275528
202	0xbe7a120e	-0.2442095
203	0x3e093b79	0.13401593
204	0xbec5c0da	-0.38623697
205	0x3e87fddf	0.26560876
206	0xc03033b2	-2.7531552
207	0x3f23cd8d	0.6398552
208	0x3e0ea52e	0.13930199
209	0xbd76f25f	-0.060289737
210	0x3ea54999	0.32282713
211	0xbd516af3	-0.051127385
212	0xbd0efce6	-0.03490915
213	0x3d0e6d4f	0.034772214
214	0xbf60a092	-0.8774501
215	0xbf7034c5	-0.9383052
216	0x3d359965	0.04433574
217	0x3e0028b8	0.12515533
218	0x3b302f39	0.0026883616
219	0xbd9caf7e	-0.0765066
220	0xbef6a103	-0.48169717
221	0x3e6b9e78	0.2300967
222	0x3efda6c4	0.49541295
223	0xbe527add	-0.20554681
224	0x3e4b7f8e	0.19872877
225	0xc036d009	-2.8564475
226	0xbeda3742	-0.42620283
227	0xbeb50f00	-0.35363007
228	0x3e5b007b	0.21386902
229	0xbeebfa5e	-0.46089453
230	0x3ddfa7ad	0.109206535
231	0xbef2220a	-0.47291595
232	0x3e1b88a9	0.1518885
233	0x3e9849a2	0.29743677
234	0xbe58dc71	-0.21177842
235	0x3ecb684e	0.39728016
236	0xbed447a4	-0.41460907
237	0xbfaa582d	-1.3308159
238	0xbef06c24	-0.46957505
239	0x3c71613c	0.014732655
240	0x3d529ad4	0.051417187
241	0xbf304dbf	-0.6886863
242	0xbf9982e0	-1.1993065
243	0xbd9422d6	-0.07233207
244	0xbdd1cac7	-0.10243755
245	0xbe4c02d1	-0.1992295
246	0xbd9b1de7	-0.07574063
247	0x40220a54	2.5318804
248	0xbf8e976e	-1.1139963
249	0x3e482c92	0.19548252
250	0x3edb45ce	0.42826694
251	0x3f0c2e44	0.54758096
252	0xbfbdcdc0	-1.4828415
253	0xbfb5b867	-1.41969
254	0xbfb61808	-1.4226084
255	0x3dc9eda6	0.09859781

mean_net.0.bias f4 [128]
0	0xbdc1b4e2	-0.09458329
1	0xbdfa053b	-0.12208029
2	0x3da8596a	0.082201794
3	0x3e5a7d10	0.2133677
4	0xbc7b0163	-0.015320155
5	0xbd96f400	-0.07370758
6	0x3d09d415	0.033649523
7	0x3d8cb22a	0.068699196
8	0x3e9c2b35	0.30501714
9	0x3e47f386	0.1952649
10	0x3cab300f	0.02089694
11	0xbde5f879	-0.11229033
12	0xbdcd09bb	-0.100116216
13	0x3d448fcc	0.047988698
14	0x3e6c0bab	0.23051326
15	0xbacb99e9	-0.001553354
16	0xbe0e4dd1	-0.13896872
17	0xbe0ecd72	-0.13945559
18	0xbdd25148	-0.102694094
19	0x3ec4d32d	0.38442364
20	0xbe561e16	-0.20909914
21	0x3e5ef46e	0.2177293
22	0xbde07d09	-0.109613486
23	0xbe0e5e93	-0.13903265
24	0xbca0f001	-0.019645693
25	0x3e9f2303	0.310814
26	0x3d9023f3	0.07038107
27	0x3e8bdb2d	0.27315655
28	0x3e47459d	0.19460149
29	0xbe49114c	-0.19635504
30	0x3da472e9	0.0802973
31	0xbea963ff	-0.33084103
32	0xbdd966a7	-0.106152825
33	0x3e4545ff	0.19264983
34	0xbe932282	-0.28737265
35	0xbe1df197	-0.1542419
36	0xbd851eee	-0.0650004
37	0x3d9b00ad	0.07568488
38	0x3d72ad5b	0.059247356
39	0x3ead6540	0.3386631
40	0x3e916bb6	0.2840249
41	0x3e17be0d	0.14818592
42	0xbea54290	-0.32277346
43	0xbe32191d	-0.17392392
44	0xbdc8434a	-0.09778459
45	0xbea0bf36	-0.31395882
46	0xbe15cce1	-0.14628936
47	0x3daa47a3	0.08314445
48	0xbddf06f7	-0.1089
49	0x3e366d43	0.17815118
50	0xbdc4cc6b	-0.09609302
51	0xbeb5062b	-0.35356268
52	0x3e7af1d6	0.24506316
53	0xbcdc56e9	-0.02689691
54	0x3dafa4bf	0.08576345
55	0x3d08edc7	0.033429887
56	0x3e923903	0.2855912
57	0x3dddf99e	0.10838626
58	0xbe211dbc	-0.15733999
59	0x3d55f9f3	0.052240323
60	0xbe2d847c	-0.1694507
61	0x3c3a1ab7	0.011358908
62	0xbdaa96cf	-0.08329546
63	0xbd00d5f9	-0.03145406
64	0x3dbac97d	0.09120462
65	0x3d5efac6	0.054438375
66	0x3c5edd1e	0.013602523
67	0xbe13357d	-0.14375873
68	0x3d7bbb2d	0.0614578
69	0x3e7d7663	0.24752192
70	0xbd81c5b5	-0.06336538
71	0x3db4534d	0.08804951
72	0x3dd65d69	0.10467035
73	0xbda29c03	-0.07939913
74	0x3ecffd79	0.40623072
75	0xbe2db9ca	-0.16965404
76	0xbe7a378d	-0.24435253
77	0xbe4e1847	-0.20126449
78	0x3cf85f9a	0.030319024
79	0x3e5b58c8	0.21420586
80	0xbe332fec	-0.1749875
81	0x3e0ec4f1	0.13942315
82	0x3daa42bf	0.08313512
83	0xbe634c14	-0.2219699
84	0x3e84bb42	0.25924116
85	0x3d84a692	0.06477083
86	0x3dcfbdc4	0.10143617
87	0xbe0cc19f	-0.13745736
88	0xbe7119c6	-0.23544988
89	0x3e647abd	0.22312446
90	0x3e79d06d	0.24395914
91	0x3e31f1aa	0.17377344
92	0x3e0a5a5e	0.13511035
93	0xbe215403	-0.15754704
94	0x3e50788d	0.20358486
95	0x3e3e52ec	0.1858632
96	0x3e5ba28d	0.21448727
97	0xbd7aacf5	-0.0612001
98	0x3e6495de	0.22322795
99	0xbd103ce6	-0.035214327
100	0x3e2116e4	0.15731388
101	0xbe14d6a6	-0.14535007
102	0xbd961afc	-0.073293656
103	0xbe95c302	-0.29250342
104	0xbc9bcbdf	-0.019018112
105	0xbdb35a48	-0.08757454
106	0x3e5e4c06	0.21708688
107	0x3ecc36e8	0.3988564
108	0xbdcb3730	-0.099226356
109	0xbdf100e8	-0.11767751
110	0x3d8ae077	0.067810945
111	0x3eb10d17	0.345803
112	0xbecd5fe9	-0.40112236
113	0xbe264fc0	-0.1624136
114	0x3ecbde73	0.39818153
115	0xbdae6ef8	-0.08517259
116	0x3e214369	0.15748371
117	0x3e83e075	0.25757185
118	0xbe1f40cd	-0.15552063
119	0xbe2b359e	-0.16719672
120	0x3c8901dc	0.01672452
121	0x3d1ebe89	0.038755927
122	0xbc962247	-0.018326892
123	0x3d4bb564	0.049733534
124	0x3d60153a	0.054707743
125	0xbe2b2604	-0.1671372
126	0xbe655451	-0.22395445
127	0x3eb74a58	0.35798907

mean_net.2.weight f4 [128, 128]
0	0x3deef611	0.11668027
1	0xbebf83c6	-0.37405223
2	0xbe153c88	-0.14573872
3	0x3d89f589	0.06736285
4	0x3e1395da	0.14412633
5	0xbea5ec68	-0.32406926
6	0xbcd31669	-0.025767522
7	0xbd724990	-0.059152186
8	0xbe27a718	-0.16372335
9	0xbe8c8af5	-0.27449766
10	0xbdaab689	-0.08335597
11	0x3dfdd1d3	0.123935364
12	0x3d46e166	0.0485548
13	0xbe2f1e22	-0.17101339
14	0xbe47f6b4	-0.19527704
15	0x3e863ae2	0.262168
16	0x3cd43b90	0.025907308
17	0x3e5dc886	0.21658525
18	0x3df82a5e	0.12117456
19	0x3e2054dd	0.15657373
20	0xbe22de81	-0.15905191
21	0xbea1284f	-0.31476066
22	0x3e447ac2	0.19187453
23	0xbda7514a	-0.081698015
24	0x3e1c66da	0.1527361
25	0xbec4d418	-0.38443065
26	0xbebc3b9d	-0.3676423
27	0xbe94c1ab	-0.29054007
28	0xbe0ffdc3	-0.14061646
29	0x3eaaa1b3	0.33326492
30	0x3db89756	0.0901324
31	0x3d6d5a6f	0.057947572
32	0x3eaed4a4	0.34146607
33	0x3d11b5ff	0.035573956
34	0xbd86cd63	-0.06582143
35	0x3e5e7099	0.2172264
36	0xbe46c6b6	-0.1941174
37	0x3d1c4262	0.038149245
38	0x3ededdcc	0.43528593
39	0x3d9385c3	0.072032474
40	0xbe10905f	-0.14117573
41	0xbbdfec1a	-0.0068335654
42	0x3d7d19d1	0.0617922
43	0xbd547da4	-0.051877633
44	0x3e2feaeb	0.17179458
45	0x3e3f63c8	0.18690407
46	0x3ed930f3	0.42420158
47	0x3c39ebcf	0.011347725
48	0x3daeda1c	0.08537695
49	0x3dfa8cfe	0.122339234
50	0x3d3cf1aa	0.046128906
51	0xbd97591a	-0.07390042
52	0x3e312226	0.17298183
53	0x3e981bf7	0.29708835
54	0x3e114657	0.14186989
55	0x3d9f93e9	0.077918835
56	0xbe8042a0	-0.2505083
57	0xbec864f3	-0.39139518
58	0xbe9ef8d3	-0.31049213
59	0x3e296736	0.16543278
60	0xbe6d905a	-0.23199597
61	0xbe132ed7	-0.14373337
62	0xbdaa0144	-0.08301023
63	0xbe6da4ee	-0.23207447
64	0xbec41042	-0.38293654
65	0xbd5f3c0f	-0.054500636
66	0x3df092a3	0.11746719
67	0x3e325fcb	0.17419355
68	0x3e333322	0.17499974
69	0x3e85ef92	0.2615934
70	0x3ec9f031	0.39441064
71	0x3eb776ae	0.35832733
72	0xbd2aa553	-0.04166157
73	0xbeccfc24	-0.40036118
74	0x3dddd6dc	0.10831997
75	0x3e309efc	0.17248148
76	0x3e281ca0	0.1641717
77	0x3e23c1d9	0.15991916
78	0x3df46558	0.11933392
79	0xbe248833	-0.16067581
80	0xbdfd433f	-0.12366342
81	0xbe0b4bc7	-0.13603126
82	0x3ec5f0cf	0.38660285
83	0x3dcc41e8	0.09973508
84	0xbd9828c2	-0.07429649
85	0xbeacc804	-0.3374635
86	0xbdc0a4b6	-0.09406416
87	0x3dde51d3	0.108554505
88	0xbc7efa74	-0.015562642
89	0x3d0e2a5f	0.034708377
90	0xbd2d7038	-0.04234335
91	0xbdfb8c63	-0.12282636
92	0x3dc8c6e3	0.0980356
93	0xbe6530d2	-0.22381905
94	0xbae546e3	-0.0017492439
95	0xbc89146c	-0.01673337
96	0x3c82b7b8	0.015956745
97	0xbdd88693	-0.10572543
98	0x3d1ec4e7	0.038762
99	0x3e8e3142	0.27771956
100	0x3e25cda2	0.16191724
101	0xbe748dd7	-0.23882233
102	0xbc1739ef	-0.009230121
103	0x3e52936e	0.20564052
104	0xbc7675c2	-0.015042724
105	0x3dd1109d	0.10208247
106	0xbe49eca1	-0.19719173
107	0xbe30bbba	-0.17259112
108	0x3dacb740	0.0843339
109	0x3d3db0d9	0.046311233
110	0x3d209dbb	0.039212923
111	0x3d86d477	0.06583493
112	0xbe04dd9d	-0.12975164
113	0xbeac8a38	-0.33699203
114	0xbe967d92	-0.29392678
115	0xbe5b8a2b	-0.21439426
116	0xbe4aeacf	-0.19816135
117	0xbdd75787	-0.105147414
118	0x3d9cd528	0.07657844
119	0xbd4b3281	-0.04960871
120	0x3e225dae	0.15856048
121	0x3ddd78d5	0.108140625
122	0xbc89cd38	-0.016821489
123	0xbd7eb54f	-0.062184628
124	0xbe4d566b	-0.20052497
125	0x3dde415d	0.10852311
126	0x3e93a3a3	0.28835782
127	0xbeaad550	-0.3336587
128	0x3c29bedd	0.010360447
129	0x3ba3b7c4	0.004996272
130	0xbddf2852	-0.10896362
131	0x3e068448	0.13136399
132	0x3d63598d	0.055505324
133	0x3d65794d	0.056023885
134	0x3dbd3097	0.092377834
135	0x3b26a0a9	0.002542535
136	0x3d390857	0.04517397
137	0x3dbda032	0.092590705
138	0xbd9a373a	-0.07530065
139	0x3dd3f00b	0.10348519
140	0x3e09a7c6	0.13442907
141	0xbcd58cad	-0.026068056
142	0x3d33e94f	0.043923672
143	0x3e81fb52	0.25387055
144	0xbd2472ce	-0.04014855
145	0xbe736201	-0.23767854
146	0xbe622c8f	-0.2208731
147	0xbd0adcf4	-0.033902124
148	0xbe443e1b	-0.19164316
149	0x3e6a917a	0.22907057
150	0xbd4d1d7a	-0.05007694
151	0x3da5b954	0.08091989
152	0x3e3deff1	0.18548562
153	0x3e37a46e	0.17933819
154	0x3e6fc22a	0.23413911
155	0xbe65ba60	-0.22434378
156	0xbe148bf7	-0.14506517
157	0xbe54dcd7	-0.20787369
158	0xbeb51247	-0.35365507
159	0xbea25ef8	-0.3171308
160	0xbd1e3b47	-0.03863075
161	0xbd20862e	-0.039190464
162	0xbe230321	-0.15919162
163	0xbe49e3bc	-0.1971578
164	0x3e41f4a4	0.18940979
165	0x3e998e28	0.2999127
166	0x3e0290e1	0.1275058
167	0xbe11d5a3	-0.14241652
168	0xbd89419f	-0.06701969
169	0x3e50e722	0.2040067
170	0x3e82eebe	0.2557277
171	0xbe3f1e29	-0.18663849
172	0xbebbf30d	-0.3670887
173	0x3ea93eca	0.33055717
174	0xbe8b06c1	-0.2715359
175	0xbe9a730f	-0.30165908
176	0x3cfa164a	0.030528206
177	0xbe8ff787	-0.28118536
178	0x3dcb48fa	0.099260285
179	0x3e59b3d6	0.21260008
180	0xbde20646	-0.11036353
181	0xbe6d7d40	-0.2319231
182	0x3e737630	0.23775554
183	0xbbc64c61	-0.0060515855
184	0x3e12c81a	0.14334145
185	0x3e0314cf	0.12800907
186	0x3eb2ce1a	0.34922868
187	0xbe755b64	-0.23960644
188	0x3e8c556a	0.27408916
189	0x3dce0dcb	0.100612246
190	0x3e333bc5	0.17503269
191	0xbdfa975e	-0.12235902
192	0x3dc793c5	0.09744982
193	0xbd9ecdfd	-0.07754133
194	0xbe90bd4a	-0.28269416
195	0x3e2592d7	0.16169296
196	0xbdb773e8	-0.08957654
197	0x3e35e49d	0.1776299
198	0xbe3a3ab6	-0.18186459
199	0x3d67113b	0.056412917
200	0x3e4185bd	0.18898673
201	0x3e620358	0.22071588
202	0xbe3e972e	-0.18612358
203	0xbe2a1bf9	-0.16612233
204	0xbeb3883b	-0.35064873
205	0xbe59488d	-0.21219082
206	0xbeb95f39	-0.36205462
207	0x3e2bcb09	0.1677667
208	0x3ddac567	0.10682183
209	0xbdaf292c	-0.08552775
210	0x3d48077e	0.04883527
211	0x3d2e351d	0.04253112
212	0x3db9aafa	0.09065814
213	0xbb608e31	-0.003426444
214	0xbd043d13	-0.032284807
215	0x3dc98105	0.09839062
216	0x3e958f32	0.29210812
217	0xbcb8ef2d	-0.022574985
218	0x3e3cfb0a	0.18455139
219	0xbd2996ea	-0.04140369
220	0x3d019c76	0.031643353
221	0x3eb7fced	0.35935155
222	0xbd86375a	-0.06553526
223	0x3e8adee3	0.27123174
224	0xbd577ee5	-0.05261125
225	0xbe68ba6d	-0.22727366
226	0xbaa0af73	-0.0012259319
227	0xbe035748	-0.12826264
228	0x3e47e5dd	0.1952128
229	0x3dd7c494	0.10535541
230	0xbdcf1026	-0.10110502
231	0x3c5958c0	0.013265789
232	0x3d78358a	0.060597934
233	0xbe0fe990	-0.14053941
234	0x3e9cd1f5	0.30628935
235	0x3bd43db7	0.0064770835
236	0x3e27fbd8	0.16404665
237	0x3e8cb0b3	0.2747856
238	0x3b240f85	0.0025033664
239	0xbeadc77d	-0.3394126
240	0xbe7c168a	-0.24617973
241	0x3dc414f6	0.095743105
242	0xbea45197	-0.32093498
243	0xbde140d5	-0.10998694
244	0xbc952ffb	-0.018211355
245	0xbe006a19	-0.12540473
246	0x3dc9051d	0.098154284
247	0xbeb77a30	-0.3583541
248	0xbd8c32d1	-0.0684563
249	0xbe116c0e	-0.14201376
250	0x3e38b2ea	0.18037
251	0xbe7c726d	-0.24653025
252	0x3c4fb992	0.012678521
253	0xbe8bcd50	-0.27305079
254	0xbe23b3b3	-0.15986519
255	0x3e8deb61	0.27718642

mean_net.2.bias f4 [128]
0	0xbe51798f	-0.20456527
1	0xbd822cd2	-0.06356205
2	0x3e6670ff	0.22504042
3	0xbd17b6e6	-0.03703966
4	0x3d9b4f09	0.07583434
5	0x3c38656c	0.01125465
6	0xbda93dda	-0.082637504
7	0x3de1db20	0.11028123
8	0x3d6dd31d	0.05806266
9	0xbc80c03d	-0.015716666
10	0x3dba5d92	0.09099878
11	0x3cb8d083	0.022560364
12	0xbe5039d3	-0.20334558
13	0x3d68e880	0.056862354
14	0x3e53840d	0.20655842
15	0xbddb4a97	-0.10707586
16	0xbc4f2b73	-0.012644636
17	0xbdda2b6e	-0.10652815
18	0xbead9a83	-0.33906946
19	0xbd0fe635	-0.035131652
20	0xbd95a79c	-0.073073596
21	0x3c17857e	0.009248136
22	0x3db8fa0e	0.09032069
23	0xbdc77340	-0.09738779
24	0xbd2e37a7	-0.042533543
25	0x3c8645d0	0.016390711
26	0x3d8de679	0.06928725
27	0xbd63710d	-0.055527736
28	0x3e0550a2	0.1301904
29	0x3d09e49b	0.03366528
30	0xbe21de0d	-0.15807362
31	0x3dcf57a5	0.10124139
32	0x3dc0d3e9	0.09415419
33	0xbcb2f00c	-0.021842979
34	0xbcf42f48	-0.029807702
35	0xbe9e206f	-0.3088412
36	0xbd7bf349	-0.06151131
37	0x3ebdb420	0.37051487
38	0x3eb5d305	0.35512558
39	0xbd8ce55b	-0.068796836
40	0x3e2b5001	0.16729738
41	0xbad2a8b6	-0.0016072008
42	0xbda21be9	-0.0791548
43	0x3e6aac73	0.22917347
44	0xbbdf3577	-0.0068117934
45	0x3e67fdde	0.22655436
46	0xbd05fb1a	-0.032710172
47	0x3dd93c1e	0.106071696
48	0xbe30c574	-0.17262822
49	0xbe0edcfb	-0.13951485
50	0x3dcd02ed	0.10010324
51	0xbbad4172	-0.0052873427
52	0x3d419dfb	0.047269803
53	0xbe3caca7	-0.18425237
54	0xbda8a45a	-0.082344726
55	0x3ddff2e7	0.10935002
56	0xbd358707	-0.044318225
57	0xbd038bec	-0.03211586
58	0xbdbe0f85	-0.09280304
59	0x3e4ae358	0.19813287
60	0xbd4c5a2e	-0.04989069
61	0xbdaa8437	-0.08325999
62	0xbd9c20e3	-0.0762346
63	0x3ddcc63e	0.10779999
64	0xbe72dc9e	-0.23716971
65	0xbd50a759	-0.050940845
66	0x3ecc7c89	0.39938763
67	0xbe1044e3	-0.14088778
68	0x3da3040d	0.07959757
69	0xbd705305	-0.058672924
70	0xbd70f41f	-0.058826562
71	0x3d2ac27f	0.041689392
72	0x3d4c7fd2	0.049926586
73	0xbbc6943d	-0.006060152
74	0xbe85046d	-0.2597994
75	0xbb90d37f	-0.0044197435
76	0xbdf81835	-0.12113992
77	0xbd84d1db	-0.06485339
78	0xbc93db8d	-0.018049026
79	0x3d7cee9e	0.061751
80	0xbc9311bd	-0.017952794
81	0x3d9998bc	0.07499835
82	0xbe2c372a	-0.16817918
83	0xbe3c08be	-0.1836271
84	0x3db9a9c3	0.090655826
85	0x3e74a88c	0.2389242
86	0xbdb8d9cf	-0.09025919
87	0x3d65592b	0.05599324
88	0x3e2cb6c5	0.16866596
89	0xbd8c15b9	-0.06840081
90	0x3da56fe1	0.0807798
91	0x3e469d72	0.19395998
92	0x3e71077c	0.23538011
93	0xbd7d0f3e	-0.061782114
94	0x3e09b44b	0.13447683
95	0xbc5e3c23	-0.013564142
96	0xbe0be973	-0.13663273
97	0xbe2d4db4	-0.16924173
98	0xbe2df758	-0.16988885
99	0x3d089917	0.033349123
100	0xbdb5d1e5	-0.08877925
101	0xbe0cc12a	-0.13745561
102	0xbd159cf6	-0.036526643
103	0x3cf81468	0.030283168
104	0xbd868612	-0.06568541
105	0x3e277f9f	0.16357277
106	0xbc442803	-0.01197243
107	0xbd9873da	-0.07443972
108	0xbdb0443f	-0.08606767
109	0xbd40b98a	-0.047051944
110	0x3d712ffd	0.058883656
111	0xbc32706a	-0.010891059
112	0xbcc15fc4	-0.023605235
113	0xbdc44de6	-0.095851704
114	0x3e47bf90	0.19506669
115	0xbd16c167	-0.036805537
116	0x3b9d8f0f	0.0048083137
117	0x3c22455d	0.009904233
118	0xbe80e5d9	-0.2517536
119	0x3c7022ff	0.014656781
120	0x3da95576	0.082682535
121	0xbd483629	-0.048879776
122	0x3d271f8a	0.040801562
123	0xbdfdf146	-0.12399535
124	0xbc4b89f4	-0.012423027
125	0x3ea646a2	0.32475764
126	0x3c6d113d	0.014469442
127	0x3dfe4c68	0.12416917

mean_net.4.weight f4 [4, 128]
0	0xbdc5ed5b	-0.096644126
1	0x3dbe6f49	0.0929857
2	0xbe4531de	-0.19257304
3	0x3e5c97a0	0.21542215
4	0x3d55bcf3	0.05218215
5	0xbdbeaa43	-0.093098186
6	0x3e2bdeb2	0.1678417
7	0x3b645284	0.0034839222
8	0xbe730aea	-0.23734632
9	0xbd727e92	-0.059202738
10	0x3d356f8f	0.044295844
11	0xbb82bf1f	-0.0039900686
12	0xbd105bce	-0.0352438
13	0x3e002466	0.12513885
14	0x3d46501f	0.048416253
15	0xbdebc002	-0.11511232
16	0xbe76e55c	-0.24110931
17	0x3d290aa2	0.041269906
18	0x3e88a97d	0.2669181
19	0xbd36d118	-0.044633
20	0xbca27f75	-0.019836167
21	0xbdb621e7	-0.08893185
22	0xbe01879b	-0.12649386
23	0x3d9e62c4	0.07733682
24	0x3c2da142	0.010597529
25	0xbd95259c	-0.07282564
26	0x3e0c722e	0.13715431
27	0xbbcf0fc8	-0.00631902
28	0xbe5d9ae6	-0.2164112
29	0xbdd100e9	-0.10205252
30	0x3e37daad	0.17954512
31	0x3dbfe468	0.09369737
32	0x3b982092	0.0046425546
33	0x3da8d81b	0.08244344
34	0xbd6fc5fb	-0.05853842
35	0x3e9ef2f0	0.31044722
36	0x3d3808f6	0.04493042
37	0xbe7433e3	-0.23847918
38	0xbe7544b2	-0.23951986
39	0xbe70c2cb	-0.23511808
40	0x3ce496b5	0.027903894
41	0xbd8bd30f	-0.068273656
42	0x3e8727ed	0.26397648
43	0xbb20b3c5	-0.0024521213
44	0xbda2cf20	-0.07949662
45	0x3df8ed5d	0.121546485
46	0x3e28b054	0.16473514
47	0xbda7a71b	-0.0818617
48	0x3e4b35a9	0.19844688
49	0x3e330934	0.1748398
50	0xbe167e80	-0.14696693
51	0xbcf6276f	-0.0300481
52	0x3dca0711	0.09864629
53	0x3e0f5fc5	0.14001377
54	0x3e28a3ad	0.16468687
55	0xbd127166	-0.035752676
56	0xbd6439ca	-0.055719174
57	0xbe6c4cf5	-0.23076232
58	0x3ba63a73	0.0050728857
59	0xbdca554c	-0.0987955
60	0xbd0724d3	-0.032994103
61	0xbde0075c	-0.10938904
62	0xbda38acc	-0.07985458
63	0xbdc7d649	-0.097576685
64	0x3dc76efd	0.09737966
65	0x3db5bea9	0.08874256
66	0xbed2a0d7	-0.41138336
67	0xbe1080f9	-0.14111699
68	0xbd215530	-0.03938788
69	0xbda8b1fc	-0.08237073
70	0x3e26e8e9	0.16299786
71	0xbe190b53	-0.14945726
72	0xbddae100	-0.106874466
73	0xbe1ba608	-0.15200055
74	0x3e41523c	0.18879026
75	0xbe55531a	-0.20832482
76	0xbe0fb1f4	-0.14032727
77	0x3cecffe9	0.028930621
78	0xbdd079c6	-0.101794764
79	0xbdf4429c	-0.11926767
80	0xbc2ffccc	-0.010741424
81	0xbe21fc46	-0.15818891
82	0xbe22fbb8	-0.15916336
83	0x3df26cd2	0.11837162
84	0x3e4f2f4a	0.20232883
85	0xbe66b4cc	-0.22529906
86	0xbd9c2546	-0.07624297
87	0x3c24afef	0.010051711
88	0xbeabb683	-0.33537683
89	0xbed40587	-0.41410467
90	0xbd38ea1b	-0.045145135
91	0x3e954ec6	0.29161662
92	0x3dc1ed24	0.09469059
93	0xbe438fc7	-0.19097815
94	0xbe38116d	-0.17975397
95	0x3c67386b	0.014112572
96	0x3e24e35e	0.16102359
97	0xbc822ea3	-0.015891379
98	0xbdb4bf86	-0.08825593
99	0x3e6739e0	0.22580671
100	0xbd128915	-0.035775263
101	0x3cb9c5f2	0.022677395
102	0x3b98e698	0.004666161
103	0x3bd07086	0.00636107
104	0x3d9fc52e	0.07801281
105	0xbe20e3de	-0.15711924
106	0xbcb89c38	-0.022535428
107	0x3c2eca2e	0.010668321
108	0xbd7492c1	-0.059710268
109	0xbc6a0c2c	-0.014285129
110	0x3e841555	0.25797525
111	0xbdd1f984	-0.102526695
112	0xbe228d77	-0.15874277
113	0xbb050e9b	-0.0020302895
114	0xbe1b7b6a	-0.15183797
115	0x3e84290c	0.25812566
116	0x3cab9047	0.02094282
117	0x3e01e27e	0.12684056
118	0xbd46913e	-0.048478357
119	0xbe4a241c	-0.19740337
120	0x3dfb1a8b	0.12260922
121	0xbe3708fa	-0.17874518
122	0xbd8f1c3f	-0.069878094
123	0x3e3e8b70	0.18607879
124	0x3dc69184	0.09695724
125	0xbe340a04	-0.17581946
126	0x3be683d6	0.007034759
127	0xbd6a4d7b	-0.057202797
128	0x3dcd7eca	0.10033949
129	0xbe108429	-0.14112915
130	0xbf1c8abe	-0.61149204
131	0xbcd202b5	-0.025636056
132	0xbd68c146	-0.056824945
133	0x3dae4cb5	0.085107245
134	0xbe894f63	-0.2681838
135	0x3cf01be4	0.029310174
136	0x3e0fe27b	0.14051239
137	0x3d576daa	0.05259482
138	0xbe200e30	-0.15630412
139	0x3c34fa88	0.011046059
140	0x3ea7ff12	0.3281179
141	0x3e6bf04f	0.23040889
142	0xbe0990b8	-0.13434112
143	0x3dd33ed2	0.103147164
144	0x3d576385	0.052585144
145	0x3f074b71	0.5284949
146	0xbe9ffbbb	-0.31246743
147	0x3dbf2dff	0.09334945
148	0xbf211fc0	-0.6293907
149	0x3ecbbedd	0.39794055
150	0x3e062c09	0.13102736
151	0xbe5e31d1	-0.21698691
152	0xbb1b378e	-0.0023684236
153	0xbc92a857	-0.017902536
154	0x3e1180c6	0.1420928
155	0x3db2e159	0.08734388
156	0xbe9b52fd	-0.30336753
157	0xbddc902f	-0.10769688
158	0xbde17bf3	-0.110099696
159	0x3e9f08e4	0.3106147
160	0x3da1317b	0.07870766
161	0x3d153bee	0.036434107
162	0xbb6e362c	-0.0036348207
163	0xbe31623b	-0.17322628
164	0x3e97ea1e	0.29670805
165	0xbec2ad03	-0.38022622
166	0xbdac348c	-0.0840846
167	0xbe998033	-0.2998062
168	0xbe7f04d1	-0.24904181
169	0x3d723f44	0.059142366
170	0x3e82e02b	0.25561652
171	0xbe289bd3	-0.16465692
172	0xbd535ca3	-0.051602017
173	0x3d630670	0.05542606
174	0xbc0733ad	-0.008252067
175	0xbe87a5a6	-0.26493567
176	0x3e05dcaf	0.13072465
177	0x3ded20d1	0.11578525
178	0x3e83f033	0.25769195
179	0xbd9faca8	-0.077966034
180	0xbe58ec82	-0.2118397
181	0xbe1c74af	-0.15278886
182	0xbedee8a5	-0.4353687
183	0x3c7884c1	0.01516837
184	0xbc304b76	-0.010760179
185	0xbe18a916	-0.14908251
186	0x3ae0c6f1	0.0017149133
187	0x3d335080	0.043777943
188	0xbe8c9f8d	-0.27465478
189	0x3eb0459a	0.34428102
190	0x3e714e02	0.23564914
191	0x3e85ab62	0.26107317
192	0x3d6b2ca6	0.057415627
193	0x3e5d3f12	0.2160609
194	0xbdbaf5c1	-0.09128905
195	0xbe11a7a4	-0.14224106
196	0x3ae57070	0.0017504822
197	0x3e108d99	0.14116515
198	0xbda912dd	-0.08255551
199	0xbe8f78e5	-0.28021923
200	0x3e220c3a	0.15824977
201	0x3cbd1425	0.023080895
202	0xbcac882a	-0.021061022
203	0xbd5f9958	-0.0545896
204	0xbe43353c	-0.19063276
205	0x3e50abe6	0.20378074
206	0xbdb9ff3a	-0.09081884
207	0x3e70586b	0.23471229
208	0xbc09898f	-0.008394613
209	0xbc9f056f	-0.01941177
210	0x3e0c7134	0.13715059
211	0x3d30cafd	0.043162335
212	0x3eedc8f7	0.46442387
213	0xbe157be2	-0.14598039
214	0xbd817f20	-0.06323075
215	0x3c0501a5	0.008118068
216	0x3df58615	0.11988465
217	0xbe4dc983	-0.20096402
218	0xbc88f6ce	-0.016719248
219	0x3e17dfbd	0.14831443
220	0xbec5a754	-0.38604224
221	0xbea6903c	-0.32531917
222	0xbc5be99b	-0.013422395
223	0xbe8a07cb	-0.2695907
224	0xbe75e6f1	-0.24013878
225	0xbe7a0dc3	-0.24419312
226	0x3d4a2615	0.049352724
227	0xbe10e6a2	-0.1415048
228	0x3dc3b900	0.0955677
229	0x3dda58a6	0.106614396
230	0x3bf153af	0.007364712
231	0x3b382053	0.0028095439
232	0x3e2059c9	0.1565925
233	0xbea1e17f	-0.31617352
234	0x3ee07a2e	0.43843216
235	0xbc860a7e	-0.016362425
236	0x3e3767d6	0.17910704
237	0x3cf386ce	0.029727366
238	0xbd04b326	-0.03239741
239	0x3e760c54	0.2402814
240	0xbe8533bb	-0.2601603
241	0xbb5e0dca	-0.003388273
242	0xbdab4f5e	-0.083647475
243	0x3dbaea71	0.091267474
244	0xbd376c64	-0.044781104
245	0xbe2a49eb	-0.1662976
246	0x3e8d834a	0.27639228
247	0xbdadc587	-0.08484941
248	0x3cc89988	0.024487272
249	0xbe40a5f6	-0.18813309
250	0x39eafe8f	0.0004482162
251	0x3e10cca8	0.1414057
252	0xbe8216c3	-0.2540799
253	0x3ddecfb7	0.10879462
254	0xbb157032	-0.002280247
255	0xbd343104	-0.043992057

mean_net.4.bias f4 [4]
0	0x3bfc8580	0.007706344
1	0xbdc7a0a9	-0.0974744
2	0xbd2744d4	-0.040837124
3	0xbd1bf6ef	-0.03807729
