src/rl/px4_model/28-08-2024_10-19-49/model.onnx (onnx, 83158 bytes, 6 tensors)

0.weight f4 [128, 27]
000000 30 68 76 be 07 78 22 3f d9 18 bb be 15 8c 8a 3e
       -0.24063182 0.634644 -0.36542395 0.2706
000010 2d 41 1d 3f 50 13 72 be 63 65 8b be c3 19 e5 be
       0.61427575 -0.2364018 -0.2722579 -0.44746217
000020 3d 7b e9 bd 88 92 99 3e dc d7 20 be 6c 0d cd bd
       -0.11400459 0.29994607 -0.15707344 -0.10012326
000030 ca 5d 92 bf cb 12 2e 3e 92 dd 84 3d 29 26 7a 3e
       -1.1434872 0.16999356 0.06487574 0.2442862
000040 f6 2d 22 3c 51 8c d2 bf 0e b8 18 c0 68 1f 40 be
       0.009898653 -1.6449071 -2.3862338 -0.1876198
000050 22 54 b0 3d 77 4e 88 bd eb 54 36 bf 51 79 3c 3e
       0.08609797 -0.06655591 -0.71223325 0.18405654
000060 84 d0 16 bd 59 df 1d 3d 0a 61 5f bd d6 f2 71 3d
       -0.03681995 0.03854308 -0.054535903 0.059069477
000070 2b 11 f0 3e 40 e9 31 3e 17 52 4d be d9 79 89 3e
       0.46888098 0.17374134 -0.20050846 0.26850775
000080 3c 82 9d 3e a2 27 e6 3e 19 79 2f 40 a2 fe e8 3d
       0.30763423 0.44952112 2.7417662 0.11376692
000090 2c 23 1a 3f fc d6 01 bf b9 9a da 3e 95 39 3d be
       0.6020992 -0.50718665 0.4269617 -0.18478997
0000a0 c9 4a 4d 3e 75 98 5b be 97 7b 4d bd 02 61 b5 3c
       0.2004806 -0.21444876 -0.050166693 0.022140983
0000b0 36 d9 2a bf 9e ea fb 3e 37 89 a7 be 4c 9a 66 be
       -0.6673769 0.49202436 -0.32721874 -0.22519797
0000c0 30 57 94 3e ed a4 d3 3e 8a d9 0e be 67 4c 4d 3c
       0.2897277 0.41336766 -0.13950172 0.012530423
0000d0 2c e9 25 3d 55 0d 0b 3e ec 0a 6f 3e 09 6c a8 3e
       0.040505573 0.13579305 0.2334401 0.32894924
0000e0 0e 69 34 3e ad 90 5f 3d 27 79 ea 3e a2 0e 75 be
       0.176182 0.054581333 0.45795557 -0.23931363
0000f0 72 f0 c0 3e 9e 73 13 3f 6f 0e ce be 88 1d 88 be
       0.37683445 0.5759829 -0.40245387 -0.2658503
000100 5e e3 45 be e7 f7 3a 3e 25 04 04 3f 76 ed ad 3c
       -0.19325015 0.1825863 0.51568824 0.021231394
000110 df 5e a8 bc fa 3a 18 3e f7 63 56 3e 1f 2a f4 bf
       -0.02055305 0.14866248 0.20936571 -1.9075354
000120 f3 57 70 bf 13 e2 55 bd 72 12 6f 3d 01 c9 ae be
       -0.938842 -0.052217554 0.0583672 -0.3413773
000130 03 af 86 3e 04 cd 3b be 67 26 92 bd 35 4b db 3d
       0.26305398 -0.18339926 -0.07136231 0.10707704
000140 f3 81 fa bd a3 0c ec be 36 09 d0 bd 7a 43 b9 be
       -0.12231817 -0.4610339 -0.10158007 -0.36184293
000150 53 c5 3a bf af c8 d2 3e 2e 1f f3 be 8a 89 df 3e
       -0.7295734 0.41168734 -0.47484726 0.4365962
000160 c9 64 cd be 74 29 b9 bf b2 3f 11 be 82 e2 08 bf
       -0.40115955 -1.4465775 -0.14184454 -0.53470623
000170 c8 e9 9a 3c 8b 71 91 3f 50 97 07 be 29 26 39 3c
       0.018910304 1.1362776 -0.13241315 0.011300602
000180 bd c5 7c be 87 25 75 3e d4 2c a6 3e 8c 10 a2 bf
       -0.24684806 0.23940097 0.32456076 -1.26613
000190 40 13 d2 3d 6a 6e 7d bf 5a 3a 07 3f 43 bd c1 bf
       0.10257578 -0.98996603 0.5282341 -1.5135883
0001a0 ff cf cd bd df ff d8 3d c4 25 0e 3e 23 f5 08 3e
       -0.10049438 0.105956785 0.13881594 0.13374762
0001b0 95 34 b2 3e bf 97 81 bf d5 f5 b1 bd 7f ba 33 3f
       0.34805742 -1.0124434 -0.08689467 0.70206445
0001c0 7b 53 79 bf 0d 46 9c 3d 39 51 69 bf ca 17 a2 bc
       -0.97393006 0.076305486 -0.9113956 -0.019786734
0001d0 83 fc 32 bf ea fd 5e bf 83 a7 87 be 46 df 0f 3c
       -0.6991655 -0.8710619 -0.2649499 0.00878126
0001e0 ae f8 9f 3f 69 4b 21 3e 62 6e 11 bd a7 84 c5 bd
       1.2497766 0.15751423 -0.03550566 -0.09644442
0001f0 ca 26 77 3e 99 62 99 bf c3 fc c6 bf 02 13 45 bc
       0.2413589 -1.1983215 -1.5545887 -0.012028458
000200 f4 f6 70 3e c7 c2 f0 3d ed cd a3 3f 4e 05 9b 3d
       0.23531705 0.11755901 1.2797219 0.07569371
000210 ca 7a 02 3e 25 ae 58 3e 30 22 f4 3d 88 c5 84 bf
       0.12742153 0.21160181 0.11920583 -1.0372782
000220 78 1d d4 3e c2 74 21 bf b1 5c e0 bf 52 eb 97 be
       0.41428733 -0.63068783 -1.7528287 -0.29671723
000230 f2 0b e9 be 65 34 0f bd 09 5d 11 3f c5 c7 81 3e
       -0.45516926 -0.034962077 0.56782585 0.25347725
000240 67 7e ec bc cd 35 66 3d 80 ac 20 be fd 83 1d 3e
       -0.028868867 0.056203652 -0.15690804 0.15382381
000250 03 95 5b 3e bd 40 b7 3e ff 97 8e be 98 9f d5 bb
       0.21443562 0.3579158 -0.2785034 -0.006519269
000260 38 da 9e bf e1 80 78 3e 56 a5 40 3e 34 3a 08 be
       -1.2410345 0.24267913 0.1881307 -0.13303453
000270 fd dd 48 3e dd a8 b0 3e 9f a1 3e be f1 cd 73 be
       0.19615932 0.34503832 -0.18616341 -0.23809029
000280 1f 60 2f 3e 55 aa 8f 3e e9 60 aa 3d a8 94 85 3f
       0.17126511 0.2805964 0.083192654 1.0435991
000290 b1 82 fd be 86 25 62 3f 65 8f 10 3f 20 6d b8 bd
       -0.49513772 0.88338506 0.564688 -0.09005189
0002a0 0b 52 34 bf cb 70 c5 3f 80 a6 fd 3b 9a 4d 24 3f
       -0.7043769 1.5425047 0.0077407956 0.6418091
0002b0 fc 6a 79 bd 8c 0e 61 be 5b b6 e0 be 3a f8 04 bc
       -0.060893044 -0.21978205 -0.43889126 -0.008115822
0002c0 95 23 81 3c e8 b5 d9 bd 43 2e 84 3d 46 52 65 bf
       0.015764037 -0.10630399 0.06454136 -0.89578664
0002d0 3c 43 c7 be e9 5e 98 bd 39 20 38 3e 32 6d 9e 3d
       -0.38918483 -0.07439978 0.17981042 0.07735671
0002e0 11 bf 4c 3e 1a 2a 61 be 20 d4 cf 3d db 82 03 be
       0.19994761 -0.21988717 0.101478815 -0.12842886
0002f0 3b 8a cb 3e 07 b3 35 3d 48 46 cb be a4 11 40 be
       0.397539 0.044360187 -0.39702058 -0.1875673
000300 6e a1 37 3c fa 49 0e bf c5 1f da 3d 86 2c d4 bd
       0.011207921 -0.5558163 0.10650591 -0.10360055
000310 76 b8 96 3f 9a a9 ab be e4 db 32 3e 01 3c 32 3e
       1.1775043 -0.33527833 0.17466694 0.17405702
000320 bc 0b d6 bd a6 eb 9d be 5e 53 60 3e 6a 40 10 3d
       -0.10451457 -0.30843848 0.21906802 0.03521768
000330 ee b0 a2 ba 78 1c 6d be f2 c7 06 3f 3a 95 a6 3f
       -0.0012412348 -0.23155391 0.5264884 1.301429
000340 b2 6c b8 bc 71 3c 9c 3e 81 c9 c1 3d 15 70 f4 3e
       -0.022512767 0.30514863 0.09462262 0.47741762
000350 a7 6e e8 3e 6c 4d 10 be 4c f4 27 bd 70 48 80 be
       0.4539692 -0.14092034 -0.041004464 -0.25055265
000360 f4 8d 75 3f 1f 1d 20 3d 01 33 bb be fe 5a 1a 3f
       0.9591973 0.039090272 -0.3656235 0.60295093
000370 9a b2 39 3e c7 cb ca 3e 57 d7 ce 3d d2 88 79 3f
       0.18134537 0.39608595 0.100996666 0.97474396
000380 7d 57 4c 3f 36 8f 58 bc 28 4f 05 3f 84 1d d8 be
       0.79820997 -0.013217738 0.5207391 -0.4221002
000390 a6 df aa 3e 16 a4 1f 3d a4 00 61 3d 03 a7 34 be
       0.33373755 0.038974844 0.05493225 -0.17641835
0003a0 24 04 c8 3c 92 08 44 3e 87 42 94 bf 3b 77 1c 3e
       0.024416037 0.19143894 -1.1582803 0.15279858
0003b0 ab 6e 5c be 4a 05 04 3f c9 fc 1c be 9d 2f c3 bd
       -0.21526591 0.5157057 -0.15330805 -0.09530566
0003c0 03 13 38 3e 60 1d 34 be f6 bb f5 3d bd da 59 be
       0.17976002 -0.1758933 0.11998741 -0.21274848
0003d0 a9 d1 1b 3e 43 46 cc be 0a 96 2a bd ab 29 72 3e
       0.15216698 -0.39897355 -0.041646995 0.23648708
0003e0 8b 10 ac 3d 5d 1a 91 bd 7c e7 05 3f 39 96 f5 bd
       0.08401593 -0.070851065 0.5230634 -0.11991543
0003f0 9b 10 96 bc 2e 28 cc ba 1b ed 39 3c 2a fd c2 3f
       -0.018318465 -0.0015575939 0.011348034 1.523351

0.bias f4 [128]
000000 ac ed 1b 3e ce 9a dc bd 38 cc 02 3e 32 5b 15 3d
       0.15227383 -0.10771714 0.12773216 0.036463924
000010 0c 0f 35 3d b9 ac 42 3e 53 ef 53 bd 4b e2 93 bc
       0.044203803 0.19011201 -0.05174191 -0.01805224
000020 3d 1d 53 3e d9 7d de bd 44 0a 04 bc ae 2f 5d be
       0.20616622 -0.10863847 -0.008059088 -0.2160022
000030 b1 c3 3e 3e a8 6e 45 bd 46 2a 6e 3c 5c a9 47 3e
       0.18629338 -0.048201233 0.014536446 0.19498199
000040 0e 13 c1 3d 62 68 f5 b9 b0 0e 6e 3d fd 84 3a bd
       0.094274625 -0.00046807813 0.058119476 -0.045536984
000050 5f b1 65 3c ff 70 8e 3b aa 00 d2 bd 9c 06 06 3d
       0.014019339 0.0043469663 -0.10254033 0.032721147
000060 e2 1a be bd f2 40 de bd 78 43 cc bd 44 6a 42 bc
       -0.09282471 -0.10852231 -0.09973806 -0.011866156
000070 9e 16 25 3e 0b 5c be bd 4c df ac bd 01 92 11 3d
       0.16121909 -0.092948996 -0.08441028 0.03553963
000080 de 57 ac bd b4 ad a2 bd 53 54 87 bd 6a 41 25 bd
       -0.08415197 -0.079432875 -0.066078804 -0.040345587
000090 21 cf 7b 3d 56 99 0e 3e ad cc 8a be 9c 2c 44 3d
       0.06147683 0.1392568 -0.2710928 0.047894105
0000a0 01 21 d4 bd 61 83 e0 3c f4 0b c0 bd 8a e4 4c 3e
       -0.103578575 0.027406396 -0.0937728 0.20009056
0000b0 00 16 a9 bc ca 2c 1b 3e 45 9f 3a bd f9 63 1e 3d
       -0.020640373 0.15153804 -0.045562048 0.03866956
0000c0 af e0 43 3e 55 c0 6a be cf 2f 36 be 0f 6b 4a be
       0.19128679 -0.22924931 -0.17791675 -0.19767402
0000d0 73 cf 63 be 7e 50 0a be 8a 95 1f 3e 0e 06 f0 3d
       -0.22247104 -0.13507268 0.15584388 0.11719905
0000e0 9e 53 b1 3d 9f ed 11 3e ed 5d c0 3d 40 95 d4 3d
       0.08658527 0.14250802 0.09392915 0.1038003
0000f0 b9 bd 47 3e 50 8e 36 be 0d 2b b0 bd 88 f5 2d be
       0.19505967 -0.17827725 -0.08601961 -0.16988194
000100 bf 3c d4 bd 8a 7c 8e 3d 79 19 ab bd f2 39 87 3d
       -0.10363149 0.06957348 -0.08354468 0.06602849
000110 84 8c 5e 3e 65 a7 68 3e 4c 37 1e be 0b 0e f9 bd
       0.2173329 0.22720106 -0.15450782 -0.121608816
000120 1b 0a 8e 3e 9f 68 1c 3e fe 1c 17 3e 2b ec 1a 3e
       0.27742085 0.15274285 0.14757153 0.15129153
000130 90 4f f7 3d fa ca 8d 3d 76 28 3b be af e2 54 be
       0.12075722 0.0692348 -0.18277153 -0.20789598
000140 ce f0 0f be 2d 22 54 3e 28 6d 03 be 6e 69 70 3d
       -0.14056703 0.20716162 -0.12834609 0.058694296
000150 93 c3 50 bd 0f eb d3 3c 4d b6 30 3e ee b3 49 3e
       -0.050967764 0.02586892 0.17257042 0.19697544
000160 66 36 b0 3d f4 b5 d7 bd 2c 41 82 3e c8 ff 8d bd
       0.08604126 -0.10532752 0.25440347 -0.06933552
000170 40 77 04 3e ff 43 5a 3d be 5c 20 3e 37 28 7a 3d
       0.12936115 0.053287502 0.15660378 0.061073508
000180 d3 fd b2 bd 92 38 f1 3d 63 1c b9 3d 73 75 e5 3c
       -0.087398194 0.11778368 0.090386175 0.028010106
000190 b0 95 12 3d d3 67 23 3e 89 bb 5a be 7f 19 fa bd
       0.035787284 0.15957575 -0.21360601 -0.12211894
0001a0 00 a2 b0 3d 6f d9 dc 3d c0 db cb 3c af 90 30 3e
       0.08624649 0.1078366 0.024885058 0.17242692
0001b0 e1 dd 84 3e 36 14 84 3e 1b 54 7f 3d 1a 07 96 3d
       0.2595053 0.2579667 0.06233607 0.07325573
0001c0 22 5f 1b 3e 5d 45 53 3c a3 a4 48 be 01 57 34 3e
       0.15173009 0.012894955 -0.19594054 0.17611314
0001d0 3a ee 06 be aa 87 63 3e 13 54 48 3d 31 c3 24 3e
       -0.13176814 0.2221972 0.048908304 0.16090085
0001e0 23 48 89 3c af c4 ae 3d d7 5c 0c 3c fa b7 00 be
       0.01675803 0.08533608 0.008567057 -0.12570181
0001f0 8b 2d 56 3e 39 62 4d 3e d0 19 33 bc dd 72 0b be
       0.20915811 0.20057 -0.010931447 -0.13618036

2.weight f4 [128, 128]
000000 c6 67 6f be c0 1b 06 be 6a 65 88 3d 1d 69 35 bc
       -0.2337943 -0.13096523 0.06659968 -0.011072424
000010 13 8a 80 3d 93 dd 20 3d 98 62 59 3e 96 0b ea 3c
       0.062763356 0.03927381 0.21229017 0.028569978
000020 8a 65 bd 3d 5d 15 98 3e 50 ca 3b 3e 4e 30 30 3e
       0.09247883 0.297038 0.18338895 0.17205927
000030 ae bd 0f 3e b1 79 c4 bd 30 33 f1 bd 23 59 18 be
       0.14037201 -0.09593523 -0.11777341 -0.14877753
000040 60 e9 03 3e 26 c5 63 bc 10 c9 05 be 09 54 37 3e
       0.12881994 -0.013901984 -0.1306498 0.1790315
000050 6e d9 c8 bc 8f a3 9b 3d 60 3b 53 bd cc ea 64 bc
       -0.024517741 0.07599556 -0.051570296 -0.013971996
000060 4c 3c b5 bd 99 b3 ba bd 07 7a 14 3e 07 75 95 3d
       -0.08849391 -0.09116287 0.14499675 0.07297712
000070 44 29 72 3e 57 a5 04 3e dd 95 7d be a8 e4 f6 3d
       0.23648554 0.12953697 -0.247642 0.120553315
000080 ea 80 19 be 07 21 b9 3e b3 64 9b 3e 31 03 9b 3e
       -0.14990583 0.3615801 0.30350265 0.30275872
000090 23 df 86 3d a5 c1 14 bd b4 7d 99 3c 18 67 7e 3d
       0.06585529 -0.036317486 0.018736698 0.062110037
0000a0 88 4b 53 3d 53 b3 ff 3d 86 dc 08 bd e5 c0 15 be
       0.051585704 0.12485375 -0.033413433 -0.14624365
0000b0 cc 74 5a 3e 2a c8 b3 3e 7c 38 10 3e 48 c3 53 3c
       0.21333617 0.3511365 0.14084047 0.012924977
0000c0 c6 81 4b 3e a4 84 ac bb 18 63 2e bd 37 ce 4f bd
       0.19873723 -0.0052648354 -0.042574972 -0.05073377
0000d0 05 b8 90 bd b4 e3 45 be 14 17 63 3b f0 b4 34 bd
       -0.07066349 -0.19325143 0.0034651207 -0.044117868
0000e0 59 bb e8 3c 88 c8 e4 bd c9 8a 17 be cb 3e a4 3d
       0.028409647 -0.11171061 -0.14799036 0.08019789
0000f0 1c 61 80 bd c0 df ad 3d de b2 90 bd d0 8d 09 3c
       -0.06268522 0.084899426 -0.07065366 0.008395627
000100 9c c3 81 3e e0 41 c1 3d 0b 21 52 be 55 be c9 be
       0.2534455 0.09436393 -0.20520417 -0.39403024
000110 57 33 38 be d0 e1 c6 3d c7 bc bf 3e 07 fd bb 3d
       -0.17988335 0.09711039 0.37448713 0.091791205
000120 7c f9 fe 3d c2 42 ce 3d b9 c4 97 be 6b cc 3b bd
       0.12449929 0.10071327 -0.29642275 -0.045849245
000130 83 cc 9e be 68 b8 04 3d 58 91 6a be 9e 59 ee 3c
       -0.31015405 0.032402426 -0.22907007 0.029095467
000140 7c 48 04 be 4e 58 49 be 45 96 08 3f 43 32 93 be
       -0.12918276 -0.19662592 0.53354293 -0.28749284
000150 dd b9 27 be fe f2 22 3e 76 b8 7e be d8 8f e5 bd
       -0.16379495 0.15913007 -0.24875054 -0.11209077
000160 3a 21 61 3e 65 e5 20 3f 1e cd ec 3d 6b e3 f8 3d
       0.21985331 0.6285003 0.115625605 0.121527515
000170 86 07 89 bd 24 9e f9 bd 04 28 ed 3c de c9 6c bc
       -0.06690888 -0.12188366 0.028949745 -0.014452426
000180 8d 4b 77 3d 77 d3 09 be 23 b0 e7 bd 80 be 3e bd
       0.060374785 -0.13459574 -0.11312892 -0.046568394
000190 6d 70 5f 3d 4a 64 aa bd e4 e1 8c 3e 5c 1d 61 3c
       0.054550577 -0.0831991 0.2751609 0.01373991
0001a0 9d 9d 89 bc 5b 59 0f be 73 df e1 bd 31 39 19 bd
       -0.016798789 -0.1399893 -0.11028948 -0.037408058
0001b0 24 f5 ca be 06 58 3c 3d d3 99 82 bd 69 15 78 3d
       -0.39640152 0.045982383 -0.06376996 0.060567293
0001c0 72 10 30 3d 1c 82 09 3e 84 c5 52 3e 66 25 b5 3d
       0.042984433 0.13428539 0.20583159 0.08845024
0001d0 64 8b 07 3f e4 b0 6d 3e cf 41 93 be ef 75 31 be
       0.5294707 0.2321201 -0.28761145 -0.17330144
0001e0 fc f6 0f 3e ed a5 45 be 6e e7 7e 3e 51 45 2a bd
       0.14059061 -0.19301577 0.24892971 -0.04157001
0001f0 39 13 3e 3d 6c 9b cb 3d 68 6b 7a 3d a0 67 1f 3d
       0.04640505 0.09941754 0.061137587 0.038917184
000200 13 84 d4 3d 0e 72 02 be 7e e7 1b bd c9 95 18 3e
       0.10376754 -0.12738821 -0.038062565 0.14900889
000210 b3 bd a0 3d ce 7e fe 3d cd 55 3d bc ab 07 70 3d
       0.07848682 0.1242653 -0.011556101 0.058601063
000220 a5 1b d7 3c 27 d0 0b 3e 00 08 92 bd 07 76 c9 3d
       0.0262583 0.13653623 -0.07130432 0.09836965
000230 c6 ef 86 bc 76 04 ac 3d f8 d4 0a 3b 2b bf 2b 3c
       -0.016471755 0.08399288 0.0021184068 0.01048259
000240 1b 6c 97 bd 93 2a 87 bd 47 37 7f 3d cd 5c b8 3b
       -0.07393666 -0.06599917 0.062308576 0.005626297
000250 1f ec 89 3d 87 cd cd 3c 20 db ae 3d 8f ac 65 bb
       0.0673449 0.025122417 0.085378885 -0.003504548
000260 65 c6 aa bd ff 58 63 3d 35 09 de 38 fa bd a2 3b
       -0.08338622 0.055504795 0.000105875 0.0049664946
000270 f1 43 ca 3d ee c7 11 be f7 9c 8f 3d 1e eb af bd
       0.0987624 -0.14236423 0.070123605 -0.08589767
000280 97 e1 28 bd 75 02 8f bd 84 85 18 be 6f 55 5c bd
       -0.041230764 -0.069828905 -0.14894682 -0.053792413
000290 e0 c8 19 3d 3c a3 8a bd 4b b3 fd 3d 0b 55 d0 bc
       0.037545085 -0.06769416 0.12387713 -0.025431177
0002a0 4f d2 10 3e dc 2a 87 bd 54 12 a1 ba 21 49 9f 3d
       0.14142726 -0.06599972 -0.0012288787 0.0777762
0002b0 17 60 69 3c d3 c1 3a 3e 7b e5 71 bb 52 f6 e7 bb
       0.014244101 0.18238 -0.0036910463 -0.007078924
0002c0 90 7c e1 3c dc ec f6 bc 36 5f 95 3d 3b 00 37 bd
       0.027525216 -0.03014224 0.07293551 -0.044677954
0002d0 14 64 c8 3d 1e 16 42 bd 73 2e 53 3d 11 c0 5d 3c
       0.097847134 -0.047384374 0.05155797 0.013534562
0002e0 2a c0 ef bc 42 19 4f 3d c7 c9 08 3e a4 85 17 3b
       -0.029266436 0.050561197 0.13358222 0.0023120428
0002f0 2d 0f 30 3d 66 02 15 be a7 60 28 3d 20 ed e5 3d
       0.042983223 -0.14551696 0.0411078 0.11226869
000300 9d 20 00 bc 05 f0 d1 bd 60 de a9 3c 53 7e a9 bd
       -0.007820276 -0.10250858 0.02073592 -0.082760476
000310 16 54 2d 3d fc b0 e8 3d 1b d5 22 be 2d 3a 28 bd
       0.04231652 0.11361882 -0.15901606 -0.041071106
000320 d6 05 e9 bc e2 b6 af bc 20 6e 39 bd 4a c0 a1 3b
       -0.028445166 -0.02144951 -0.04527104 0.0049362527
000330 b4 56 00 3d a0 d3 ff 3d 3b 56 89 bd 96 a5 6a bd
       0.031332687 0.12491536 -0.067059 -0.05728682
000340 fe 61 7e bd fd 9f 23 3d b8 0b 4b be 5a c8 b8 bd
       -0.06210517 0.0399475 -0.19828689 -0.09022589
000350 09 8a 5c 3d ab 6e e4 3d b4 54 8f bc b1 46 4a 3d
       0.053842578 0.11153921 -0.017496444 0.049383823
000360 91 57 57 bd 73 67 b0 3c f6 e2 66 3d d9 e6 4b bc
       -0.052573744 0.021533703 0.05636879 -0.012445175
000370 36 42 ad bd 61 60 86 bd b3 01 32 3e 2f 44 b2 3d
       -0.08459894 -0.065613516 0.1738346 0.08704411
000380 20 6c f9 3d 97 7f 91 3d 6f 02 53 bd c6 64 ef 3c
       0.12178826 0.07104414 -0.051515993 0.029222857
000390 f7 0c 98 bd 62 2c 38 bd 33 73 6d 3d b1 f6 4f be
       -0.07424348 -0.0449642 0.05797119 -0.20308949
0003a0 c3 1b 2f bd aa 3e 9b 3d da ba d1 bd 42 13 88 bd
       -0.042751085 0.075803116 -0.10240717 -0.06644298
0003b0 31 68 18 3e f4 37 41 bd d0 dd 28 bd d7 51 f6 3d
       0.14883496 -0.0471725 -0.041227162 0.120273285
0003c0 ba c9 64 bc 22 7d f2 bd 3f 42 68 bd 14 36 6c 3c
       -0.013964111 -0.118402734 -0.056703802 0.01441719
0003d0 6b 44 a4 3d c3 03 b7 bd c3 13 a1 bd 56 88 fc 3d
       0.08020862 -0.08936264 -0.078650974 0.123306915
0003e0 79 24 31 3d 4a 1a 77 bc cd 05 b0 3d 0e 40 5f bd
       0.043247674 -0.015081951 0.085948564 -0.054504447
0003f0 a8 3f cd 3c b3 98 40 bd 46 f8 91 3d 22 35 82 bc
       0.025054768 -0.047020625 0.071274325 -0.015894476

2.bias f4 [128]
000000 6a 9c 44 be 6c 88 85 bc b3 3b 3b bd 8d ff ac bb
       -0.19200292 -0.016300403 -0.04571123 -0.0052794875
000010 b7 59 6f 3e 94 bf ae bd 25 a7 0e 3d 3a 77 09 bc
       0.23374067 -0.085326344 0.03482737 -0.008390242
000020 75 8f ae 3d c8 24 b0 3d 91 f6 75 3d a6 d2 24 bb
       0.08523456 0.086007655 0.060049597 -0.002514997
000030 7a cf 3b 3e 69 a2 4e bd 67 5b 82 3d 29 9a ca bd
       0.18340865 -0.050447855 0.0636509 -0.09892685
000040 36 50 29 3e cb 56 a8 3d 41 bb 9e bd 6b ab 13 bd
       0.16534504 0.082196794 -0.077505596 -0.03605215
000050 90 d5 2a be 03 9a b5 3d e1 35 4f bd 22 e5 61 bc
       -0.1668303 0.08867266 -0.050588492 -0.01378754
000060 3e 6e 59 be 45 82 e4 3d 7d a5 33 be 5d 34 ca 3d
       -0.2123346 0.111576594 -0.17543598 0.09873269
000070 aa 89 97 3d ab 5b 76 bd f7 3f 94 bd 38 c0 8c bd
       0.07399304 -0.060146015 -0.07238763 -0.068726
000080 68 11 1a bc 6a 74 a3 bd 58 07 d8 bc 99 b9 c3 bd
       -0.009403564 -0.079811886 -0.02637069 -0.09556884
000090 91 06 b6 3c 95 9e 13 be 5b be 7e 3d d8 30 2a bd
       0.022219928 -0.14415963 0.062193256 -0.041550487
0000a0 9b d6 10 bc 6e 85 5d ba 5d 22 b9 3c 40 a9 32 bc
       -0.008840228 -0.00084503635 0.022599394 -0.01090461
0000b0 18 8e 6f 3d 23 88 f2 bd b7 83 e8 3d ba 74 44 3c
       0.05848512 -0.11842372 0.113532476 0.01199072
0000c0 01 6d e4 bd a7 4c 3c be 20 ab b0 bc 93 5b d0 bd
       -0.11153603 -0.18388616 -0.021565974 -0.101737164
0000d0 68 f2 1b 3e ef 94 f5 bc 14 1b 12 bd 93 2c af 3c
       0.1522919 -0.029978244 -0.035670355 0.02138356
0000e0 be 84 8b 3d 3b 49 c6 3b 72 95 9e bd 3f aa 2e bd
       0.06812428 0.00605121 -0.07743348 -0.042642828
0000f0 a8 9d c9 bc 4d 23 79 3d 7d 68 9e b9 dd b0 2d 3d
       -0.02461131 0.06082468 -0.00030213958 0.042404998
000100 df 92 38 3c 07 28 11 be 56 b3 39 be 51 01 0e 3d
       0.011265486 -0.14175425 -0.18134817 0.034669224
000110 c0 65 a3 bd 8a c4 cf bc 4c ce ea 3c e8 64 1e be
       -0.07978392 -0.025362272 0.028662823 -0.1546818
000120 df b2 37 bc f2 0e 0f be e5 1e 77 3d 36 a7 9a 3c
       -0.01121208 -0.13970545 0.060332198 0.01887856
000130 de 2d b6 3d b5 d8 2f 3c 21 c5 88 3d 71 2c 55 bd
       0.08895467 0.010732819 0.06678224 -0.052044336
000140 aa 67 41 3d 98 0c 25 3e c7 0b 1b be da b2 f1 bd
       0.047218002 0.16118085 -0.15141211 -0.11801691
000150 02 97 0a bd ce 90 1e bc db 9d 62 bd 08 8a 70 3d
       -0.03383542 -0.009678079 -0.055326324 0.058725387
000160 d7 23 05 3e 54 bb 83 3c f9 fb db bd ea aa 3f bc
       0.13001953 0.016080536 -0.10741419 -0.011698464
000170 e2 c0 32 3d 74 83 50 bd dd dd 53 bd 31 79 0c be
       0.04364098 -0.050906613 -0.051725257 -0.13718106
000180 38 65 a8 3d ed 9c 23 3e 75 1d b5 bd a5 c4 7f bc
       0.08222431 0.15977831 -0.08843509 -0.015610849
000190 26 da 0e be d0 ab a4 bd 35 1e 58 bd 7b b0 bb 3d
       -0.13950405 -0.08040583 -0.052763183 0.0916452
0001a0 b3 91 88 bd aa 5e 65 bd 28 d0 1b be 9e 82 17 3c
       -0.06668415 -0.05599848 -0.15216124 0.00924745
0001b0 6b 3c 82 bd 24 52 54 bd f6 7e 1d 3e a8 a0 a0 bb
       -0.0635918 -0.051836148 0.15380463 -0.004901964
0001c0 f0 7c f4 3c 09 4b 6e 3d 35 cf 37 3e fc 4d 29 be
       0.029844731 0.058177028 0.17950137 -0.16533655
0001d0 41 72 2b be 09 06 79 bd e2 73 f3 3c ad b9 9d bd
       -0.16742803 -0.06079677 0.029718343 -0.077014305
0001e0 87 4a 9a 3c 8f e1 ad bd ed 08 20 be 29 b7 8e bc
       0.018834366 -0.084902875 -0.15628405 -0.017421322
0001f0 49 a8 f7 3d e1 3b f2 3b 00 f6 02 3d 34 ea 3f bd
       0.12092645 0.007392392 0.031972885 -0.046854213

4.weight f4 [4, 128]
000000 db 5a 32 3e eb bb 87 b9 99 35 cc b8 81 28 be ba
       0.17417471 -0.00025889216 -9.7374614e-05 -0.0014507921
000010 c6 30 25 3b 2d f0 5c ba 2e 05 ac bd 4f ac 0b be
       0.0025206073 -0.0008428123 -0.083994254 -0.1363995
000020 ce 54 81 be f9 48 2a be 98 79 9c bd a5 b8 71 bd
       -0.25260013 -0.166294 -0.0764038 -0.05901398
000030 b5 7a 15 bc 7e 06 66 3a b2 e4 09 bb 49 fd 94 3d
       -0.009123494 0.0008774771 -0.0021040854 0.07274873
000040 0a be 3c be 5c 06 0b bb d7 1b 47 3c 15 3f 8b bb
       -0.18431869 -0.0021213507 0.012152634 -0.0042494633
000050 ab bc 08 3e de 43 db 3a ff 15 3c ba c0 b5 b1 3a
       0.13353221 0.00167286 -0.00071749085 0.0013558194
000060 44 5c 99 3e e7 0d 2b 3e b5 99 de 3d 16 41 3b be
       0.29953206 0.16704522 0.10869161 -0.18286547
000070 2a f1 4b ba 37 96 77 bc 54 c2 51 3e eb e1 8b 3e
       -0.00077797717 -0.015111498 0.20484287 0.273208
000080 a2 ae 52 3e 18 20 a0 3c 69 2c 64 3a ad 00 22 3e
       0.2057443 0.019546553 0.00087041274 0.1582057
000090 44 a3 ad 3c 4e 67 20 bb c1 c4 5a ba 6c 14 86 3d
       0.021196015 -0.0024475637 -0.00083453587 0.06546864
0000a0 a6 72 6d 3d e5 2c ed ba a9 25 fb b9 57 d1 f0 bd
       0.057970665 -0.0018095045 -0.0004790251 -0.117586784
0000b0 5f d5 17 bd 70 d7 03 3e b8 37 12 3e f8 67 db bd
       -0.03706872 0.12875152 0.14279068 -0.1071319
0000c0 0b bf 02 3e 3a 1b 03 be 00 8e 0e 3c 65 ef 46 bd
       0.1276819 -0.12803355 0.008700848 -0.04856815
0000d0 0f db 6a be 3b 81 4d 3a eb ac ad 3a 29 00 5f be
       -0.22935127 0.0007839386 0.0013250386 -0.21777405
0000e0 2e 74 ec bb 02 9c 85 bc 3a 08 20 bd 03 55 a2 b9
       -0.007215998 -0.016309742 -0.039070345 -0.00030962387
0000f0 5b 82 02 3b 78 0b d0 3b ca 41 bc 3d 73 3b 16 bd
       0.0019914124 0.0063490234 0.09192236 -0.03667779
000100 16 89 3e 3a dd 5d 9c 3d ad 92 66 3e 39 fb 65 bc
       0.0007268352 0.076350905 0.2251689 -0.014036947
000110 a1 6f 5a 3e b6 5b b5 ba 9d cf 11 3e 9d c6 17 bc
       0.21331646 -0.0013836536 0.14239354 -0.009263662
000120 2c 4f 8c bc 36 53 fe 3d c6 8f b9 3d 29 8a eb 3a
       -0.017127596 0.12418215 0.09060626 0.0017970252
000130 3d a2 01 be 01 35 ba 3a 24 de 3d be 53 5a 92 3c
       -0.12659545 0.001420647 -0.18541771 0.017865336
000140 9d a7 43 be 1b 20 01 be 4b 56 69 3d 16 67 29 bd
       -0.19106908 -0.12609904 0.05696706 -0.041358076
000150 0b a7 68 bc c6 0f 7e 39 f1 24 1a 3e a6 ed b0 3a
       -0.014199982 0.00024229204 0.15053155 0.0013498559
000160 2a 94 8f be a1 a3 26 3e df 68 93 3c 27 8b 8b 3c
       -0.28042728 0.16273357 0.017994342 0.017034126
000170 5f e8 20 3e 42 ad 73 bc 2c 29 0e 3e d1 61 cf 3d
       0.15713643 -0.014872851 0.13882893 0.10126079
000180 3e 04 16 be 89 37 fd bd 33 e0 5b 3d cb ab 54 3d
       -0.14650056 -0.12364108 0.05368061 0.051921647
000190 0b f9 6e be de 21 6b 3c 51 16 8e 3e 2f 79 1b bc
       -0.2333719 0.014351336 0.277514 -0.009489342
0001a0 92 5d fb 3d af 60 0a be 79 ec 43 3b 17 9e b3 3a
       0.122737065 -0.13513444 0.0029895587 0.0013703731
0001b0 44 5f 65 3d 16 d4 0c 3e 00 fc 8a bd b1 86 30 3b
       0.055999056 0.1375278 -0.067863464 0.002693575
0001c0 a7 15 e3 bc 3b ea 9b bd 2f 1f 1f 3e b4 0b d9 bc
       -0.027720286 -0.07613035 0.1553924 -0.026494838
0001d0 f1 6d d0 bd e9 f9 45 3e bc 4b 36 bb a1 37 43 bb
       -0.1017722 0.19333614 -0.0027816137 -0.0029787796
0001e0 42 c7 1e bd 95 02 90 be 40 d2 2b bd 70 db 8e 3a
       -0.038764246 -0.2812697 -0.041948557 0.0010899138
0001f0 c2 2a 8b 3e a3 6c f2 bd 36 9f 4b bb 48 84 ea bc
       0.2718106 -0.11837127 -0.003107024 -0.02862753
000200 63 b7 29 3e c6 ca de 39 34 9a e7 b9 93 4e 80 3a
       0.16573863 0.00042494218 -0.00044174644 0.0009789042
000210 0d 7b fc bd 89 ba 92 3a 9b 9a 3b 3d 76 ea b9 bd
       -0.123281576 0.0011194508 0.04580174 -0.09077923
000220 44 eb 69 bd d8 40 b0 3d 60 f2 2d bd b6 da 12 bd
       -0.057109132 0.08606118 -0.042467475 -0.03585311
000230 44 c8 aa bd 95 f6 6b b9 75 ef 43 ba a6 9c 22 bc
       -0.08338979 -0.00022503205 -0.00074743415 -0.009925043
000240 32 f6 04 3c 55 2d 86 38 e6 52 05 3d 60 05 64 3d
       0.008115338 6.398062e-05 0.03254976 0.05566919
000250 8c 88 35 bc 21 8b f9 ba b8 23 70 b9 67 7f da ba
       -0.011079919 -0.0019038656 -0.0002290149 -0.0016670049
000260 88 0f 6f 3d 65 12 0b 3e fd 38 99 3d a8 90 15 bc
       0.05836442 0.13581236 0.07481573 -0.009128727
000270 30 c7 b9 b8 52 43 0a 39 87 68 8a bd 83 79 31 3b
       -8.858589e-05 0.00013185784 -0.06758218 0.0027080483
000280 f7 43 ec 3d 8b 59 bf 3d fb db c8 ba 7d 3e 50 3c
       0.11536401 0.09343251 -0.0015324348 0.012710211
000290 ad c2 e9 bc 6d ee 5c be 99 c3 14 39 40 2e 1e bd
       -0.028535211 -0.21575327 0.00014187246 -0.038618326
0002a0 0a 42 ed bd bc cc 92 39 5a 8d 6d ba 56 a2 cd 3d
       -0.115848616 0.0002799983 -0.00090618955 0.10040729
0002b0 92 70 17 3e 71 49 db bc 37 b2 cd bd 3d f0 25 3d
       0.14789036 -0.026768418 -0.100437574 0.040512312
0002c0 2a 27 50 3e d2 17 83 bd 3e d8 b1 3c 4b 06 96 bd
       0.2032744 -0.06401028 0.021709558 -0.07325419
0002d0 95 bf 2a 3e b7 88 ff 38 3f 8c cf ba 24 c6 54 3e
       0.16674645 0.00012184813 -0.0015834643 0.2077871
0002e0 e9 ba 33 bd 83 74 17 3d 34 4f 26 3c f5 55 41 3a
       -0.043879423 0.03697635 0.010150719 0.00073751743
0002f0 9b af 3a be e4 27 08 3b e3 b9 e8 bc 40 79 e1 bd
       -0.1823105 0.002077573 -0.02840895 -0.11009455
000300 a8 d9 53 ba 21 5f 40 bc 63 b0 3c be cf 7a ad 3d
       -0.00080814445 -0.0117414305 -0.18426661 0.084706895
000310 de 83 d6 3d 1a 64 bc ba fa ad 62 bd 42 08 32 3e
       0.104743704 -0.0014373094 -0.0553417 0.17385963
000320 48 f3 a4 3c 40 f2 1d 3d 80 a6 12 3d e9 03 51 b7
       0.020135537 0.038561106 0.035803318 -1.2458281e-05
000330 fa 6b 69 be 0e f9 b2 39 5e c0 a8 bc a9 c5 1c 3e
       -0.22795096 0.00034136366 -0.02059954 0.15309776
000340 99 d4 7d 3e bc eb 2e 3d 94 f2 36 3e 29 e1 80 be
       0.24788131 0.042705283 0.17865974 -0.25171784
000350 a6 7b 43 3c 8d fb 99 3a 76 fe 1a 3e dc 2f d0 b7
       0.011931336 0.0011747942 0.15136132 -2.4817818e-05
000360 91 f5 d1 3d 1a e7 74 bd f6 3d cf bd bb d0 18 bc
       0.10251916 -0.059790708 -0.1011924 -0.009327109
000370 db d1 97 3d 66 40 c8 3b 64 8b a9 be 48 c1 5d be
       0.07413074 0.0061111925 -0.3311416 -0.21655762
000380 c7 8e 6c be 2f 0c 85 be 6d 5f 01 3d 97 b7 0a be
       -0.2310134 -0.25985858 0.031585146 -0.13546596
000390 10 40 66 bd 6c e7 97 bb d9 f6 c6 be 37 e8 72 bd
       -0.05621344 -0.004635742 -0.38860205 -0.05930349
0003a0 89 7c e4 3d 4f ba 0a 3e 85 cb fb bd 6a a9 05 bb
       0.11156566 0.13547634 -0.12294678 -0.0020395168
0003b0 6b ef 61 3d d7 22 98 3d 01 f8 82 bc 3e c3 dd 39
       0.055159967 0.0742852 -0.015987398 0.00042297872
0003c0 6b f4 5f bd d1 de b6 bc 12 90 6a be c3 0b 6d 3e
       -0.054676455 -0.022323044 -0.22906521 0.23149018
0003d0 db 67 21 3e dc cc 50 3c a7 0d 60 3b e0 ae 6a b9
       0.15762274 0.012744155 0.0034187825 -0.00022381125
0003e0 a0 9a db 3d 8f 9d 85 3d 1c 85 8b 3e be ec 71 3a
       0.10722852 0.065241925 0.27249992 0.0009228698
0003f0 68 74 37 3d 45 52 b9 3c cd 6e d0 bd 74 ee 31 be
       0.044788748 0.022622237 -0.101773836 -0.17376119

4.bias f4 [4]
000000 eb 5b 05 be a8 97 ad bd f5 0b 80 bc 73 44 0f bd
       -0.13023345 -0.08476192 -0.015630702 -0.034977388
