src/rl/model/critic_model27-08-2024_19-33-53/600.pt (torch, 82999 bytes, 5 tensors)

critic_network.0.weight f4 [128, 27]
-0.32729608 -0.09929593 -0.010501846 -0.3947953 0.054682493 -0.23092367 -0.1780958 -0.50069535
0.57160145 0.3192263 0.2164131 0.090024374 0.6763491 0.06054031 0.1790101 0.21290107
-0.07528731 -0.25815573 0.22827193 -0.029549766 -0.10293976 0.21816237 -0.27086276 0.17464837
0.21384902 0.43479654 0.36663732 0.6530311 -1.3001143 0.026708342 -0.3025241 -0.8224244
0.30756924 -0.15281266 -0.77346164 -0.6218747 -0.12210013 -0.10526333 0.22937936 -0.2722866
-0.23626618 0.0075873747 -0.15368974 -0.2787321 -0.9927932 0.29922873 -0.24791698 0.77879864
0.14409946 -0.059299506 -0.039475035 -0.22618757 -0.4326815 -0.27120614 -0.58894444 -1.2846917
-0.12954716 -0.28606108 -0.074045755 0.41913202 0.14763708 -0.4329194 -0.16018161 0.19925645
-0.3773733 0.32682347 -3.1100569 -0.2806388 0.031242833 0.050864853 0.15985687 0.14372751
-0.039573897 0.033714622 0.4414697 0.115652256 -0.01620723 -0.5220422 0.22024496 -0.7038808
-0.003249459 0.4134923 -0.025112972 0.46598512 0.42319047 -0.56128293 -0.2921355 0.032146614
0.11876038 -0.101733886 -0.1065913 0.26467 0.13075157 0.0044876775 -0.33636808 0.25780118
-0.34942615 0.061486058 -0.17517616 0.06667268 -0.1505146 -0.07819774 0.10750748 0.4202273
-0.7503482 0.34447527 -0.70948756 0.39084277 1.0220746 0.09220259 -0.03172028 1.5161207
-0.024904931 -0.03137955 0.30142248 0.15281068 1.731143 -0.7815903 0.015393839 0.540089
-0.3068112 -0.25178 -0.07865106 0.23799528 0.12043921 -0.65398926 0.7767112 0.06768257
0.37526459 0.47228566 -0.32001114 -0.1864654 0.3790378 0.39261833 0.27694425 0.0644629
0.055673696 -0.16029394 0.47658682 0.23687556 0.10671644 -0.13151772 -0.9402344 0.5309818
-0.5007315 -0.3224305 0.2449294 -1.0963213 0.095993415 -0.26810217 0.23502955 -0.08773154
-0.009124762 -0.20134853 -0.12415647 0.053213805 -0.9331753 0.35081545 -0.13938534 0.09558436
-0.7183985 -0.4688498 -0.19588576 -0.86753356 -0.30463073 0.48440585 -1.2400116 -0.26807195
0.30430916 1.259912 1.004594 -0.33628404 0.35861915 -0.08917683 -0.2777321 -0.34870967
-0.12827362 -0.16080372 0.15322003 0.29857814 0.106402285 0.21617143 0.23596855 0.15315588
0.07779978 0.3583457 0.03144035 0.41505784 -0.119495474 -0.091061346 -0.9936631 -0.03423663
-0.06379047 0.24431276 -0.13177142 -0.18854958 0.1426915 0.22541939 0.17118616 -0.12008082
0.3701528 -1.0110399 0.030329548 -0.15854362 0.11386956 -0.02090963 0.16360727 -0.056164168
-0.052561477 0.21554574 0.001166725 -0.15513597 0.30603233 -0.5436907 0.3007094 -0.46409333
-0.66109884 -1.5389841 -0.13468985 0.04241397 -0.28137195 -1.7962302 -0.056059644 0.24043986
0.27793625 -0.13020785 0.17582785 0.06907222 0.18507215 -0.16566285 -0.0060352352 -0.045800555
0.017931689 -0.17470604 0.043435194 -0.15685359 0.1354254 -0.3082724 -0.08200667 0.31641406
0.17784712 0.08133684 0.06663144 -0.5296624 -0.41039765 -0.1338417 -0.24822561 -0.3261585
-0.60884684 0.89808875 -0.66652524 0.50823265 0.41116408 -0.20355588 -0.21461709 -1.1918781
00000000: 5a93 a7be aa5b cbbd ef0f 2cbc 9c22 cabe
00000010: c0fa 5f3d 4177 6cbe bf5e 36be 922d 00bf
00000020: 7954 123f a171 a33e 659b 5d3e b35e b83d
00000030: 3725 2d3f 1ef9 773d 6c4e 373e bd02 5a3e
00000040: 3c30 9abd fd2c 84be 1ec0 693e 5a12 f2bc
00000050: 15d2 d2bd f565 5f3e 86ae 8abe 06d7 323e
00000060: 3dfb 5a3e a79d de3e e3b7 bb3e 0c2d 273f
00000070: 256a a6bf 74cb da3c 70e4 9abe 688a 52bf
00000080: b779 9d3e ec7a 1cbe 9501 46bf 2e33 1fbf
00000090: a20f fabd 4d94 d7bd 6ce2 6a3e 2669 8bbe
000000a0: c3ef 71be 839f f83b d860 1dbe f9b5 8ebe
000000b0: b227 7ebf 8234 993e f3dd 7dbe 595f 473f
000000c0: cf8e 133e 0ae4 72bd 93b0 21bd b79d 67be
000000d0: 6e88 ddbe 88db 8abe 10c5 16bf c770 a4bf
000000e0: 03a8 04be 9976 92be 4da5 97bd 7998 d63e
000000f0: 2d2e 173e 9da7 ddbe a606 24be e209 4c3e
00000100: 1337 c1be 6855 a73e 2c0b 47c0 e4af 8fbe
00000110: f8f0 ff3c aa57 503d 85b1 233e 4e2d 133e
00000120: 3d18 22bd 5818 0a3d 5108 e23e 17db ec3d
00000130: 06c5 84bc 8fa4 05bf e587 613e 8831 34bf
00000140: e0f4 54bb 43b5 d33e b8b9 cdbc 9a95 ee3e
00000150: 6cac d83e 3db0 0fbf c992 95be 2bac 033d
00000160: a438 f33d db59 d0bd 8a4c dabd d482 873e
00000170: bde3 053e 5e0d 933b 7038 acbe 84fe 833e
00000180: fce7 b2be ced8 7b3d 6161 33be b08b 883d
00000190: 8020 1abe 2326 a0bd e22c dc3d 0828 d73e
000001a0: d216 40bf 105f b03e faa0 35bf 8b1c c83e
000001b0: 57d3 823f b6d4 bc3d 20ed 01bd 3e10 c23f
000001c0: 6d05 ccbc d887 00bd 0c54 9a3e 677a 1c3e
000001d0: 1896 dd3f 4d16 48bf 7136 7c3c 4643 0a3f
000001e0: 5c16 9dbe 4fe9 80be cf13 a1bd 09b5 733e
000001f0: d5a8 f63d d76b 27bf 8cd6 463f 299d 8a3d
00000200: ae22 c03e 6dcf f13e 80d8 a3be c9f0 3ebe
00000210: 3e11 c23e 4505 c93e a3cb 8d3e 2005 843d
00000220: 1a0a 643d 1824 24be 3003 f43e 828f 723e
00000230: 268e da3d 95ac 06be 34b3 70bf 6cee 073f
00000240: f12f 00bf 9c15 a5be c6ce 7a3e 4254 8cbf
00000250: 3298 c43d b044 89be 96ab 703e 98ac b3bd
00000260: 0780 15bc 4f2e 4ebe bf45 febd b8f6 593d
00000270: 94e4 6ebf 159e b33e 08bb 0ebe bcc1 c33d
00000280: f7e8 37bf 150d f0be 4796 48be ae16 5ebf
00000290: 8ff8 9bbe 0b04 f83e b3b8 9ebf ba40 89be
000002a0: 69ce 9b3e cc44 a13f 8996 803f 6c2d acbe
000002b0: ee9c b73e 58a2 b6bd e732 8ebe 138a b2be
000002c0: 295a 03be bba9 24be b6e5 1c3e 3cdf 983e
000002d0: 71e9 d93d 0b5c 5d3e bda1 713e e5d4 1c3e
000002e0: 7e55 9f3d 1679 b73e 99c7 003d 7682 d43e
000002f0: 0bba f4bd 5f7e babd b460 7ebf b53b 0cbd
00000300: 94a4 82bd 202d 7a3e 16ef 06be 2413 41be
00000310: b81d 123e 57d4 663e 6d4b 2f3e efec f5bd
00000320: ab84 bd3e c169 81bf ac75 f83c 4259 22be
00000330: 7234 e93d ac4a abbc aa88 273e 660c 66bd
00000340: b44a 57bd 06b8 5c3e cbec 983a f7db 1ebe
00000350: 45b0 9c3e 502f 0bbf 95f6 993e a49d edbe
00000360: c63d 29bf 6efd c4bf 23ec 09be 45ba 2d3d
00000370: fc0f 90be dfea e5bf cc9e 65bd de35 763e
00000380: a94d 8e3e 3555 05be 370c 343e bc75 8d3d
00000390: 8e83 3d3e 86a3 29be 39c3 c5bb 5d99 3bbd
000003a0: 7ae5 923c 24e6 32be 1ae9 313d 3a9e 20be
000003b0: f5ac 0a3e e1d5 9dbe 1df3 a7bd 0601 a23e
000003c0: 8e1d 363e ee93 a63d 1076 883d f497 07bf
000003d0: a41f d2be cc0d 09be db2e 7ebe 3ffe a6be
000003e0: 63dd 1bbf 25e9 653f 66a1 2abf 891b 023f
000003f0: 1984 d23e f470 50be 95c4 5bbe 768f 98bf

critic_network.0.bias f4 [128]
0.24935153 0.09971893 -0.3086658 0.2255336 0.013831494 -0.5252963 -0.35634255 0.29815534
0.014653487 0.021649236 0.0009961884 0.32368803 -0.4046041 -0.07319825 0.06722111 -0.16286775
-0.21074297 0.27225104 -0.055096757 0.1491396 -0.32133555 0.29623112 -0.29440805 0.37024662
-0.36474055 -0.2823778 -0.099751934 0.27874336 0.26643604 0.3681901 0.20498878 -0.57091236
-0.08213512 0.09071543 0.26024425 0.056025237 0.4050236 -0.069524005 -0.14545473 -0.2901152
-0.21691202 0.48806107 0.048663925 -0.19791856 -0.007405267 0.19084634 -0.12420119 -0.1852621
-0.35798067 -0.21994789 -0.051883057 -0.009948597 -0.19941127 -0.1440358 -0.21254563 -0.05099465
-0.16763069 -0.13322163 -0.16990645 0.009178417 0.027973427 -0.061174985 -0.45068237 -0.15968254
-0.27393192 0.474302 0.014152229 0.38014567 -0.055598564 -0.34093133 -0.31462154 -0.4823617
0.3226515 0.2831282 -0.38446012 0.3419725 0.42448345 0.08101973 0.46313444 -0.1348158
0.27637783 0.23076688 0.018641634 0.1528239 -0.032187186 -0.30062437 -0.004103973 0.39632666
0.102148615 -0.5125043 -0.39324906 -0.011239112 0.31133074 0.17117192 -0.015778774 0.4213209
0.06326322 -0.1625092 -0.046555754 0.33679292 -0.12889059 -0.15946645 0.28930938 -0.13575569
0.2927992 0.4304874 0.29558492 0.32097888 -0.7994231 -0.13983417 0.13861835 0.05810644
0.09783245 -0.57652485 -0.0722645 -0.17458715 0.27703077 -0.007373906 0.2465554 -0.31638256
-0.27199885 -0.25970495 -0.014165809 0.15492034 -0.0002459994 0.16005595 0.19986157 -0.5659077
00000000: 0256 7f3e 7039 cc3d 7209 9ebe 48f2 663e
00000010: 7e9d 623c d179 06bf 8872 b6be d1a7 983e
00000020: 2e15 703c bd59 b13c 8992 823a 70ba a53e
00000030: 4528 cfbe f7e8 95bd 39ab 893d cec6 26be
00000040: 01cd 57be 7d64 8b3e 23ad 61bd 0db8 183e
00000050: 1886 a4be 9bab 973e a7bc 96be f790 bd3e
00000060: 46bf babe d393 90be be4a ccbd 73b7 8e3e
00000070: 4e6a 883e 6a83 bc3e 94e8 513e 5027 12bf
00000080: 7536 a8bd 03c9 b93d bc3e 853e b87a 653d
00000090: 415f cf3e 9a62 8ebd 16f2 14be fb89 94be
000000a0: 2f1e 5ebe 24e3 f93e d353 473d 2aab 4abe
000000b0: e2a7 f2bb 396d 433e 325d febd 59b5 3dbe
000000c0: 3e49 b7be 053a 61be 5483 54bd 71ff 22bc
000000d0: 7832 4cbe 1f7e 13be 90a5 59be c4df 50bd
000000e0: 61a7 2bbe 406b 08be f5fb 2dbe 1261 163c
000000f0: 8728 e53c 9f92 7abd d7bf e6be d283 23be
00000100: ce40 8cbe b6d7 f23e c0de 673c 74a2 c23e
00000110: 52bb 63bd 8d8e aebe 1316 a1be 1df8 f6be
00000120: 9432 a53e 2ef6 903e f5d7 c4be 0517 af3e
00000130: e555 d93e aced a53d f51f ed3e 270d 0abe
00000140: 6581 8d3e 274e 6c3e 57b6 983c de7d 1c3e
00000150: b6d6 03bd 70eb 99be 9f7a 86bb 54eb ca3e
00000160: 4b33 d13d 7b33 03bf f157 c9be 4124 38bc
00000170: be66 9f3e b147 2f3e 7d42 81bc 5fb7 d73e
00000180: 2690 813d d068 26be 3fb1 3ebd 1f70 ac3e
00000190: e5fb 03be 2c4b 23be 5c20 943e 8a03 0bbe
000001a0: c7e9 953e d868 dc3e e856 973e 5857 a43e
000001b0: fea6 4cbf b030 0fbe f8f1 0d3e 0501 6e3d
000001c0: 615c c83d 2297 13bf 69ff 93bd f9c6 32be
000001d0: fad6 8d3e cfa0 f1bb 0579 7c3e e5fc a1be
000001e0: 6f43 8bbe 0cf8 84be b617 68bc 70a3 1e3e
000001f0: 7bf9 80b9 b5e5 233e 83a8 4c3e 54df 10bf

critic_network.2.weight f4 [128, 128]
-0.13077024 0.12684427 0.15309241 -0.24773166 0.2526818 0.25339037 0.29668936 -0.20490515
0.63773566 -0.46851966 0.38027287 -0.19175647 -0.08357025 0.21007885 0.16066656 -0.1305295
-0.22439201 0.0029273215 -0.15292 -0.070930384 0.088797905 -0.016302839 0.09142287 0.17834552
0.14129764 0.024342231 -0.37377337 0.18105789 -0.4729898 -0.09029015 -0.17168309 0.19293205
0.272186 0.013061277 0.20965521 0.092511594 -0.032840755 0.14629474 0.41418612 -0.76509273
0.053800456 -0.19216438 0.72878474 0.22629271 0.20306443 0.40399188 -0.13487883 0.24001262
-0.12549812 0.03577842 0.19234699 -0.29791152 -0.35584027 0.026509184 0.45243576 0.19613287
0.30126706 -0.12272866 0.8340191 -0.06449224 -0.32186392 -0.37841365 0.56729573 0.2737007
0.045880955 -0.05366401 -0.21744142 -0.09427439 -0.19742016 0.15978521 0.0612681 0.18556008
-0.018277219 -0.42712617 -0.17239022 0.13282268 0.33877683 -0.43884408 -0.10299797 0.5209232
-0.292705 -0.25675073 -0.3207847 0.12866028 -0.18625428 0.336412 0.049995486 -0.236719
0.2164033 0.24428958 -0.08961019 -0.57032305 -0.34750733 0.6471061 0.010612627 -0.28101993
0.41298088 -0.19232625 0.27084452 0.1449531 0.4876584 -0.26586214 0.36130506 0.29927132
0.022898 -0.054107442 -0.08616025 -0.18271016 -0.18758337 0.08713274 -0.5561927 -0.06519366
-0.63148767 0.039885398 0.5057745 -0.051006958 -0.22655159 0.33406714 0.40680113 0.46449533
-0.0421691 0.38031146 -0.2417925 -0.36262006 -0.21930143 -0.24995363 0.049109668 0.009900151
-0.24254832 -0.121755324 -0.14691392 -1.5601091 -0.09426955 0.10304786 0.028947929 0.5956796
0.08563718 -0.18810628 0.34848565 -0.5341955 0.17907447 0.5013969 0.141879 0.16218062
0.07346682 -0.0077943555 0.16426498 -0.07847654 0.010841538 -0.7624849 0.07262552 -0.06750022
0.22795638 0.32778043 -0.16504042 -0.13870509 -0.35350525 -1.4267428 -0.21288107 0.13728714
0.19063255 0.31636095 -0.21022204 0.025197608 -0.60132474 -0.30528805 0.32482055 -0.13690145
0.17738914 -0.11000965 0.13129574 0.31737205 0.013713419 0.09662651 -0.28589672 -0.20492661
-0.067817934 0.03562279 -0.12662467 0.10387643 0.606415 -0.19715294 0.46403387 -0.27741167
0.04215896 0.049409367 -0.4584428 -0.45810348 -0.20762472 -0.2791849 0.057428557 0.1921853
0.3074225 -0.06614831 -0.19337843 -0.14288749 -0.28376105 -0.0003092836 0.3150388 -0.004883007
-0.14242949 -0.548402 -0.08857721 0.026754586 -0.1009257 -0.16385317 -0.1673831 0.17878994
-0.7437157 -0.8309859 -0.0104523385 -0.035879742 0.2567379 -0.029129429 -0.01501768 -0.19573557
0.28148034 0.1516086 -0.06874189 -0.1395274 0.0975946 0.1387158 0.31483978 -0.99494654
0.22298999 -0.2518882 -0.6535241 -0.74806297 -0.097210854 -0.04502594 0.33357164 0.07207667
-0.48683473 -0.13989465 -0.11989691 -0.24648029 -0.0027652571 0.04139428 -0.9893978 -0.53840685
-1.1644156 0.0078113675 0.25506487 0.4827866 -0.48999646 0.16664495 0.089047834 0.5722732
0.059031136 -0.0077323345 -0.08670742 -0.22891803 -0.519879 -0.07345062 -0.4411154 0.044413257
00000000: a2e8 05be 77e3 013e 42c4 1c3e 5ead 7dbe
00000010: 825f 813e 62bc 813e abe7 973e a8d2 51be
00000020: a542 233f cfe1 efbe 20b3 c23e cf5b 44be
00000030: e126 abbd e91e 573e c685 243e 86a9 05be
00000040: 05c7 65be 4ed8 3f3b 0f97 1cbe f343 91bd
00000050: addb b53d 888d 85bc ea3b bb3d 35a0 363e
00000060: 54b0 103e 5c69 c73c 395f bfbe 3d67 393e
00000070: b82b f2be 0bea b8bd b1cd 2fbe fb8f 453e
00000080: f75b 8b3e f7fe 553c dbaf 563e b876 bd3d
00000090: 0784 06bd 4ace 153e 3410 d43e 1edd 43bf
000000a0: de5d 5c3d bdc6 44be a391 3a3f 47b9 673e
000000b0: 1ff0 4f3e 06d8 ce3e ad1d 0abe dec5 753e
000000c0: 9482 00be 648c 123d 9cf6 443e dc87 98be
000000d0: b230 b6be ca29 d93c a9a5 e73e 0ed7 483e
000000e0: ad3f 9a3e 2a59 fbbd 4782 553f 8214 84bd
000000f0: 59cb a4be 6fbf c1be 4b3a 113f 8022 8c3e
00000100: abed 3b3d cbce 5bbd f7a8 5ebe ee12 c1bd
00000110: 8328 4abe bc9e 233e 42f4 7a3d 7603 3e3e
00000120: 1bba 95bc 48b0 dabe 1087 30be ab02 083e
00000130: 2874 ad3e 2cb0 e0be 9af0 d2bd 395b 053f
00000140: 6edd 95be d574 83be e43d a4be 85bf 033e
00000150: 71b9 3ebe 323e ac3e 11c8 4c3d 7766 72be
00000160: d498 5d3e 0c27 7a3e 8c85 b7bd b100 12bf
00000170: 7bec b1be bfa8 253f 95e0 2d3c d8e1 8fbe
00000180: 3b72 d33e 2cf1 44be 22ac 8a3e 966e 143e
00000190: 5dae f93e 151f 88be fafc b83e 173a 993e
000001a0: 9694 bb3c c49f 5dbd c974 b0bd 5f18 3bbe
000001b0: db15 40be a672 b23d a562 0ebf 4184 85bd
000001c0: 2da9 21bf df5e 233d 707a 013f acec 50bd
000001d0: 24fd 67be d90a ab3e 3d48 d03e 55d2 ed3e
000001e0: 82b9 2cbd 2fb8 c23e 7498 77be 56a9 b9be
000001f0: 8e90 60be d8f3 7fbe 3827 493d 3e34 223c
00000200: 965e 78be db5a f9bd 9a70 16be a8b1 c7bf
00000210: 6510 c1bd c20a d33d 3524 ed3c 757e 183f
00000220: 8c62 af3d ef9e 40be b66c b23e 09c1 08bf
00000230: 4c5f 373e 8c5b 003f bb48 113e ad12 263e
00000240: c675 963d cb67 ffbb 1435 283e 4fb8 a0bd
00000250: b5a0 313c 3632 43bf b0bc 943d 8e3d 8abd
00000260: 666d 693e d6d2 a73e 5b00 29be b508 0ebe
00000270: a4fe b4be 829f b6bf 7ffd 59be 0095 0c3e
00000280: 2e35 433e 10fa a13e 7244 57be 376b ce3c
00000290: 6bf0 19bf b74e 9cbe e14e a63e e52f 0cbe
000002a0: 80a5 353e bd4c e1bd 6472 063e 977e a23e
000002b0: 40ae 603c 1fe4 c53d 0e61 92be 48d8 51be
000002c0: 21e4 8abd 34e9 113d e6a9 01be 2abd d43d
000002d0: 033e 1b3f 76e2 49be d995 ed3e e708 8ebe
000002e0: e0ae 2c3d 7a61 4a3d 04b9 eabe 8a8c eabe
000002f0: 939b 54be 53f1 8ebe 353a 6b3d 39cc 443e
00000300: 7b66 9d3e c478 87bd ff04 46be 1951 12be
00000310: 2149 91be 5827 a2b9 c44c a13e a201 a0bb
00000320: 09d9 11be 1364 0cbf f867 b5bd 6f2c db3c
00000330: 22b2 cebd 20c9 27be 7a66 2bbe b614 373e
00000340: 2764 3ebf 7ebb 54bf 4940 2bbc a3f6 12bd
00000350: 2673 833e d7a0 eebc b70c 76bc e86e 48be
00000360: 311e 903e 493f 1b3e 8cc8 8cbd 45e0 0ebe
00000370: addf c73d 840b 0e3e ae32 a13e d1b4 7ebf
00000380: 7d57 643e 7df7 80be 5b4d 27bf 0e81 3fbf
00000390: 7c16 c7bd 1f6d 38bd e7c9 aa3e ef9c 933d
000003a0: 6742 f9be 8b40 0fbe 838c f5bd 5465 7cbe
000003b0: 5139 35bb 0c8d 293d 2d49 7dbf 08d5 09bf
000003c0: 920b 95bf 80f6 ff3b dd97 823e ce2f f73e
000003d0: d1e0 fabe f9a4 2a3e b65e b63d 7f80 123f
000003e0: a2ca 713d 865f fdbb a993 b1bd 7d69 6abe
000003f0: ca16 05bf 476d 96bd e1d9 e1be adea 353d

critic_network.2.bias f4 [128]
-0.06810006 0.004040831 0.07575991 0.17897709 0.23631442 0.13089995 -0.029458413 -0.25135252
0.061465316 -0.15650009 0.28421456 0.17750885 -0.24367076 0.084994875 0.10313738 -0.017680455
-0.06886687 0.19986436 0.1756684 0.15746997 0.3236373 -0.27745008 0.13899973 0.04205354
0.111011796 -0.05743106 0.13865608 0.12233881 -0.24543947 -0.15011464 -0.16097592 0.0991917
0.11341972 0.17032245 0.096569054 0.053633437 -0.17047255 -0.17677194 -0.03348553 0.11488141
-0.14754122 -0.2227695 0.11336054 0.2939728 -0.068300575 0.08869142 0.065992795 0.20915373
0.19822614 -0.2655665 -0.2737435 0.10614336 0.23192024 0.112923205 0.14896382 0.16319804
0.0880639 0.03343766 -0.024126055 0.2523882 0.2157476 0.12920003 -0.19159089 0.20143276
0.1684365 -0.0051778923 -0.085884765 -0.0018259039 -0.07919415 -0.02008039 0.30069298 0.027972749
0.088336356 -0.017727848 -0.03453104 -0.27470264 -0.17513126 -0.026350163 -0.10784457 0.03183545
0.005106434 0.031944744 -0.24790142 -0.016069496 -0.08877788 0.123047784 0.027929246 -0.07869084
0.2838075 -0.22674498 0.22844864 0.19145557 0.21376555 0.23107915 0.02179718 -0.23675951
0.16765307 0.01817821 0.038704816 -0.29538515 0.008267002 0.18588908 -0.003477849 -0.17418249
-0.006410219 -0.1620405 -0.0675236 -0.21500868 -0.110323936 0.16974029 -0.23255277 -0.20675753
-0.1807605 0.30398414 0.15558313 0.114658095 -0.1435189 0.11870184 0.28742158 -0.25758436
0.07943604 0.1464545 -0.13202459 0.11235584 0.23669843 0.06842758 0.18502448 0.009128068
00000000: 0b78 8bbd f268 843b 0328 9b3d c545 373e
00000010: 68fc 713e a30a 063e c552 f1bc 47b1 80be
00000020: 0ec3 7b3d 8f41 20be 9284 913e e1c4 353e
00000030: d484 79be cb11 ae3d b139 d33d 9ad6 90bc
00000040: 130a 8dbd 3ea9 4c3e 6be2 333e cf3f 213e
00000050: cab3 a53e f00d 8ebe f255 0e3e 5540 2c3d
00000060: 275a e33d d53c 6bbd dcfb 0d3e c58c fa3d
00000070: 7c54 7bbe a7b7 19be dfd6 24be 0525 cb3d
00000080: 9948 e83d 0269 2e3e ffc5 c53d bcae 5b3d
00000090: 5b90 2ebe b403 35be 2028 09bd f246 eb3d
000000a0: 0c15 17be b01d 64be 9229 e83d 9a83 963e
000000b0: 2ce1 8bbd d9a3 b53d 3b27 873d 652c 563e
000000c0: cbfb 4a3e 55f8 87be 1c28 8cbe b161 d93d
000000d0: 807c 6d3e 4844 e73d f989 183e 631d 273e
000000e0: d95a b43d eef5 083d 01a4 c5bc 0739 813e
000000f0: f0ec 5c3e 034d 043e 6730 44be 6444 4e3e
00000100: 9e7a 2c3e 4fab a9bb 5ae4 afbd 2b53 efba
00000110: 8b30 a2bd a17f a4bc 6ef4 993e 1b27 e53c
00000120: b1e9 b43d fe39 91bc 6b70 0dbd d3a5 8cbe
00000130: 9c55 33be 4cdc d7bc 9ddd dcbd e465 023d
00000140: e053 a73b 7ed8 023d dfd9 7dbe 2da4 83bc
00000150: 2dd1 b5bd 7a00 fc3d e0cb e43c aa28 a1bd
00000160: 374f 913e d62f 68be 71ee 693e ee0c 443e
00000170: 5be5 5a3e 03a0 6c3e 0090 b23c 1671 72be
00000180: 3fad 2b3e 78ea 943c f188 1e3d b93c 97be
00000190: 5272 073c b559 3e3e a0ec 63bb e55c 32be
000001a0: d00c d2bb f2ed 25be d049 8abd 3c2b 5cbe
000001b0: 84f1 e1bd 66d0 2d3e 5022 6ebe 3fb8 53be
000001c0: 4819 39be cfa3 9b3e 2f51 1f3e ddd1 ea3d
000001d0: 9ef6 12be f319 f33d ec28 933e 19e2 83be
000001e0: 5daf a23d 2bf8 153e 7431 07be d21a e63d
000001f0: 1361 723e c223 8c3d 0f77 3d3e e48d 153c

critic_network.4.weight f4 [1, 128]
5.2361703 5.324885 -5.3416038 -4.86947 -4.830405 -4.8202853 5.265821 4.859218
-5.1092153 4.828043 -4.816755 -4.8083177 4.8353148 -5.290516 -5.335466 -5.290727
-5.3447704 -4.823244 -4.848418 -5.3247023 -5.1711607 4.803377 -5.2216644 -5.2727923
-5.3204737 5.24392 -4.8247533 -4.8487825 4.8261423 4.767442 4.842193 -5.1973324
-4.8748775 -4.8765326 5.279385 5.3500423 5.3264055 5.32685 -4.672094 -4.817428
5.330498 4.805079 -5.3187456 -4.7812524 -5.3013444 -5.2825093 -5.336918 -4.824052
-4.804366 4.8181114 4.8740396 -5.2028155 -4.869553 -5.265749 -4.8165326 -4.8689775
-4.8763723 -5.34578 4.8780184 -4.853265 -5.279304 -5.2962236 5.328568 -4.8083057
-4.9157996 -5.3476787 4.8377275 -5.3729906 5.2331324 5.285377 -4.796166 -5.331468
-4.808503 5.0118413 5.3265853 4.829706 4.834654 5.3237357 4.839727 -5.320432
-5.2959123 -5.0276713 4.8700433 -5.2479796 5.3220944 -4.834079 -5.326035 5.0683155
-4.774093 4.826348 -4.853708 -4.803402 -5.3194304 -4.8565392 4.8651934 4.8104544
-4.816723 5.039916 4.976089 4.853178 5.3561935 -4.8086333 5.283894 4.802118
-5.2151375 4.8171453 5.350197 5.2659454 5.14829 -5.322552 4.800024 4.810759
4.807952 -4.8002706 -4.825651 -4.4526315 5.334825 -4.843985 -4.808381 4.878632
-5.3268766 -5.357027 4.8448853 -5.322136 -4.84484 -5.3295035 -5.3327003 5.2243476
00000000: b58e a740 7565 aa40 6bee aac0 b3d2 9bc0
00000010: ae92 9ac0 c73f 9ac0 9b81 a840 b77e 9b40
00000020: b17e a3c0 547f 9a40 db22 9ac0 bddd 99c0
00000030: e6ba 9a40 e84b a9c0 23bc aac0 a34d a9c0
00000040: 5c08 abc0 0458 9ac0 3e26 9bc0 f663 aac0
00000050: 267a a5c0 44b5 9940 e017 a7c0 b7ba a8c0
00000060: 5241 aac0 31ce a740 6164 9ac0 3a29 9bc0
00000070: c26f 9a40 e38e 9840 3ff3 9a40 8c50 a6c0
00000080: fffe 9bc0 8e0c 9cc0 b9f0 a840 8c33 ab40
00000090: ea71 aa40 8e75 aa40 cb81 95c0 5f28 9ac0
000000a0: 7193 aa40 35c3 9940 2a33 aac0 0500 99c0
000000b0: 9da4 a9c0 510a a9c0 08c8 aac0 a25e 9ac0
000000c0: 5ebd 99c0 f82d 9a40 22f8 9b40 777d a6c0
000000d0: 61d3 9bc0 0481 a8c0 0921 9ac0 aace 9bc0
000000e0: 3e0b 9cc0 a110 abc0 ba18 9c40 f24d 9bc0
000000f0: 0ff0 a8c0 aa7a a9c0 a183 aa40 a4dd 99c0
00000100: 3b4e 9dc0 2f20 abc0 aace 9a40 8aef abc0
00000110: d275 a740 cf21 a940 317a 99c0 639b aac0
00000120: 42df 99c0 0161 a040 6373 aa40 f48c 9a40
00000130: 7cb5 9a40 0b5c aa40 0bdf 9a40 fb40 aac0
00000140: 1d78 a9c0 afe2 a0c0 65d7 9b40 73ef a7c0
00000150: 994e aa40 c6b0 9ac0 e16e aac0 a42f a240
00000160: 5fc5 98c0 7171 9a40 9351 9bc0 78b5 99c0
00000170: c638 aac0 c568 9bc0 aaaf 9b40 3eef 9940
00000180: 9822 9ac0 fe46 a140 1f3c 9f40 3c4d 9b40
00000190: f065 ab40 53e0 99c0 a915 a940 f3aa 9940
000001a0: 68e2 a6c0 0e26 9a40 d034 ab40 a082 a840
000001b0: cbbe a440 5952 aac0 cc99 9940 bdf1 9940
000001c0: beda 9940 d19b 99c0 bc6b 9ac0 f57b 8ec0
000001d0: e3b6 aa40 ed01 9bc0 42de 99c0 c11d 9c40
000001e0: c675 aac0 c46c abc0 4d09 9b40 f04e aac0
000001f0: ee08 9bc0 4b8b aac0 7ba5 aac0 db2d a740
