src/rl/model/actor_model28-08-2024_10-19-49/70.pt (torch, 84710 bytes, 7 tensors)

logstd f4 [4]
-0.3914533 -0.43318784 -0.44548813 -0.48619443
00000000: 916c c8be ccca ddbe 0517 e4be 7aee f8be

mean_net.0.weight f4 [128, 27]
-0.18657969 0.55995053 -0.3366544 -0.35055286 0.42554218 0.04528533 -0.25774166 -0.24996565
-0.4518357 0.33304372 -0.12146092 0.10181488 -1.1568604 0.12589768 0.12846325 0.12934053
0.07663735 -1.0120288 -2.502488 -0.18863192 -0.009460764 0.1712264 -0.7326881 0.16169968
-0.010098659 0.008177814 -0.0020193716 0.30024233 0.39267954 0.091547266 -0.15580267 0.32556567
0.16761445 0.48067474 2.3675413 -0.026088959 0.61837894 -0.30259457 0.33750376 -0.20221189
0.2580144 -0.20429887 -0.014143438 -0.0071536778 -0.2399123 0.1770235 -0.31218702 -0.3460022
0.38686404 0.46560514 -0.12247457 0.02955674 0.044431284 0.12639265 0.32043022 0.091153644
0.09421459 0.29554906 0.11441652 0.1055323 0.40686977 0.4655151 -0.3832523 -0.28975785
-0.36348766 0.16660826 0.4925885 0.090112664 0.025222326 0.15504181 0.16689368 -3.056101
-0.18073916 -0.038072415 -0.01611682 -0.270735 0.31344977 -0.14301495 -0.039659183 0.12744755
-0.11110663 -0.15540023 -0.17928496 -0.2783507 -0.37660408 0.44746554 -0.21150978 0.47965127
-0.39657265 -0.9105082 -0.21455623 -0.2707721 0.03945898 1.1668731 -0.025656024 -0.028467039
-0.24422023 0.14524238 -1.0699358 -1.3681228 0.0960542 -0.9408533 0.41584596 -1.4104724
-0.09703573 0.110059194 0.15193759 0.11078064 0.286345 -1.0604777 -0.121150084 0.29764003
-0.9578536 0.100689 -0.8027144 0.16673698 -0.58861417 -0.8672373 -0.150025 0.0034323141
1.2187357 0.16773163 -0.018342078 -0.0763723 0.21832615 -1.4126117 -1.7268924 -0.00053471205
0.06198111 -0.133196 1.4108332 0.07074878 0.13934813 0.20827322 0.113149986 -0.8589562
0.32263526 -0.4582697 -1.0317786 0.08634278 -0.080231495 -0.039450746 0.37148574 0.4434163
-0.08446445 0.016924167 -0.22734591 0.16142431 0.21818136 0.26158834 -0.20483366 -0.050750416
-1.3498187 0.3996778 0.15039608 -0.14544968 0.18517786 0.47324017 -0.18196125 -0.21132074
0.1876343 0.26454812 0.13215202 0.7928018 -0.39975855 0.37784386 0.930803 -0.07340169
-0.674086 0.8674427 -0.039983965 0.6585925 -0.043484088 -0.2575394 -0.39194807 0.046064124
-0.060982425 -0.08920678 -0.034014896 -1.1611683 -0.98897225 -0.10788769 0.15293112 0.143949
0.13560604 -0.21810353 0.07910081 -0.13503416 0.35980514 0.21285701 -0.34427118 -0.1566151
0.25558263 -0.5880375 0.0013925683 -0.11185968 1.2788128 -0.22254334 0.23198675 0.23795982
-0.081949815 -0.25486425 0.112245366 0.062294807 -0.04735821 -0.16405392 0.8866329 0.982112
-0.032389633 0.16146873 0.1425598 0.66564775 0.42360592 -0.12531498 -0.023766587 -0.23979622
0.6477489 -0.2904055 -0.24842772 0.56390667 0.20382151 0.0012162887 0.20486096 0.5963114
0.6546706 -0.06596724 0.1709007 -0.29550323 0.24581924 0.076082885 -0.010076103 -0.119194604
0.012519108 0.65656626 -1.4602191 0.14637741 -0.16153963 0.20603791 -0.17086662 -0.10644855
0.1581183 -0.17719387 0.11283379 -0.11876918 0.20570141 -0.31314766 0.15468164 0.027776409
-0.0693227 -0.02348566 0.1634898 0.042506445 0.022924365 -0.053667944 0.19112457 1.4861982
00000000: bf0e 3fbe eb58 0f3f f75d acbe aa7b b3be
00000010: aae0 d93e 1c7d 393d b7f6 83be fff6 7fbe
00000020: 0257 e7be b584 aa3e 81c0 f8bd 5284 d03d
00000030: 0014 94bf 52eb 003e df8b 033e d871 043e
00000040: 0bf4 9c3d 298a 81bf c328 20c0 ba28 41be
00000050: 5201 1bbc f955 2f3e 7391 3bbf 9a94 253e
00000060: d974 25bc 3dfc 053c 6f57 04bb 5db9 993e
00000070: 4b0d c93e 227d bb3d bc8a 1fbe 8bb0 a63e
00000080: 1fa3 2b3e 001b f63e cc85 1740 83b8 d5bc
00000090: 154e 1e3f aded 9abe 4bcd ac3e a210 4fbe
000000a0: 771a 843e b933 51be e1b9 67bc 6669 eabb
000000b0: 92ab 75be a645 353e fad6 9fbe 3327 b1be
000000c0: 0b13 c63e cc63 ee3e f3d3 fabd fa20 f23c
000000d0: 94fd 353d 136d 013e 6e0f a43e c3ae ba3d
000000e0: 94f3 c03d 3552 973e 3553 ea3d 5221 d83d
000000f0: 3c51 d03e ff57 ee3e a539 c4be 245b 94be
00000100: 0e1b babe 5b9b 2a3e 8f34 fc3e fd8c b83d
00000110: 0d9f ce3c 48c3 1e3e 2de6 2a3e 2997 43c0
00000120: b013 39be d2f1 1bbd 6c07 84bc c79d 8abe
00000130: 7d7c a03e 8372 12be ab71 22bd 9c81 023e
00000140: df8b e3bd 3d21 1fbe 7a96 37be fc83 8ebe
00000150: 40d2 c0be 341a e53e 0596 58be da94 f53e
00000160: 920b cbbe 1117 69bf a1b4 5bbe a4a2 8abe
00000170: bd9f 213d 195c 953f 952c d2bc b533 e9bc
00000180: de14 7abe 6bba 143e a8f3 88bf a61e afbf
00000190: 10b8 c43d c3db 70bf c3e9 d43e 5c8a b4bf
000001a0: abba c6bd b766 e13d 8795 1b3e f6e0 e23d
000001b0: d09b 923e bcbd 87bf 891d f8bd 4664 983e
000001c0: e535 75bf 0936 ce3d b17e 4dbf 19bd 2a3e
000001d0: 6baf 16bf 4403 5ebf 27a0 19be adf0 603b
000001e0: 88ff 9b3f d7c1 2b3e 2042 96bc 1569 9cbd
000001f0: e490 5f3e 76d0 b4bf cf0a ddbf eb2b 0cba
00000200: e8df 7d3d 8864 08be 2f96 b43f bde4 903d
00000210: 47b1 0e3e 9345 553e 2ebb e73d 8ee4 5bbf
00000220: 7330 a53e 53a2 eabe 5211 84bf 7cd4 b03d
00000230: 6950 a4bd 1b97 21bd 6133 be3e 7607 e33e
00000240: b3fb acbd 8da4 8a3c 5ecd 68be 6a4c 253e
00000250: ef6a 5f3e e8ee 853e eabf 51be abdf 4fbd
00000260: dcc6 acbf 92a2 cc3e 6e01 1a3e c3f0 14be
00000270: 449f 3d3e 894c f23e 0d54 3abe 7764 58be
00000280: 3523 403e da72 873e dc52 073e 0ff5 4a3f
00000290: 27ad ccbe c074 c13e 1b49 6e3f a053 96bd
000002a0: e690 2cbf ba10 5e3f 3ac6 23bd 8599 283f
000002b0: 5f1c 32bd 34dc 83be 6bad c8be bcad 3c3d
000002c0: b5c8 79bd 0bb2 b6bd 3453 0bbd 2aa1 94bf
000002d0: 492d 7dbf 39f4 dcbd fa99 1c3e 5e67 133e
000002e0: 4fdc 0a3e 8856 5fbe 9bff a13d 6546 0abe
000002f0: 6138 b83e 30f7 593e 5044 b0be b55f 20be
00000300: badb 823e a089 16bf d786 b63a b016 e5bd
00000310: 23b0 a33f 67e2 63be ef8d 6d3e bdab 733e
00000320: 4ed5 a7bd 917d 82be e6e0 e53d d728 7f3d
00000330: affa 41bd c0fd 27be 60fa 623f b16b 7b3f
00000340: feaa 04bd 0f58 253e 32fb 113e e467 2a3f
00000350: e0e2 d83e 9252 00be 25b2 c2bc 248d 75be
00000360: dfd2 253f 08b0 94be d663 7ebe 305c 103f
00000370: 96b6 503e e06b 9f3a 12c7 513e dda7 183f
00000380: 7e98 273f d519 87bd 9800 2f3e 334c 97be
00000390: 0ab8 7b3e 58d1 9b3d 3d16 25bc 4d1c f4bd
000003a0: f21c 4d3c ba14 283f 76e8 babf f6e3 153e
000003b0: a56a 25be 9afb 523e a9f7 2ebe b301 dabd
000003c0: c3e9 213e 4f72 35be 6715 e73d 413d f3bd
000003d0: 64a3 523e e454 a0be dd64 1e3e 5a8b e33c
000003e0: 0ff9 8dbd 0065 c0bc df69 273e 3d1b 2e3d
000003f0: e1cb bb3c ebd2 5bbd 29b6 433e be3b be3f

mean_net.0.bias f4 [128]
0.15346837 -0.12449176 0.12198679 0.052751854 0.02633526 0.2278218 -0.044056825 -0.010154429
0.2291883 -0.09678919 0.0015614693 -0.18091665 0.20055465 -0.06865105 -0.0037038904 0.17648286
0.086765505 0.014996385 0.06396767 -0.017469203 0.023747908 -0.0036208706 -0.111115076 0.015039443
-0.09866078 -0.09656815 -0.10137854 -0.0021930158 0.16635613 -0.10692571 -0.07901006 0.018427668
-0.12001578 -0.077904254 -0.055919573 -0.07439476 0.06602754 0.14255159 -0.24535045 0.02768236
-0.07981752 0.014233321 -0.12072075 0.23200311 -0.015348119 0.1488743 -0.080506794 0.022831844
0.22043589 -0.22947584 -0.189395 -0.1875557 -0.19850731 -0.12672164 0.11392917 0.11472501
0.037920397 0.11280406 0.08758203 0.11903823 0.18698628 -0.16545938 -0.07583455 -0.15264271
-0.13642164 0.09146864 -0.095278375 0.025977137 0.20744176 0.2526509 -0.14154457 -0.135906
0.26335192 0.14590904 0.12236914 0.17316487 0.14183146 0.09730358 -0.186888 -0.20172578
-0.1329947 0.17695549 -0.14878467 0.047347926 -0.041660715 0.028468834 0.16284646 0.20221674
0.062296275 -0.1199133 0.2590655 -0.104067154 0.08702528 0.06936057 0.16118655 0.06477149
-0.06519784 0.11035024 0.10216948 0.004465302 0.025711251 0.16149218 -0.19596662 -0.1178604
0.11189062 0.09030029 0.019203383 0.179539 0.21239677 0.2525941 0.046690084 0.08668685
0.13377756 0.006226095 -0.19856595 0.15564041 -0.11642411 0.19260964 0.021823106 0.16400386
0.010815522 0.08928728 0.0053792275 -0.10311765 0.22996819 0.18040827 0.008801481 -0.12664153
00000000: d026 1d3e 89f5 febd 36d4 f93d 5412 583d
00000010: 0bbd d73c 1e4a 693e ee74 34bd c35e 26bc
00000020: 56b0 6a3e 6939 c6bd 37aa cc3a 3742 39be
00000030: 335e 4d3e ec98 8cbd f8bc 72bb ecb7 343e
00000040: 1db2 b13d 66b3 753c 7b01 833d 931b 8fbc
00000050: f98a c23c 214c 6dbb 4d90 e3bd ff67 763c
00000060: aa0e cabd 86c5 c5bd 8d9f cfbd b3b8 0fbb
00000070: 4359 2a3e defb dabd 07d0 a1bd 9ff5 963c
00000080: d5ca f5bd 448c 9fbd ec0b 65bd 485c 98bd
00000090: 7239 873d 0bf9 113e 263d 7bbe 1ec6 e23c
000000a0: 5e77 a3bd e032 693c 713c f7bd 3992 6d3e
000000b0: ad76 7bbc 8172 183e bfe0 a4bd d909 bb3c
000000c0: f2b9 613e b7fb 6abe c3f0 41be 9a0e 40be
000000d0: 8045 4bbe 51c3 01be b253 e93d f2f4 ea3d
000000e0: 6b52 1b3d d105 e73d 355e b33d 51ca f33d
000000f0: 5579 3f3e 2f6e 29be 254f 9bbd 5f4e 1cbe
00000100: 1db2 0bbe e953 bb3d 4f21 c3bd 01ce d43c
00000110: 9d6b 543e 755b 813e 0ff1 10be f12a 0bbe
00000120: 10d6 863e 2e69 153e ac9c fa3d 2252 313e
00000130: 443c 113e 1947 c73d 915f 3fbe 3491 4ebe
00000140: c32f 08be d233 353e 025b 18be e6ef 413d
00000150: 6da4 2abd 7937 e93c 39c1 263e e811 4f3e
00000160: 612a 7f3d 1b95 f5bd 3ca4 843e 2921 d5bd
00000170: 4f3a b23d ea0c 8e3d 160e 253e eaa6 843d
00000180: 7286 85bd 4eff e13d 3b3e d13d ab51 923b
00000190: 67a0 d23c 355e 253e 79ab 48be cb60 f1bd
000001a0: e926 e53d 5cef b83d 6a50 9d3c 12d9 373e
000001b0: 8a7e 593e 0454 813e 1a3e 3f3d e088 b13d
000001c0: fcfc 083e 4504 cc3b df54 4bbe 3360 1f3e
000001d0: c46f eebd 763b 453e 5fc6 b23c a1f0 273e
000001e0: 9633 313c 40dc b63d 3b44 b03b 592f d3bd
000001f0: c87c 6b3e f2bc 383e 1634 103c 51ae 01be

mean_net.2.weight f4 [128, 128]
-0.18075472 -0.10679854 0.076395854 0.009584879 0.06674052 0.06075049 0.18811515 -0.009610958
0.024592113 0.23042184 0.14966604 0.12331956 0.1383884 -0.10816501 -0.052429996 -0.10362066
0.10947098 -0.012595568 -0.07935345 0.13894217 -0.0033652827 0.10761862 -0.032146763 0.06135984
-0.08930286 -0.019864826 0.2554087 0.061231684 0.24879016 0.13256444 -0.19220239 0.12266291
-0.09021643 0.28168252 0.22042891 0.2507443 0.052935813 0.11517786 -0.04757263 0.07254839
0.04414303 0.15418488 -0.08005334 -0.08843554 0.09109511 0.19148323 0.16329415 0.025901623
0.16019924 0.04897724 -0.054432992 -0.044484276 -0.012612495 -0.14538907 0.14362882 -0.01894786
0.06209511 -0.122688256 -0.12334849 0.048660662 -0.029395869 -0.08904582 -0.039454807 -0.02091159
0.09130903 0.10554409 -0.13468075 -0.19517164 -0.16763419 0.12205422 0.31044397 0.07476161
0.13244477 0.006026684 -0.30109552 -0.014460233 -0.25874138 -0.017999645 -0.13969794 0.009743187
-0.09311913 -0.1992187 0.4150624 -0.23757757 -0.064154506 0.10986239 -0.15631765 -0.04360518
0.24395153 0.5702049 0.108628064 0.18624233 -0.07323829 -0.15833884 -0.05214131 -0.043239113
0.002351098 -0.061971392 -0.031452104 -0.044792257 0.08322054 -0.082996376 0.21948189 0.08295559
-0.0052546384 -0.019897535 0.10341645 -0.064158894 -0.33795077 0.0627423 -0.019228607 0.046101157
0.07373617 0.035584293 0.19488366 0.09108367 -0.007901615 0.22392246 -0.17038356 -0.12924257
0.13413537 -0.16150977 0.27695537 -0.022226276 0.049911764 0.06816075 0.011645368 0.03299917
0.07413605 -0.121065766 -0.05867443 0.08628021 0.049778644 0.050768178 -0.022149527 0.14539044
-0.11354275 0.16378044 -0.081580445 0.09084866 -0.05869073 0.102140464 -0.026767783 0.014038339
-0.10770857 -0.07514491 0.17314063 0.01966843 0.051282194 -0.013748213 0.11294507 -0.07387388
-0.037373256 0.12125238 -0.18271613 -0.0023312205 0.10298417 -0.14623538 0.097324304 -0.061369687
-0.05828956 -0.07523518 -0.10743978 -0.05497683 0.051458374 0.105737455 0.13084626 -0.018513368
0.07203572 -0.066227205 0.037342753 0.06468068 0.045633685 0.17639416 -0.043965627 -0.04114413
-0.03970823 -0.032441158 0.06344684 -0.044330742 0.08085208 0.09670602 0.07914867 -0.011794282
-0.049345657 0.07049502 0.117343925 0.019099671 0.00013721819 0.01800999 0.07063655 0.21085618
-0.022794442 -0.14103957 -0.023944238 -0.10140707 0.10106929 0.10426396 -0.12520856 -0.031323522
-0.05852611 0.0870488 -0.047079314 -0.03142514 0.012906525 0.17273104 -0.14063248 -0.053296022
-0.038672395 0.07407227 -0.17207228 -0.116691574 0.06365813 0.09107977 0.036476795 0.03825596
-0.11445292 0.088161066 0.048125245 -0.08167554 -0.0745312 -0.064136 0.117318004 0.08701779
0.0858257 0.07074342 -0.073375694 0.043036822 -0.13765262 -0.021084357 0.07189184 -0.048691243
-0.041257244 0.010961664 -0.085379854 0.014410424 0.100750916 -0.09441131 -0.029978553 0.150765
-0.029632216 -0.0837728 -0.03295884 -0.0018108548 -0.068732396 -0.06891939 -0.0764819 0.05751665
0.0022490495 -0.06014969 0.085750476 -0.009564434 -0.03583539 -0.023894913 0.049097538 -0.03585787
00000000: c417 39be 31b9 dabd 6e75 9c3d e509 1d3c
00000010: 41af 883d 81d5 783d 42a1 403e 4877 1dbc
00000020: 6675 c93c b4f3 6b3e 0e42 193e f78e fc3d
00000030: b0b5 0d3e 9e85 ddbd d6c0 56bd 1237 d4bd
00000040: 5232 e03d a45d 4ebc 1084 a2bd db46 0e3e
00000050: 138c 5cbb 2767 dc3d 53ac 03bd 7554 7b3d
00000060: 6be4 b6bd 8fbb a2bc eec4 823e 13ce 7a3d
00000070: d9c2 7e3e f9be 073e b4d0 44be b136 fb3d
00000080: 64c3 b8bd b138 903e 1eb8 613e 8f61 803e
00000090: 39d3 583d 5fe2 eb3d 85db 42bd 4094 943d
000000a0: 52cf 343d a4e2 1d3e 01f3 a3bd b11d b5bd
000000b0: 1390 ba3d 2e14 443e 9536 273e a42f d43c
000000c0: 450b 243e 5c9c 483d 21f5 5ebd 2535 36bd
000000d0: a3a4 4ebc dfe0 14be 6f13 133e 8b38 9bbc
000000e0: 7157 7e3d fb43 fbbd 229e fcbd 6750 473d
000000f0: 9bcf f0bc a85d b6bd 5d9b 21bd c84e abbc
00000100: 3b00 bb3d 8027 d83d c0e9 09be 13db 47be
00000110: 4ca8 2bbe 90f7 f93d 83f2 9e3e 9d1c 993d
00000120: 9a9f 073e 7d7b c53b 3129 9abe 9dea 6cbc
00000130: c079 84be fe73 93bc fa0c 0fbe e3a1 1f3c
00000140: 3eb5 bebd fdff 4bbe 0f83 d43e 8947 73be
00000150: 7063 83bd 88ff e03d bc11 20be 589b 32bd
00000160: 6ece 793e f3f8 113f 6478 de3d 4fb6 3e3e
00000170: f5fd 95bd 9423 22be 2092 55bd 7f1b 31bd
00000180: e114 1a3b b7d5 7dbd ecd3 00bd 1678 37bd
00000190: 886f aa3d 01fa a9bd dcbf 603e 9fe4 a93d
000001a0: 1a2f acbb 2800 a3bc 01cc d33d bd65 83bd
000001b0: e207 adbe 097f 803d 5085 9dbc 91d4 3c3d
000001c0: fd02 973d d6c0 113d 958f 473e 138a ba3d
000001d0: c775 01bc ee4b 653e 0779 2ebe 2a58 04be
000001e0: c85a 093e d162 25be 18cd 8d3e e113 b6bc
000001f0: 4770 4c3d dd97 8b3d 37cc 3e3c 232a 073d
00000200: a4d4 973d 54f1 f7bd 9954 70bd aeb3 b03d
00000210: b1e4 4b3d 4bf2 4f3d ed72 b5bc 3be1 143e
00000220: 1a89 e8bd 0fb6 273e a613 a7bd dd0e ba3d
00000230: b165 70bd 052f d13d 1c48 dbbc 1001 663c
00000240: 5096 dcbd 93e5 99bd c74b 313e b01f a13c
00000250: 470d 523d 2f40 61bc bf4f e73d 304b 97bd
00000260: b314 19bd 2b53 f83d f019 3bbe 64c7 18bb
00000270: 5de9 d23d babe 15be f751 c73d c85e 7bbd
00000280: 09c1 6ebd e714 9abd 6309 dcbd 622f 61bd
00000290: 04c6 523d e18c d83d 90fc 053e 59a9 97bc
000002a0: 7787 933d 21a2 87bd b7f4 183d 4e77 843d
000002b0: 63ea 3a3d aca0 343e 4d15 34bd bf86 28bd
000002c0: 19a5 22bd 05e1 04bd 6bf0 813d 2794 35bd
000002d0: c695 a53d ce0d c63d b318 a23d ce3c 41bc
000002e0: ac1e 4abd b15f 903d 0352 f03d ea76 9c3c
000002f0: 3ae2 0f39 b089 933c e5a9 903d afea 573e
00000300: 69bb babc ad6c 10be b526 c4bc 83ae cfbd
00000310: 6afd ce3d 5888 d53d ac36 00be 184d 00bd
00000320: 13b9 6fbd a446 b23d 3dd6 40bd a6b7 00bd
00000330: e475 533c 68e0 303e f601 10be ee4c 5abd
00000340: f266 1ebd 34b3 973d b733 30be fefb eebd
00000350: 325f 823d 0888 ba3d b168 153d 48b2 1c3d
00000360: 4b66 eabd ca8d b43d fa1e 453d 8145 a7bd
00000370: d0a3 98bd bc59 83bd 6c44 f03d 6236 b23d
00000380: 62c5 af3d ede1 903d ff45 96bd 6147 303d
00000390: cff4 0cbe 1ab9 acbc 073c 933d 7870 47bd
000003a0: 5bfd 28bd 8d98 333c a2db aebd b319 6c3c
000003b0: 7f56 ce3d b85a c1bd 9595 f5bc 2462 1a3e
000003c0: 43bf f2bc 1391 abbd d9ff 06bd 345a edba
000003d0: 92c3 8cbd 9c25 8dbd 8ba2 9cbd 9496 6b3d
000003e0: ca64 133b 855f 76bd f29d af3d 25b4 1cbc
000003f0: 21c8 12bd 44bf c3bc 801a 493d b4df 12bd

mean_net.2.bias f4 [128]
-0.1279062 -0.034325253 -0.050029323 -0.011815465 0.11811985 -0.08369551 0.061977655 -0.019903189
0.045497034 0.042030398 0.05875537 -0.029849902 0.10243993 -0.065996796 0.054941338 -0.06256638
0.084085874 0.07306871 -0.048848815 -0.0455777 -0.113618776 0.07921841 -0.04013358 -0.00025735795
-0.12904084 0.068477966 -0.10653138 0.051639102 0.05288507 -0.081146955 -0.011993194 -0.021878183
0.022589734 -0.06741579 -0.032399833 -0.0624796 0.0041912403 -0.1375338 0.053644553 -0.055614896
-0.01501406 -0.019920189 0.015055429 0.016853351 0.04308951 -0.0592006 0.0608816 -0.019514697
-0.0978547 -0.16235325 -0.03050242 -0.07641186 0.0843468 -0.07026694 -0.04610546 0.018654943
0.049227208 0.013557994 -0.08723929 -0.048403464 0.052632242 0.050105974 0.028024767 0.0069605163
-0.0033630787 -0.14075561 -0.16040125 0.013673926 -0.04665787 -0.047158167 0.05619687 -0.09269227
-0.051209338 -0.08966107 0.047851153 0.026106387 0.024477756 0.009438662 0.031743266 -0.05216575
0.038692117 0.11127127 -0.1320053 -0.11061023 0.009837178 -0.025585055 -0.040029272 0.05888294
0.09824235 -0.051971424 -0.07211756 -0.0106421355 0.046698485 -0.027625985 0.00616895 -0.07265644
0.07460084 0.120549284 -0.05709687 0.020805849 -0.11949146 -0.06662712 -0.055731233 0.03480463
-0.049239293 -0.014468537 -0.12464911 0.011030207 -0.038994342 -0.0064882603 0.098804854 0.017956499
0.03567713 0.041087355 0.15765929 -0.12092391 -0.099272944 -0.00740736 0.044397853 -0.073715046
0.049000073 -0.052847177 -0.115685605 -0.029509641 0.08015108 0.02850369 0.009325087 -0.07960329
00000000: d8f9 02be a398 0cbd 8ceb 4cbd a795 41bc
00000010: d2e8 f13d 8d68 abbd 48dc 7d3d 030c a3bc
00000020: 195b 3a3d 1128 2c3d 79a9 703d c887 f4bc
00000030: 07cc d13d 5429 87bd 2b0a 613d cd22 80bd
00000040: 3735 ac3d 0ca5 953d b215 48bd afaf 3abd
00000050: f6b0 e8bd 433d a23d 1c63 24bd 00ee 86b9
00000060: 4823 04be 2d3e 8c3d 202d dabd 8683 533d
00000070: 049e 583d 6030 a6bd 1a7f 44bc e039 b3bc
00000080: 1b0e b93c 4a11 8abd b0b5 04bd 9cea 7fbd
00000090: ac56 893b a9d5 0cbe 64ba 5b3d 72cc 63bd
000000a0: 88fd 75bc aa2f a3bc 0cab 763c 0a10 8a3c
000000b0: a07e 303d 547c 72bd fc5e 793d 49dd 9fbc
000000c0: 0c68 c8bd ee3f 26be 36e0 f9bc d27d 9cbd
000000d0: 04be ac3d 1de8 8fbd 14d9 3cbd 40d2 983c
000000e0: 78a2 493d 5922 5e3c 83aa b2bd b642 46bd
000000f0: e894 573d ec3b 4d3d 3294 e53c 0b15 e43b
00000100: 1967 5cbb 3d22 10be 3a40 24be 9a08 603c
00000110: 531c 3fbd ec28 41bd b02e 663d 72d5 bdbd
00000120: e2c0 51bd 39a0 b7bd 92ff 433d 10dd d53c
00000130: 9385 c83c 9ea4 1a3c 3a05 023d c1ab 55bd
00000140: a07b 1e3d 31e2 e33d 662c 07be 9e87 e2bd
00000150: 1d2c 213c c097 d1bc bcf5 23bd 3d2f 713d
00000160: 4933 c93d fddf 54bd 5fb2 93bd 5a5c 2ebc
00000170: e946 3f3d e44f e2bc e724 ca3b e6cc 94bd
00000180: 53c8 983d 8be2 f63d 68de 69bd 0771 aa3c
00000190: f0b7 f4bd cd73 88bd 6f46 64bd 4d8f 0e3d
000001a0: 24af 49bd 710d 6dbc 0848 ffbd 0bb8 343c
000001b0: 88b8 1fbd 799b d4bb 335a ca3d 8219 933c
000001c0: 2f22 123d 374b 283d 7071 213e f4a6 f7bd
000001d0: 9d4f cbbd 70b9 f2bb 86da 353d eaf7 96bd
000001e0: 4db4 483d 4876 58bd 93ec ecbd 34be f1bc
000001f0: 4026 a43d 9280 e93c 40c8 183c 0d07 a3bd

mean_net.4.weight f4 [4, 128]
0.19606441 0.03465144 0.03915453 0.005532309 -0.052648306 0.010641915 -0.11027305 -0.19429141
-0.2838279 -0.20248853 -0.033997826 -0.08843725 -0.082538396 0.0069983653 0.045046575 0.17080164
-0.21449916 0.011183011 0.028604094 0.15563796 0.14948855 -0.021423843 -0.00069731456 0.0021013557
0.31890282 0.36097065 0.120572835 -0.17191038 -0.0015977315 0.029856745 0.2680675 0.30744648
0.3094906 0.032409646 -0.058454443 0.2819018 0.108826846 0.021576615 -0.012277364 0.0783522
0.021103757 0.023054207 0.017754069 -0.1504303 -0.00036786898 0.11091765 0.1314043 -0.1480074
0.15627858 -0.16970462 -0.01740801 -0.07023772 -0.3000241 0.015810102 -0.010443212 -0.17828901
0.015034686 -0.018183196 -0.14691196 -0.00030509403 0.03443743 -0.016551575 0.096909754 -0.037040778
0.0030053812 0.10366893 0.27946365 -0.04410124 0.27219123 0.0072725867 0.26694593 -0.0007193053
0.0091517605 0.2533978 0.13955164 -0.0077932193 -0.1809029 -0.019094706 -0.23231739 0.006758132
-0.204265 -0.14043608 0.10965671 -0.08143022 0.040301796 0.005387011 0.24372604 -0.015198369
-0.3136313 0.15036313 0.02588666 -0.055419695 0.15570083 0.12362565 0.19056682 0.27984154
-0.17674151 -0.1346639 0.0006810853 0.23006362 -0.3341514 -0.0123307705 0.29108363 -0.06896755
0.18255131 -0.093013816 -0.00048521184 -0.007956847 0.09684951 0.18145995 -0.17891826 -0.011378273
-0.14348048 -0.15689859 0.24367106 -0.007370318 -0.14952382 0.28163743 -0.13016327 0.019020414
-0.03335146 -0.27469334 -0.10025031 0.081168674 0.3025599 -0.2141549 -0.03697096 -0.065554924
0.20468788 0.020944234 -0.0065430203 0.0042239097 -0.12442353 -0.013077213 0.01763903 -0.07174986
-0.08129453 0.14480537 -0.054285124 -0.112771496 -0.10070756 0.051523026 -0.0053133494 -0.0103124315
0.044646703 -9.260849e-05 0.0839656 0.0077035795 -0.044540305 0.01021682 -0.0103446925 0.00063772575
0.04802145 0.1683659 0.117758214 0.05749316 0.020322368 -0.0442262 -0.05563593 0.008423056
0.1740074 0.14113472 0.01967285 -0.019677565 -0.13748343 -0.3912552 0.016363664 -0.09479019
-0.08595565 -0.013565384 0.0053261267 0.18055803 0.13729063 0.01886865 -0.06201148 0.031395897
0.21551831 -0.13534603 0.01853069 -0.098841146 0.21042728 0.034419827 0.016694307 0.21802534
-0.16214839 0.023399174 0.08348027 0.00012679935 -0.1642114 0.021554751 -0.075293966 -0.076787405
0.0026803236 0.03863 -0.22702678 0.05623177 0.15771337 0.004730205 -0.07664732 0.23222184
0.00285888 0.030274518 0.07383067 0.017295115 -0.312979 -0.021761123 -0.04303351 0.1746958
0.26956317 0.010055891 0.38142198 -0.2976046 0.035615582 -0.0005154521 0.25341213 0.012997058
0.070462465 -0.09836129 -0.254465 0.06914451 0.053775605 -0.018001197 -0.38074008 -0.26770595
-0.27183422 -0.3141203 -0.016797422 -0.28172076 -0.05354862 0.025447994 -0.41211212 -0.06933503
0.097855605 0.14564334 -0.23813091 0.01627947 0.12529989 0.11476064 -0.0027238827 0.008727129
0.060461614 -0.017168239 -0.21075471 0.2691398 0.15957873 0.00027482762 -0.02206154 0.015792532
0.18758066 0.19309807 0.30173 0.11027689 0.09280456 0.03169515 -0.058809657 -0.1810574
00000000: 1cc5 483e abee 0d3d 8060 203d 5f48 b53b
00000010: c0a5 57bd 6d5b 2e3c d6d6 e1bd 54f4 46be
00000020: e451 91be 2759 4fbe 4e41 0bbd 971e b5bd
00000030: e409 a9bd 8b52 e53b c282 383d a0e6 2e3e
00000040: aba5 5bbe f338 373c 2253 ea3c 8f5f 1f3e
00000050: 8713 193e 0e81 afbc fdcb 36ba e6b6 093b
00000060: 3b47 a33e 25d1 b83e e4ee f63d 4609 30be
00000070: f96a d1ba 2296 f43c 2540 893e a069 9d3e
00000080: 8d75 9e3e fabf 043d ed6d 6fbd 6f55 903e
00000090: 9ce0 de3d 71c1 b03c ff26 49bc 1e77 a03d
000000a0: c9e1 ac3c 2ddc bc3c fb70 913c 670a 1abe
000000b0: 8ade c0b9 cb28 e33d d98e 063e 408f 17be
000000c0: 7e07 203e 0cc7 2dbe 3e9b 8ebc cbd8 8fbd
000000d0: c29c 99be 3084 813c 021a 2bbc 6591 36be
000000e0: 0b54 763c edf4 94bc 1770 16be 07f5 9fb9
000000f0: 430e 0d3d 2b97 87bc 9f78 c63d 12b8 17bd
00000100: eef5 443b 6050 d43d dc15 8f3e 80a3 34bd
00000110: a65c 8b3e e14e ee3b 23ad 883e c38f 3cba
00000120: 44f1 153c 5bbd 813e a0e6 0e3e 435e ffbb
00000130: 9c3e 39be 806c 9cbc 9ce4 6dbe 5273 dd3b
00000140: d82a 51be 7ace 0fbe b293 e03d e3c4 a6bd
00000150: 7f13 253d 8685 b03b 5293 793e 9402 79bc
00000160: 4894 a0be cbf8 193e 4310 d43c c3ff 62bd
00000170: 0a70 1f3e 722f fd3d f323 433e 6447 8f3e
00000180: bafb 34be 55e5 09be dc8a 323a cc95 6b3e
00000190: e415 abbe 0007 4abc ea08 953e dc3e 8dbd
000001a0: bbee 3a3e 077e bebd 0864 feb9 6f5d 02bc
000001b0: 0959 c63d a3d0 393e 5936 37be f06b 3abc
000001c0: 8cec 12be 06aa 20be e884 793e b582 f1bb
000001d0: c61c 19be c832 903e 8549 05be b3d0 9b3c
000001e0: 8a9b 08bd 9ba4 8cbe 0950 cdbd c33b a63d
000001f0: 22e9 9a3e 6c4b 5bbe dd6e 17bd a941 86bd
00000200: b399 513e 3e93 ab3c d566 d6bb b968 8a3b
00000210: c4d1 febd cf41 56bc ba7f 903c 97f1 92bd
00000220: bf7d a6bd dc47 143e 145a 5ebd bef4 e6bd
00000230: c43f cebd cf09 533d 9b1b aebb 79f5 28bc
00000240: 76df 363d ce36 c2b8 28f6 ab3d 4f6e fc3b
00000250: e56f 36bd 7364 273c c97c 29bc 0d2d 273a
00000260: 24b2 443d 1c68 2c3e 382b f13d f37d 6b3d
00000270: 187b a63c 8826 35bd 80e2 63bd dc00 0a3c
00000280: ff2e 323e 9f85 103e f528 a13c d832 a1bc
00000290: 75c8 0cbe 9a52 c8be 170d 863c 5c21 c2bd
000002a0: 8409 b0bd 5841 5ebc ca86 ae3b 34e4 383e
000002b0: ea95 0c3e 6d92 9a3c c0ff 7dbd fc98 003d
000002c0: d5b0 5c3e 2698 0abe accd 973c 3a6d cabd
000002d0: 407a 573e cefb 0c3d 80c2 883c 0942 5f3e
000002e0: 3a0a 26be a0af bf3c b4f7 aa3d 71f5 0439
000002f0: 0927 28be 9793 b03c b933 9abd b742 9dbd
00000300: 5ea8 2f3b 7e3a 1e3d b579 68be 4953 663d
00000310: 9d7f 213e d6ff 9a3b 45f9 9cbd 90cb 6d3e
00000320: 0c5c 3b3b 4402 f83c 8934 973d 7cae 8d3c
00000330: c93e a0be 6244 b2bc e843 30bd 75e3 323e
00000340: 2f04 8a3e 77c1 243c be49 c33e a15f 98be
00000350: a5e1 113d 681f 07ba 3cbf 813e 9df1 543c
00000360: a04e 903d a571 c9bd 3d49 82be a39b 8d3d
00000370: cf43 5c3d 3f77 93bc 5df0 c2be c110 89be
00000380: db2d 8bbe 60d4 a0be bf9a 89bc b43d 90be
00000390: cc55 5bbd 5078 d03c 5c00 d3be 86ff 8dbd
000003a0: 8568 c83d 8723 153e 97d8 73be 865c 853c
000003b0: 9d4e 003e a007 eb3d 2b83 32bb 3bfc 0e3c
000003c0: 99a6 773d 68a4 8cbc 15d0 57be b1cc 893e
000003d0: 9b68 233e bd16 9039 67ba b4bc 575f 813c
000003e0: 2515 403e 80bb 453e 5b7c 9a3e dad8 e13d
000003f0: 5110 be3d c6d2 013d 65e2 70bd 1c67 39be

mean_net.4.bias f4 [4]
-0.10376039 -0.06376417 0.00089290185 0.01906248
00000000: 5480 d4bd ca96 82bd a111 6a3a eb28 9c3c
