src/rl/model/actor_model28-08-2024_10-19-49/700.pt (torch, 84719 bytes, 7 tensors)

logstd f4 [4]
0	0xc0599864	-3.3999262
1	0xc0659522	-3.5872273
2	0xc05f807a	-3.4922166
3	0xc072e024	-3.7949305

mean_net.0.weight f4 [128, 27]
0	0xbe70eb25	-0.235272
1	0x3f217ff6	0.6308588
2	0xbebad836	-0.3649308
3	0x3e7c086b	0.24612586
4	0x3f22853b	0.63484544
5	0xbe7a2c9d	-0.24431081
6	0xbe8b682a	-0.27227908
7	0xbee3fb8f	-0.4452786
8	0xbdf029ad	-0.11726699
9	0x3e99e6c1	0.30058864
10	0xbe293265	-0.1652313
11	0xbdbe16a5	-0.09281663
12	0xbf924722	-1.1427958
13	0x3e2ba521	0.1676221
14	0x3d85a5a1	0.06525732
15	0x3e78b694	0.24288398
16	0x3c3b5665	0.011434172
17	0xbfd4652e	-1.6593378
18	0xc01bd713	-2.435002
19	0xbe409b5a	-0.18809262
20	0x3d9760d7	0.073915176
21	0xbd8f61a6	-0.07001047
22	0xbf3825e2	-0.71932805
23	0x3e3cb73e	0.18429276
24	0xbd18e456	-0.037327133
25	0x3d1b7f57	0.037963238
26	0xbd58b47f	-0.05290651
27	0x3cb6e9a9	0.022328215
28	0x3ee8370d	0.453545
29	0x3e31dc8f	0.17369293
30	0xbe806e21	-0.25084022
31	0x3e91b2ac	0.28456628
32	0x3ea78f3e	0.32726473
33	0x3ee60f15	0.44933382
34	0x40307e82	2.7577214
35	0x3ddf11e8	0.10892087
36	0x3f1a27c5	0.60216933
37	0xbf008fd2	-0.5021945
38	0x3ed5eddc	0.41783035
39	0xbe3f02a8	-0.18653357
40	0x3e4d81d4	0.20069057
41	0xbe5b4c36	-0.21415791
42	0xbd4b95c2	-0.049703367
43	0x3cbb81d4	0.022889055
44	0xbf32f540	-0.6990547
45	0x3f00e754	0.5035298
46	0xbea77482	-0.32706076
47	0xbe6695b5	-0.22518046
48	0x3e9729f3	0.29524192
49	0x3ed0b548	0.40763307
50	0xbe0f0159	-0.13965358
51	0x3c5c68ef	0.0134527525
52	0x3d22263c	0.039587244
53	0x3e0b8d17	0.1362804
54	0x3e7349d0	0.23758626
55	0x3ea843b0	0.3286414
56	0x3e327ae1	0.17429687
57	0x3d4abbc6	0.04949548
58	0x3ee6b0ab	0.45056662
59	0xbe636f32	-0.22210386
60	0x3ec1482c	0.37750375
61	0x3f148d17	0.58027786
62	0xbec9b2ea	-0.39394313
63	0xbe88ea6a	-0.26741344
64	0xbe4f1256	-0.20221838
65	0x3e435ad5	0.19077618
66	0x3f03e01a	0.51513827
67	0x3cb9d8df	0.02268642
68	0xbca234b4	-0.019800521
69	0x3e18ea2b	0.14933078
70	0x3e56a02e	0.20959541
71	0xbff7f74a	-1.9372342
72	0xbf6f3fbb	-0.9345662
73	0xbd53577e	-0.05159711
74	0x3d5484b9	0.051884387
75	0xbebc6916	-0.36798924
76	0x3e86699a	0.26252443
77	0xbe3b908d	-0.1831686
78	0xbd915fac	-0.07098326
79	0x3ddbb05a	0.10726996
80	0xbdfb4d70	-0.122706294
81	0xbee8600f	-0.45385787
82	0xbddd3112	-0.10800375
83	0xbeb9864e	-0.3623528
84	0xbf3a427d	-0.72757703
85	0x3ed7a35b	0.42116818
86	0xbef4e172	-0.4782825
87	0x3edfa175	0.4367787
88	0xbec8ef77	-0.39245197
89	0xbfb70c70	-1.4300671
90	0xbe12af08	-0.14324582
91	0xbf083fcb	-0.5322234
92	0x3ce2f63a	0.0277053
93	0x3f916003	1.1357425
94	0xbe08402d	-0.13305731
95	0x3c334cbf	0.010943591
96	0xbe7cd22b	-0.24689548
97	0x3e749d4c	0.23888129
98	0x3e9a5788	0.30144906
99	0xbfa17d3b	-1.2616342
100	0x3dd0a6f5	0.101880945
101	0xbf7de661	-0.99179655
102	0x3f04775f	0.51744646
103	0xbfc0ea01	-1.5071412
104	0xbdcf07d7	-0.10108917
105	0x3dd72959	0.10505933
106	0x3e0d4dad	0.13799162
107	0x3e08643a	0.13319483
108	0x3eb4fa88	0.3534739
109	0xbf803753	-1.0016884
110	0xbdb1d82c	-0.0868381
111	0x3f2fe059	0.687017
112	0xbf775869	-0.9661928
113	0x3d999b2d	0.075003006
114	0xbf68d2af	-0.9094648
115	0xbcdceb4b	-0.026967665
116	0xbf358ef7	-0.7092127
117	0xbf5f04a7	-0.87116474
118	0xbe85c627	-0.2612774
119	0x3c35b3e8	0.011090256
120	0x3f9fd944	1.2488179
121	0x3e22a3d2	0.15882805
122	0xbd1064ea	-0.03525249
123	0xbdc3e00a	-0.095642164
124	0x3e77e4fe	0.24208447
125	0xbf99f03c	-1.2026439
126	0xbfc4fd19	-1.5389739
127	0xbc3c00e9	-0.011474826
128	0x3e6fac30	0.23405528
129	0x3df70ae6	0.120626256
130	0x3fa3b953	1.2790931
131	0x3d9bf48f	0.07615005
132	0x3e02da98	0.127787
133	0x3e58a330	0.21156001
134	0x3df580d0	0.1198746
135	0xbf82c28c	-1.0215621
136	0x3ed51ea9	0.41624954
137	0xbf216daf	-0.6305799
138	0xbfe1eb60	-1.7649956
139	0xbe93d7ef	-0.28875682
140	0xbee8f9a1	-0.45502952
141	0xbd121f04	-0.03567411
142	0x3f12a74c	0.57286525
143	0x3e84338c	0.25820577
144	0xbced92a4	-0.029000588
145	0x3d6a5438	0.057209224
146	0xbe1e869d	-0.15481038
147	0x3e1d2549	0.15346254
148	0x3e5ae0de	0.21374843
149	0x3eb70c81	0.35751727
150	0xbe8f0919	-0.27936628
151	0xbbd5f7c5	-0.0065297806
152	0xbf9ed9a4	-1.2410169
153	0x3e715991	0.23569323
154	0x3e4003eb	0.18751495
155	0xbe16f95a	-0.14743558
156	0x3e4a617a	0.19763747
157	0x3eb15c7d	0.34640875
158	0xbe3f5e97	-0.18688427
159	0xbe7449b8	-0.23856246
160	0x3e2ef2df	0.17084835
161	0x3e8f640c	0.28006017
162	0x3d889b23	0.06670215
163	0x3f854982	1.0413058
164	0xbefd2983	-0.49445733
165	0x3f656cf0	0.8961935
166	0x3f1a4a1f	0.6026935
167	0xbdc1e562	-0.094675794
168	0xbf343367	-0.70390934
169	0x3fc71fc8	1.5556574
170	0x3c3cadb2	0.011516022
171	0x3f24075e	0.6407374
172	0xbd7125d8	-0.05887398
173	0xbe6ff354	-0.23432666
174	0xbee08e5a	-0.43858606
175	0xbc134c65	-0.008990382
176	0x3c830346	0.015992772
177	0xbddaa8a6	-0.106766984
178	0x3d84f24b	0.06491526
179	0xbf6a911d	-0.91627675
180	0xbecafd95	-0.39646593
181	0xbd98bb7b	-0.07457634
182	0x3e20ffbb	0.15722553
183	0x3d8965eb	0.067088924
184	0x3e45a2e4	0.19300419
185	0xbe617836	-0.22018513
186	0x3dcf8e86	0.10134606
187	0xbe030e58	-0.1279844
188	0x3ecbc9d7	0.3980243
189	0x3d58f65c	0.05296932
190	0xbecbb919	-0.39789656
191	0xbe3f8180	-0.18701744
192	0x3adbabab	0.0016759535
193	0xbf0e08aa	-0.5548197
194	0x3df3ea22	0.11909892
195	0xbdd81fc9	-0.105529375
196	0x3f97e9ba	1.1868203
197	0xbeaa8057	-0.3330104
198	0x3e325ecb	0.17418973
199	0x3e3611ee	0.17780277
200	0xbdd4e7c2	-0.10395767
201	0xbe9e057a	-0.30863553
202	0x3e5eef02	0.21770862
203	0x3d0e9620	0.03481114
204	0xbb334cbc	-0.002735897
205	0xbe6e8772	-0.23293856
206	0x3f0cb0df	0.54957384
207	0x3fa6d051	1.3032323
208	0xbcbbf4d7	-0.022943897
209	0x3e9bf5f3	0.30461082
210	0x3ded56b1	0.11588801
211	0x3ef2c51b	0.47416005
212	0x3ee8594a	0.45380622
213	0xbe1075de	-0.14107463
214	0xbd27ab1f	-0.04093468
215	0xbe80bdc1	-0.2514477
216	0x3f6eafd5	0.9323705
217	0x3d76d6e7	0.06026354
218	0xbebaebc2	-0.36507994
219	0x3f14c291	0.58109385
220	0x3e292466	0.16517791
221	0x3ec82ca9	0.39096573
222	0x3dd1010a	0.10205276
223	0x3f7a487c	0.9776685
224	0x3f4603ea	0.7734972
225	0xbc4d624a	-0.012535641
226	0x3f00dbad	0.503352
227	0xbed95ce8	-0.42453694
228	0x3ea9eeec	0.33190095
229	0x3d299fad	0.041412044
230	0x3d6e8811	0.05823523
231	0xbe350434	-0.17677385
232	0x3cc277b6	0.023738723
233	0x3e6f30bd	0.23358436
234	0xbf9037f6	-1.1267078
235	0x3e1e211a	0.15442315
236	0xbe6591f6	-0.22418961
237	0x3f05476e	0.5206212
238	0xbe20c1e0	-0.15698957
239	0xbdc3f9da	-0.0956914
240	0x3e393330	0.18085933
241	0xbe33dc87	-0.17564593
242	0x3df3d2aa	0.11905415
243	0xbe60a346	-0.21937284
244	0x3e137e82	0.14403728
245	0xbecc8e02	-0.39952093
246	0xbd5c029a	-0.05371342
247	0x3e6a280f	0.22866844
248	0x3da4e404	0.08051303
249	0xbd922ad6	-0.071370766
250	0x3f02d388	0.5110402
251	0xbdc6ed44	-0.097132236
252	0xbc9a75e8	-0.01885505
253	0xb81c9d9a	-3.7340076e-05
254	0x3b438b2c	0.0029837592
255	0x3fc2e332	1.5225585

mean_net.0.bias f4 [128]
0	0x3e1c3f9f	0.15258645
1	0xbddcb85e	-0.10777353
2	0x3e025577	0.12727915
3	0x3d132a78	0.035929173
4	0x3d35934a	0.04432992
5	0x3e427388	0.18989384
6	0xbd527825	-0.05138411
7	0xbc9384b6	-0.018007617
8	0x3e532b67	0.20622025
9	0xbddfacf4	-0.1092166
10	0xbbff7ed7	-0.007797103
11	0xbe5ab902	-0.21359637
12	0x3e3ec4a6	0.18629703
13	0xbd4b4c5c	-0.04963337
14	0x3c76d809	0.015066155
15	0x3e479de5	0.19493826
16	0x3dc0588a	0.093918875
17	0xba4bd09f	-0.00077749224
18	0x3d6ced68	0.057843596
19	0xbd3b136f	-0.04567283
20	0x3c672bf0	0.014109597
21	0x3b6db222	0.0036269506
22	0xbdd50d03	-0.104028724
23	0x3d06dc1c	0.032924756
24	0xbdbdd276	-0.09268658
25	0xbddd8e0b	-0.10818108
26	0xbdcb8b2c	-0.09938654
27	0xbc47fbbb	-0.012206013
28	0x3e248842	0.16067603
29	0xbdbdcb05	-0.092672385
30	0xbdac0a26	-0.08400373
31	0x3d0dbd40	0.03460431
32	0xbdac38f5	-0.08409301
33	0xbda0a241	-0.078434475
34	0xbd86c1e9	-0.06579954
35	0xbd25ab8f	-0.040446814
36	0x3d7b11cb	0.061296266
37	0x3e0ef6c6	0.13961324
38	0xbe8ae549	-0.27128056
39	0x3d446518	0.047947973
40	0xbdd2478a	-0.10267551
41	0x3ce15456	0.027506035
42	0xbdbfbbc5	-0.09361986
43	0x3e4c6160	0.1995902
44	0xbcae398d	-0.021267677
45	0x3e1b3622	0.15157369
46	0xbd3b55f5	-0.045736272
47	0x3d1d5c47	0.03841808
48	0x3e43b777	0.19112955
49	0xbe6a917d	-0.22907062
50	0xbe36599f	-0.17807625
51	0xbe4ac986	-0.19803438
52	0xbe636992	-0.2220824
53	0xbe0a8241	-0.1352625
54	0x3e1f6dac	0.1556918
55	0x3ded583c	0.11589095
56	0x3db1637e	0.08661555
57	0x3e100374	0.14063817
58	0x3dc0eeed	0.094205715
59	0x3dd3d165	0.10342673
60	0x3e46d594	0.19417411
61	0xbe376dbf	-0.17912959
62	0xbdb1c868	-0.086808026
63	0xbe2df1b2	-0.1698673
64	0xbdd46bfa	-0.103721574
65	0x3d8e54ff	0.069498055
66	0xbdac1878	-0.084031045
67	0x3d8726e4	0.06599215
68	0x3e5ea05e	0.21740863
69	0x3e6836ee	0.22677204
70	0xbe1e5077	-0.15460382
71	0xbdf8b07b	-0.12143036
72	0x3e8d895f	0.27643868
73	0x3e1c4a6a	0.15262762
74	0x3e17d125	0.14825876
75	0x3e1b7ca1	0.15184261
76	0x3df8b00c	0.12142953
77	0x3d900e10	0.07033932
78	0xbe3b45af	-0.18288301
79	0xbe55136a	-0.20808187
80	0xbe0f2d8c	-0.13982219
81	0x3e52f635	0.20601733
82	0xbe0359ce	-0.12827227
83	0x3d727b5e	0.059199683
84	0xbd507047	-0.050888326
85	0x3cce38ff	0.025173662
86	0x3e31222c	0.17298192
87	0x3e49e143	0.19714837
88	0x3db0952a	0.08622201
89	0xbdd87586	-0.10569291
90	0x3e824e05	0.2545015
91	0xbd8dfb5e	-0.0693271
92	0x3e03dfbd	0.12878318
93	0x3d5936e5	0.053030867
94	0x3e209e11	0.15685298
95	0x3d7baf4f	0.061446484
96	0xbdb361c2	-0.0875888
97	0x3deebf1e	0.116575465
98	0x3db996cd	0.09061966
99	0x3ceb5646	0.028727662
100	0x3d0dee61	0.034651164
101	0x3e2469aa	0.16055933
102	0xbe5a38e2	-0.21310762
103	0xbdfc1848	-0.12309319
104	0x3daf6cfb	0.08565708
105	0x3ddd33bd	0.10800884
106	0x3cd0d0fe	0.02549028
107	0x3e309d0b	0.17247407
108	0x3e8463f6	0.25857514
109	0x3e83e00d	0.25756875
110	0x3d7e76f1	0.06212515
111	0x3d954b52	0.07289757
112	0x3e1be4b8	0.15223968
113	0x3c59f416	0.0133028235
114	0xbe485cf6	-0.19566712
115	0x3e33f622	0.17574361
116	0xbe07083c	-0.13186735
117	0x3e628af1	0.22123314
118	0x3d46fdb8	0.04858181
119	0x3e251639	0.16121759
120	0x3c8a60e4	0.016891904
121	0x3daf91ef	0.085727565
122	0x3bfc69f4	0.0077030603
123	0xbe016536	-0.12636265
124	0x3e54b32d	0.20771475
125	0x3e4ae031	0.19812085
126	0xbc3680af	-0.011139079
127	0xbe0a88ef	-0.13528799

mean_net.2.weight f4 [128, 128]
0	0xbe6ff67b	-0.23433869
1	0xbe04f9c9	-0.1298591
2	0x3d8b7e83	0.068112396
3	0xbc3d1158	-0.01153978
4	0x3d80d838	0.062912405
5	0x3d3080fb	0.043091755
6	0x3e5a8587	0.21339999
7	0x3cf40b14	0.029790439
8	0x3db65dd9	0.08904619
9	0x3e986c92	0.29770333
10	0x3e3a8bcc	0.18217391
11	0x3e30c290	0.1726172
12	0x3e0f0af5	0.13969024
13	0xbdc2eae6	-0.095174596
14	0xbded186e	-0.11576925
15	0xbe1638d5	-0.14670117
16	0x3e043f48	0.12914765
17	0xbc559c4f	-0.013037755
18	0xbe030c55	-0.12797673
19	0x3e386ac0	0.18009472
20	0xbcd37f8f	-0.02581766
21	0x3d9e27f7	0.077224664
22	0xbd52c541	-0.051457647
23	0xbc73c458	-0.014878355
24	0xbde38fe1	-0.11111427
25	0xbdb06a0f	-0.08613979
26	0x3e0e5a1e	0.13901564
27	0x3d945f30	0.07244718
28	0x3e7271e9	0.23676266
29	0x3e02e7e6	0.12783775
30	0xbe7f308b	-0.24920861
31	0x3dfe2d90	0.12411034
32	0xbe1b65e0	-0.15175581
33	0x3eb83132	0.35975033
34	0x3e9a21e0	0.3010397
35	0x3e9994b9	0.2999628
36	0x3d833c75	0.06408016
37	0xbd3dab7f	-0.04630613
38	0x3c9cb36f	0.01912853
39	0x3d789797	0.060691442
40	0x3d5ba54c	0.053624436
41	0x3dfec346	0.12439589
42	0xbcfea5fa	-0.031085003
43	0xbe162dfd	-0.1466598
44	0x3e5af3be	0.21382043
45	0x3eb3f68c	0.35149038
46	0x3e0dbde0	0.13841963
47	0x3c1fceb3	0.009753871
48	0x3e474aaa	0.19462076
49	0xbb42c318	-0.0029718336
50	0xbd32b238	-0.043626994
51	0xbd556175	-0.052094895
52	0xbd8fab8e	-0.07015143
53	0xbe456b77	-0.19279276
54	0xbb5d42a3	-0.0033761642
55	0xbd257abf	-0.040400263
56	0x3cea7ff8	0.028625473
57	0xbde634c5	-0.11240534
58	0xbe148e55	-0.1450742
59	0x3da92dc8	0.08260685
60	0xbd7dd313	-0.061968874
61	0x3dba48c6	0.09095912
62	0xbd8de3f0	-0.06928241
63	0x3c1d77c4	0.009611074
64	0x3e79def5	0.24401458
65	0x3dbd2cb9	0.09237046
66	0xbe53c6aa	-0.20681253
67	0xbec92a31	-0.39290002
68	0xbe3a94de	-0.18220851
69	0x3dc97865	0.098374166
70	0x3ebfd0fc	0.3746413
71	0x3dadb15e	0.08481096
72	0x3dfddd15	0.12395684
73	0x3dc7f27f	0.09763049
74	0xbe982b68	-0.29720616
75	0xbd3c1e0b	-0.04592709
76	0xbe9f0d51	-0.31064847
77	0x3cfd5d26	0.030928206
78	0xbe6ef5c3	-0.23335938
79	0x3cec679c	0.028857999
80	0xbe00e433	-0.12587051
81	0xbe48f946	-0.1962634
82	0x3f0827ff	0.5318603
83	0xbe939b9d	-0.2882966
84	0xbe29846f	-0.16554426
85	0x3e21a69f	0.15786217
86	0xbe82613f	-0.25464818
87	0xbde316b4	-0.11088315
88	0x3e5fac03	0.21842961
89	0x3f20d56e	0.6282567
90	0x3ded58c2	0.11589195
91	0x3e03f8d2	0.12887886
92	0xbd831360	-0.0640018
93	0xbdff7532	-0.12473525
94	0x3cf5e853	0.030018007
95	0xbc808d04	-0.015692241
96	0x3d712439	0.058872435
97	0xbe0aea05	-0.13565834
98	0xbde34ef6	-0.11099045
99	0xbd4c9c91	-0.049954
100	0x3d5a4826	0.053291462
101	0xbdac3823	-0.08409145
102	0x3e8d4de2	0.27598482
103	0x3c4d18ef	0.012518152
104	0xbc7c5de4	-0.015403245
105	0xbe0eb0e3	-0.13934664
106	0xbdf9e718	-0.12202281
107	0xbd149dcb	-0.036283296
108	0xbecbc519	-0.3979881
109	0x3d3a6295	0.04550417
110	0xbd9030f5	-0.07040588
111	0x3d7b8a85	0.0614114
112	0x3d364ab2	0.04450483
113	0x3e0b949f	0.13630913
114	0x3e5198ba	0.20468417
115	0x3dbae807	0.09126287
116	0x3f06410c	0.52443004
117	0x3e6f6115	0.23376878
118	0xbe944af2	-0.2896343
119	0xbe307b8a	-0.17234626
120	0x3e0de15b	0.13855498
121	0xbe45a2e8	-0.19300425
122	0x3e753e25	0.23949488
123	0xbd263e55	-0.04058679
124	0x3d4314ae	0.047627144
125	0x3dcb9044	0.09939626
126	0x3d67b6d5	0.056570847
127	0x3d18bc72	0.03728909
128	0x3dd51d6a	0.10406001
129	0xbe0075cb	-0.12544934
130	0xbd1d1f95	-0.038360197
131	0x3e1855f3	0.14876537
132	0x3da2176c	0.079146236
133	0x3dfa0c6f	0.12209403
134	0xbc3c2914	-0.011484403
135	0x3d79eb78	0.061015576
136	0x3cbe228f	0.023209838
137	0x3e0bdd66	0.13658676
138	0xbd92c12f	-0.07165753
139	0x3dc949f4	0.098285586
140	0xbc970364	-0.018434234
141	0x3dac7845	0.08421377
142	0x3aaf46e8	0.0013372572
143	0x3c352f49	0.011058637
144	0xbd98c1e8	-0.0745886
145	0xbd89c7e7	-0.067275815
146	0x3d8533aa	0.06503995
147	0x3bb8dfdd	0.005641921
148	0x3d899f40	0.06719828
149	0x3cc8b212	0.024498973
150	0x3daed7f6	0.08537285
151	0xbbc72979	-0.006077942
152	0xbdb238fd	-0.08702276
153	0x3d69f5cf	0.057119187
154	0xbb023a62	-0.0019871225
155	0x3ba8bea0	0.0051496774
156	0x3dcabd8a	0.09899433
157	0xbe11886b	-0.14212196
158	0x3d8ec9f1	0.06972111
159	0xbdae0876	-0.084977075
160	0xbd2a1b74	-0.041530088
161	0xbd901f42	-0.07037212
162	0xbe1885bf	-0.1489477
163	0xbd5b16ca	-0.05348853
164	0x3d19b32e	0.037524395
165	0xbd8148ad	-0.0631269
166	0x3dfd3a94	0.123646885
167	0xbcd13a46	-0.025540482
168	0x3e0da872	0.13833788
169	0xbd891604	-0.06693652
170	0x3a3b548f	0.0007146084
171	0x3d9eda91	0.07756532
172	0x3c5efb1a	0.013609672
173	0x3e3bfb03	0.18357472
174	0xbb953220	-0.0045530945
175	0xbc107f15	-0.008819361
176	0x3cd9ffba	0.026611198
177	0xbd0629a0	-0.03275454
178	0x3d95d372	0.073157206
179	0xbd35cc97	-0.044384565
180	0x3dc9a3ea	0.09845717
181	0xbd3f1029	-0.04664627
182	0x3d539726	0.05165782
183	0x3c63303c	0.01386648
184	0xbcf4e0ed	-0.02989241
185	0x3d51c40a	0.051212348
186	0x3e0a26f9	0.1349143
187	0x3b7a4199	0.0038186072
188	0x3d2f8f9b	0.042861562
189	0xbe132bf2	-0.14372233
190	0x3d262b84	0.040568843
191	0x3de6bbb6	0.11266272
192	0xbc0c30bb	-0.00855654
193	0xbdd26602	-0.10273363
194	0x3ca10214	0.019654311
195	0xbdabb517	-0.083841495
196	0x3d306be1	0.04307163
197	0x3deb5201	0.114902504
198	0xbe2326df	-0.15932797
199	0xbd1f7844	-0.038933054
200	0xbcec4e45	-0.028845916
201	0xbc9530e2	-0.018211786
202	0xbd3e3bf5	-0.0464439
203	0x3bb7cf2d	0.005609414
204	0x3cfd5e44	0.030928738
205	0x3e00c054	0.12573367
206	0xbd8c4c61	-0.068505056
207	0xbd699f72	-0.057036825
208	0xbd78666f	-0.060644563
209	0x3d261651	0.040548626
210	0xbe4c4e60	-0.19951773
211	0xbdb9425b	-0.090458594
212	0x3d5b26c8	0.05350378
213	0x3de2d11b	0.1107504
214	0xbc8aa865	-0.016926
215	0x3d4625e3	0.048375975
216	0xbd59eace	-0.053202443
217	0x3cb2cf25	0.02182729
218	0x3d6a5150	0.057206452
219	0xbc33fe74	-0.010985959
220	0xbdaba705	-0.08381466
221	0xbd895ec7	-0.067075305
222	0x3e30e438	0.17274559
223	0x3db17775	0.08665363
224	0x3df628d1	0.12019504
225	0x3d911921	0.07084871
226	0xbd507fba	-0.05090306
227	0x3ce9369c	0.028468423
228	0xbd98649b	-0.07441064
229	0xbd3e37c8	-0.046439916
230	0x3d69a0c0	0.05703807
231	0xbe4efada	-0.2021288
232	0xbd2da4c1	-0.04239345
233	0x3d9ad12c	0.075594276
234	0xbdd37623	-0.10325267
235	0xbd8430f6	-0.06454651
236	0x3e185c22	0.14878896
237	0xbd3dd73f	-0.046347853
238	0xbd295b68	-0.041346937
239	0x3df9614f	0.12176763
240	0xbc7349c1	-0.014849127
241	0xbdef198b	-0.11674794
242	0xbd67a160	-0.056550384
243	0x3c6adea7	0.014335311
244	0x3da16994	0.078814656
245	0xbdb65528	-0.08902961
246	0xbda19541	-0.07889796
247	0x3dfc3ca4	0.12316254
248	0x3d2b41ee	0.041810922
249	0xbc8a307c	-0.016868822
250	0x3daf1bf2	0.08550252
251	0xbd6197c3	-0.055076372
252	0x3ccd81bd	0.025086278
253	0xbd448541	-0.047978643
254	0x3d9ea1e3	0.07745721
255	0xbc8b0d59	-0.016974138

mean_net.2.bias f4 [128]
0	0xbe4432c7	-0.19159995
1	0xbc8609f5	-0.01636217
2	0xbd3a88e6	-0.045540713
3	0xbb9b70a9	-0.0047436547
4	0x3e6fc300	0.2341423
5	0xbdadc3dc	-0.08484623
6	0x3d0dd538	0.03462717
7	0xbc0cc10e	-0.00859095
8	0x3daf99b3	0.08574238
9	0x3daf242d	0.08551822
10	0x3d755179	0.05989215
11	0xbb455353	-0.003010948
12	0x3e3b7808	0.18307507
13	0xbd4b07d8	-0.049568027
14	0x3d8323dc	0.06403324
15	0xbdc2f498	-0.09519309
16	0x3e2abf9f	0.1667466
17	0x3da7dfc1	0.081969745
18	0xbd9cd5e7	-0.07657986
19	0xbd16e441	-0.036838774
20	0xbe2bb412	-0.1676791
21	0x3db5f995	0.088854946
22	0xbd4e53ac	-0.050372764
23	0xbc64e54b	-0.013970683
24	0xbe58b941	-0.21164419
25	0x3de4e2fd	0.11176107
26	0xbe334be8	-0.17509425
27	0x3dc8bc28	0.09801513
28	0x3d974955	0.07387034
29	0xbd7e8254	-0.06213601
30	0xbd933d57	-0.07189434
31	0xbd8a12e2	-0.06741883
32	0xbc0998f6	-0.008398285
33	0xbda2abdb	-0.07942935
34	0xbcd3fe39	-0.025878059
35	0xbdc66444	-0.09687093
36	0x3cb10c00	0.021612167
37	0xbe11f1b9	-0.14252366
38	0x3d7e3c87	0.062069442
39	0xbd2ab88d	-0.041679908
40	0xbc0c1d65	-0.00855193
41	0xbaa6aca8	-0.001271625
42	0x3cb87796	0.02251796
43	0xbc2212ec	-0.009892207
44	0x3d6cea4a	0.057840623
45	0xbdf37204	-0.11886981
46	0x3de7f2bd	0.113255955
47	0x3c3f8e32	0.011691617
48	0xbde49c9e	-0.11162685
49	0xbe3cf369	-0.18452229
50	0xbcb89e50	-0.022536427
51	0xbdcfa390	-0.10138619
52	0x3e1af590	0.15132737
53	0xbcf83f55	-0.030303637
54	0xbd13e97f	-0.03611135
55	0x3cb33d52	0.021879826
56	0x3d8a43ce	0.06751214
57	0x3be50c85	0.006990018
58	0xbd9ca73d	-0.07649086
59	0xbd2fa855	-0.042885143
60	0xbcc1f497	-0.0236762
61	0x3d7d1782	0.061789997
62	0x3899bb0e	7.33045e-05
63	0x3d2ea345	0.042636175
64	0x3c2a2b40	0.010386288
65	0xbe0e1921	-0.13876773
66	0xbe38a89c	-0.1803307
67	0x3d07f2a0	0.03319037
68	0xbda13bf1	-0.07872761
69	0xbcd38e7d	-0.02582478
70	0x3cf14ed2	0.02945653
71	0xbe1f1460	-0.15535116
72	0xbc3a280c	-0.011362087
73	0xbe0edf39	-0.1395234
74	0x3d72e324	0.05929865
75	0x3c9ae215	0.018906632
76	0x3db41d93	0.08794703
77	0x3c376dab	0.0111955805
78	0x3d869788	0.06571871
79	0xbd4dce90	-0.05024582
80	0x3d41691d	0.047219384
81	0x3e23f110	0.16009927
82	0xbe1b1562	-0.15144876
83	0xbdf1cb2d	-0.11806331
84	0xbd094801	-0.033515934
85	0xbc22064f	-0.009889199
86	0xbd5d001e	-0.05395519
87	0x3d719b01	0.058985714
88	0x3e03c06f	0.12866376
89	0x3c8f5195	0.017494956
90	0xbddb5eb7	-0.10711425
91	0xbc333bd1	-0.010939554
92	0x3d305ef2	0.043059297
93	0xbd4e9be0	-0.050441623
94	0xbd512f61	-0.051070575
95	0xbe0bab58	-0.13639581
96	0x3da8694d	0.082232095
97	0x3e21ffab	0.15820186
98	0xbdb6036f	-0.08887374
99	0xbc80caf4	-0.015721776
100	0xbe0e80cf	-0.13916324
101	0xbda2e073	-0.079529665
102	0xbd5630d7	-0.05229267
103	0x3dbbb9cc	0.09166297
104	0xbd8898f5	-0.06669799
105	0xbd65a3e2	-0.056064494
106	0xbe1c8ef0	-0.15288901
107	0x3c2080b1	0.009796307
108	0xbd829349	-0.06375749
109	0xbd587fea	-0.052856363
110	0x3e1d2a76	0.15348229
111	0xbb93f5e8	-0.0045153983
112	0x3cf1f911	0.02953771
113	0x3d71d1bf	0.05903792
114	0x3e388643	0.18019967
115	0xbe27cca4	-0.16386658
116	0xbe2a65c4	-0.16640383
117	0xbd79d1a3	-0.06099094
118	0x3cf40604	0.029788025
119	0xbd9c109e	-0.07620357
120	0x3c9b1f1a	0.018935729
121	0xbdaedbc4	-0.08538011
122	0xbe20a917	-0.15689503
123	0xbc81c80c	-0.01584246
124	0x3dfa1350	0.12210715
125	0x3bef3ce2	0.007300959
126	0x3d056e99	0.032576177
127	0xbd3f2c15	-0.0466729

mean_net.4.weight f4 [4, 128]
0	0x3e32c476	0.17457756
1	0xb94c1390	-0.00019462244
2	0xbb27fa72	-0.0025631455
3	0x3b4cc7b9	0.0031246974
4	0x3acde56e	0.0015708634
5	0xbba7a320	-0.0051158816
6	0xbdad1b8d	-0.084525205
7	0xbe0c4abb	-0.13700382
8	0xbe81d513	-0.25357875
9	0xbe2b3766	-0.16720352
10	0xbd9a676e	-0.07539259
11	0xbd7d195b	-0.06179176
12	0xbc05a769	-0.0081575895
13	0x39594331	0.00020719763
14	0xbaade2e2	-0.0013266469
15	0x3d9507ac	0.07276854
16	0xbe3b8b0f	-0.18314765
17	0xbbe579f6	-0.0070030643
18	0x3c32a5c3	0.0109037785
19	0xbb42a8f4	-0.0029702755
20	0x3e08f8b9	0.1337613
21	0x3a64adde	0.0008723418
22	0x3a4e9081	0.0007879809
23	0x3bbb92a2	0.005724267
24	0x3e994de7	0.29942247
25	0x3e2c2b02	0.16813281
26	0x3ddf1672	0.10892953
27	0xbe3b7d08	-0.18309414
28	0x3a33292b	0.00068344426
29	0xbc5a2653	-0.013314801
30	0x3e534c2a	0.20634523
31	0x3e8bde74	0.27318156
32	0x3e546fd8	0.2074579
33	0x3caa2b54	0.020772614
34	0x3ad8d487	0.001654283
35	0x3e23bb1b	0.15989344
36	0x3cb011ba	0.021492828
37	0xbb1fa6d4	-0.0024360912
38	0x3becdbe8	0.0072283633
39	0x3d851a15	0.064991154
40	0x3d69ef97	0.057113256
41	0xbb86197c	-0.0040923934
42	0xbb858629	-0.004074831
43	0xbdf0e14f	-0.11761724
44	0xbd180cac	-0.03712146
45	0x3e032246	0.12806043
46	0x3e11e642	0.14247993
47	0xbddce345	-0.10785536
48	0x3e02e716	0.12783465
49	0xbe045271	-0.12922074
50	0x3c02f272	0.007992374
51	0xbd456a85	-0.048197288
52	0xbe6ba921	-0.23013736
53	0x3b4ac862	0.0030942191
54	0xbb29d061	-0.0025911557
55	0xbe5ecd82	-0.21758083
56	0xbc19180e	-0.009344114
57	0xbc8f5fc9	-0.017501729
58	0xbd1c8f72	-0.038222738
59	0x3b2412d1	0.002503563
60	0x3b1c2390	0.0023824908
61	0x3c37fcd0	0.011229709
62	0x3dbf706d	0.093476154
63	0xbd165d96	-0.036710344
64	0x3baa2ca7	0.0051933113
65	0x3d9db88f	0.077012174
66	0x3e673b02	0.22581103
67	0xbc63bab1	-0.013899491
68	0x3e5a5835	0.21322711
69	0xbb7beddb	-0.0038441333
70	0x3e12ce7b	0.14336579
71	0xbc4eb819	-0.0126171345
72	0xbc72c197	-0.014816663
73	0x3dfe5f89	0.12420566
74	0x3db9d14f	0.090731256
75	0x3a98dc5e	0.0011662354
76	0xbe01c736	-0.12673649
77	0x3bca8bd2	0.0061812187
78	0xbe3e6cb9	-0.18596162
79	0x3c914790	0.017734319
80	0xbe43b832	-0.19113234
81	0xbe006794	-0.12539512
82	0x3d6b2d63	0.05741633
83	0xbd24b018	-0.040207
84	0xbc5140be	-0.012771783
85	0xbbba70e0	-0.0056897253
86	0x3e1aa506	0.15102014
87	0xbc00de7f	-0.007865547
88	0xbe8f7aa7	-0.28023264
89	0x3e271c04	0.16319281
90	0x3c97e362	0.018541042
91	0x3c80fd78	0.015745863
92	0x3e221a2d	0.15830298
93	0xbc93ca09	-0.018040674
94	0x3e0f69b3	0.14005165
95	0x3dcdf08f	0.100556485
96	0xbe164d80	-0.14678001
97	0xbdfb669d	-0.12275431
98	0x3d5fcb9c	0.054637536
99	0x3d5564f9	0.05209825
100	0xbe71361b	-0.23555796
101	0x3c929c53	0.017896807
102	0x3e8e7eee	0.27831215
103	0xbc296233	-0.010338354
104	0x3dfcd11e	0.123445734
105	0xbe08e7aa	-0.13369623
106	0x3b3dba84	0.0028950283
107	0x3c6911ea	0.014225462
108	0x3d6dd963	0.058068644
109	0x3e0eda03	0.13950352
110	0xbd8bcf69	-0.0682667
111	0x3adb4cf9	0.0016731314
112	0xbced3763	-0.028957075
113	0xbd9e35ae	-0.07725082
114	0x3e1f01a9	0.15527977
115	0xbce0e9ad	-0.027455175
116	0xbdd3a46a	-0.10334094
117	0x3e46d695	0.19417794
118	0xbb26744f	-0.0025398915
119	0x3a46ccce	0.0007583619
120	0xbd1ae098	-0.037811846
121	0xbe90202b	-0.28149542
122	0xbd2d76ae	-0.04234951
123	0xbb50aff9	-0.003184317
124	0x3e8ae469	0.27127388
125	0xbdf74904	-0.120744735
126	0xbb7953f6	-0.003804443
127	0xbcdf0dad	-0.0272282
128	0x3e298285	0.16553695
129	0xbb1f11ed	-0.002427216
130	0xbb24244d	-0.002504605
131	0xbba94f6b	-0.005166938
132	0xbdfd23bc	-0.123603314
133	0x3b95aa4f	0.0045674215
134	0x3d39c652	0.04535515
135	0xbdbbbab6	-0.09166472
136	0xbd6c5dda	-0.05770669
137	0x3db17557	0.08664959
138	0xbd22329b	-0.039599042
139	0xbd1da488	-0.038486987
140	0xbdab9d3f	-0.08379602
141	0xbbc3bfb0	-0.0059737787
142	0x3b5482fd	0.0032426708
143	0xbc263ebb	-0.010146792
144	0x3bce8214	0.0063021276
145	0xbb83ad98	-0.0040184967
146	0x3d08ccf4	0.033398584
147	0x3d68a546	0.056798242
148	0xbc34e765	-0.011041497
149	0xbb55d3c0	-0.0032627434
150	0xbc0e8fed	-0.008701307
151	0xbb339502	-0.0027402048
152	0x3d709f1e	0.058745496
153	0x3e0b0b9d	0.13578649
154	0x3d9a7645	0.075420894
155	0xbbe682ce	-0.007034636
156	0x3ae7dbe3	0.0017689433
157	0x3a025c09	0.0004972821
158	0xbd8a933f	-0.06766366
159	0x3b2ad0bb	0.0026064354
160	0x3df0ad1f	0.1175177
161	0x3dbfbaa8	0.09361774
162	0x3b7abca1	0.0038259404
163	0x3c514dbe	0.012774883
164	0xbcf3d974	-0.029766776
165	0xbe5c98f7	-0.21542726
166	0xbb9f89a1	-0.0048687016
167	0xbd10f510	-0.03538996
168	0xbdedb342	-0.11606456
169	0x3b927d2e	0.004470489
170	0x3b853515	0.0040651658
171	0x3dce55c3	0.100749515
172	0x3e187b5f	0.14890812
173	0xbcd88292	-0.026429448
174	0xbdd12b4d	-0.10213337
175	0x3d23ba03	0.039972316
176	0x3e504802	0.20339969
177	0xbd82a12f	-0.063783996
178	0x3cb09f25	0.021560261
179	0xbd941b96	-0.07231824
180	0x3e2c4b33	0.16825561
181	0x3b2448a3	0.002506771
182	0x3acc6868	0.001559508
183	0x3e53ffcc	0.20703048
184	0xbd3441dc	-0.04400812
185	0x3d1753bc	0.03694509
186	0x3c233071	0.00996028
187	0x3b7f63ce	0.00389694
188	0xbe3af53c	-0.18257612
189	0x3bd7d8f2	0.006587141
190	0xbcec0730	-0.028812021
191	0xbde2c656	-0.11072986
192	0xbbc8432d	-0.0061115236
193	0xbc39f794	-0.011350531
194	0xbe3e0ac3	-0.18558793
195	0x3db0b353	0.086279534
196	0x3dd96b9d	0.10616229
197	0x38af1455	8.3484374e-05
198	0xbd5afeca	-0.053465642
199	0x3e3221c5	0.17395695
200	0x3c9bbaeb	0.019010028
201	0x3d1a1059	0.037613247
202	0x3d0a894d	0.033822346
203	0xba3dccf6	-0.00072403194
204	0xbe6a4285	-0.22876938
205	0x3ae5e7b7	0.001754037
206	0xbca35d8a	-0.019942064
207	0x3e1d34cc	0.15352172
208	0x3e7ec66c	0.2488038
209	0x3d2dd9ac	0.042443916
210	0x3e38dc7c	0.18052858
211	0xbe811b00	-0.25215912
212	0x3c3fba67	0.011702157
213	0xbb1c686e	-0.0023865956
214	0x3e19d4f7	0.15022646
215	0x3af0b369	0.0018364015
216	0x3dd21877	0.102585725
217	0xbd825612	-0.06364073
218	0xbdd0285e	-0.101639494
219	0xbc384d40	-0.011248887
220	0x3d961a60	0.073292494
221	0x3b83a769	0.0040177596
222	0xbea9d051	-0.33166745
223	0xbe5eb31a	-0.2174801
224	0xbe6d8202	-0.23194125
225	0xbe84ff5e	-0.2597608
226	0x3cf6bc5f	0.03011912
227	0xbe098566	-0.13429794
228	0xbd64600e	-0.055755667
229	0xbc17f93f	-0.0092757335
230	0xbec79c6a	-0.38986522
231	0xbd77bb68	-0.06048146
232	0x3de3e5c7	0.11127811
233	0x3e0bd8f9	0.13656987
234	0xbdfe4326	-0.12415151
235	0xbb7ea642	-0.0038856422
236	0x3d665849	0.05623654
237	0x3d96be62	0.073605314
238	0xbc8f9751	-0.017528208
239	0xbb95512a	-0.0045567947
240	0xbd6608aa	-0.056160606
241	0xbcbe810e	-0.023254897
242	0xbe6ab73b	-0.2292146
243	0x3e6dc339	0.23219003
244	0x3e21ffce	0.15820238
245	0x3c48e160	0.012260765
246	0xbb9d2371	-0.0047954847
247	0xbb5cd34a	-0.0033695274
248	0x3dde57a6	0.10856561
249	0x3d804509	0.062631674
250	0x3e8b8635	0.2725083
251	0x3a5cd9fb	0.00084248156
252	0x3d38dee4	0.04513444
253	0x3cbcfafa	0.023068894
254	0xbdd26e6e	-0.10274969
255	0xbe32e02f	-0.17468332

mean_net.4.bias f4 [4]
0	0xbe04870b	-0.1294214
1	0xbdadf0d8	-0.08493203
2	0xbc831c2c	-0.016004644
3	0xbd0fb50d	-0.035084773
