src/rl/model/critic_model06-08-2024_15-15-01/70.pt (torch, 80879 bytes, 5 tensors)

critic_network.0.weight f4 [128, 23]
000000 94 8e 17 3e 0e c1 63 be 82 bb 5d 3e e0 a2 c6 bd
       0.14800483 -0.22241613 0.2165356 -0.09699035
000010 fb 8d 1a 3e 64 a4 61 be a4 bd 05 3b f6 e6 34 3e
       0.15093224 -0.22035366 0.0020407224 0.1766623
000020 1a 04 81 bc 28 e2 7e be e4 66 f5 bc 98 11 0c bd
       -0.015749026 -0.2489096 -0.029956289 -0.034196466
000030 45 da e8 3e c0 ed c5 3d 1c 0c 40 3e 6f 21 47 3d
       0.45479026 0.09664488 0.1875462 0.04861587
000040 de 27 35 3d e2 c7 38 bc 54 88 ca bd 22 ef c0 3d
       0.044227473 -0.0112781245 -0.09889284 0.09420611
000050 3c 3e 21 3e 74 92 15 bc 1d cf 05 be 0c 7e b2 be
       0.15746397 -0.009129155 -0.13067289 -0.3486179
000060 09 37 af 3f 94 93 7e be 13 72 88 bf c3 0c 92 3f
       1.368867 -0.24860984 -1.0659813 1.1410145
000070 ad 5a a5 3e fb 7d 01 3f 21 b4 c7 3c 9c 3d 45 3f
       0.32295743 0.50582856 0.024377884 0.77047133
000080 7d b4 2f 3c 7a f5 20 be de e3 37 3e 93 91 b4 3e
       0.010724184 -0.15718642 0.17958018 0.35267314
000090 c4 43 3f 3c 5d 78 b1 bb 3e f7 14 3e 96 7a 9e 3d
       0.011673871 -0.0054159597 0.1454744 0.07738225
0000a0 60 4f 6c be 7d 5f 05 3e 03 7e 1c be ee a5 0c be
       -0.23077154 0.13024707 -0.15282445 -0.13735172
0000b0 7a 70 ea 3e 6d 58 c6 bd a2 dd c5 3e f8 de 49 be
       0.45788938 -0.09684835 0.38645655 -0.19713962
0000c0 32 3e ef 3e d2 b3 ac 3e 73 88 c3 3e 03 c3 54 3e
       0.4672714 0.33730942 0.3819004 0.20777516
0000d0 e4 c0 19 be 8f d9 17 3f 3a 91 fe 3e a2 6c b0 be
       -0.15014988 0.59316343 0.49720174 -0.3445788
0000e0 d5 bc 0b be 5b ab ba 3d 63 66 34 bf e4 c5 6c 3d
       -0.13646252 0.09114715 -0.7046873 0.05780591
0000f0 66 1c b1 bc 8b 48 1d 3e 4e b8 0c 3e 5e 2a 9f 3c
       -0.021619987 0.15359704 0.13742182 0.019429382
000100 b4 e6 dd be a8 0e 9c 3e 29 02 03 bf 2f b8 6a bf
       -0.43340075 0.30479932 -0.5117517 -0.9168729
000110 16 13 38 be 05 3e c4 3c 59 ba 02 bf ab e5 9f be
       -0.1797603 0.023955354 -0.51065594 -0.3122991
000120 c4 8f 17 be 7d 5b 92 3e c2 3f 67 3d 71 1a 3f be
       -0.14800936 0.28585425 0.05645729 -0.1866243
000130 a3 f0 76 bf 5e d7 3d 3e 42 5d ed 3e d7 05 1f be
       -0.9646093 0.18539187 0.46360213 -0.15529571
000140 74 20 17 be 8a 51 1a bf 80 a1 c8 bc 82 49 10 3d
       -0.14758474 -0.6028067 -0.024491072 0.035226353
000150 72 41 e9 bc 1b b3 38 3c 34 3f 88 bd 3a fe 19 3d
       -0.02847359 0.011273171 -0.0665268 0.037595965
000160 b1 e0 c0 bd 5e f6 f1 3e 40 fa a5 bb 3c ad fa 3e
       -0.094178565 0.47258276 -0.0050652325 0.48960292
000170 1b bd 5a 3f 0e aa ee 3f 3d 98 aa bd ce 09 f9 be
       0.854448 1.8645647 -0.083298184 -0.48640293
000180 36 3f d1 3f a5 ea bc 3e b8 fa ab be 0d 9b 93 bf
       1.6347415 0.3689777 -0.3358972 -1.1531693
000190 04 65 14 3e ed 14 17 bd b4 62 ea bd c3 5a ef 3c
       0.1449166 -0.03688519 -0.114446074 0.029218083
0001a0 7f 86 f4 3e 32 85 af bc 76 70 1a bd 81 37 16 3d
       0.47758862 -0.021425817 -0.037704907 0.036674026
0001b0 80 bb f6 bd e3 02 35 be 1e 40 ce 3e 53 e8 31 3e
       -0.120474815 -0.17676882 0.40283293 0.17373781
0001c0 d6 96 cb 3e 30 01 2b 3c 32 00 cf 3d 47 7a ba 3e
       0.39763516 0.010437295 0.10107459 0.36421415
0001d0 83 c0 59 3f d5 9f 75 bf 9c aa a5 bf 1e d5 aa 3f
       0.85059375 -0.9594701 -1.2942691 1.3346288
0001e0 34 17 38 3d 28 86 44 3f 94 90 2b 3d 0e 55 c0 3e
       0.044944003 0.76767206 0.041885927 0.37564892
0001f0 e5 8b c7 3b 46 04 98 3d 9c 6e 4d bd 71 74 3d 3f
       0.006089675 0.0742269 -0.050154313 0.740058
000200 c1 38 0b be 33 81 14 be 7d 34 89 bd b7 1a df bd
       -0.13595869 -0.1450241 -0.066994645 -0.10893767
000210 98 02 b7 be 0e a4 de be df 0f 6f be ea cf ac 3d
       -0.35744166 -0.4348454 -0.23345898 0.08438094
000220 f2 00 ab b9 3b 35 8f 3e 9a 03 9b bd 5b 94 2e 3e
       -0.00032616366 0.279703 -0.07569046 0.1704878
000230 60 dd 83 be 33 0c 12 bd 67 04 07 3c 54 26 ca 3e
       -0.25754833 -0.035656165 0.008240796 0.39482367
000240 6e 8b 07 bc 02 e7 19 3e a0 a2 7d be 87 d7 4a 3e
       -0.008272989 0.15029529 -0.24769068 0.1980878
000250 0f 06 a2 be 4f 93 83 be f7 ae 56 3e ce 6e 97 be
       -0.31645247 -0.25698325 0.20965181 -0.29576725
000260 ab fa ba bd fe 73 9e be 9a c8 91 be 6d f9 c1 3e
       -0.09129842 -0.3094787 -0.2847336 0.3788561
000270 26 6e a9 be 5f b9 1f be 9f 8c 52 3f 29 e7 cd bd
       -0.3309185 -0.15598057 0.8224582 -0.10053856
000280 aa a6 09 3f f4 57 d0 bf 52 e0 bf bc b7 3d 0f be
       0.53769934 -1.6276841 -0.023422394 -0.13988386
000290 da 6e 84 3f c4 7c cd 3f f4 e6 5c be 77 e0 82 be
       1.0346329 1.60537 -0.21572477 -0.25561878
0002a0 1f 7b 6c bd 8b ea 79 3f 94 c5 61 3e 93 37 93 3e
       -0.057734605 0.9762351 0.22048026 0.28753337
0002b0 62 4c 93 3e 6e 60 b6 bd 09 e2 19 3e fe 9b 82 3e
       0.28769213 -0.08905111 0.15027632 0.25509638
0002c0 ba f5 23 3e 83 e9 f2 3d 55 7e b3 be 3d 64 6b 3f
       0.16011706 0.11860945 -0.3505732 0.91949826
0002d0 30 54 1f 3e ed c5 d8 bb c1 64 dc 3e 2d 3a 45 bf
       0.15559459 -0.0066153915 0.4304562 -0.77041894
0002e0 6f 25 12 3f 71 5b 35 bf c5 ad 23 3e c0 34 82 3e
       0.5708837 -0.70842654 0.15984257 0.2543087
0002f0 10 25 87 bf dd ac 1d 3e 10 14 9c 3f 68 e6 15 3f
       -1.0558186 0.15397973 1.2193623 0.585547
000300 41 4a ea 3e 86 72 47 3f 44 12 5e bd 35 87 f8 be
       0.45759776 0.77909124 -0.05421664 -0.48540655
000310 a9 6f 2c 3f bc ea e7 bd 36 48 24 3d 70 c1 de bd
       0.6735788 -0.11324069 0.04010793 -0.10876739
000320 7b 51 82 bd c3 fc 73 3b 09 11 5f bd 61 a7 e0 bd
       -0.063631974 0.0037229515 -0.054459605 -0.10969425
000330 a0 cf 5d 3e 9c f0 82 3e 44 3a eb 3d 52 4b 5b 3f
       0.21661234 0.25574195 0.11485723 0.85661805
000340 bd 9c 73 bf b3 42 c0 be 31 1d 5e 3f ef 6a e6 bf
       -0.9516104 -0.37550887 0.8676329 -1.8001384
000350 c3 6f 94 3d 18 ff ba bf 5e 24 59 bf d6 20 85 3f
       0.07247879 -1.4609098 -0.84821117 1.0400646
000360 ba 3c 0e 3f d5 ff 3a 3e 67 f7 89 be d6 2b 95 3e
       0.5556141 0.18261655 -0.26946566 0.29135007
000370 a7 de f2 3c f5 03 30 3c 53 51 86 bd bf 73 de bb
       0.029647185 0.010743131 -0.0655848 -0.0067887004
000380 27 8d d4 be 22 f7 3b 3e 4d 98 23 be 2c 74 a5 bc
       -0.4151394 0.18355992 -0.15976067 -0.020196997
000390 ac db 99 be bb 9c c6 3e 8a ac f3 bf a4 90 0a 3f
       -0.3005041 0.3879145 -1.903703 0.54126954
0003a0 79 f2 b0 3e 8f 7e d0 bf 40 6f a2 be 04 2e 2d bf
       0.34559992 -1.6288623 -0.31725502 -0.6764834
0003b0 f4 5c 26 3e 28 61 85 3d 8f 39 8f 3d 53 8c fd bd
       0.16246396 0.06512672 0.069934 -0.1238028
0003c0 47 e7 08 3e 9b fd c5 3d 78 71 28 bf 70 13 21 3c
       0.13369475 0.09667512 -0.6579814 0.009831294
0003d0 4b a3 47 3c 4c c5 d5 3d 99 af 36 3d 6e 33 4c 3e
       0.012184928 0.10438022 0.044601057 0.19941494
0003e0 19 4f 28 bf d3 d3 10 3d c4 17 23 be 38 63 99 bd
       -0.65745693 0.03535826 -0.15927035 -0.074896276
0003f0 2b 32 67 be a7 5a 3c 3f b1 29 84 3f 7a cd e7 bd
       -0.22577731 0.73575824 1.0325223 -0.113184884

critic_network.0.bias f4 [128]
000000 bc d5 27 be 7c eb 9c be 9c 6b f8 3e 03 e2 a3 be
       -0.16390127 -0.3064841 0.485196 -0.3200837
000010 f0 44 cc be 02 70 01 bf 38 48 9c be 3b ec 28 3f
       -0.39896345 -0.50561535 -0.3052385 0.6598546
000020 52 cb a9 be b4 ec c7 be 64 82 c7 3e c1 93 ce be
       -0.33162934 -0.39047778 0.38966668 -0.40347102
000030 98 7d 5d 3e 91 6f 05 3f 99 86 ba bd 74 60 11 bf
       0.21629941 0.5212336 -0.09107704 -0.567878
000040 21 ac a5 bd a9 bb 83 3d a2 be d8 3d 6b 23 fa be
       -0.080894716 0.06432278 0.10583235 -0.48855147
000050 5b 4a e8 3e d1 60 a4 3e 4b a2 29 3f e7 bd db 3c
       0.4536923 0.32105115 0.66263264 0.026823951
000060 bd 2c 23 bf 6b 55 f8 be 6d e3 09 be 40 59 b9 3e
       -0.6374014 -0.4850267 -0.13465662 0.36200905
000070 95 24 8a bc 09 7f 74 3d 31 16 a9 be eb 74 0e 3e
       -0.016863147 0.059691463 -0.33024743 0.13911788
000080 e1 f0 ae be e3 90 87 3e d3 8d 27 bf 63 df f0 3d
       -0.3416815 0.26477727 -0.6545078 0.11761358
000090 f9 f0 8d 3e 83 73 05 bf 12 c0 77 3e 5e d5 ff be
       0.2772291 -0.5212938 0.24194363 -0.49967474
0000a0 98 f4 fd be e9 0b 83 3d e0 c5 0f 3f 0b ea c0 bd
       -0.49600673 0.06398756 0.5616131 -0.0941964
0000b0 fc 48 a9 3e 69 e2 98 3e 31 2b 6c 3e dd 2b 02 bf
       0.33063495 0.29860237 0.23063351 -0.5084818
0000c0 c0 5a 0f be 0e fa 26 3e 74 64 16 bf 47 bb 33 3f
       -0.13999462 0.16306326 -0.5874703 0.7020764
0000d0 06 f3 f1 3e 4c 44 12 3c 3b 14 cb 3e 69 5f 39 be
       0.47255725 0.008927416 0.39663872 -0.18102802
0000e0 01 73 96 3e f8 3b c0 3b ff 2d 18 3f 14 2d 15 bf
       0.29384616 0.005866524 0.59445184 -0.5827191
0000f0 70 2a 03 3e c8 77 2e 3e af d1 a7 3d a7 ab 11 3f
       0.12809157 0.1703788 0.08194291 0.56902546
000100 34 fe 67 be 0d 8d c2 be a9 dc 4a 3f 42 ea a4 bd
       -0.22655565 -0.37998238 0.7924295 -0.08052494
000110 0b c0 5f be 7d 2b 31 3f fa 32 04 bd 75 76 12 3d
       -0.21850602 0.6920698 -0.032275178 0.0357575
000120 e4 f7 b1 be 4f e9 f7 3e 18 ce 0f 3f ea 01 01 be
       -0.34759438 0.48420188 0.5617385 -0.12598386
000130 de 7f 00 3f 0d 97 aa 3e 69 aa fa 3c 11 15 0f be
       0.5019511 0.33318368 0.030598836 -0.1397288
000140 bc 05 1c bf fb 33 80 be 66 5a 1b 3e f0 20 7f be
       -0.6094625 -0.25039658 0.15171203 -0.24914908
000150 c2 6e 47 3d c3 96 1a be 02 28 2e bd 88 2a ba 3e
       0.04868961 -0.15096574 -0.042518623 0.36360574
000160 5c 39 01 3f 86 15 86 be bb 62 1e bf fc fa 0a be
       0.5047815 -0.26188296 -0.618694 -0.13572305
000170 d5 6b 18 bd 6c b3 05 3f 58 ba ca bd b9 7d 03 be
       -0.03721221 0.522269 -0.098988235 -0.12840928
000180 fd 6f 72 be 8e ff 1b bd 13 33 70 3e a7 e2 bf be
       -0.23675533 -0.038085513 0.23456983 -0.3747761
000190 bf ca 08 bd 3f 24 96 be b2 bb 3c 3e 95 9f b6 bc
       -0.03339648 -0.2932453 0.18430975 -0.022292892
0001a0 fa 0c 34 bf 49 3b ca 3e c1 5f b5 be 6a 00 9c be
       -0.703323 0.39498356 -0.35424617 -0.30469066
0001b0 3f 79 1a be 8b 8b 9d 3b b2 66 b9 be dd 3e 86 bd
       -0.15085314 0.0048078946 -0.36211163 -0.06554959
0001c0 cc d2 48 3e 19 b0 ab 3e df 92 58 be 8c 32 e3 bc
       0.19611663 0.3353279 -0.21149777 -0.027734064
0001d0 0f 44 0b be e1 f7 68 3e 84 85 d0 bd 23 6b ac 3d
       -0.13600181 0.22750808 -0.10181716 0.08418872
0001e0 fe 27 9e 3e 42 f5 11 be 97 18 43 be af 57 05 be
       0.30889887 -0.14253715 -0.19052349 -0.1302173
0001f0 bb c3 92 3d 49 7a f3 be b1 43 3a be e8 b3 f7 be
       0.07166239 -0.47554234 -0.18189885 -0.48379445

critic_network.2.weight f4 [128, 128]
000000 bf 70 df 3d 88 70 78 be 58 73 b9 3d 8c 8d 1c be
       0.109101765 -0.24261677 0.09055203 -0.15288371
000010 04 0c 17 be 9f 1a b0 be 6c 72 ca bc cd a0 df 3d
       -0.14750677 -0.3439531 -0.024712764 0.10919342
000020 cf c1 a0 be d9 0e 5f bd 93 40 5a 3e b6 50 a1 3d
       -0.31397864 -0.05445752 0.21313696 0.078767225
000030 ca 6e 99 3c c1 6d e7 3e 43 b9 e2 3d 26 75 13 bd
       0.018729586 0.45200923 0.11070492 -0.036000393
000040 b2 81 5f 3f cb 96 a5 3a d3 dd 3d 3e ad ba 4a 3e
       0.87307274 0.0012633441 0.1854165 0.19797774
000050 9a a4 9c 3e f1 9c 72 3e 2b c7 ef 3e 7f bc ba 3c
       0.3059433 0.23692681 0.4683164 0.02279496
000060 8f b3 89 bc 70 48 d1 be f2 55 77 be 3b b6 0a 3e
       -0.016809253 -0.40875578 -0.2415388 0.13546078
000070 a2 98 56 3e fc 94 c5 be 61 8d 15 3e 41 35 d5 3e
       0.20956662 -0.3859023 0.14604713 0.41642192
000080 2e 0a 75 be a8 3b 98 bc 13 9a bd be 92 e0 4e 3d
       -0.23929664 -0.018583134 -0.37031612 0.050507136
000090 82 5b 13 3f ca 3e 06 3d 5d e4 39 3e 29 7f c2 be
       0.57561505 0.032774724 0.1815352 -0.3798764
0000a0 7e df dd be cb 5a d5 3d 7f ae 8c 3e f0 64 4c be
       -0.43334574 0.10417708 0.2747688 -0.1996038
0000b0 a6 18 c7 3e 6a 66 f2 bd 01 ad d8 3e 8e 44 b5 be
       0.38885993 -0.1183594 0.42319492 -0.35403866
0000c0 06 50 be 3d 90 76 12 3e 82 4d 97 be b2 db 95 3e
       0.09292607 0.1430304 -0.2955132 0.29269177
0000d0 30 92 03 3f 5e 2a c7 be 5f 78 43 3e c2 3b 19 3e
       0.5139494 -0.3889951 0.19088887 0.14964202
0000e0 13 51 0c 3d e1 60 cb bd 36 9d 18 be de d4 62 be
       0.034257006 -0.099305876 -0.14903721 -0.22151515
0000f0 0e f6 81 be 4a 2d 65 be 4a b8 9e bd c5 81 30 3e
       -0.25383037 -0.22380558 -0.07749994 0.17237003
000100 0b 61 c8 bd cf 8b 8c be dd ee 25 3e d3 10 d7 3d
       -0.097841345 -0.27450415 0.162044 0.10501256
000110 73 1e 4e bf 1c c9 83 3e 5f ad 3a bf 1f 3d 5c 3d
       -0.8051521 0.25739372 -0.72920793 0.053769227
000120 35 4a 87 be e0 7c 61 3e ee 91 13 3e ab 1e 94 be
       -0.26423803 0.22020292 0.14411137 -0.28929648
000130 4a 95 b8 3c d4 26 c9 3e fc 50 eb 3c 78 de 08 bd
       0.022532124 0.39287436 0.02872514 -0.033415288
000140 41 30 7c bd f4 91 e5 3e fd 4c c8 3e 78 12 bd be
       -0.061569456 0.44837916 0.39121237 -0.36928153
000150 67 a4 99 3e b1 59 0a 3f 11 92 cf be 64 12 3a 3e
       0.30008242 0.5404311 -0.40541127 0.18171078
000160 04 f6 0a 3f 22 bc 8b be 94 5e 81 be 6c 5a 83 bc
       0.5428164 -0.2729197 -0.2526747 -0.016034327
000170 24 3a 75 3e 37 de 9f 3e d0 5d 67 bb d0 5f bc be
       0.2394796 0.31224224 -0.003530372 -0.3679185
000180 f6 e4 81 3e 60 90 3b 3e 41 38 63 3d 1f 64 c5 be
       0.25369996 0.18316793 0.05547357 -0.3855295
000190 56 a0 6d be f8 4d 83 be b9 28 0c 3e ff ca 0f be
       -0.23205695 -0.25645423 0.1368741 -0.1404228
0001a0 9b e3 09 bf 9f 91 96 3e 62 a3 b2 bd ed 94 0a be
       -0.53862923 0.29407975 -0.08722569 -0.13533373
0001b0 52 d5 c3 bd 3a 1b 09 3f c9 4a bd be 51 0a 61 3e
       -0.09562172 0.5355717 -0.3697112 0.21976592
0001c0 7a b2 04 bf aa 4d 8a 3c 38 eb 05 be f0 73 d6 3d
       -0.51834834 0.016882736 -0.1307801 0.10471332
0001d0 87 75 91 be 57 91 70 bc 38 d2 1c be 36 e1 b2 3c
       -0.2840998 -0.014683089 -0.15314567 0.021835905
0001e0 94 76 ee 3d ae 76 a6 3d 5f a8 41 3d d8 1f 6c be
       0.11643711 0.08128105 0.04727971 -0.23059022
0001f0 7c 8c 76 bd 08 7c d9 3d 3f 5c 51 bd 31 85 09 bd
       -0.06019257 0.1061936 -0.051113363 -0.033574287
000200 02 15 9d 3e 00 23 5b 3e 61 03 d7 bd 23 ec 42 3d
       0.3068009 0.2140007 -0.10498691 0.04758848
000210 c1 32 f4 3d 7e b4 cb 3e 37 3e 6a 3d 5c bc 4b be
       0.11923743 0.39786142 0.05718824 -0.19896072
000220 f1 3f db 3e cf 1e ea 3d d4 aa b4 3d c5 54 a2 3e
       0.4282222 0.114316575 0.088216454 0.317053
000230 53 6d b7 bd db 59 ea bc 09 91 c8 3e 51 fa 67 3d
       -0.08956399 -0.0286073 0.39173153 0.056635205
000240 8b 2f 4e 3d 51 fa ab be 1a a1 26 3d a6 66 c0 bc
       0.05033831 -0.33589414 0.040680982 -0.023486447
000250 42 df 96 3e 8e 1f 3e bf 2b bb ff be e2 d6 2e be
       0.29467207 -0.742669 -0.49947485 -0.17074159
000260 4f d4 d1 3e 37 5f a3 bc 4a 33 77 be 8a 04 19 bd
       0.4098229 -0.019942863 -0.24140659 -0.037357844
000270 9e a9 ed 3e c8 5c 83 3e 87 c4 9d bd 5f 28 80 be
       0.4641847 0.25656724 -0.077035 -0.250308
000280 52 36 24 bd 6c d5 a8 3d cc b8 82 3e c7 b4 18 3f
       -0.040090866 0.08243832 0.25531614 0.59650844
000290 26 cc 84 be eb 3a 81 3e 19 bd ae bd 8a 93 2e 3e
       -0.25937003 0.25240263 -0.08532161 0.17048469
0002a0 ed 51 69 3d 95 8f 95 3e c9 70 aa bd a4 79 93 3e
       0.056962896 0.29211107 -0.08322293 0.28803742
0002b0 b6 5a cf bd 54 5d 71 3d 41 90 26 3e d2 34 ab 3d
       -0.101247236 0.058926895 0.16265966 0.08359684
0002c0 13 aa bc bd 80 de ca bc 7b 08 24 3e 69 34 ca bd
       -0.092121266 -0.0247643 0.1601886 -0.09873278
0002d0 c9 c4 52 bc 9d 35 bc bd d2 84 a7 bd 1d 21 bc bc
       -0.0128643 -0.091899134 -0.0817963 -0.022965008
0002e0 40 3c d2 bd 32 54 de be 7e 5d 6b 3e b0 a3 26 3e
       -0.10265398 -0.4342361 0.22984883 0.1627338
0002f0 a9 f4 a9 3e c3 01 b5 be 75 4d b3 be 2f 98 9a bc
       0.33194473 -0.35352907 -0.35020033 -0.018871395
000300 c2 00 8f bc 5f 14 8e bd be 0c 60 be e4 17 ac bc
       -0.017456416 -0.06937479 -0.21879861 -0.021007486
000310 08 8e 6f 3e 7d 77 4a be 5b c4 11 3e 22 79 2f 3e
       0.23394024 -0.19772144 0.1423506 0.17136052
000320 55 78 bf 3c 56 95 7c be 94 71 ed bd b8 56 6c be
       0.023372808 -0.24666342 -0.11593929 -0.23079956
000330 73 54 75 3e ab e4 c4 bd cc 22 75 bc 1f 9f 4a 3e
       0.23957996 -0.096139275 -0.0149619095 0.19787262
000340 16 81 3d 3e 9e 05 53 3e bf 90 79 3d 77 19 25 be
       0.18506274 0.20607612 0.060929056 -0.16122995
000350 71 6b fc 3d 8d 45 39 be 67 03 54 bd ce 74 b1 3e
       0.1232518 -0.18092938 -0.051761057 0.34659427
000360 96 5e 67 be 05 a7 d6 3d 81 5d 34 3e 04 63 a4 be
       -0.22594675 0.10481075 0.17613794 -0.32106793
000370 7c 43 a4 be 91 df ca bd 79 0f 0b be 74 48 83 be
       -0.32082736 -0.09905923 -0.13580121 -0.25641215
000380 42 fc 91 3b ec 0f f0 be 29 41 b9 bd 5b 04 0f bd
       0.0044551203 -0.46887147 -0.090456314 -0.034916263
000390 ec dd 30 bc af 9d 69 3f e1 a3 23 3d af 6f 41 bd
       -0.010795098 0.9125623 0.03995121 -0.04722565
0003a0 ae dd 24 3e 1e b3 2f 3d e3 fd 6d 3d fb 6e cd bd
       0.16100189 0.04289543 0.058103453 -0.100309335
0003b0 12 1f 0f 3e 1d 11 ae be b6 10 08 3e 37 a6 ca bd
       0.13976696 -0.3399743 0.13287625 -0.09894984
0003c0 b8 23 00 bf e3 59 11 bf b8 ad b9 3e d0 bb 2d bd
       -0.500545 -0.5677778 0.3626535 -0.04241544
0003d0 24 b6 8e 3d e5 e0 fe bc ce f7 1a bc 62 07 08 3e
       0.06968334 -0.031113097 -0.009458495 0.13284066
0003e0 9b b0 f1 bd 89 70 15 be d5 e3 fe bc ca aa 4f 3e
       -0.11801263 -0.1459371 -0.031114498 0.20279995
0003f0 5b d9 9f bd f4 17 c9 3d 27 1c 9d bd b2 9d 94 3e
       -0.07805129 0.09819022 -0.07671385 0.29026562

critic_network.2.bias f4 [128]
000000 c4 72 5d 3e 5d a0 54 be 0d d9 a4 3e 4a da fd 3d
       0.21625811 -0.20764299 0.32196847 0.12395151
000010 ad 9d d6 bd 52 d3 04 3e d7 f5 08 be d8 e7 49 3e
       -0.10479293 0.12971237 -0.1337503 0.19717348
000020 3c ad d7 3e e4 bf bf 3e bf cb ec bd 0f 66 45 3e
       0.42124355 0.37451088 -0.11562299 0.19277214
000030 09 be 29 be 5f 1a 66 3e 70 fd 0d be 7d b1 20 3e
       -0.16576399 0.22470997 -0.1386621 0.15692706
000040 9b ff 24 be 60 b1 bb bd 6a 0f b4 3d fa 80 0b be
       -0.16113131 -0.09164691 0.087920025 -0.1362342
000050 fa c8 fa 3d 30 ab 79 be 8b 48 26 be 5a 57 0d bf
       0.122453645 -0.24381709 -0.1623861 -0.5521141
000060 01 90 87 3e 9b fd 4f bd 13 c2 67 be 91 71 8c 3d
       0.26477054 -0.050778966 -0.22632627 0.068575986
000070 69 06 32 3c bd d4 2d 3e 65 8e 08 3e e9 ba 19 3e
       0.010865786 0.16975684 0.13335569 0.15012707
000080 e5 db 74 3e 02 8b 03 bf ca 17 56 3c 92 7e 3b be
       0.23912008 -0.51383984 0.013067195 -0.18310001
000090 64 90 d8 3d 22 1f 23 3e ea 7f 09 3f f8 5d b7 bd
       0.10574415 0.15929845 0.53710806 -0.0895347
0000a0 0a 68 e0 3e 84 56 8d 3e 42 ef 18 3e 8f 2d b5 3e
       0.43829376 0.2760507 0.1493502 0.3538632
0000b0 14 68 4c be 04 db df 3e 8b bc 52 3e 5c 28 1b be
       -0.19961578 0.43721783 0.20579736 -0.15152115
0000c0 32 b6 0a 3f 39 53 25 be 25 62 d8 3c 58 2c 82 bd
       0.5418426 -0.16145028 0.026413986 -0.06356114
0000d0 e8 9b 25 3e 49 32 1f 3e 77 8a d3 3e 00 28 ab 3e
       0.16172755 0.15546526 0.41316578 0.33428955
0000e0 35 45 4b be 34 fa 52 3e 24 e1 74 3e 4a c7 27 be
       -0.19850619 0.20603257 0.2391401 -0.16384616
0000f0 8c a9 1a be 7a dd 40 be 83 9e 02 3f 2d 71 47 3e
       -0.1510374 -0.18834487 0.5102312 0.19476767
000100 33 40 26 bd 64 e8 87 be 58 8d 45 3e 1a 75 4c be
       -0.04058857 -0.26544487 0.192922 -0.19966546
000110 c8 89 49 3e 15 1d 5b 3e 23 b4 29 3e 54 2d 1d bd
       0.19681466 0.21397813 0.16572623 -0.038373306
000120 bd 16 5d be b3 8a 8e be 49 61 70 3e 90 ca 58 3d
       -0.21590705 -0.27840194 0.23474611 0.052927554
000130 02 f1 97 be 95 0d af bd c2 e3 31 3e e2 8f 8f 3e
       -0.29676062 -0.085475124 0.17372039 0.2803946
000140 63 c9 90 3d a8 73 99 3d a4 77 23 be 8a f4 3d 3e
       0.070696615 0.07492763 -0.15963608 0.18550315
000150 f8 65 49 3e 56 45 bf bd 09 8b 4d bd 2c 88 19 be
       0.19667804 -0.09339397 -0.050181422 -0.14993352
000160 60 73 bf 3d 3c 8a b0 3d 37 5e b4 3e da d1 57 3e
       0.09348178 0.08620116 0.3522813 0.21076146
000170 15 e4 ce 3e 32 fa 41 3e 14 64 17 3e 7b 58 f5 be
       0.40408388 0.18943098 0.1478427 -0.47919068
000180 86 23 c9 be 8a e5 7e 3e fd 52 c7 3d 88 5a 35 be
       -0.39284915 0.2489225 0.09732626 -0.17710316
000190 af ea a8 be a6 fe 8b 3d 55 2c a6 3e 12 12 ba be
       -0.3299155 0.0683568 0.32455698 -0.36341912
0001a0 90 f0 8d bb 8a 64 13 bf c0 57 5f bd 33 84 f4 3d
       -0.004331656 -0.57575285 -0.054527044 0.119392775
0001b0 48 58 90 bd 18 90 21 be 5a 33 bb 3d be 60 58 3e
       -0.07048088 -0.15777624 0.09140654 0.21130654
0001c0 4d 55 ea bd 24 be 64 3e b1 b3 a9 be 7f f2 65 bd
       -0.11442051 0.22338158 -0.33144906 -0.056139465
0001d0 0a 1e 0f 3e 70 57 a3 3e 34 a7 8d bd d3 2b 7d 3e
       0.13976303 0.31902647 -0.06916657 0.24723749
0001e0 95 ff 3d be 0f 75 a1 3d 42 e4 46 3e 6e 39 1e 3e
       -0.18554528 0.07883655 0.19423011 0.15451595
0001f0 c7 53 c6 3d 44 7f 08 be 37 53 ce 3e c5 49 59 be
       0.09683948 -0.13329798 0.40297863 -0.21219547

critic_network.4.weight f4 [1, 128]
000000 df fd 50 c0 fa e6 50 40 8d 8c 4b c0 80 25 4e c0
       -3.265495 3.2640977 -3.1804535 -3.2210388
000010 9a 7b 75 40 7e c8 6b c0 ca bc 73 40 bc fb 4d c0
       3.835669 -3.684112 3.8083978 -3.2184896
000020 3b 7a 4b c0 b8 39 6a c0 6f af 6e 40 49 53 4b c0
       -3.1793354 -3.6597729 3.7294576 -3.1769583
000030 64 25 51 40 3b 15 4f c0 e4 28 4d 40 f8 5a 4d c0
       3.2679071 -3.2356708 3.2056208 -3.2086773
000040 c3 89 79 40 09 79 75 40 7a ef 4f c0 b7 67 4c 40
       3.8990333 3.8355124 -3.2489915 3.1938303
000050 6d 89 75 c0 ea 7d 4c 40 c0 e2 4f 40 0c 69 4c 40
       -3.8365128 3.1951852 3.2482147 3.1939116
000060 0a 8c 78 40 cb 9a 7c 40 14 3b 79 40 34 83 78 c0
       3.8835473 3.9469478 3.8942308 -3.883008
000070 60 d8 79 c0 be 52 7c c0 ec d0 4f c0 97 9c 71 c0
       -3.9038315 -3.9425502 -3.2471266 -3.7751825
000080 73 36 50 c0 e7 82 4b 40 21 56 70 40 b7 4a 51 40
       -3.2533233 3.1798646 3.755257 3.2701852
000090 77 8f 4c c0 ef 62 4e c0 8b 82 4c c0 9a 2f 50 40
       -3.1962564 -3.2247884 -3.1954677 3.2529054
0000a0 d8 cc 4b c0 28 86 4d c0 8c 82 56 c0 14 5d 4b c0
       -3.1843777 -3.2113132 -3.351718 -3.177556
0000b0 36 f4 4f 40 68 5b 6c c0 39 dc 4e c0 e0 cd 4e 40
       3.2492805 -3.693079 -3.2321913 3.2313156
0000c0 0a 85 4b c0 f3 dc 4b 40 7e 1d 77 40 20 d3 50 40
       -3.179995 3.1853607 3.861175 3.262886
0000d0 b6 4b 4f c0 8d 82 6f c0 0c ba 4c c0 ba a0 7b c0
       -3.238996 -3.7423432 -3.1988554 -3.931685
0000e0 13 89 4c 40 d8 02 78 c0 31 db 4b c0 46 6d 7c 40
       3.1958663 -3.8751736 -3.1852534 3.9441695
0000f0 d5 07 7b 40 4d c5 4f 40 e0 04 4b c0 3b 8a 7b c0
       3.922353 3.2464173 -3.1721725 -3.930312
000100 8c 51 79 40 b9 04 4e 40 11 a7 71 c0 5e 22 51 40
       3.8956022 3.2190382 -3.775822 3.2677226
000110 11 03 4e c0 3c 56 51 c0 d6 bb 79 c0 a5 0b 7e 40
       -3.2189372 -3.2708883 -3.9020896 3.9694607
000120 c3 b1 50 40 3c 1a 4d 40 6a 63 4e c0 39 d1 73 c0
       3.2608497 3.2047262 -3.2248178 -3.809645
000130 ab e9 7a 40 f3 26 50 40 51 be 70 c0 8f d7 51 c0
       3.920512 3.2523773 -3.761616 -3.2787817
000140 07 94 4d c0 bc e9 78 c0 86 d7 4d 40 8e f3 6c c0
       -3.2121599 -3.889266 3.2162795 -3.7023654
000150 5c 5f 4c c0 a6 fc 50 40 d3 f9 5a 40 e2 dd 4c 40
       -3.1933203 3.2654204 3.421498 3.2010427
000160 8f cb 79 c0 b1 d8 4e c0 3c 01 4d c0 18 ae 4d c0
       -3.9030492 -3.2319758 -3.2032003 -3.2137508
000170 66 84 4e c0 c8 ed 59 c0 85 38 79 c0 57 86 68 40
       -3.226831 -3.405138 -3.8940747 3.6331995
000180 cc 75 4b 40 ba dd 50 c0 fb 39 50 c0 39 85 4e 40
       3.1790648 -3.263533 -3.2535388 3.2268813
000190 2b a6 4c 40 3c 6b 77 c0 7b 48 4f c0 9b 91 4e 40
       3.197642 -3.86592 -3.2387989 3.227637
0001a0 fe 59 75 40 84 cb 69 40 d7 d2 4e 40 11 d2 75 c0
       3.8336177 3.6530466 3.2316186 -3.8409464
0001b0 79 cd 4c 40 fe c7 4e 40 b0 6a 79 40 db 37 4d c0
       3.200041 3.2309566 3.8971367 -3.2065341
0001c0 31 67 4d 40 e1 12 4e c0 98 86 4c 40 63 29 70 40
       3.2094233 -3.2199023 3.195715 3.752526
0001d0 23 3e 70 c0 bc 3d 4d c0 3f 00 75 40 cb 9f 7c c0
       -3.7537925 -3.206893 3.82814 -3.947253
0001e0 7c b0 50 40 c8 ba 4f c0 82 18 71 c0 f2 8b 71 c0
       3.2607718 -3.2457752 -3.7671208 -3.7741666
0001f0 3a a2 79 c0 67 44 51 40 72 04 4c c0 58 93 4d 40
       -3.9005265 3.2698 -3.1877713 3.2121181
