src/rl/model/actor_model07-08-2024_15-11-13/160.pt (torch, 84719 bytes, 7 tensors)

logstd f4 [4]
000000 72 69 b6 bf d7 e9 b8 bf 79 35 bc bf e7 e0 b9 bf
       -1.4250929 -1.4446362 -1.4703819 -1.452176

mean_net.0.weight f4 [128, 27]
000000 57 db 11 3f 2c fd 43 be ca cb 84 bc 7a 36 c2 3e
       0.5697531 -0.19139546 -0.016210455 0.37932187
000010 46 3d 38 bf 94 80 1c be ad 50 3a bf fe 0d 6e bf
       -0.71968496 -0.15283424 -0.7277935 -0.929901
000020 0e 74 8a bf 4b 28 c6 3e 49 02 a6 3e b9 fd f4 3d
       -1.0816667 0.38702616 0.32423618 0.11962456
000030 54 e1 7b bf 26 9e 4c 3e 6c 20 0e be 53 5c f0 bd
       -0.983907 0.19982204 -0.13879555 -0.117363594
000040 e1 e0 03 3d 30 e3 83 3f c1 0a 12 40 a2 cf 8d 3e
       0.032196883 1.0303707 2.2819064 0.27697474
000050 c4 32 27 be 8d 7b 3b 3d fe eb 2a bf ce a6 a9 3e
       -0.1632796 0.045772124 -0.66766346 0.33135074
000060 3c 6e f0 3d 4b 5f e8 bd 06 cb 54 3e dd a7 55 3e
       0.117397755 -0.11346301 0.20780572 0.20864816
000070 3e 65 94 be b3 90 ae 3d d4 f5 ee 3e 90 cc e0 be
       -0.28983492 0.08523693 0.46671927 -0.4390607
000080 f1 22 0c bd 92 83 05 3f 69 a2 bc bf ed cc cc 3f
       -0.03421301 0.52153885 -1.4737064 1.6000038
000090 f5 97 fd be 2a c4 a3 bc 52 91 0c be dc c8 a6 3f
       -0.49529997 -0.019991 -0.1372731 1.3030047
0000a0 b5 64 1e 3c 85 1d 8e 3d 37 6d 76 be a5 80 81 3e
       0.009667565 0.06939224 -0.240651 0.2529346
0000b0 19 8b 90 3f 39 f3 af 3f 2b 31 59 be b6 79 4e be
       1.1292449 1.3746101 -0.21210162 -0.20163617
0000c0 d2 eb 5f bd 6b 27 ba 3e e8 13 79 bd b4 8b 1a bb
       -0.054668255 0.363582 -0.06081 -0.0023581805
0000d0 e6 13 24 be d1 74 cf bd 6e 87 95 be 77 14 20 bc
       -0.16023216 -0.10129703 -0.29204887 -0.009770504
0000e0 ac d4 21 3e 27 db 8f be 31 90 aa 3e 1f 39 49 3d
       0.15803784 -0.28096887 0.33313134 0.04912674
0000f0 89 2f 28 3f f3 40 1f 3f 8e 39 b8 3f 96 6e 4c bc
       0.6569753 0.6220848 1.4392564 -0.012477538
000100 b2 c9 4d 3e 4d 2f 02 3f 96 19 61 3f bb a2 e8 bd
       0.20096472 0.50853425 0.87929666 -0.113591634
000110 b5 c1 25 be 75 22 8f bd 26 9e 27 be b1 91 f1 bf
       -0.16187175 -0.06988994 -0.16368923 -1.8872586
000120 c7 81 b0 be c9 e7 80 be b8 e1 2d bf 58 82 14 3f
       -0.34474012 -0.25176838 -0.67922544 0.5801139
000130 0e 9b b0 be 4c 4a c2 be bb 4d 9d 3e a5 52 0d 3d
       -0.34493297 -0.3794731 0.30723366 0.034502644
000140 fa 68 de 3c 83 00 03 bf 61 f3 07 bf ab 90 0e 3e
       0.027149666 -0.51172656 -0.5310574 0.13922374
000150 bf e6 0b bd b0 f2 1a be 39 2b 1f bd bd fa 84 bf
       -0.034155603 -0.1513164 -0.03885958 -1.0389019
000160 24 58 c7 3f 52 ce ba bf 4d 6e 30 bf 04 1d 73 3e
       1.5573773 -1.4594214 -0.68918306 0.23741537
000170 b7 4c 8d be b5 4e 38 3e f5 a8 ce 3d 75 1a cd 3d
       -0.2759759 0.17998774 0.1009082 0.10014812
000180 3c 79 c3 3d 24 c7 08 bd 8a a6 2e 3e 9f e7 21 3f
       0.09544608 -0.03339304 0.17055717 0.6324405
000190 aa 5f 5f 3d 4b c1 da bd fe fb d2 3e 05 6a 10 bf
       0.05453459 -0.10681399 0.4120788 -0.5641177
0001a0 cd e1 b5 3d 58 28 c9 3e 13 12 a4 bd 31 dd 88 3e
       0.08880959 0.39288592 -0.0801126 0.26731256
0001b0 b9 36 81 bc 65 a4 c7 3d 04 43 b5 bd 17 d7 80 bd
       -0.015773164 0.09748153 -0.08850673 -0.06291025
0001c0 9e 27 62 be 28 53 25 be a9 9f 62 be 40 c4 9e bc
       -0.22085425 -0.16145003 -0.22131218 -0.019380689
0001d0 0c 36 cd 3e 1f 1e 42 be 03 f2 8a 3f 83 8c 45 3f
       0.40080297 -0.18956803 1.0855106 0.7716753
0001e0 9a 88 e8 3e 96 dd c2 bd 9b aa 43 be 83 9d 6f 3d
       0.4541672 -0.095149204 -0.1910805 0.058499824
0001f0 83 1f 28 3e fc 91 81 3c e1 e5 b7 be c2 b0 6f be
       0.16418271 0.015816681 -0.3591757 -0.23407272
000200 34 4a 4d 3f b7 73 80 bf 53 fe 3b 3f a6 b4 11 3e
       0.8019135 -1.0035313 0.7343494 0.14229068
000210 aa 8b 18 bd 3c 53 04 be 4e 01 1d bf 6d 3e 1e be
       -0.03724257 -0.12922376 -0.61330116 -0.15453501
000220 e8 81 15 bf de 29 92 3e 0b 10 48 be 4e 2a 93 be
       -0.58401346 0.28547567 -0.1953737 -0.28743213
000230 b6 3b 52 3d 24 b0 f8 3e 72 44 44 bf e4 98 bc 3f
       0.051326476 0.48571885 -0.7666694 1.4734159
000240 1c c7 a0 3e 76 d1 d2 bd 43 0c db 3d 7c 10 89 3e
       0.31401908 -0.10293858 0.10695698 0.2677039
000250 65 b5 48 be ea 3d 8e bc 1d 0d b1 3d 4b 60 9e bd
       -0.19600447 -0.017363507 0.08645079 -0.0773321
000260 2f 78 0c c0 5d 42 1d 3f 1e da 23 be b2 fc 8c 3e
       -2.1948354 0.6142939 -0.16001174 0.2753654
000270 aa 0a 5f be bf eb db 3e d0 e3 95 3d 33 8c c8 3d
       -0.21781412 0.42953297 0.073188424 0.09792366
000280 f8 9c f1 bd ff 24 00 3e f0 45 e1 3c 9b 0c f5 3e
       -0.117975175 0.12514113 0.02749917 0.4786118
000290 cb 33 f4 bd 07 a8 db bd 56 32 9e 3e 09 3a 31 be
       -0.11923941 -0.10725408 0.30897778 -0.17307295
0002a0 c2 51 a6 3e a6 fe 1e 3f f3 1e 55 3f c2 ac 62 3e
       0.3248425 0.6210731 0.8325035 0.22136214
0002b0 1c 7f 6f 3f a9 82 bc be 03 d9 39 bf 55 c3 0b 3b
       0.9355333 -0.36818436 -0.7259676 0.0021326144
0002c0 3d e8 67 bd 50 45 50 3b d7 59 64 3d 44 82 cb 3e
       -0.056617964 0.0031779595 0.05574974 0.39747822
0002d0 13 27 c3 bd 4a 38 57 bd 58 76 83 3b 12 fd ab be
       -0.09528937 -0.052543916 0.0040119104 -0.33591515
0002e0 ef 09 47 be 74 72 82 3e cd f1 8c be 43 16 85 3e
       -0.19437383 0.25477946 -0.2752823 0.25993547
0002f0 1c b9 21 be 7e ee d7 be ad f2 83 bf aa 4d 60 be
       -0.1579327 -0.42174143 -1.0308434 -0.21904626
000300 84 5b ff be 63 fd a6 bf af fb 60 bc 31 d1 02 3f
       -0.49874508 -1.3046077 -0.013731881 0.5110045
000310 1c 90 10 3f ad 2b 91 bf bd c4 df bd cd 05 ac be
       0.56469893 -1.1341454 -0.10926197 -0.33598176
000320 5a 89 e4 bd de 88 3f 3f 34 83 85 bd ce 38 12 3e
       -0.1115901 0.7481822 -0.06519166 0.14279482
000330 c8 9f ea bb 47 b3 82 3e 83 a4 c5 3e a9 b6 3d c0
       -0.0071601607 0.25527403 0.38602075 -2.9642737
000340 11 70 19 3e ff 83 86 be 45 a2 18 be 4a 91 92 be
       0.14984156 -0.2627258 -0.14905651 -0.28626472
000350 6a ec 13 be 8e 5b 30 bc ac 97 12 be 87 eb c8 3e
       -0.14445654 -0.010764016 -0.1431567 0.39242193
000360 d9 1d 18 bc 4a ce 29 bf 4f 34 15 bc 65 07 1f bf
       -0.00928446 -0.663304 -0.00910671 -0.6212066
000370 3d be 31 bf 7b e1 c9 3e 52 3f e9 3e 25 ff 6d bf
       -0.69430906 0.3942984 0.45556122 -0.92967445
000380 c2 7d 0b be a1 12 49 3e bc a9 a9 be ed 9c 3c bf
       -0.13622192 0.19636013 -0.3313731 -0.7367695
000390 f2 2f 83 be e0 b0 06 3e 77 05 ce 3c 20 7e fd 3d
       -0.25622517 0.1315341 0.02514909 0.12377572
0003a0 90 36 47 3e 2d c0 ae bf 30 ed 0a 3e 83 de 15 3e
       0.19454408 -1.3652397 0.13567042 0.14635663
0003b0 8d 03 06 3f 2d d5 96 bf 46 11 16 bf a8 09 e1 3e
       0.5234917 -1.1783806 -0.5862011 0.4395268
0003c0 75 45 8e be aa 86 11 3e e2 e4 47 be 0e 82 bd be
       -0.27787367 0.14211527 -0.19520906 -0.37013286
0003d0 6b 74 89 3f 9b a9 42 3e 8d 84 3f 3e 84 a5 58 3f
       1.0738653 0.19010012 0.18702908 0.84627557
0003e0 4a 1e fc 3d 86 9d 06 be 3b f0 89 bf 03 7c a7 bf
       0.12310465 -0.13146028 -1.0776438 -1.308472
0003f0 1e 76 9d bf 4e 57 3c bc a0 3d 4f bd 77 23 2f bf
       -1.2301672 -0.011495424 -0.05059588 -0.6841349

mean_net.0.bias f4 [128]
000000 73 1d 04 3d b8 04 5b 3d b9 f7 0c be bf 1a e4 3d
       0.032254647 0.053471297 -0.13766374 0.11137914
000010 56 7b 30 be d8 f2 39 bd 72 f8 13 be e6 02 d9 bd
       -0.17234549 -0.04539761 -0.14450243 -0.10596256
000020 d0 ee f8 3c 63 91 1d 3d 0f c8 30 be a4 c6 20 3e
       0.030387312 0.03846873 -0.17263816 0.15700775
000030 12 3e e6 3c 56 30 2c 3e e4 ab 72 be b0 50 3f bd
       0.02810577 0.16815314 -0.23698384 -0.04670781
000040 29 6c f7 bd 04 57 1e 3a a7 9e 32 bd 3d 61 26 be
       -0.12081177 0.0006040188 -0.043608334 -0.16248031
000050 75 60 03 3e 99 21 f8 bd ec 81 36 bb 3b da 22 be
       0.12829764 -0.12115783 -0.0027848436 -0.15903561
000060 b8 d1 5b 3e 08 c8 4c 3e 51 39 1c 3e 1c 93 59 bd
       0.2146672 0.19998181 0.1525624 -0.05311881
000070 b0 8b 3b be 87 76 f9 bd cb db 19 be 2e db e5 3d
       -0.18315005 -0.121808104 -0.1502525 0.11223446
000080 96 89 82 3d 77 b7 a3 3d 19 15 c5 3d 6f b5 b1 bd
       0.06373899 0.079939775 0.09623165 -0.08677184
000090 74 59 d3 bd 6f ca 30 3e 54 62 02 be 0a 30 86 bc
       -0.10319796 0.17264722 -0.12732822 -0.016380329
0000a0 cb 9a 33 be 3d 7f c0 3d ce a5 0b 3e c4 57 e0 3d
       -0.17539518 0.09399269 0.13637468 0.1095424
0000b0 eb b9 a3 3d d5 7b 4d bd aa 16 13 be 35 8d 55 3d
       0.079944454 -0.050166924 -0.14364114 0.05213662
0000c0 44 a6 0b 3e 4d f9 56 3e 14 0c 3f 3e a5 3c 07 3d
       0.13637644 0.20993538 0.18656951 0.03301682
0000d0 97 ac ad 3d 15 81 cf 3d 26 04 44 3c 0c c3 db b9
       0.084801845 0.10132042 0.01196388 -0.00041916256
0000e0 6f 5b 8a 3d fb 88 a0 be b4 9d 18 be e9 9a 9a 3c
       0.06755721 -0.31354508 -0.14903909 0.018872695
0000f0 8b 4c b6 bd d4 18 02 3e 0a ad 04 bd 70 37 e3 bd
       -0.08901318 0.12704784 -0.032391585 -0.11094558
000100 0c 3e 19 be ae 9a 4b be d9 5b d1 bd d4 0f 63 bd
       -0.14965075 -0.19883224 -0.10222597 -0.055435017
000110 bf a8 37 3e b2 1c 18 be 09 88 85 bc 3c 01 67 bd
       0.17935465 -0.14854696 -0.016300218 -0.05639766
000120 7e 52 16 bc 3a e6 49 be 66 88 61 bd cb 93 4f 3c
       -0.009174941 -0.1971673 -0.05506172 0.012669514
000130 bc ee ca bd 20 a3 16 be e4 0b bb bd fc ab 54 bd
       -0.09908816 -0.14710665 -0.09133127 -0.05192183
000140 0b e5 82 bd 9f e7 52 bd 85 52 02 be a3 22 25 3e
       -0.06391343 -0.051490422 -0.12726791 0.16126494
000150 35 8f df bd 54 19 bf bd 0f 1d 33 be 4d 8b 01 3e
       -0.109159864 -0.09331003 -0.17491554 0.12650795
000160 92 46 13 be f0 0f d4 3d 4f 2c ef 3d ad ea e2 bd
       -0.14382389 0.10354602 0.11678373 -0.11079917
000170 9c 73 a8 3c 47 f2 ed bc 0e 51 a4 3d 33 1e 2a bd
       0.02056294 -0.02904619 0.080232725 -0.041532706
000180 a3 3a 2d be 4b 17 47 3e 06 22 91 bd d8 12 61 3d
       -0.169169 0.1944248 -0.070865676 0.05494961
000190 99 64 ca bc 3c 33 fc 3d 65 7b bb bd f7 79 35 be
       -0.024706172 0.1231446 -0.09154395 -0.17722307
0001a0 ec df 0f be bd 43 c4 bd 7e 00 b0 bd a7 98 01 3e
       -0.14050263 -0.095832326 -0.08593844 0.12655888
0001b0 30 6a c4 3e 5c e5 20 bc 6e 62 e8 3b 04 e8 a4 bd
       0.38362265 -0.009820309 0.007091812 -0.08052066
0001c0 5c 26 0e 3d 94 03 58 3e 36 40 f9 bd 8c db 63 bd
       0.03470455 0.21095115 -0.121704504 -0.055629298
0001d0 99 81 ca bd cd a4 16 3d 77 50 a9 3d 3d 98 16 3e
       -0.09888 0.03677826 0.082673006 0.14706512
0001e0 c0 36 03 be 0d 7c 84 3d 4d 03 36 3e 34 31 fb bc
       -0.12813854 0.06468973 0.17774697 -0.03066311
0001f0 97 9a ad bd 54 9c ed 3d f2 46 13 bd f1 4e ab 3d
       -0.08476751 0.11602083 -0.03595633 0.08364666

mean_net.2.weight f4 [128, 128]
000000 7b 0a 3e be 67 96 d4 3d 89 28 21 be 4d b5 dd be
       -0.18558685 0.103802495 -0.15738119 -0.43302384
000010 80 4a d9 bc 56 6e 29 bd 29 eb 73 3e 5d d8 01 3d
       -0.026524782 -0.04136499 0.23820175 0.03170048
000020 2e 09 80 bc 81 a2 d0 3c 9d df 93 3e 3b 28 8e 3c
       -0.015629377 0.025468113 0.2888154 0.017353168
000030 9c 2a e7 bd dd 95 8b 3e a6 00 ac 3e d9 af 8d bc
       -0.11287424 0.27262774 0.33594245 -0.017295765
000040 63 e0 d3 bc 96 9d cc bc f8 c2 fd 3d b9 58 92 3e
       -0.025863832 -0.024977487 0.12390703 0.28583315
000050 8b 34 23 be 1c f5 21 3d d0 0b 8c 3e c8 69 85 3e
       -0.15938012 0.039540395 0.27352762 0.26057267
000060 bc f3 03 be 8c 86 13 be 87 00 03 be 6d 7d 33 3d
       -0.12885946 -0.14406794 -0.1279317 0.043820787
000070 c6 a5 f7 bd 93 b4 30 be d1 70 9f 3d 2a 82 bb 39
       -0.12092166 -0.17256384 0.0778519 0.000357644
000080 47 34 17 bd 06 8a 35 3e 86 d7 0c 3e 25 fe 33 bc
       -0.03691509 0.17728433 0.1375409 -0.010985886
000090 53 1d 14 be 4f 7c a9 bd 8e b2 46 be 1d 66 30 3e
       -0.14464311 -0.08275663 -0.1940405 0.17226453
0000a0 45 d1 ef 3d 0b d7 52 3e 3e 4d f5 bb ea 1e 66 3d
       0.11709837 0.20589845 -0.0074860146 0.056181826
0000b0 5b e8 ae bd 73 ae 55 3d a3 d8 a4 3c e7 12 d5 3d
       -0.08540412 0.05216832 0.020122832 0.10403996
0000c0 fe 6f c3 3c 24 e9 2f be 5f ea 1a 3e 2d 25 3a bc
       0.023857113 -0.1717878 0.15128468 -0.011361402
0000d0 ce e6 07 3e 15 6e 02 bf c0 03 1d be 09 4b 70 bc
       0.13271639 -0.5094922 -0.15333462 -0.014666327
0000e0 05 d1 eb bd 24 4d 19 bd 3b 3f 30 3e cc ee 0b 3e
       -0.11514477 -0.037427083 0.1721162 0.13665313
0000f0 d0 d3 86 3c 05 fa 83 bd a9 98 4e bc 3c d3 44 bd
       0.016458422 -0.06444172 -0.012609639 -0.04805301
000100 2e 89 48 3d f4 ee de 3d 40 32 11 be 34 cd 3a 3e
       0.04895895 0.108854204 -0.14179325 0.18242341
000110 8e 1a 6d 3b e1 1c 87 bc 66 79 d7 3c 81 83 ec 3e
       0.0036179158 -0.016493263 0.026303004 0.4619408
000120 05 25 ea 3c 26 9b 0e be 92 19 8f bc 52 48 c1 bd
       0.028582105 -0.13926372 -0.017468248 -0.09437622
000130 ee 18 e7 be 45 9e 23 bd 28 3e 72 3d e5 50 6c 3e
       -0.45136207 -0.03994586 0.059141308 0.23077734
000140 3e 0d 3e 3c 02 ba 4c 3e 09 41 d4 3c e2 12 e0 3d
       0.011599837 0.19992831 0.025909917 0.109411016
000150 e5 94 53 be 05 7c 1a be 98 28 b1 3d 11 ae 78 be
       -0.20662268 -0.15086372 0.08650321 -0.24285151
000160 fc 3e b1 be 91 a0 5b 3e 28 1a d3 bd 82 67 44 be
       -0.34618366 0.2144797 -0.10307723 -0.1918011
000170 53 1a 2c 3e f5 3c ce 3e 52 75 f1 bd 1a bc 06 3e
       0.16806917 0.40280882 -0.11789955 0.13157693
000180 cf 35 9e bd 12 03 1a be 5e 45 be bd 7c 5f 01 3f
       -0.07725107 -0.15040234 -0.092905745 0.5053632
000190 e6 e9 75 3e 79 25 d4 3e 75 95 85 3d 4d e4 fc 3d
       0.24015006 0.4143484 0.06522647 0.123482324
0001a0 9f f4 44 3c f6 3b 4a 3c a8 f7 d6 3d d0 09 4f be
       0.012021213 0.012343397 0.104964554 -0.20218587
0001b0 c2 76 b1 3d b6 e6 c8 bd 05 82 8e bc 3b 7d 4b 3d
       0.086652294 -0.098096296 -0.017395983 0.049679976
0001c0 43 b8 49 be 2e 3d 82 3e ce e5 fd bd d7 a5 84 3e
       -0.19699197 0.254373 -0.123973474 0.25907776
0001d0 e3 ab 9d bd f9 8c 82 bc 80 15 24 3d ba 55 4f be
       -0.076988004 -0.015936362 0.040059566 -0.20247546
0001e0 31 ee e9 bd 1c 7f 2a be ee 97 c5 bd bf 6a 65 3d
       -0.114223845 -0.16650051 -0.09648119 0.056010004
0001f0 6f 9b 5d 3d d9 f2 b5 3d e5 3a 25 3e 22 f5 97 3c
       0.05410331 0.0888421 0.16135748 0.018549506
000200 9c f1 8d bd 25 d4 29 be ad d8 bf 3d 77 db 15 3d
       -0.06930849 -0.16584833 0.093674995 0.03658625
000210 53 bc f7 3d f5 d9 36 3d de de 37 3e 30 c8 bf 3d
       0.12096467 0.044641454 0.17956111 0.093643546
000220 ff 41 2d 3e f0 ed 86 be 51 e9 2d 3d 53 29 33 be
       0.16919707 -0.26353407 0.042458836 -0.17496233
000230 51 1a 5e bd e2 92 3a be ff 68 15 3c 80 da 5d 3d
       -0.054224316 -0.18220094 0.009119271 0.054163456
000240 bd 91 40 bd 3b 19 65 3d da a9 21 bd fc 3d b4 3c
       -0.047013987 0.055932265 -0.039468624 0.022002213
000250 a4 7d 0b be f5 98 be bc 88 cc 62 bd 2a d0 9d 3d
       -0.13622147 -0.023266295 -0.055370837 0.0770572
000260 76 c6 f4 3c 64 4f 7f 3c 3d 02 6a be 61 a0 8a 3e
       0.02987979 0.015582893 -0.22852416 0.27075484
000270 3d 93 65 3d 44 6c 8a bd a9 cf 0a be bf 2e 9b bd
       0.05604862 -0.06758931 -0.13555779 -0.075772755
000280 83 99 01 3e 0f b0 46 3d 0b 1f 77 be 8f ff c5 bd
       0.12656216 0.048507746 -0.24132936 -0.096678846
000290 92 61 63 bc 25 b6 b1 be 82 5b 92 3c 33 c5 28 be
       -0.013878243 -0.34709278 0.0178659 -0.16481476
0002a0 b1 4d da 3d f8 8e 54 3e 9e 81 0a bb 8f 91 e9 bd
       0.1065935 0.20757663 -0.0021134387 -0.11404716
0002b0 97 9b c9 bd 43 8d a1 bc d3 05 9a 3e 26 6e fa 3d
       -0.098441295 -0.01972068 0.3008257 0.122280404
0002c0 34 c5 4d 3c 8b 15 a5 be 39 a0 ba bd f2 42 7b be
       0.012559224 -0.32242998 -0.09112591 -0.24537256
0002d0 45 12 f9 3d ff b9 e0 3d a4 36 d2 be 02 01 05 be
       0.12161688 0.10972976 -0.41057312 -0.12988666
0002e0 4e 07 1f bd b3 08 02 3e cb ba ff 3d 0b 23 33 be
       -0.038825326 0.12698631 0.124868 -0.17493837
0002f0 49 c5 4c be 0f d4 21 be c1 f5 42 3d 19 e1 73 3d
       -0.19997133 -0.1580355 0.04759765 0.05954084
000300 3d 6c 5e bb 89 aa 19 3d 8c 0a 91 bd 0f 7b 1e be
       -0.0033939027 0.03751615 -0.0708209 -0.1547663
000310 9c c4 10 3e 2f 1a 2e bd bc d5 d8 bd 75 6b 81 bc
       0.141375 -0.04250544 -0.105876416 -0.01579831
000320 fb 09 b1 3d c6 3f 09 3e a0 1c 26 bd 33 21 05 be
       0.08644482 0.13403234 -0.040554643 -0.13000946
000330 5b fe 57 3c 50 53 73 be 03 bd 81 3e b0 87 33 3d
       0.013183202 -0.2376225 0.25339517 0.043830574
000340 e1 d4 94 3e 57 1c 01 3d e9 87 02 be c4 e6 d0 bd
       0.29068664 0.031521168 -0.12747158 -0.10200265
000350 08 bd 06 be 24 ea 66 3e 5e 04 cb 3e 78 93 c5 be
       -0.13158047 0.22550255 0.3965177 -0.38589072
000360 69 72 1c 3e 50 83 0c 3e cf c2 0e be d5 33 e1 3d
       0.15278019 0.13721967 -0.13941501 0.10996214
000370 c1 c6 ad 3c 03 c9 28 be f8 f4 73 3e eb 42 2c be
       0.021212937 -0.1648293 0.23823917 -0.16822402
000380 aa d2 b4 bd 5f d0 52 be cb cc 71 3d 6f bf 36 3c
       -0.088292435 -0.205873 0.059033196 0.01115404
000390 07 a7 36 3e 47 22 a8 bd f9 95 5e be 08 e0 fb 3d
       0.17837153 -0.08209663 -0.21736898 0.1229859
0003a0 59 7c 5a 3e bb 82 23 3e e7 47 29 3d 3e ec b0 bd
       0.21336497 0.15967838 0.041328337 -0.086388096
0003b0 86 58 3d 3d ce 01 0b bc 69 11 63 be 82 3d 0f be
       0.046227 -0.008484317 -0.2217461 -0.13988307
0003c0 c5 8d 8d 3e 90 00 6b 3d 94 47 3e 3d cc f0 30 bd
       0.27647224 0.057373583 0.04645498 -0.04319839
0003d0 f1 6e 21 bd 24 b5 7a bd d1 43 cf bc da fd fd bc
       -0.039412443 -0.061207905 -0.025300892 -0.031004835
0003e0 56 1c 5b 3c 3c bb 28 bc a3 62 6d bd 5d f5 ac 3d
       0.013373455 -0.010298546 -0.057955395 0.08445237
0003f0 96 c2 09 be 3b f4 01 3c 37 69 f7 bb 78 ef f1 bd
       -0.13453135 0.007931764 -0.0075503844 -0.11813253

mean_net.2.bias f4 [128]
000000 2a 61 00 be a5 ed df bd 33 3b c7 3c 09 89 6b bd
       -0.12537065 -0.10933999 0.02432022 -0.057503734
000010 1c 25 cc 3d ce ad 80 bd 81 03 1a 3e b3 d2 52 bc
       0.099680156 -0.062831506 0.15040399 -0.012867617
000020 08 8a a8 bd 7f 18 de ba 68 6e d2 3b 63 34 f7 bc
       -0.08229452 -0.0016944556 0.006421853 -0.030176347
000030 e3 34 2f bc 34 b1 27 3d 8b 17 c0 3a 4f 59 98 3d
       -0.0106937615 0.04094048 0.0014655454 0.07438909
000040 d0 74 47 3d 0a 31 e8 bd ee 7f 1d bc e9 a0 59 3d
       0.048695385 -0.113374785 -0.00961302 0.05313197
000050 8a a0 8a 3d ba 7f c1 3d 4e da b8 3d 52 aa ae 3c
       0.06768902 0.0944819 0.09026013 0.02132145
000060 33 2f cf bd 8d c6 c1 bd 51 f7 a4 bd 8e bc d2 3d
       -0.101164244 -0.09461699 -0.08054984 0.1028987
000070 f6 7c 90 3d cc ed ec bc d4 3f 83 bd 1d 1b 8d bc
       0.070550844 -0.028921984 -0.064086586 -0.017224843
000080 40 10 c6 bd 06 ce 55 3d 94 98 db 3c 46 ab 4e 3d
       -0.09671068 0.052198432 0.026806153 0.050456308
000090 85 ef c9 3d 03 72 e3 bc d1 8d 71 bc 2a d7 bb bc
       0.09860138 -0.027764326 -0.014743284 -0.022929747
0000a0 8c 04 9d bd 48 f5 d7 3d 21 cf 8e 3d 2f 77 ba 3d
       -0.07666883 0.105448306 0.069731005 0.09104764
0000b0 1d c5 c9 bc 43 40 09 bd 61 2c b7 3d 0f a8 cb 3d
       -0.024630124 -0.03350855 0.089440115 0.09944164
0000c0 fc 5c 3f bd cc 63 85 3d 0c 58 89 b9 b3 e8 ad bd
       -0.046719536 0.06513175 -0.00026196276 -0.084916495
0000d0 db 16 c9 3d de 3c 98 bd 32 4a 78 bd c4 54 2f 3d
       0.098188125 -0.074334845 -0.060617633 0.04280545
0000e0 86 ab 87 bd 0f 9a a8 bd 66 2f 42 3c 2b e3 fc bd
       -0.066245124 -0.08232509 0.011852121 -0.12348016
0000f0 95 47 88 3d 5b b9 86 bd 76 cd be bc 62 3d 29 3d
       0.06654278 -0.065783225 -0.02329133 0.041318305
000100 98 fd db bc df 77 87 bc be ef ea 3c 90 c8 82 bd
       -0.026854321 -0.016536651 0.028678771 -0.063859105
000110 b5 45 1f 3c 9a ff 6f 3e 84 31 bc 3c fd 96 d5 3d
       0.009721209 0.23437348 0.02297283 0.10429189
000120 d8 c2 34 bd 81 44 72 bd bc c3 a0 bd 6f d5 9e 3d
       -0.04413113 -0.05914736 -0.07849833 0.07755553
000130 15 d3 9f bd 9f e5 4b bb 89 db 2d 3d dd 0c 6b 3d
       -0.078039326 -0.0031112207 0.042445693 0.057385314
000140 5b 0f 06 3e 13 e3 69 3c ee be ce 3d 51 27 0b 3b
       0.13091795 0.01427533 0.10095011 0.0021233151
000150 ea d6 61 3d f6 24 d4 bc d1 3d a8 3d 53 53 6b bd
       0.0551366 -0.02589653 0.082149155 -0.05745251
000160 56 c7 5d 3d a6 d7 b5 3d 69 aa 6f 3d 4e 2d 0a 3b
       0.05414518 0.08879022 0.058512125 0.0021084133
000170 93 f5 79 bd 7c 3d 18 3d 0b 98 48 3e a5 bf 02 bc
       -0.061025213 0.03716801 0.1958925 -0.007980262
000180 ae 23 44 3d 00 72 b7 3c d5 91 90 bd 0c 92 fb bc
       0.04788559 0.022393227 -0.07059065 -0.030709289
000190 02 5e f6 3c 84 a4 a5 bd 5a 36 37 3d 62 f5 d8 3b
       0.030074123 -0.080880195 0.044729568 0.006621049
0001a0 ae 71 62 bd d8 c5 4e 3d 36 d4 19 3c 49 86 9c 3d
       -0.055284195 0.050481647 0.009388974 0.076428
0001b0 07 4f 9e bd de 54 49 bd ab 60 d7 3d 2c 11 62 3c
       -0.07729917 -0.0491532 0.10516485 0.013798039
0001c0 9a 15 f9 3d 0a 4f 38 bd ac 88 08 be 5c ef fb 3d
       0.12162323 -0.044997253 -0.13333386 0.123015136
0001d0 e8 f7 0b bd b0 96 92 bb 29 b5 0b 3d 1f 94 e3 3d
       -0.03417197 -0.0044735298 0.034108315 0.11112236
0001e0 20 26 83 bd 67 0f fd 3d 6f b8 0c 3c 34 9a 5e 3d
       -0.06403756 0.123564534 0.008588894 0.05434628
0001f0 ca 79 8b 3c 23 bc 81 bd fc 93 c2 3d d1 99 5b bb
       0.017025847 -0.06334712 0.09500882 -0.003350843

mean_net.4.weight f4 [4, 128]
000000 0d 01 60 3e 88 15 b6 3c 62 b9 a3 3d 63 03 42 3e
       0.21875401 0.022227064 0.07994343 0.18946604
000010 99 f1 ff bd 6a 07 ab 3d b6 a0 8e 3d 97 79 9f 3a
       -0.12497253 0.083510235 0.06964247 0.0012166974
000020 4e 0c 97 3c e0 98 99 38 d2 da 14 3a ed 8c c3 bb
       0.018438485 7.324084e-05 0.0005678359 -0.0059677274
000030 59 df 0d 3e e9 08 5a be 85 5d 6a 3d f5 3c 5e be
       0.13854732 -0.21292461 0.057218093 -0.21702941
000040 64 71 90 3d c1 33 1b 3e fb 01 28 3b 37 47 27 3e
       0.070528775 0.15156461 0.0025635946 0.1633576
000050 fa 4a 05 3b 20 b9 f0 3a 15 7d 48 3d d1 bc 38 bd
       0.002033888 0.0018365718 0.048947413 -0.045101944
000060 74 df c8 bd dc f1 83 bd 87 58 c7 3d 3f e2 c5 bd
       -0.09808245 -0.064426154 0.09733682 -0.09662294
000070 8b 25 95 be 83 9e d8 bd 68 de 2f bb 30 e0 36 3c
       -0.29130206 -0.10577109 -0.0026835445 0.011161849
000080 aa 11 11 3e 25 43 a1 3d df 42 f0 bd e1 aa 9a bd
       0.14166895 0.07874135 -0.11731505 -0.07552124
000090 03 8d c5 be 84 70 33 be 9e c2 96 b9 0b f5 5c 3e
       -0.38584146 -0.1752339 -0.0002875523 0.21577851
0000a0 f5 e4 96 3d 4d 83 1d 3d 0a f9 41 3e 41 f8 3f be
       0.07367889 0.038455296 0.18942657 -0.18747045
0000b0 83 b9 6a bd 5b 9d 96 3b ab 7e dd bc 06 bf 1b 3e
       -0.057305824 0.004596395 -0.027037939 0.15209588
0000c0 84 00 6b bd 81 8f bf bc ca 5b 2e bd 65 7b 8f bc
       -0.05737354 -0.023383858 -0.042568006 -0.017514894
0000d0 57 3f 06 3e af 23 ac bd 02 58 3b 3d d5 4f c5 3c
       0.131101 -0.084052436 0.045738228 0.024085918
0000e0 d5 cb 6d bd 2b 45 8b bd a9 e0 33 3e e5 3c 15 be
       -0.058055717 -0.06800302 0.1756617 -0.1457401
0000f0 86 b5 5e 3e 3d 88 7d bd cf 91 07 3e 94 c2 43 3c
       0.21748933 -0.061897505 0.13239215 0.0119482465
000100 df bd 1c bd 7a 9e 96 bd fd 36 65 3a d0 66 d9 bc
       -0.038267013 -0.07354446 0.00087438506 -0.026538283
000110 83 49 87 bc 33 22 4c be c6 29 60 bd 64 08 74 bd
       -0.016514545 -0.19934921 -0.05472734 -0.059578314
000120 18 05 7c 3e 50 b0 09 ba 5a fb 42 bd dd 54 40 3e
       0.24611318 -0.0005252408 -0.04760299 0.18782373
000130 34 db 3b 3e 56 6c 92 ba f3 d8 f4 bd 73 52 9a be
       0.18345338 -0.0011171203 -0.11955442 -0.3014103
000140 cb 06 fb ba a5 fc 45 3e 7a 92 48 be a7 1e 96 3d
       -0.0019151805 0.19334657 -0.19587126 0.07330065
000150 88 8c 24 be ee 48 e5 3d 68 c6 0d 3b ac d1 da 3c
       -0.16069233 0.11195551 0.0021633152 0.026711307
000160 1a 21 08 3d a1 a1 a6 3d 2b 3b 40 3e 19 bd b9 bd
       0.033234693 0.08136297 0.18772571 -0.09069271
000170 07 07 3d bd 6f ac 00 be de e9 48 3e a8 83 e8 bb
       -0.04614928 -0.12565778 0.19620463 -0.007095773
000180 cb 75 6d 3e 51 b0 48 be 4f 59 e1 3d 2f be e9 bd
       0.23189466 -0.1959851 0.110033624 -0.11413228
000190 5d 6f 3e be 41 53 24 be 9b b8 40 bd 0a 24 b6 bb
       -0.18597169 -0.16047384 -0.047051053 -0.0055584954
0001a0 a5 f5 bb bd c9 dc 7c be ca 4d 9c bb e0 58 03 be
       -0.09177712 -0.24693598 -0.0047700154 -0.12826872
0001b0 a1 92 5b ba be c9 a9 bd 8a ec 54 3d 14 97 d5 3d
       -0.00083760364 -0.082904324 0.051983394 0.104292065
0001c0 15 04 c8 bc 11 ca 52 be d0 d2 b0 3d 57 66 4b bd
       -0.024416009 -0.20584895 0.08633959 -0.049658146
0001d0 5a b9 f9 bd f6 a0 45 bd ac 8b f9 bb 23 c1 b8 bd
       -0.12193556 -0.048249207 -0.007615527 -0.09021213
0001e0 c1 be b3 bd 60 e0 b0 bd cd e2 2a be 69 7e 14 3e
       -0.08776618 -0.08636546 -0.1668808 0.14501347
0001f0 bb 7f 01 bd 91 25 9a bc 61 83 c4 3d b1 94 37 3e
       -0.031615954 -0.018816741 0.09595371 0.17927815
000200 2d 7b ec 3d 98 a9 6d be eb f5 38 3e 1e 43 7d bd
       0.115469314 -0.23209226 0.1806256 -0.061831586
000210 42 86 0a 3d 35 67 b1 3c 45 b1 45 be fb 0e 6b bc
       0.033819444 0.021655658 -0.19305904 -0.014346833
000220 40 ba 32 3c 97 e5 b9 3b 2b 5d d1 3a de 08 ca 3b
       0.010908663 0.005673121 0.0015973201 0.006165608
000230 10 b3 0c 3e 4a b3 cf 3c 82 69 9c bd 15 ef b6 3c
       0.13740182 0.025354046 -0.076373115 0.0223308
000240 45 00 89 bd 85 84 67 3d 57 8f ce bd 68 fd 14 3d
       -0.066895045 0.056522865 -0.10085934 0.03637448
000250 3d b5 c6 bc 8a 38 40 bb 94 4a 88 be 6b 7c 82 bd
       -0.024256343 -0.0029330575 -0.266194 -0.06371387
000260 73 86 24 be fd 7a b7 bc 82 29 e3 3b c9 7b 86 3e
       -0.16066913 -0.022397513 0.0069324384 0.26266316
000270 cb 0e 14 be b1 d2 bb 3d e4 94 f9 3b af 07 1e 38
       -0.14458768 0.091710456 0.007616626 3.767729e-05
000280 93 43 c9 3d 7b b0 f1 bd 51 5a 45 be 07 53 63 bd
       0.09827342 -0.11801239 -0.19272734 -0.055499103
000290 31 b2 d6 3e 9d da f1 3c 36 58 04 bc 0f f4 71 3d
       0.41932824 0.029523188 -0.008077672 0.059070643
0002a0 64 cb 48 3d 05 3b 9f 3e dd 84 47 3e 0b 87 22 bd
       0.049022093 0.31099716 0.19484277 -0.03967957
0002b0 da ed ca bc 65 d6 9f bb 21 2a 46 be e9 1c 5e be
       -0.02477162 -0.0048778527 -0.19352008 -0.21690716
0002c0 28 2a 9f 3d c4 39 6b bc 04 4e 1f 3e 0e bf 53 bc
       0.077717125 -0.014357034 0.15557104 -0.012923969
0002d0 b8 b0 91 3c 39 55 4f 3d 42 69 8d be a3 13 4f bd
       0.017784461 0.050618384 -0.27619368 -0.050555836
0002e0 f8 ca 3c be f3 64 42 3d c0 fb 5e be 17 f3 53 be
       -0.18436801 0.047459554 -0.21775723 -0.206982
0002f0 d2 2e fb bc cf 80 5f 3c fe b3 ba 3d 31 ac a2 3b
       -0.030661974 0.01364155 0.09116362 0.0049643745
000300 82 51 b2 bd 69 55 05 be d3 38 d8 3b dc 9b f7 bc
       -0.08706953 -0.13020863 0.006598571 -0.030225687
000310 a6 07 9f bd b8 5e c8 3d 51 17 18 3e 8c 11 4f 3e
       -0.07765131 0.09783691 0.14852645 0.20221537
000320 53 ae ec bd c4 a1 a2 bb e4 ff 28 bd f9 3d 2b 3e
       -0.11556687 -0.0049631316 -0.04125966 0.1672286
000330 f3 3c 27 3b f1 fb 6e bb 2a f9 9d 3d f6 69 46 be
       0.0025518506 -0.0036466087 0.0771354 -0.19376358
000340 82 ea 14 be 8e 26 87 be b7 3c 48 be bc 5c 32 3e
       -0.14542583 -0.26396602 -0.19554411 0.17418188
000350 09 f7 f4 3d b4 c8 53 3e 65 dd 60 3e d7 0e 59 3d
       0.11961181 0.20682031 0.21959455 0.052992668
000360 09 f8 80 bd 0f 54 70 3e 6a 77 03 3d b5 7f cc 3c
       -0.06297309 0.23469566 0.032096304 0.02496324
000370 fe a1 81 3c 29 38 1a 3e 77 cf 7d 3d d3 03 49 3a
       0.015824314 0.15060486 0.061965432 0.00076681114
000380 b4 48 d6 be 61 3b 8f bd 5f 4a 9f bd 61 7e 14 3e
       -0.41852343 -0.069937475 -0.07777857 0.14501335
000390 ef a8 38 be 97 f0 27 3e 45 63 01 3e 30 f2 36 bb
       -0.18033193 0.16400371 0.12635525 -0.002791535
0003a0 96 33 50 3e 53 24 11 be a5 f1 b9 bb a0 10 2d be
       0.20332178 -0.14174013 -0.005674558 -0.16900873
0003b0 a9 51 88 bb 0f bf 6d 3e 27 80 38 bd 61 f8 5b 3e
       -0.0041601253 0.23217414 -0.04504409 0.21481468
0003c0 44 98 70 3e e2 ff 98 3e 0b f8 4d 3e d9 91 b5 bd
       0.23495585 0.29882723 0.20114152 -0.08865709
0003d0 4a 06 ec ba e6 5c 22 3e 93 64 2a 3d 48 7d ac bd
       -0.0018007245 0.1585575 0.04159982 -0.08422333
0003e0 bf ec 4a bd 9a e8 7f bd ef b3 42 3d 30 95 98 bc
       -0.049542185 -0.062477686 0.04753488 -0.018625826
0003f0 1e 61 6f bd 27 e3 ca bc 9e c3 10 bd d4 5f 98 bb
       -0.058442228 -0.024766518 -0.035342805 -0.0046500955

mean_net.4.bias f4 [4]
000000 7c 94 33 3d 62 a0 9e bd db 24 20 3d cb b5 53 3d
       0.043842778 -0.07745434 0.039097648 0.051687043
