src/rl/model/actor_model25-09-2024_12-08-09/20.pt (torch, 24038 bytes, 7 tensors)

logstd f4 [4]
-0.13992433 -0.1413027 -0.1411752 -0.14572735
00000000: 5348 0fbe a8b1 10be 3b90 10be 8d39 15be

mean_net.0.weight f4 [64, 15]
0.27042928 1.2657162 0.12448887 -0.82582563 -1.0076681 0.12078953 0.13788754 0.36192426
-0.1826136 0.51542044 0.3376809 -0.3378478 1.0428832 -1.2623429 1.6996396 -0.020635538
0.15928063 -0.16970593 -0.031405352 0.028112218 -0.42867425 0.005828017 0.37898135 0.19999653
-0.08186061 0.19757336 0.29828066 -0.27765098 -1.1327357 -0.5006076 -0.19289097 -0.79314965
1.872513 -0.31041402 0.5788187 0.23315448 -0.115858205 -0.2679531 0.045715734 0.78349
0.17431587 0.17120565 0.103459276 -1.4161646 1.3407888 0.0684105 0.19736086 -1.4360182
-0.5174424 0.53967154 0.059608027 -0.11310095 -0.37181565 -0.18602172 0.2519384 0.19591685
0.023249447 0.90390646 0.21158183 -1.0187447 0.31453264 -0.02294929 -1.6094337 0.5300326
0.23827888 0.09726978 -0.14138724 -0.44163975 -0.06895441 -0.25531623 -0.0055350065 0.33551422
-1.5272028 0.26404482 0.74888134 -0.28886738 0.8607256 1.0492915 -0.25289446 -0.21810874
0.2798536 -0.27774566 0.5966752 -0.11310509 -0.46533754 0.025690109 -0.22421004 -1.2739995
0.22261861 0.069382615 -0.1863201 -0.19867909 -0.5657738 -0.09133476 -0.68062973 0.10002949
-0.017444259 -0.16602418 -0.18868047 -0.44496727 -0.22423361 -0.22359797 -0.3022614 0.30968478
-0.5725421 -0.058064245 0.28209913 1.0265598 1.0356218 -1.014033 -0.07626895 -0.025847383
0.03431599 -0.50284076 0.3534212 -0.23706973 0.09314256 -0.11329891 1.3382183 -0.43626758
0.06508445 -0.19935562 1.0520309 -0.59851617 -0.95191616 0.11746025 -0.075663574 0.0015045349
-0.21878196 -0.12879995 0.031981446 0.025409428 0.9471679 -0.10648061 -0.35637584 0.17561546
-1.4358318 -1.3324215 -0.99256825 -0.19599672 0.17798525 -0.16396113 0.1413768 0.20014979
-0.029064294 -0.15357366 0.13375036 1.193929 -1.5554968 -0.66895735 0.1072491 -1.0705942
-0.6556399 -0.56580573 -1.4119848 -0.29757673 -0.14069057 -0.3145509 0.2904004 0.2426606
0.10089171 -0.10640815 -1.0047326 -0.025599116 2.3514972 -0.10569436 1.1884664 -0.11596528
1.5698007 -0.37781218 -0.16953588 0.22630972 0.25294346 0.269634 0.086529434 0.106394224
0.28595498 1.2308643 -0.20271452 0.6982245 -0.038100164 0.2069068 1.074037 -1.0161487
0.65966403 -0.20299199 -0.2565432 0.018594079 0.06780258 0.28100738 -0.11201131 -0.2788593
-1.722374 -0.26572302 -0.37863588 0.07817889 -0.12963891 0.61710507 0.81464005 -0.21581948
0.36725867 0.31383637 -0.2062032 0.22298415 0.19120347 -0.17921713 0.2010669 0.8034456
0.54855293 1.1149657 0.007283752 0.38829258 -0.88819057 -0.3275014 -0.50130564 0.23750964
-0.23425448 -0.029322652 -0.33822507 -0.022859557 -0.13278653 0.07962421 0.58779395 0.2689288
0.78382653 -0.15867816 0.06842554 -0.43381736 -1.3241595 0.36595446 -0.06621176 -0.30193272
-0.107449874 -0.13255994 -0.18360022 -0.1897527 -0.32601953 0.7760654 0.66702414 1.1610914
0.0950634 0.08775548 0.6042208 -0.24695775 0.82625604 0.22928073 -0.08845146 0.23136047
0.29895237 0.3189555 0.07059577 0.49559972 -0.08180326 -0.47610313 1.5692099 0.012310632
00000000: b575 8a3e fd02 a23f 05f4 fe3d 4f69 53bf
00000010: 45fb 80bf 8060 f73d 6432 0d3e 234e b93e
00000020: 0fff 3abe 98f2 033f 83e4 ac3e 63fa acbe
00000030: 327d 853f 7494 a1bf ca8d d93f dc0b a9bc
00000040: 761a 233e 64c7 2dbe e6a2 00bd 984b e63c
00000050: 317b dbbe f3f8 be3b d809 c23e e4cb 4c3e
00000060: 89a6 a7bd ac50 4a3e 3eb8 983e 4528 8ebe
00000070: 7cfd 90bf d227 00bf 3685 45be db0b 4bbf
00000080: 82ae ef3f 96ee 9ebe 762d 143f 0cc0 6e3e
00000090: 1147 edbd 2631 89be 6c40 3b3d cd92 483f
000000a0: dc7f 323e 8950 2f3e 75e2 d33d e244 b5bf
000000b0: f89e ab3f ce1a 8c3d f718 4a3e 72cf b7bf
000000c0: 1b77 04bf ea27 0a3f 8c27 743d 79a1 e7bd
000000d0: 9f5e bebe 7a7c 3ebe 12fe 803e 6d9e 483e
000000e0: a075 be3c 6a66 673f e8a8 583e 3a66 82bf
000000f0: 6c0a a13e 2600 bcbc ec01 cebf 37b0 073f
00000100: 61ff 733e 6135 c73d d1c7 10be 9b1e e2be
00000110: f837 8dbd cfb8 82be 005f b5bb 85c8 ab3e
00000120: 627b c3bf e230 873e b0b6 3f3f 6de6 93be
00000130: 8358 5c3f 2f4f 863f 627b 81be e657 5fbe
00000140: f948 8f3e ae34 8ebe b5bf 183f a4a3 e7bd
00000150: b940 eebe 1074 d23c 5197 65be 6a12 a3bf
00000160: 22f6 633e 7918 8e3d b2ca 3ebe 8872 4bbe
00000170: 8dd6 10bf b80d bbbd c03d 2ebf 43dc cc3d
00000180: 43e7 8ebc 3e02 2abe 7435 41be c0d2 e3be
00000190: 7f9d 65be def6 64be 02c2 9abe 018f 9e3e
000001a0: 1e92 12bf c6d4 6dbd 4c6f 903e 5066 833f
000001b0: 418f 843f d5cb 81bf e532 9cbd e4bd d3bc
000001c0: ec8e 0c3d 2cba 00bf a0f3 b43e 68c2 72be
000001d0: 87c1 be3d 4209 e8bd bd4a ab3f 775e dfbe
000001e0: ff4a 853d e123 4cbe f3a8 863f 5b38 19bf
000001f0: c7b0 73bf 008f f03d 81f5 9abd d033 c53a
00000200: 6108 60be 22e4 03be fafe 023d 6f27 d03c
00000210: 9879 723f 8212 dabd e576 b6be 8ad4 333e
00000220: 56c9 b7bf ca8c aabf f418 7ebf 5db3 48be
00000230: c441 363e 6de5 27be 14c5 103e 11f4 4c3e
00000240: 3e18 eebc 6a42 1dbe dbf5 083e aad2 983f
00000250: 851a c7bf ca40 2bbf 6ba5 db3d 3b09 89bf
00000260: 04d8 27bf a5d8 10bf ebbb b4bf fa5b 98be
00000270: 3011 10be d10c a1be 5caf 943e 057c 783e
00000280: 50a0 ce3d 84ec d9bd 149b 80bf 3db5 d1bc
00000290: ee7e 1640 4976 d8bd ab1f 983f 347f edbd
000002a0: 3bef c83f 9970 c1be d09a 2dbe bcbd 673e
000002b0: ce81 813e 780d 8a3e 5836 b13d 37e5 d93d
000002c0: b168 923e f68c 9d3f 6594 4fbe d7be 323f
000002d0: eb0e 1cbd 60df 533e 0b7a 893f 2911 82bf
000002e0: bedf 283f 22dd 4fbe a159 83be 9c52 983c
000002f0: 14dc 8a3d 33e0 8f3e 3066 e5bd a5c6 8ebe
00000300: c076 dcbf d90c 88be 90dc c1be 411c a03d
00000310: 10c0 04be 99fa 1d3f 408c 503f c8ff 5cbe
00000320: 5409 bc3e 29af a03e ef26 53be f555 643e
00000330: d8ca 433e b284 37be 7be4 4d3e 9cae 4d3f
00000340: f76d 0c3f 32b7 8e3f 8aac ee3b 49ce c63e
00000350: 7560 63bf 43ae a7be 9155 00bf ba35 733e
00000360: 68e0 6fbe 0f36 f0bc d62b adbe f743 bbbc
00000370: 31f9 07be 0512 a33d aa79 163f 09b1 893e
00000380: dba8 483f 877c 22be b122 8c3d 4f1d debe
00000390: 0f7e a9bf 625e bb3e 089a 87bd ed96 9abe
000003a0: ae0e dcbd cbbd 07be b201 3cbe 884e 42be
000003b0: 08ec a6be 39ac 463f 18c2 2a3f a59e 943f
000003c0: 9ab0 c23d 25b9 b33d 37ae 1a3f 7ee2 7cbe
000003d0: 8485 533f 91c8 6a3e 0a26 b5bd c2e9 6c3e
000003e0: 4910 993e 234e a33e 8494 903d 3fbf fd3e
000003f0: 7888 a7bd cac3 f3be dfdb c83f 88b2 493c

mean_net.0.bias f4 [64]
0.09420322 -0.0888479 0.019088944 0.22002682 -0.14683062 -0.16258022 -0.14430775 0.01579862
-0.134866 -0.046624728 -0.13536942 -0.08616028 -0.07614976 -0.10217514 0.123252906 0.15746926
0.27624708 -0.081294455 0.20049806 -0.28903496 0.01795678 0.03124385 0.39033166 0.13509978
-0.112903565 0.113337286 0.107197225 0.021346468 0.09987972 0.20572275 -0.12821308 -0.021144958
0.2949937 0.16770087 0.026695969 -0.2097649 0.1754741 -0.19310404 -0.20133792 -0.24131481
0.22196437 -0.10433399 0.1344347 -0.2476499 -0.018087786 0.043333314 -0.19699386 -0.2552595
0.18727815 -0.14076374 0.05744756 0.115433834 -0.15174568 -0.0945536 -0.23149878 0.25799984
0.29067457 -0.21471575 -0.065528244 -0.14916535 0.061814718 0.14159672 0.2824668 0.1499524
00000000: 9eed c03d e3f5 b5bd 6b60 9c3c b64e 613e
00000010: c45a 16be 6e7b 26be 69c5 13be 1c6c 813c
00000020: 501a 0abe 92f9 3ebd 489e 0abe cd74 b0bd
00000030: 68f4 9bbd 3341 d1bd 056c fc3d 9f3f 213e
00000040: 4270 8d3e b57d a6bd 5d4f 4d3e 64fc 93be
00000050: 191a 933c 1af3 ff3c 8dd9 c73e 9957 0a3e
00000060: fc39 e7bd 611d e83d 388a db3d cade ae3c
00000070: bd8d cc3d fca8 523e 4a4a 03be 3138 adbc
00000080: 6a09 973e c7b9 2b3e 81b1 da3c 9ccc 56be
00000090: 7caf 333e 11bd 45be 872b 4ebe 3b1b 77be
000000a0: a14a 633e 0fad d5bd 40a9 093e ef97 7dbe
000000b0: d62c 94bc 467e 313d c2b8 49be 60b1 82be
000000c0: d8c5 3f3e 5f24 10be 224e 6b3d 9368 ec3d
000000d0: 3863 1bbe 51a5 c1bd 040e 6dbe 8e18 843e
000000e0: 4cd3 943e 72de 5bbe ac33 86bd cdbe 18be
000000f0: 6e31 7d3d bbfe 103e 7d9f 903e 1f8d 193e

mean_net.2.weight f4 [64, 64]
-0.014474412 -0.18113022 0.08009584 0.065640554 -0.11108175 0.13442515 0.1000942 -0.041985508
-0.1763647 0.059945323 -0.025857285 0.068640836 -0.17981601 0.16229698 -0.011304284 -0.021928433
0.086897984 0.015135106 -0.1542047 0.10081063 0.13158071 -0.08724247 0.13988072 -0.02102616
-0.058567178 0.020431532 0.05915752 -0.031218313 -0.14906985 -0.050480288 0.039120555 0.1564572
0.13136701 0.083168425 -0.14498554 0.01734507 -0.010188076 -0.21399713 0.004602231 -0.0075714174
-0.09250267 0.035600785 -0.06263062 0.16776188 -0.1290786 -0.0137372995 -0.06748984 0.08445673
-0.099853106 -0.08238516 0.1623391 0.01467538 -0.0708407 0.13414451 -0.26414427 -0.051413756
0.035020187 0.06868826 0.05732856 0.21762842 -0.09454151 -0.18265443 -0.09908887 -0.28808224
0.009096705 -0.12322447 0.031349648 0.026787596 -0.08397937 -0.17799321 0.00880936 0.1513066
0.031328328 0.12047392 -0.05026107 -0.09983727 0.009652819 -0.25507972 -0.1970244 0.019707356
-0.060357887 0.12612109 -0.05263427 -0.018609187 0.0048209666 -0.048684787 -0.103904456 -0.2389862
-0.24014764 -0.015441833 -0.0911419 -0.0856408 -0.15121113 -0.20423205 0.058359005 -0.21439023
-0.12004852 0.09539665 -0.010436606 0.047021728 -0.04585174 -0.059029818 0.22508456 -0.07481891
0.17370266 0.27387872 -0.07970381 0.14806955 -0.022217302 0.24724796 0.014389827 0.03148405
0.03409348 0.012853634 -0.07485841 0.031869948 -0.09802481 -0.06365463 -0.11486016 -0.21415918
-0.1457793 -0.113026775 -0.11564481 -0.1035699 0.0450769 0.0701483 0.21317752 -0.13635743
-0.16694152 0.051355254 -0.037850067 -0.015621226 0.11433423 0.19198957 0.12522766 -0.09762615
-0.122341834 -0.1094098 0.039660342 -0.0151753 -0.16546954 0.03697255 -0.013061379 0.0036141444
0.2394954 0.017463906 -0.04496222 -0.13047293 0.08977638 -0.03506768 -0.012240206 -0.024463698
0.0019446263 -0.058943607 -0.11304701 0.1556136 -0.019512132 -0.0009387895 0.017951207 0.06937081
0.14290065 0.10113904 -0.09288749 -0.11218731 0.17841554 -0.034044825 -0.085787155 -0.19747409
0.077926226 -0.30660418 -0.13712862 0.032528196 0.26164898 -0.049412765 -0.10602629 0.030018741
0.022930982 0.21856013 0.021016799 0.022206279 0.19394064 -0.022122147 0.13524371 -0.1144469
0.25623116 0.017353306 0.04503017 0.16196875 0.16207686 -0.034238722 -0.091317564 0.11474622
0.0019119976 -0.03888587 0.13009566 -0.06487388 -0.14513439 0.059747607 -0.018426808 0.06490525
-0.0417755 0.03698584 -0.037528176 0.14178367 0.00917889 -0.25299248 0.13539574 0.049512554
-0.07528414 -0.098946206 0.09893043 -0.1329691 0.06654541 -0.083098866 0.02794044 0.012805846
-0.056354903 -0.09476682 -0.025398023 -0.10683295 -0.15696608 -0.010970996 0.08755189 -0.07662721
-0.0637106 -0.1799342 0.12696335 -0.018366063 -0.12607755 0.011331559 -0.06035069 0.067500934
0.030371033 0.13652343 -0.057034627 0.05864216 -0.029248204 -0.031688385 -0.061473534 0.09111489
0.07796451 -0.013338569 -0.092460126 0.046085186 0.008708943 -0.06583739 0.0034284221 -0.11034254
-0.07424147 -0.05574186 0.015665514 0.042381205 0.024173113 0.048568588 0.109500684 -0.0441933
00000000: 1626 6dbc 337a 39be 4a09 a43d 8e6e 863d
00000010: d47e e3bd bfa6 093e 30fe cc3d fff8 2bbd
00000020: f398 34be 3a89 753d a8d2 d3bc 9193 8c3d
00000030: b021 38be 2e31 263e 9b35 39bc 42a3 b3bc
00000040: 92f7 b13d 3cf9 773c d6e7 1dbe ce75 ce3d
00000050: 18bd 063e 2eac b2bd e43c 0f3e 0e3f acbc
00000060: 23e4 6fbd 0760 a73c 284f 723d 8cbd ffbc
00000070: c4a5 18be 6bc4 4ebd e03c 203d 5136 203e
00000080: 1385 063e 3554 aa3d 1777 14be 4017 8e3c
00000090: e3eb 26bc 1022 5bbe 50ce 963b a719 f8bb
000000a0: 0a72 bdbd 21d2 113d 7c44 80bd c5c9 2b3e
000000b0: 2e2d 04be 6912 61bc 1d38 8abd a6f7 ac3d
000000c0: c97f ccbd 8db9 a8bd 393c 263e 0171 703c
000000d0: ee14 91bd 2e5d 093e eb3d 87be 3b97 52bd
000000e0: 5471 0f3d 6eac 8c3d 5ad1 6a3d fcd9 5e3e
000000f0: fb9e c1bd c309 3bbe 1bef cabd 847f 93be
00000100: 590a 153c 1c5d fcbd 7d68 003d a971 db3c
00000110: 60fd abbd da43 36be 2255 103c 1ef0 1a3e
00000120: 2252 003d 08bb f63d 8dde 4dbd 7c77 ccbd
00000130: db26 1e3c cf99 82be c4c0 49be 5271 a13c
00000140: d539 77bd e325 013e 0897 57bd 4b72 98bc
00000150: 33f9 9d3b b369 47bd dccb d4bd ccb8 74be
00000160: 43e9 75be beff 7cbc 9ba8 babd 7264 afbd
00000170: 17d7 1abe 3522 51be da09 6f3d 1d89 5bbe
00000180: 00dc f5bd 525f c33d 4cfe 2abc db99 403d
00000190: 09cf 3bbd 40c9 71bd 917c 663e a83a 99bd
000001a0: 1cdf 313e d539 8c3e c03b a3bd 8b9f 173e
000001b0: 0f01 b6bc 922e 7d3e 4fc3 6b3c 6bf5 003d
000001c0: 9ba5 0b3d 0c98 523c 5e4f 99bd 108a 023d
000001d0: 3bc1 c8bd 5c5d 82bd ce3b ebbd 8b4c 5bbe
000001e0: 2b47 15be 957a e7bd 30d7 ecbd 751c d4bd
000001f0: 8ea2 383d e9a9 8f3d 354b 5a3e 48a1 0bbe
00000200: b8f2 2abe e359 523d ac08 1bbd 2cf0 7fbc
00000210: 1128 ea3d ea98 443e ae3b 003e 38f0 c7bd
00000220: 5b8e fabd 3f12 e0bd e272 223d d2a1 78bc
00000230: d970 29be 8770 173d 65ff 55bc 48db 6c3b
00000240: 483e 753e 7710 8f3c 4e2a 38bd b29a 05be
00000250: aedc b73d 21a3 0fbd 258b 48bc 1868 c8bc
00000260: d5e2 fe3a da6e 71bd 3185 e7bd 2c59 1f3e
00000270: e8d7 9fbc 1919 76ba 690e 933c 4912 8e3d
00000280: 8c54 123e fc21 cf3d cc3b bebd 76c2 e5bd
00000290: 90b2 363e 9672 0bbd 2db1 afbd a636 4abe
000002a0: c997 9f3d 39fb 9cbe 726b 0cbe 493c 053d
000002b0: dbf6 853e 0a65 4abd 5024 d9bd dde9 f53c
000002c0: c1d9 bb3c 3ace 5f3e 6c2b ac3c f1e9 b53c
000002d0: 6098 463e 8139 b5bc 547d 0a3e 2363 eabd
000002e0: bb30 833e 8528 8e3c 8e71 383d 23db 253e
000002f0: 7af7 253e e73d 0cbd b404 bbbd 1100 eb3d
00000300: fe9b fa3a ca46 1fbd cc37 053e 99dc 84bd
00000310: 1c9e 14be e8b9 743d d1f3 96bc 0bed 843d
00000320: c91c 2bbd 777e 173d 25b7 19bd bd2f 113e
00000330: 0e63 163c 3b88 81be 2ea5 0a3e adcd 4a3d
00000340: 922e 9abd 4fa4 cabd 0a9c ca3d 0d29 08be
00000350: f648 883d bd2f aabd 5ae3 e43c 9ccf 513c
00000360: 66d4 66bd 1b15 c2bd 840f d0bc 3ccb dabd
00000370: b7bb 20be b1bf 33bc 684e b33d baee 9cbd
00000380: b47a 82bd ac40 38be ae02 023e 6d74 96bc
00000390: 791a 01be 01a8 393c 4932 77bd ee3d 8a3d
000003a0: accc f83c cccc 0b3e 249d 69bd c332 703d
000003b0: ee99 efbc aecb 01bd accb 7bbd 729a ba3d
000003c0: dbab 9f3d 038a 5abc bc5b bdbd d2c3 3c3d
000003d0: f4af 0e3c c1d5 86bd 61af 603b 45fb e1bd
000003e0: e90b 98bd 9451 64bd f754 803c ea97 2d3d
000003f0: b106 c63c dbef 463d e541 e03d 0904 35bd

mean_net.2.bias f4 [64]
-0.026694179 0.15416044 0.014979004 -0.0536068 -0.10621044 0.09216375 -0.04315036 0.011151125
0.07245382 0.13817471 -0.023627225 -0.04432641 0.022278167 0.02053777 -0.12621269 -0.036040273
-0.008682515 0.06085103 -0.09440419 0.041432522 0.022404859 0.061883785 0.035549052 0.031473443
-0.091248974 0.08444606 0.010278687 -0.13228808 -0.12947875 0.07624083 0.06821071 -0.048321497
-0.07435174 0.1066622 -0.060132086 -0.016779019 0.040126853 0.09532339 -0.078573704 0.05256826
0.087605156 -0.107727066 -0.010046447 -0.021002566 -0.06846182 0.020075466 -0.06747283 0.098709285
0.0075953533 -0.08372094 0.07371662 -0.09296102 -0.12956835 0.14820687 -0.0053123743 -0.09705621
-0.12505971 0.08125166 -0.063811354 -0.027101377 -0.05341522 0.074122556 -0.028620964 0.04830925
00000000: c0ad dabc 3cdc 1d3e 7f6a 753c ce92 5bbd
00000010: dc84 d9bd 59c0 bc3d 6fbe 30bd 35b3 363c
00000020: ab62 943d ac7d 0d3e e28d c1bc 9c8f 35bd
00000030: b480 b63c d33e a83c e63d 01be f79e 13bd
00000040: 1b41 0ebc ee3e 793d fc56 c1bd 26b5 293d
00000050: 658a b73c da79 7d3d e29b 113d 4cea 003d
00000060: bee0 babd 0ef2 ac3d f067 283c 8776 07be
00000070: 1496 04be 2724 9c3d 0fb2 8b3d c3ec 45bd
00000080: ba45 98bd b671 da3d 104d 76bd 2774 89bc
00000090: 0e5c 243d e938 c33d 40eb a0bd d151 573d
000000a0: 556a b33d 02a0 dcbd da99 24bc 930d acbc
000000b0: b635 8cbd 4e75 a43c 322f 8abd 1828 ca3d
000000c0: 71e2 f83b e275 abbd bdf8 963d 5962 bebd
000000d0: 91ad 04be 8bc3 173e 6d13 aebb 68c5 c6bd
000000e0: a70f 00be 4567 a63d 87af 82bd b503 debc
000000f0: ebc9 5abd 91cd 973d 8376 eabc ecdf 453d

mean_net.4.weight f4 [4, 64]
-0.13465934 -0.0059075584 0.11768834 0.13364471 0.09487371 -0.15573442 0.059179448 -0.016618317
0.14895879 0.1524546 -0.12638508 -0.033191666 -0.06647022 0.01834997 -0.001982922 -0.11409463
-0.11428079 0.010295259 0.13088028 -0.05818923 0.0035073813 0.07240732 0.110843055 0.16901821
0.054362927 0.070876494 0.10514757 0.0069329734 0.15581991 -0.027866876 -0.014771546 -0.048321757
0.03238782 -0.03533234 -0.13434373 -0.059756044 -0.010301498 -0.004608893 -0.13253789 0.03285827
0.1081565 -0.043146823 -0.029073624 -0.07619529 -0.12113608 0.12887743 0.021636046 -0.080024116
-0.014509275 -0.11754953 0.16403757 -0.028356103 0.14394207 0.01955357 0.09752566 -0.04771166
-0.09131073 0.13504875 -0.14092651 0.061516114 0.08732981 0.0034322909 0.044788275 -0.019174047
0.032432903 0.1675428 -0.1972254 0.08676812 0.02467031 0.11733582 -0.13344489 -0.16537379
-0.011026565 0.13776769 -0.047990456 -0.22274664 0.041129384 0.03634013 0.21820152 -0.042245947
0.10335863 0.040214863 -0.11953553 -0.01969325 -0.023900945 -0.06782366 0.12103052 0.057007644
-0.07278814 0.07112441 0.018821158 -0.18750066 -0.11099762 -0.1394212 0.023032961 0.1131708
-0.06813828 0.06318189 -0.07883796 0.03859933 -0.0006062004 -0.050852247 0.024098007 -0.011067717
-0.0142300865 -0.109724045 -0.0525157 -0.068546355 0.0656908 0.16051668 -0.21095434 0.08492475
-0.034768775 -0.19742124 0.019057134 0.07908303 -0.14207199 -0.023708513 0.0963453 -0.04346381
-0.017800467 0.07326444 -0.021274688 -0.009699739 -0.09166198 0.11263552 0.010662162 -0.04146338
0.092078105 -0.110559665 0.2665936 -0.08091153 0.20664562 -0.030384474 -0.04279611 -0.078063965
-0.14881615 0.011808248 -0.16211888 -0.017461946 0.14294787 0.07253778 0.27006796 -0.13649532
0.048966225 0.014215829 -0.0033007977 0.13619015 0.028097538 0.13971597 -0.033563912 -0.13586065
-0.01986378 0.013689156 -0.15022485 -0.12971368 -0.23429596 0.13950068 0.008014782 -0.07921013
0.052803617 -0.055890374 -0.041223805 -0.12577482 0.24379742 -0.044093456 -0.007067108 -0.28402394
-0.15155911 0.035337232 -0.13369988 -0.18964389 -0.11920156 -0.012347992 -0.060769107 -0.032259893
0.12572867 -0.032949135 0.0071665137 0.048923362 0.09654752 0.053336848 -0.19623308 -0.058692753
-0.024614409 0.111181416 0.12824912 0.19151059 0.014104794 -0.12912418 0.0068288296 0.012281816
-0.006303716 0.051231127 -0.05328218 0.17413062 0.10739995 -0.13841753 0.051137242 -0.14963949
-0.11560067 -0.033371884 0.04424847 -0.059557483 0.002156326 -0.053956136 -0.027653309 0.021240795
0.032379847 -0.059468143 0.072832145 0.24794431 -0.053403925 -0.16480087 -0.2697148 0.09553706
-0.08835591 -0.13310713 0.013895187 -0.05222883 -0.09005269 -0.106613934 0.027694514 -0.10547952
0.01809026 -0.13571225 0.03413326 -0.097642705 0.05254253 -0.08645307 0.12973936 -0.04723421
-0.005667471 0.17550838 0.04240815 0.006037524 0.24028598 0.055470083 -0.016376933 -0.22770782
-0.023137623 0.09763009 -0.0073125684 -0.070143595 0.092958815 0.23482315 0.15488285 -0.078726225
-0.017294828 0.094611555 0.076568075 -0.09521148 0.05342561 -0.12340345 -0.034614865 -0.087535694
00000000: 23e4 09be 3194 c1bb 9606 f13d 29da 083e
00000010: 264d c23d d878 1fbe 2666 723d 2323 88bc
00000020: a788 183e 0f1d 1c3e 176b 01be fcf3 07bd
00000030: 8a21 88bd ad52 963c e9f3 01bb 72aa e9bd
00000040: 0c0c eabd 72ad 283c 7b05 063e d457 6ebd
00000050: 18dc 653b 4a4a 943d af01 e33d 1c13 2d3e
00000060: a9ab 5e3d b227 913d 9c57 d73d ff2d e33b
00000070: 418f 1f3e 1349 e4bc 5b04 72bc 09ed 45bd
00000080: 17a9 043d a5b8 10bd 6791 09be c1c2 74bd
00000090: 9dc7 28bc 3206 97bb 03b8 07be 6596 063d
000000a0: 2881 dd3d b9ba 30bd cf2b eebc 470c 9cbd
000000b0: 3116 f8bd 72f8 033e 143e b13c afe3 a3bd
000000c0: 4fb8 6dbc cfbd f0bd 77f9 273e 0f4b e8bc
000000d0: 8d65 133e cf2e a03c 89bb c73d 4d6d 43bd
000000e0: 1f01 bbbd 384a 0a3e 0a4f 10be 52f8 7b3d
000000f0: f9d9 b23d 49f0 603b e973 373d e412 9dbc
00000100: 5dd8 043d 5790 2b3e 75f5 49be 7cb3 b13d
00000110: 6419 ca3c c34d f03d c7a5 08be bf57 29be
00000120: c4a8 34bc f912 0d3e a491 44bd b217 64be
00000130: 4977 283d 63d9 143d 3870 5f3e 160a 2dbd
00000140: b0ad d33d 57b8 243d 0bcf f4bd bd53 a1bc
00000150: eacb c3bc 22e7 8abd d9de f73d d980 693d
00000160: f311 95bd ada9 913d d42e 9a3c 2c00 40be
00000170: b852 e3bd 6ec4 0ebe 9faf bc3c 18c6 e73d
00000180: 158c 8bbd 8265 813d cc75 a1bd 551a 1e3d
00000190: 6ce9 1eba 724a 50bd 2f69 c53c 5f55 35bc
000001a0: 4f25 69bc 00b7 e0bd b41a 57bd 0862 8cbd
000001b0: e688 863d 7c5e 243e 6a04 58be 07ed ad3d
000001c0: b469 0ebd cb28 4abe b51d 9c3c 49f6 a13d
000001d0: 527b 11be 5b38 c2bc af50 c53d 1c07 32bd
000001e0: 49d2 91bc ab0b 963d 4148 aebc a7eb 1ebc
000001f0: 47b9 bbbd 74ad e63d 59b0 2e3c 81d5 29bd
00000200: 7293 bc3d 1b6d e2bd f57e 883e f2b4 a5bd
00000210: e99a 533e dce8 f8bc f94a 2fbd 00e0 9fbd
00000220: 4363 18be 6277 413c 7e02 26be 5b0c 8fbc
00000230: ed60 123e b08e 943d 5946 8a3e 6ec5 0bbe
00000240: cf90 483d 82e9 683c 3252 58bb 6e75 0b3e
00000250: cf2c e63c b411 0f3e 507a 09bd 0e1f 0bbe
00000260: 5eb9 a2bc 7b48 603c 8bd4 19be aad3 04be
00000270: 48eb 6fbe 44d9 0e3e 6f50 033c ec38 a2bd
00000280: 9b48 583d 4eed 64bd 4bda 28bd 1dcb 00be
00000290: 08a6 793e 579b 34bd 3393 e7bb 966b 91be
000002a0: 5032 1bbe c6bd 103d 9fe8 08be 0232 42be
000002b0: f31f f4bd 3b4f 4abc 07e9 78bd f322 04bd
000002c0: 04bf 003e acf5 06bd 13d5 ea3b dd63 483d
000002d0: b5ba c53d bd77 5a3d 53f1 48be d067 70bd
000002e0: 28a4 c9bc 15b3 e33d bd53 033e 5a1b 443e
000002f0: cb17 673c 2139 04be 60c4 df3b ac39 493c
00000300: 678f cebb bbd7 513d 6a3e 5abd 4c4f 323e
00000310: 81f4 db3d 53bd 0dbe 4975 513d 183b 19be
00000320: 0bc0 ecbd f5b0 08bd e23d 353d 8cf2 73bd
00000330: 2651 0d3b 1c01 5dbd 3189 e2bc 2d01 ae3c
00000340: bba0 043d de94 73bd 0529 953d 1de5 7d3e
00000350: 13be 5abd 8fc1 28be 0f18 8abe efa8 c33d
00000360: f1f3 b4bd 3c4d 08be a3a8 633c e6ed 55bd
00000370: 8b6d b8bd 6858 dabd 9bdf e23c a605 d8bd
00000380: 0632 943c 27f8 0abe 51cf 0b3d e6f8 c7bd
00000390: d636 573d 4f0e b1bd 65da 043e a978 41bd
000003a0: 31b6 b9bb 78b8 333e 2bb4 2d3d 6cd6 c53b
000003b0: 870d 763e 9934 633d eb28 86bc 3d2c 69be
000003c0: 1d8b bdbc 49f2 c73d 459e efbb 72a7 8fbd
000003d0: 3161 be3d 7b75 703e 9c99 1e3e 373b a1bd
000003e0: e2ad 8dbc b4c3 c13d b9cf 9c3d 3dfe c2bd
000003f0: d0d4 5a3d f3ba fcbd 51c8 0dbd ea45 b3bd

mean_net.4.bias f4 [4]
0.09485918 -0.0074032936 0.11046233 -0.0652794
00000000: 8845 c23d 5497 f2bb 133a e23d 35b1 85bd
