src/rl/model/actor_model02-09-2024_19-50-15/1530.pt (torch, 84728 bytes, 7 tensors)

logstd f4 [4]
-5.002452 -2.5442595 -2.5017715 -3.2945044
00000000: 1614 a0c0 26d5 22c0 061d 20c0 29d9 52c0

mean_net.0.weight f4 [128, 27]
0.35102803 0.69663626 -0.026373286 0.22969656 0.6741693 0.10999742 -0.43864942 0.32068437
-0.9176502 0.5295435 0.0016562635 -0.30381113 0.848139 -0.039841834 0.11790517 -0.146719
0.08618637 0.041148674 -0.010217657 0.024623206 -0.42421198 -0.26807913 0.42726076 0.05744497
-0.03372076 0.011601827 -0.12078208 -0.21654332 0.20638911 0.12883075 -0.8050781 0.3232501
-0.071944945 -0.2629132 -0.19200629 -0.432762 0.1367626 0.15132773 0.51700246 0.2997957
0.20060614 0.19181205 -0.22576109 0.18222316 1.2668445 -0.8783216 -0.10937029 0.13798453
-0.21489544 0.48520645 0.21128541 -0.22406095 0.06936402 -0.17076233 0.05595928 0.5809014
-0.2900267 0.10487305 1.1259745 0.059295993 -0.3647108 0.022017855 0.61284983 0.026942559
0.15725717 0.09986773 0.13174112 0.0917206 -0.09686457 -0.0021924002 -0.15629114 0.19134656
0.38517773 0.008937165 -0.2851372 -0.9818744 -0.06611894 -0.0017519036 -0.27534252 0.31339604
0.040321663 0.47912624 0.020716757 -0.07965541 0.26048064 -0.052668445 -0.2593229 -0.25363252
0.13304324 1.5013989 0.27764603 0.14995208 0.16625614 0.8716026 -0.12631193 0.06127571
0.14377806 -0.08958197 0.047989666 0.9775263 0.06823208 0.21957482 0.7590985 0.8984332
-0.11251389 0.07291662 0.21513261 -0.28817502 0.54666466 -0.26261276 0.23400554 0.8192913
-0.13872515 0.16954142 0.42125785 -0.6808409 -2.1028838 -0.39225525 0.019153748 0.6380697
1.0766883 0.11278983 -0.048933603 -0.14738388 0.23918551 0.6251973 1.465906 0.04790187
0.21867098 0.21148115 0.18923955 0.13234006 0.059761185 0.14552678 0.18608883 -0.1995136
0.06882878 -0.13782454 -0.28841573 0.12410253 -0.11215502 -0.72153884 -0.48143265 0.25056186
-0.4943051 -0.5267953 0.23544994 0.3997253 0.061194807 -0.08335122 -0.13607182 -0.3696439
0.71611094 0.383229 0.08450086 0.005881056 -0.17719978 -0.97447115 0.44797972 0.09271552
-0.017456496 -0.21022154 0.19451587 -0.2944758 0.003917355 0.31052852 -0.124670126 -0.2042729
0.33789593 0.334283 0.44948557 -0.19009562 -0.041707218 0.3746006 0.28108063 0.10755725
0.05776424 0.08678024 -0.29385167 -0.5420069 0.29857257 0.15999748 -0.3845808 0.15712553
-0.3289739 0.058310874 -0.13113539 -0.27054274 0.3994138 -0.47100168 -0.5929344 -0.10256432
0.19885778 -0.42200968 0.30845407 0.20459618 1.2647402 -1.3818557 -1.4703794 -0.018919978
0.18997028 -1.1889081 -0.12506875 0.2559485 0.13003257 0.14042042 0.7003402 1.5814335
-0.055561967 0.37216303 0.101111226 -0.082140945 -0.12565437 0.3288502 -0.05157977 -0.061197326
0.5360204 0.1931234 -0.8014542 0.62362355 -0.0469856 -0.0443579 -0.01777714 -2.3491824
0.19926885 -0.5799846 -0.064820714 -1.4195718 0.29858047 -0.3533532 0.33189702 -0.009560436
-0.024827417 -0.060329724 -1.0945083 0.40154177 0.40953895 -0.54022825 -0.82691705 0.10172327
0.06462061 -0.3461581 0.17136699 0.15649977 0.0716951 0.014987334 0.13687749 0.5592544
0.0344184 0.17514208 -0.42103046 0.18626012 -0.12922654 0.29878134 -0.22331867 0.46273878
00000000: f2b9 b33e c156 323f ca0c d8bc 9335 6b3e
00000010: 5c96 2c3f 5446 e13d a896 e0be be30 a43e
00000020: 20eb 6abf 2a90 073f fb16 d93a 228d 9bbe
00000030: a31f 593f 3131 23bd 4478 f13d 813d 16be
00000040: 7b82 b03d 838b 283d f667 27bc 9bb6 c93c
00000050: 5032 d9be ab41 89be ecc1 da3e 6b4b 6b3d
00000060: c81e 0abd 9715 3e3c 985c f7bd 88bd 5dbe
00000070: ab57 533e 35ec 033e 9919 4ebf 0981 a53e
00000080: df57 93bd 8f9c 86be 4c9d 44be fb92 ddbe
00000090: 7f0b 0c3e a8f5 1a3e 465a 043f d27e 993e
000000a0: b26b 4d3e 616a 443e ea2d 67be b598 3a3e
000000b0: f627 a23f afd9 60bf 88fd dfbd d14b 0d3e
000000c0: 8d0d 5cbe fb6c f83e 345b 583e 3c70 65be
000000d0: b90e 8e3d 52dc 2ebe 8f35 653d f4b5 143f
000000e0: 617e 94be aec7 d63d ef1f 903f 5be0 723d
000000f0: 60bb babe ca5e b43c bae3 1c3f a4b6 dc3c
00000100: 0608 213e 7487 cc3d 25e7 063e 03d8 bb3d
00000110: ef60 c6bd 5fae 0fbb c90a 20be 5af0 433e
00000120: 0436 c53e 306d 123c 81fd 91be 1f5c 7bbf
00000130: 5e69 87bd 21a0 e5ba b2f9 8cbe 7275 a03e
00000140: 5428 253d 0950 f53e 30b6 a93c 6022 a3bd
00000150: b85d 853e deba 57bd f9c5 84be 1fdc 81be
00000160: 7d3c 083e d72d c03f 9f27 8e3e 0a8d 193e
00000170: 0d3f 2a3e 5921 5f3f ea57 01be 3dfc 7a3d
00000180: 8e3a 133e c076 b7bd d090 443d 2a3f 7a3f
00000190: 43bd 8b3d 39d8 603e 4754 423f b8ff 653f
000001a0: af6d e6bd 4f55 953d b94b 5c3e ad8b 93be
000001b0: 37f2 0b3f 2e75 86be 269f 6f3e 13bd 513f
000001c0: f70d 0ebe 449c 2d3e 1caf d73e 974b 2ebf
000001d0: a695 06c0 aed5 c8be 52e8 9c3c 8958 233f
000001e0: ecd0 893f 5bfe e63d 9a6e 48bd cdeb 16be
000001f0: 0ced 743e ee0c 203f cfa2 bb3f c034 443d
00000200: 49eb 5f3e 848e 583e 03c8 413e 2784 073e
00000210: 25c8 743d f904 153e 128e 3e3e 4b4d 4cbe
00000220: 1af6 8c3d e021 0dbe 3aab 93be 7829 fe3d
00000230: 88b1 e5bd c5b6 38bf 577e f6be a549 803e
00000240: 8f15 fdbe 0fdc 06bf ca19 713e cba8 cc3e
00000250: 68a7 7a3d 0bb4 aabd 6956 0bbe f741 bdbe
00000260: 0c53 373f 9736 c43e c90e ad3d e0b5 c03b
00000270: dc73 35be f176 79bf 995d e53e a2e1 bd3d
00000280: ed00 8fbc 5144 57be 2b2f 473e 88c5 96be
00000290: 285d 803b 98fd 9e3e 0d53 ffbd ea2c 51be
000002a0: b200 ad3e 2427 ab3e f922 e63e 6da8 42be
000002b0: 30d5 2abd a6cb bf3e cde9 8f3e fa46 dc3d
000002c0: 329a 6c3d d7b9 b13d ba73 96be f7c0 0abf
000002d0: 81de 983e 61d6 233e c6e7 c4be 84e5 203e
000002e0: 446f a8be 62d7 6e3d 5b48 06be 9484 8abe
000002f0: f77f cc3e 2227 f1be 8dca 17bf 3e0d d2bd
00000300: 60a1 4b3e a711 d8be b1ed 9d3e a981 513e
00000310: 02e3 a13f a6e0 b0bf 6435 bcbf 12fe 9abc
00000320: 9287 423e 242e 98bf 0612 00be af0b 833e
00000330: 4227 053e 5fca 0f3e 7f49 333f 6a6c ca3f
00000340: f294 63bd 278c be3e 6713 cf3d 8339 a8bd
00000350: 8aab 00be 0e5f a83e 4f45 53bd 0caa 7abd
00000360: a238 093f 24c2 453e 1a2c 4dbf cba5 1f3f
00000370: f973 40bd a1b0 35bd 5da1 91bc 0159 16c0
00000380: 220d 4c3e df79 14bf b9c0 84bd 87b4 b5bf
00000390: 8adf 983e b6ea b4be 68ee a93e 60a3 1cbc
000003a0: de62 cbbc 4d1c 77bd d918 8cbf e296 cd3e
000003b0: 17af d13e 664c 0abf d6b0 53bf 4a54 d03d
000003c0: cf57 843d a23b b1be d47a 2f3e 7a41 203e
000003d0: e1d4 923d 6f8d 753c 9d29 0c3e 4c2b 0f3f
000003e0: 4ffa 0c3d 7258 333e 4e91 d7be f9ba 3e3e
000003f0: f653 04be def9 983e a6ad 64be 19ec ec3e

mean_net.0.bias f4 [128]
0.1020931 0.06410407 0.109826446 0.09777156 -0.107397154 -0.16477086 -0.1867232 0.17712536
-0.030070096 -0.18991527 0.08487697 0.059892163 -0.17538184 -0.11835934 0.016165257 0.06759577
-0.13037589 -0.26527187 0.16052365 -0.07573288 -0.06460674 -0.06351147 -0.09584743 0.026521089
0.03440721 0.16612352 0.0058075082 0.057278574 -0.010246512 -0.0341844 0.14658163 -0.13549937
-0.18895382 -0.05824002 0.033553094 -0.21740352 -0.07115629 -0.04241842 0.09813814 -0.09374562
-0.028105864 -0.18250191 -0.07375158 -0.040843617 -0.076742895 -0.07181482 0.03679667 -0.093453094
0.27499887 -0.10550183 0.049182426 -0.013657951 0.15653734 -0.06295075 0.052479643 -0.0074903555
0.11852474 -0.22034782 -0.0850274 0.15531814 -0.12772702 -0.12883112 -0.17799963 0.06352009
-0.055398785 0.23227333 0.12908378 0.02162846 -0.15392303 0.13193083 -0.091594756 -0.16397452
-0.024066513 0.15229198 0.10959227 0.06588518 0.088489816 0.028999656 0.06524493 0.18728442
-0.10889049 0.07977797 0.18054383 0.08965777 -0.13147165 0.028081017 -0.16593443 -0.19174373
-0.013362953 -0.02172299 -0.122910425 0.05039871 -0.13273855 -0.18357103 0.024583641 -0.24053293
-0.056774404 -0.0692327 -0.11341637 -0.12978046 -0.11604456 -0.032490093 0.016850494 -0.15410249
0.028181354 -0.021749496 0.09899061 -0.04952672 0.08472944 -0.029549802 0.011761024 0.09418614
0.053810626 0.10545404 -0.01041375 0.12064186 0.026578724 0.056413673 -0.030973058 0.034383073
0.08389666 -0.095015794 -0.043246217 -0.16994329 0.17482199 -0.12552015 0.0118881045 0.02205205
00000000: 3016 d13d ff48 833d b0ec e03d 753c c83d
00000010: 0af3 dbbd b1b9 28be 5e34 3fbe 5a60 353e
00000020: 9055 f6bc 2679 42be fad3 ad3d 7c51 753d
00000030: 4c97 33be 6266 f2bd 006d 843c a76f 8a3d
00000040: 4281 05be b7d1 87be 5060 243e d719 9bbd
00000050: 8a50 84bd 4d12 82bd a84b c4bd c142 d93c
00000060: 93ee 0c3d 491c 2a3e e94c be3b f09c 6a3d
00000070: fce0 27bc f104 0cbd 7f19 163e 59c0 0abe
00000080: 1c7d 41be 168d 6ebd f86e 093d 079f 5ebe
00000090: 64ba 91bd f0be 2dbd a6fc c83d b4fd bfbd
000000a0: 453e e6bc c8e1 3abe 120b 97bd a34b 27bd
000000b0: 612b 9dbd a613 93bd 1bb8 163d 5664 bfbd
000000c0: a7cc 8c3e 5811 d8bd 8373 493d 99c5 5fbc
000000d0: 534b 203e 53ec 80bd e5f4 563d a871 f5bb
000000e0: 19bd f23d dca2 61be d822 aebd b80b 1f3e
000000f0: dfca 02be 4eec 03be 8945 36be d216 823d
00000100: d6e9 62bd 0fd9 6d3e 8a2e 043e 2b2e b13c
00000110: 009e 1dbe e018 073e 0896 bbbd f0e8 27be
00000120: 2327 c5bc 6ef2 1b3e e971 e03d cfee 863d
00000130: 263a b53d b090 ed3c 229f 853d 7dc7 3f3e
00000140: fa01 dfbd a262 a33d 7be0 383e 7e9e b73d
00000150: 81a0 06be 290a e63c b7ea 29be 7858 44be
00000160: 4af0 5abc 69f4 b1bc 76b8 fbbd e16e 4e3d
00000170: 9dec 07be 0bfa 3bbe a263 c93c 444e 76be
00000180: 478c 68bd e0c9 8dbd d746 e8bd 2be5 04be
00000190: c5a8 edbd 5514 05bd 0c0a 8a3c 0bcd 1dbe
000001a0: 95dc e63c 002c b2bc 97bb ca3d 88dc 4abd
000001b0: a186 ad3d 6d12 f2bc 4fb1 403c aae4 c03d
000001c0: 8868 5c3d 4af8 d73d 6f9e 2abc 1413 f73d
000001d0: a0bb d93c 0612 673d 36bb fdbc 44d5 0c3d
000001e0: 03d2 ab3d a497 c2bd f222 31bd 9d05 2ebe
000001f0: 8904 333e 5b88 00be 53c6 423c 80a6 b43c

mean_net.2.weight f4 [128, 128]
0.07825795 -0.17492072 0.039334204 0.059662078 -0.23185918 -0.31839347 -0.052426074 0.0794346
0.1041917 0.04933244 -0.05908477 -0.32557425 -0.00064064085 -0.07649907 -0.07907345 -0.19180489
0.116302714 0.034719475 -0.21452759 -0.0387519 0.070756376 -0.25857314 0.03678222 0.34789366
0.01733072 -0.13376842 0.0395374 -0.12428317 0.0726889 0.091923915 -0.13823928 0.055844076
0.0651653 0.57140124 0.18643263 0.13128628 -0.12265284 0.07129392 0.081937715 -0.055760205
-0.1526165 -0.05287122 0.28254482 0.12272466 0.11052986 -0.016575307 0.036326095 -0.38350698
0.23803163 -0.084860206 -0.015050883 -0.11575508 -0.0018034084 -0.017629715 -0.17577843 0.13882783
-0.11157291 0.10190943 0.36590728 0.20111999 -0.36325926 -0.13902727 0.18118553 -0.018378545
-0.103360616 0.20506278 0.10427885 0.061446454 0.09333589 -0.19143103 0.25157738 -0.09743916
0.043943144 0.12612072 0.047059454 0.014826883 0.09452017 0.25276035 -0.06103182 0.3419062
-0.2836351 -0.040611736 -0.2730947 -0.021626748 0.048229158 0.1471099 -0.09507595 0.019499596
0.06826122 -0.017100507 0.19847724 0.059418928 -0.021076465 0.028650757 -0.1340718 -0.023700658
-0.009927728 0.27175772 -0.14204185 -0.025584793 -0.088442765 0.058684558 0.08745777 -0.23347113
-0.23093556 0.09998183 -0.020712506 -0.008391233 0.05337577 0.11007673 -0.17092787 -0.023369685
0.31299925 0.013455427 -0.0071903886 0.16254416 0.3039466 -0.15982069 0.036846876 0.07031093
0.24977256 0.043631535 0.06261925 -0.031410057 0.070596874 -0.22981706 0.18017934 -0.1982069
-0.19346704 0.10135039 0.29462105 0.08118193 -0.075507954 0.46681094 0.07228862 -0.17507695
0.101050355 -0.09809781 -0.33280194 0.14055075 0.028010037 0.04294343 0.077871144 0.08707031
0.0024591899 0.05728992 -0.8028861 0.0063771824 0.17240208 0.09674606 -0.13848151 0.096184894
0.2032963 0.028224597 0.21332422 0.051551655 -0.13091817 -0.16475901 -0.108643405 0.000242787
-0.34078836 -0.024239125 -0.17227957 -0.027912272 -0.090200305 -0.030770613 -0.047054946 -0.0787816
-0.30495438 -0.010072441 -0.074948 0.62655544 -0.025768466 -0.28293028 -0.05297664 0.08045703
0.065088205 0.24979503 -0.10284955 0.108643435 0.046558592 0.15676375 0.29186332 0.2471627
0.110422716 -0.04013626 -0.014769024 -0.13795719 -0.1279821 0.21225297 -0.06829349 0.030057818
-0.12878877 -0.18563274 0.012233891 -0.21139164 -0.11963547 -0.17531803 0.16148058 0.24111757
0.035364818 -0.20363455 -0.30625802 -0.018125115 -0.018671816 -0.013531768 0.15204968 0.20689176
0.02281726 -0.19781749 0.14933692 0.07933818 -0.14564727 0.07110961 0.23438923 -0.019830486
-0.07680284 -0.033516426 -0.10166706 0.017443858 -0.023473408 -0.078544535 0.17782588 0.07316505
-0.20955665 0.45778722 -0.03130271 0.201385 -0.2092213 -0.30185303 0.05012245 0.30823967
-0.17561908 -0.018352311 0.28773898 0.12671866 0.14618178 -0.27594388 -0.18184827 0.0124405185
-0.22878098 -0.05064912 0.04118231 0.26596066 0.05089894 0.16474281 -0.108938135 -0.31773847
0.23375086 0.009081834 0.1357303 0.060654845 0.08293019 0.10811052 0.11077356 0.2914286
00000000: b445 a03d 6b1e 33be e71c 213d 3960 743d
00000010: 7e6c 6dbe 7804 a3be b9bc 56bd 9cae a23d
00000020: 7562 d53d d010 4a3d df02 72bd abb1 a6be
00000030: aef0 27ba 8bab 9cbd 43f1 a1bd 8068 44be
00000040: 1e30 ee3d 0236 0e3d 1fad 5bbe 50ba 1ebd
00000050: b8e8 903d b363 84be f4a8 163d 1e1f b23e
00000060: 27f9 8d3c 97fa 08be f8f1 213d 2d88 febd
00000070: ebdd 943d 9b42 bc3d 998e 0dbe c2bc 643d
00000080: 6375 853d 5a47 123f 32e8 3e3e e96f 063e
00000090: 6a31 fbbd 8c02 923d f6ce a73d d064 64bd
000000a0: 8047 1cbe 7e8f 58bd b7a9 903e 1157 fb3d
000000b0: 7b5d e23d f0c8 87bc acca 143d 075b c4be
000000c0: 90be 733e 30cb adbd fb97 76bc 0011 edbd
000000d0: 5860 ecba 316c 90bc 43ff 33be e228 0e3e
000000e0: 5680 e4bd e4b5 d03d 3358 bb3e 66f2 4d3e
000000f0: 1efd b9be 2a5d 0ebe b388 393e 9a8e 96bc
00000100: bbae d3bd fafb 513e 2690 d53d 47af 7b3d
00000110: e326 bf3d 7f06 44be c0ce 803e 2f8e c7bd
00000120: bafd 333d ca25 013e 6ac1 403d 74ec 723c
00000130: ca93 c13d ce69 813e 80fc 79bd 540e af3e
00000140: 9f38 91be 7e58 26bd 12d3 8bbe 942a b1bc
00000150: f08b 453d faa3 163e 2eb7 c2bd 9ebd 9f3c
00000160: 8acc 8b3d 5d16 8cbc 9e3d 4b3e 4361 733d
00000170: 8da8 acbc feb4 ea3c 1e4a 09be e227 c2bc
00000180: e9a7 22bc d423 8b3e 6b73 11be 3397 d1bc
00000190: 7b21 b5bd 385f 703d 0f1d b33d 0e13 6fbe
000001a0: 5f7a 6cbe 46c3 cc3d 46ad a9bc 627b 09bc
000001b0: 8da0 5a3d e96f e13d b707 2fbe c871 bfbc
000001c0: 7041 a03e 2774 5c3c 5a9d ebbb fa71 263e
000001d0: e49e 9b3e 09a8 23be c0ec 163d 2dff 8f3d
000001e0: 61c4 7f3e fbb6 323d 853e 803d d5a7 00bd
000001f0: 1895 903d 2a55 6bbe ef80 383e c0f6 4abe
00000200: 391c 46be cb90 cf3d 92d8 963e b642 a63d
00000210: eaa3 9abd d801 ef3e 0e0c 943d 5f47 33be
00000220: 7df3 ce3d 81e7 c8bd 0465 aabe 89ec 0f3e
00000230: 4e75 e53c 73e5 2f3d e87a 9f3d eb51 b23d
00000240: 5c2a 213b d6a8 6a3d f289 4dbf aff7 d03b
00000250: 2c8a 303e cc22 c63d 19ce 0dbe 96fc c43d
00000260: e82c 503e 4537 e73c aa71 5a3e d427 533d
00000270: 6a0f 06be 96b6 28be 6f80 debd a494 7e39
00000280: d07b aebe 2191 c6bc 0e6a 30be 47a8 e4bc
00000290: f0ba b8bd a712 fcbc b0bc 40bd 3f58 a1bd
000002a0: fb22 9cbe e106 25bc 567e 99bd f065 203f
000002b0: 6418 d3bc 3ddc 90be 09fe 58bd a8c6 a43d
000002c0: f74c 853d 45ca 7f3e c9a2 d2bd 7380 de3d
000002d0: 39b4 3e3d ad86 203e 1c6f 953e 3818 7d3e
000002e0: 4e25 e23d eb65 24bd c7f9 71bc a644 0dbe
000002f0: bd0d 03be d858 593e 75dd 8bbd d03b f63c
00000300: 34e1 03be 8216 3ebe a870 483c 0d77 58be
00000310: 7103 f5bd 9286 33be 2a5b 253e 86e7 763e
00000320: b3da 103d 9385 50be dacd 9cbe 1f7b 94bc
00000330: a3f5 98bc 59b4 5dbc e9b2 1b3e 6fdb 533e
00000340: 43eb ba3c ab90 4abe c7eb 183e 0e7c a23d
00000350: 8f24 15be eaa1 913d bb03 703e 8b73 a2bc
00000360: cf4a 9dbd 8548 09bd d236 d0bd 6ce6 8e3c
00000370: 4e4b c0bc f5db a0bd fd17 363e 8fd7 953d
00000380: 0596 56be 1663 ea3e 4537 00bd df37 4e3e
00000390: 1c3e 56be 7b8c 9abe 334d 4d3d 97d1 9d3e
000003a0: 7dd5 33be 9657 96bc 8652 933e 89c2 013e
000003b0: adb0 153e 8448 8dbe 6f36 3abe 51d3 4b3c
000003c0: 9045 6abe 7475 4fbd c8ae 283d ff2b 883e
000003d0: 687b 503d 57b2 283e f51a dfbd 9eae a2be
000003e0: 635c 6f3e f9cb 143c e2fc 0a3e 3771 783d
000003f0: 4ed7 a93d 0c69 dd3d 40dd e23d 2136 953e

mean_net.2.bias f4 [128]
0.044171363 0.027676271 0.1466838 -0.05774662 0.10336683 -0.09762347 0.14607546 -0.103373244
-0.015797814 0.16751158 0.22924343 -0.095134154 0.050299387 -0.025062952 0.060545724 0.03719348
-0.017611114 -0.15931292 -0.175382 -0.02962239 0.0042973384 0.013394095 0.1671111 -0.02189536
0.089482225 -0.07169128 -0.013044738 -0.06418588 -0.024631323 -0.021196675 0.03755481 0.14998995
0.0048690215 0.046581745 -0.05767744 -0.0065103294 0.14438917 -0.02626801 -0.11606022 0.122891866
-0.17946191 0.049442414 -0.06649498 0.053968176 0.09733504 0.021178 0.034886554 -0.13800447
-0.10067535 -0.08455092 0.028828438 -0.021985758 0.113720216 -0.037900046 0.02025067 -0.024942791
0.05459868 0.07598868 -0.052231982 0.0754211 0.029824942 0.020929078 -0.085674055 -0.0113299675
0.15191157 0.092972524 -0.08928905 0.06996628 -0.14370269 0.14139108 -0.19110762 -0.095393434
0.10371335 0.07087538 0.009676942 0.09866313 -0.022690687 -0.023096329 -0.020184183 0.07841311
-0.05276948 -0.020984028 0.021341698 0.011883548 0.08482652 -0.16543807 0.095121376 0.071066976
0.21878757 -0.047347266 -0.00015008038 0.10800176 -0.1674353 -0.036821052 -0.08791909 -0.08379511
0.014214074 -0.0394956 -0.08913525 -0.031358678 -0.010613251 -0.054031316 -0.10170865 0.040032428
0.17089486 -0.17197385 -0.007836407 -0.0006184902 -0.025998684 -0.0055979914 0.038798828 -0.027871544
-0.109443285 -0.06030321 0.06801943 -0.04316554 -0.076320685 -0.05837886 -0.12979361 0.15221827
0.059919905 -0.17981957 0.116584636 -0.15422991 -0.12311756 0.25274366 -0.10082017 -0.034588184
00000000: 08ed 343d 59b9 e23c 4734 163e b887 6cbd
00000010: fdb1 d33d d0ee c7bd ce94 153e 5ab5 d3bd
00000020: 6b6a 81bc 2888 2b3e cabe 6a3e b2d5 c2bd
00000030: bb06 4e3d d250 cdbc cbfe 773d 3158 183d
00000040: 2f45 90bc ed22 23be 5797 33be a8aa f2bc
00000050: b0d0 8c3b e872 5b3c 2c1f 2b3e e65d b3bc
00000060: 7542 b73d e1d2 92bd 99b9 55bc e373 83bd
00000070: a1c7 c9bc a6a4 adbc 13d3 193d f796 193e
00000080: 508c 9f3b 80cc 3e3d 2e3f 6cbd 9a54 d5bb
00000090: c1da 133e 0230 d7bc fbb0 edbd bbae fb3d
000000a0: ddc4 37be 2184 4a3d 852e 88bd bc0d 5d3d
000000b0: 9857 c73d 7c7d ad3c 34e5 0e3d 0b51 0dbe
000000c0: e12e cebd 0829 adbd 9e29 ec3c 7a1b b4bc
000000d0: 25e6 e83d 143d 1bbd bce4 a53c d354 ccbc
000000e0: dea2 5f3d f49f 9b3d 34f1 55bd 6176 9a3d
000000f0: 7053 f43c 7573 ab3c e175 afbd 54a1 39bc
00000100: b58e 1b3e 6168 be3d 2ddd b6bd 7b4a 8f3d
00000110: cc26 13be d3c8 103e b7b1 43be a25d c3bd
00000120: aa67 d43d 1c27 913d 098c 1e3c e50f ca3d
00000130: d2e1 b9bc 8334 bdbc 4d59 a5bc 0d97 a03d
00000140: cf24 58bd b2e6 abbc c9d4 ae3c 37b3 423c
00000150: 87b9 ad3d 9968 29be ffce c23d 908b 913d
00000160: d909 603e 35ef 41bd e55e 1db9 0730 dd3d
00000170: 2974 2bbe acd1 16bd ed0e b4bd c59c abbd
00000180: 26e2 683c 23c6 21bd 8b8c b6bd f571 00bd
00000190: 33e3 2dbc f14f 5dbd a04c d0bd 0bf9 233d
000001a0: 10ff 2e3e ea19 30be 4664 00bc 2d22 22ba
000001b0: 31fb d4bc 5b6f b7bb 85eb 1e3d dd52 e4bc
000001c0: cd23 e0bd 8000 77bd c54d 8b3d 59ce 30bd
000001d0: 054e 9cbd ac1e 6fbd 9ee8 04be 1bdf 1b3e
000001e0: 936e 753d 9f22 38be edc3 ee3d 72ee 1dbe
000001f0: 0f25 fcbd 9e67 813e ce7a cebd 57ac 0dbd

mean_net.4.weight f4 [4, 128]
-0.19053525 0.0046630106 0.03862063 0.019673588 -0.12003794 0.11281636 0.06269898 0.0882502
-0.14853604 -0.105542265 -0.10778464 -0.22098649 0.0004313053 0.006002838 -0.12734556 -0.00029211436
0.07327977 0.101702355 -0.098638706 -0.0035370602 -0.0013308678 -0.11144201 -0.05818583 0.10747326
0.002424095 0.09304345 -0.22991526 0.16736193 0.047366265 -0.04460893 0.024936996 0.29284248
-0.025587155 -0.18570475 0.10837661 0.0019755426 0.10739158 -0.105225556 -0.2154766 -0.17136042
0.20258854 -0.010661392 -0.058338877 0.048697684 -0.10985924 -0.094393894 0.13881804 0.007870458
-0.12500605 0.03430983 0.00030791436 0.05505794 -0.06349513 0.11516755 -0.3703098 0.03155832
0.002820353 -0.005950263 -0.01174404 -0.028678065 -0.2927166 0.06337584 0.10335806 -0.09624806
-0.15712619 0.04705073 0.07629964 0.13695598 0.12291023 0.21365096 0.17159186 0.002919235
-0.10090697 -0.032696046 0.00091005454 -0.03329385 0.0008246937 2.8205823e-05 0.015203132 0.06415952
-0.013158005 0.16023798 -0.21846277 -9.471975e-05 0.03474088 -0.13028893 -0.063778095 0.088006966
-0.21536627 0.00015322074 -0.0010730474 -0.04453821 0.1492687 0.0061220825 0.100488506 0.00013553645
-0.07260261 0.068902165 0.008876963 -0.1959181 0.0006449252 0.04514146 -0.023768852 0.051179595
-0.07417914 0.08614974 0.022244226 -0.00045317874 -0.007965576 -3.2159237e-06 -0.019393666 0.051761474
0.10669836 0.00489009 -0.024698185 -0.15065856 -0.0001343728 -0.20216861 0.08700406 0.013966078
-0.064325854 -0.36522707 0.092759214 -0.15847571 0.12858933 0.14200288 -0.19691753 -9.809286e-05
-0.114574015 -0.025796836 0.13339324 -0.044739168 0.2574676 0.014593406 0.16513562 -0.055199947
-0.20609905 0.15741175 -0.09518828 -0.002784709 0.090383805 0.2460416 0.013096786 0.037073318
-0.13024065 0.17701545 0.17745292 -0.005873152 0.11353253 0.036433384 0.032894354 0.21216507
-0.020483049 -0.047089923 0.16137016 -0.12567605 0.19491985 0.05908082 0.0014527985 -0.09601196
0.10277463 -0.035039328 0.024921779 -0.02947242 -0.15865952 0.053549312 0.08657698 0.088987485
0.08028001 0.012003617 0.11621505 -0.10588022 -0.08198868 -0.28747305 0.011065753 -0.06684847
0.10963152 -0.09197596 0.06421944 0.08585025 -0.14670546 -0.19195892 -0.0784074 0.1992978
-0.07217284 0.19240923 -0.044176005 0.02947928 0.03659753 0.19909918 -0.14239956 -0.14461718
0.028688805 0.16524914 -0.06663614 0.10961835 -0.21138158 -0.09049308 -0.06083149 0.045836046
-0.23870584 0.11733174 0.0025988615 -0.17019972 0.05869807 0.011140069 0.06565892 0.014836844
-0.025349433 0.02293485 -0.18323322 -0.11869208 -0.04196824 -0.18568225 0.060171325 0.03287626
-0.06685109 0.24860092 -0.13652924 -0.063937284 -0.1560138 0.04256776 -0.16762558 -0.112095155
0.24184678 0.09611388 -0.0114494795 0.12831616 0.014454103 -0.034775816 0.04168951 0.22297964
0.27224648 -0.04898706 -0.034651514 -0.0022321758 -0.0008059708 0.03446229 -0.028751742 -0.025130866
0.040284086 -0.21376935 0.056095347 -0.10754272 -0.004007948 -0.09414245 0.21889658 0.07658687
-0.022374786 0.081615105 -0.0825657 -0.046795897 0.044407293 0.086134546 0.17033064 0.102104
00000000: ac1b 43be 2bcc 983b aa30 1e3d 812a a13c
00000010: 74d6 f5bd 440c e73d 5368 803d 85bc b43d
00000020: d519 18be 8b26 d8bd 31be dcbd 484a 62be
00000030: d120 e239 74b3 c43b e066 02be ed26 99b9
00000040: b413 963d 5349 d03d 1703 cabd 06ce 67bb
00000050: 8370 aeba b53b e4bd 4454 6ebd f11a dc3d
00000060: 91dd 1e3b 908d be3d e86e 6bbe ed60 2b3e
00000070: 2103 423d dab7 36bd ac48 cc3c 73ef 953e
00000080: 279c d1bc 6329 3ebe 8ef4 dd3d 1b78 013b
00000090: 1ef0 db3d 7f80 d7bd e6a5 5cbe 1b79 2fbe
000000a0: 5f73 4f3e 1ead 2ebc bff4 6ebd 3977 473d
000000b0: e2fd e0bd 9651 c1bd 5126 0e3e 18f3 003c
000000c0: 9601 00be 7788 0c3d 916f a139 6f84 613d
000000d0: bc09 82bd f7dc eb3d 3f99 bdbe 4c43 013d
000000e0: acd5 383b 6cfa c2bb 136a 40bc 43ee eabc
000000f0: f3de 95be 31cb 813d 64ad d33d b41d c5bd
00000100: b0e5 20be 44b8 403d fc42 9c3d 303e 0c3e
00000110: 5cb8 fb3d 51c7 5a3e c7b5 2f3e a350 3f3b
00000120: 50a8 cebd 4aec 05bd ba90 6e3a 225f 08bd
00000130: 4230 583a 8b9b ec37 8f16 793c 1166 833d
00000140: ac94 57bc 6d15 243e b4b4 5fbe 47a4 c6b8
00000150: 744c 0e3d 766a 05be 179e 82bd ff3c b43d
00000160: fa88 5cbe e1a9 2039 7fa5 8cba b36d 36bd
00000170: e5d9 183e c09b c83b ebcc cd3d ca1e 0e39
00000180: adb0 94bd 941c 8d3d ae70 113c c19e 48be
00000190: 3310 293a 40e6 383d e5b6 c2bc b2a1 513d
000001a0: 3ceb 97bd 466f b03d 8639 b63c 9f98 edb9
000001b0: 0c82 02bc 26d1 57b6 77df 9ebc d703 543d
000001c0: ab84 da3d 0c3d a03b d953 cabc 3d46 1abe
000001d0: 6de6 0cb9 4a05 4fbe 2f2f b23d fad1 643c
000001e0: 46bd 83bd 0bff babe 8bf8 bd3d 7547 22be
000001f0: ecac 033e 3469 113e c0a4 49be 34b7 cdb8
00000200: c8a5 eabd e353 d3bc 3d98 083e 6b40 37bd
00000210: cbd2 833e 2e19 6f3c 5019 293e 5719 62bd
00000220: a10b 53be 8c30 213e 13f2 c2bd aa7f 36bb
00000230: 251b b93d 54f2 7b3e e793 563c 31da 173d
00000240: ce5d 05be 8a43 353e 38b6 353e 9273 c0bb
00000250: be83 e83d 2c3b 153d 3bbc 063d cd41 593e
00000260: 11cc a7bc 5de1 40bd 383e 253e 39b1 00be
00000270: 1299 473e bbfe 713d d46b be3a eba1 c4bd
00000280: 817b d23d 6685 0fbd c228 cc3c 2570 f1bc
00000290: a477 22be 8656 5b3d 464f b13d 123f b63d
000002a0: d969 a43d d2aa 443c 2802 ee3d bbd7 d8bd
000002b0: aee9 a7bd ab2f 93be 224d 353c dae7 88bd
000002c0: 7e86 e03d e45d bcbd 7b85 833d 42d2 af3d
000002d0: f539 16be e190 44be 0f94 a0bd b914 4c3e
000002e0: 5bcf 93bd ed06 453e e6f1 34bd 887e f13c
000002f0: 4be7 153d a8e0 4b3e 31d1 11be 8716 14be
00000300: c904 eb3c 1237 293e 8778 88bd 967f e03d
00000310: 6a74 58be 7054 b9bd 712a 79bd 94be 3b3d
00000320: 4e6f 74be a04b f03d a951 2a3b d648 2ebe
00000330: 636d 703d d684 363c 2f78 863d 3c16 733c
00000340: 9da9 cfbc dee1 bb3c 7da1 3bbe d514 f3bd
00000350: e4e6 2bbd 7d23 3ebe 3576 763d 42a9 063d
00000360: 39e9 88bd 3d91 7e3e 52ce 0bbe 8df1 82bd
00000370: 15c2 1fbe 885b 2e3d 0aa6 2bbe 2592 e5bd
00000380: afa6 773e 5bd7 c43d 9996 3bbc 5065 033e
00000390: e7d0 6c3c 1671 0ebd 9fc2 2a3d c654 643e
000003a0: e463 8b3e a8a6 48bd bfee 0dbd b249 12bb
000003b0: c947 53ba 5528 0d3d c688 ebbc 3fdf cdbc
000003c0: ed00 253d 5ae6 5abe 3cc4 653d 5c3f dcbd
000003d0: 1b55 83bb c2cd c0bd 6d26 603e 94d9 9c3d
000003e0: 544b b7bc d225 a73d 3518 a9bd 0ead 3fbd
000003f0: 6ce4 353d 4f67 b03d 286b 2e3e e71b d13d

mean_net.4.bias f4 [4]
-0.05124211 0.075477816 -0.057924025 -0.043997534
00000000: 3fe3 51bd 1d94 9a3d be41 6dbd c236 34bd
