src/rl/model/critic_model15-08-2024_11-59-43/510.pt (torch, 82999 bytes, 5 tensors)

critic_network.0.weight f4 [128, 27]
00000000: 09fa e33e bfad 373e 342e eabc 19c5 edbe
00000010: e020 acbb 16f2 8f3e d4f8 0d3f f0c7 a2bf
00000020: ec55 fd3f 8171 d0bd 02e7 05bf 4bd7 e33d
00000030: 6572 cfbe 733d 973d 8c48 1d3e 5f71 193e
00000040: f14c 193e ea86 6cbf 09d9 493f 509e d13e
00000050: 96d7 223e d06e 793d 2545 8fbe 9cc5 f73e
00000060: b224 633e c481 023f a05c 9a3d d187 903f
00000070: 27e8 573e 1521 6bbd f36c 02be 1b97 0b3e
00000080: 2af6 e1be 8c2a cd3d c038 883f ba1d 423f
00000090: 8fb8 4e3e 5706 3e3e e0ea a23d e488 a03e
000000a0: 490b c4bd 28e0 c9bd 4d6d 30bd 3ebc 3ebe
000000b0: ac27 1ebf 8995 f63e fe26 b5be 3caf 96be
000000c0: b81b 8f3e 203b e03e ef19 b2be cc93 29be
000000d0: c0bf c8be ff73 e5bd e471 d53e 6145 e7bd
000000e0: e88e adbe 5236 32bd 73c7 963e 7a76 db3e
000000f0: 62c6 213e 371f b73e 03e2 04bf 35cf 533e
00000100: 527b 3f3d 970c 323e e031 3cbe 2c55 0dbe
00000110: f461 a4be 7b28 78be 6cd8 78be fee7 243f
00000120: 9c1a ad3e 6cf7 2cbe 3ec7 7bbe e763 b03e
00000130: 9737 ca3e 9b57 8cbe 64f9 47be d8f0 c3be
00000140: e062 25bf 0f4b be3e 7579 6d3e 4483 3a3e
00000150: c409 6a3f 6945 f93f 5653 b8be 097e 9dbf
00000160: 5cda f9bf 2398 90be 6048 83bc 1910 36be
00000170: 94c6 f03d 105b 353f 269d 0a3e fbcb 4cbc
00000180: f2a0 1b3d 4ea6 c0bd dd11 26bf 3a47 a2bc
00000190: bd8f 0a3e 8bc2 9b3e e214 95bd a343 743e
000001a0: 746e 5c3e bf47 d4be 565f 353e 25c7 5cbe
000001b0: 0fa7 3abe 9dc4 0c3f 8334 993e ed89 613f
000001c0: 6258 c13f b821 63bf f49e 093d 2f50 5e3b
000001d0: 4779 833f 4d66 c4bd f20d 013e 01c8 71bc
000001e0: d25c 283e f260 7a3d 4dbe 913c 962f e33d
000001f0: ab6a 763d f1eb 733f 1e34 e3bb 5b3a 283d
00000200: 065a ddbd 2d16 efbe 2023 e3be 4054 463e
00000210: 9742 a43e b87c 183e 6e6d 9a3e 7396 34bf
00000220: b806 c43e fce1 823d 682a 0b3e d46a d23f
00000230: 2220 4bbd 7bb4 db3d e714 0fbf 1252 383f
00000240: 48c1 80bd d775 0c3d 0d22 d9bd d421 c0bf
00000250: 1880 653d 053e 423d 392f 903d df90 bf3d
00000260: 88af c1be fae3 463e 794f 643d 9d70 85be
00000270: a28a ab3c 66a7 91be 7923 31be 1cfa 9e3e
00000280: f97e 42be 6d6c fd3e ed79 99bf a9a1 33bf
00000290: ad7a 82bd 17b7 46bf 48f4 9a3f 0749 50be
000002a0: 6abf a2be 76fe bebe 49ed 08bf b104 153d
000002b0: 29e9 e73c e875 263e 0570 153f bd15 2c3d
000002c0: 0c12 19bd 544a ed3c fe8a b73c 266c 653f
000002d0: d25e 7a3f 47b6 6e3b 04bb 04bf 2ce6 123e
000002e0: 2cd8 79bc 56b1 cf3e fcaf 2abf 22ea ea3e
000002f0: f0ba 33bf 99f6 cfbe ba0a 94be 3bfd 2cbd
00000300: 1dd8 bf3c fbff edbd fd42 063f dcb8 2b3f
00000310: 0c17 f9bd 4712 a13e 47f0 213f 3e51 7dbd
00000320: 0677 93be 9960 163f ee21 973d c52c 1fbe
00000330: 2936 493d 3a92 38bd 16cd 93be 699f 1a3f
00000340: 4b0a 06be 9491 bf3e d82e 8fbe b6bb 083f
00000350: 13d8 b7be bb4a d4be 58bb a2be 79fb e9be
00000360: c45e a4be 93b6 efbe 08aa 01bd b014 9dbf
00000370: 763c 40bf fe67 433f 704b adbe f247 cabf
00000380: f29b dcbf f248 6a3f 6ac8 543c 739a 5c3e
00000390: 7812 07c0 adad 25be 77d4 3cbd 2c9e 01bc
000003a0: 22bb 193e 1990 bcbd d0c8 a93e 9265 f1bd
000003b0: 46b6 12bf 6b45 353d c20b 9bbd 010f 8abe
000003c0: 796e 8f3e cf70 5d3b 574d cc3e 6bb6 093f
000003d0: c6f2 16bf fac4 59be e745 133f b0a2 0f3e
000003e0: bf15 e2be b3d9 883d d344 c3bf ffa2 2a3f
000003f0: 979f 9fbd 8684 d23d 8af5 60bd bbf8 93bd
0.445267 0.17937373 -0.028586484 -0.46439436 -0.0052529424 0.28114384 0.55457807 -1.2717266
1.9791846 -0.10177899 -0.52305615 0.11125048 -0.40516964 0.073847674 0.15359706 0.14984654
0.14970757 -0.9239336 0.78846794 0.40941095 0.15902552 0.060896695 -0.2798244 0.4839295
0.22181967 0.50979257 0.07537198 1.1291448 0.21084653 -0.057404596 -0.12736873 0.13631861
-0.4413312 0.10017881 1.0642319 0.7582661 0.20187591 0.18557106 0.07954955 0.3135444
-0.09572465 -0.098572075 -0.043072987 -0.18626496 -0.61779284 0.4816096 -0.3538131 -0.29430568
0.27950835 0.4379511 -0.3478541 -0.16560286 -0.39208794 -0.11203765 0.41688454 -0.1129253
-0.3389809 -0.043508835 0.29449043 0.42863828 0.15798333 0.35766003 -0.51907367 0.20684512
0.046748467 0.17387615 -0.18378401 -0.13802022 -0.32105982 -0.24234192 -0.24301308 0.6441649
0.33809364 -0.16891259 -0.24587724 0.3445122 0.39495537 -0.27410588 -0.19528729 -0.38269687
-0.64603996 0.3716664 0.23190863 0.18214136 0.9142115 1.9474307 -0.3600108 -1.2304088
-1.9519763 -0.2824107 -0.016025722 -0.17779578 0.11756626 0.70842075 0.1353651 -0.012499805
0.037995286 -0.0940672 -0.6487101 -0.019809354 0.13531394 0.30421862 -0.07279374 0.23853926
0.2152651 -0.41460988 0.17712149 -0.21560343 -0.1822779 0.5498751 0.29922876 0.88101083
1.5105097 -0.88723326 0.033598855 0.0033922305 1.0271386 -0.09589825 0.12602976 -0.014757157
0.16441658 0.06112761 0.017790938 0.11093061 0.06016032 0.95281893 -0.006933703 0.041071277
-0.10808186 -0.46696606 -0.44362736 0.19368076 0.32082054 0.14891326 0.30161613 -0.7054207
0.38286376 0.06390759 0.13590395 1.6438851 -0.04959119 0.10727783 -0.5589127 0.7200023
-0.062868655 0.03429207 -0.10602198 -1.5010324 0.056030363 0.047422428 0.07040257 0.09353804
-0.37829232 0.19422904 0.055739854 -0.2606248 0.020940129 -0.28448027 -0.17298688 0.31050193
-0.18993749 0.49496785 -1.1990334 -0.7016855 -0.06371055 -0.7762312 1.2105799 -0.20340358
-0.31786662 -0.37303513 -0.5348707 0.036381427 0.028309422 0.16255915 0.58374053 0.04201292
-0.037370726 0.028966106 0.022405144 0.89618146 0.97800934 0.0036424564 -0.51847863 0.14345616
-0.015249293 0.40564984 -0.6667478 0.45881754 -0.7020712 -0.40617827 -0.28914434 -0.042233687
0.02341848 -0.1162109 0.52445966 0.6707895 -0.12162599 0.31459257 0.6325726 -0.061845057
-0.28801745 0.58741146 0.073795184 -0.15544422 0.049123917 -0.045061328 -0.28867406 0.6039949
-0.13089864 0.37415755 -0.27965426 0.53411424 -0.3590704 -0.41463265 -0.31783557 -0.4569967
-0.3210355 -0.4681898 -0.031656295 -1.2271938 -0.75092256 0.76330554 -0.33846617 -1.5803206
-1.7235091 0.91517556 0.012987236 0.21543293 -2.1105022 -0.16179533 -0.04610106 -0.007911246
0.15012792 -0.09207172 0.3316102 -0.11786951 -0.5730938 0.044255655 -0.07570602 -0.26964572
0.2801397 0.0033789163 0.39902756 0.5379397 -0.5896419 -0.21266547 0.5752854 0.14026904
-0.44157216 0.06682148 -1.5255378 0.6665496 -0.07794111 0.10279183 -0.054921664 -0.07225176

critic_network.0.bias f4 [128]
00000000: 683e d13b 96ec 4fbc 49fd febe c29b c33e
00000010: 4934 3a3e bcb0 bdbe 5f89 1b3f b946 3ebe
00000020: 0e52 0dbf 2058 cc3d 8872 68be 6ade 80be
00000030: 9f22 2d3f 61c6 8e3e 2e73 1a3f 8c8a ff3c
00000040: 7963 1c3d 0f9a 1fbe ec21 3c3e 8b6e 82be
00000050: 6a05 84be bdcf 95be c097 893c 91d3 65be
00000060: dd8d b83d 58a5 ac3e 5542 ae3d d92b c53d
00000070: 5bd1 673e 4c51 a33e 91b2 703d d5d2 b93e
00000080: 2c0d c1be be4a f53e 52f2 a1be 13bc 833e
00000090: 0ca5 8b3e eb5e 90be fb12 5c3e 2cb3 b83e
000000a0: a6ee d9be f3f5 86bd fbd1 5ebe 7319 60be
000000b0: cb1c c53d df77 60be e1ad 08be 79d9 223e
000000c0: 2450 80be 5df9 993e f07a 56bc 1d23 60be
000000d0: 3d7b 0b3e aab2 67be 5415 0c3f 03fc 313e
000000e0: 97c4 30bf 6ca9 333e 409b 803e c7d7 79be
000000f0: 1608 fe39 76d3 c83d 8dc5 a6be 6e46 aa3c
00000100: d438 0a3f 299c 95be 66a1 7cbe 1891 d5bd
00000110: 6194 c8be b637 db3e fc85 153e 17c6 c03e
00000120: af08 2abd 26d1 40be 186c 75be 6b11 53be
00000130: 0cfa b13e e176 e83e e05e 013f e096 08bf
00000140: ea40 bc3e 7a2c 3c3e 5cca 84be c847 633e
00000150: 5757 bdbe 37b8 7abe 7569 813e e8b0 0abe
00000160: 2d82 7bbe 53de 803e a37b 5b3d 8bfe e1bd
00000170: 9e7c cc3e fa17 f83d 2e23 9bbe 0102 2abe
00000180: b5d9 603e c1c8 543b 077b 913e 85ae 41be
00000190: 3652 933e d5be df3e a9b3 e5be 1b3c c7bd
000001a0: 2a46 39bd fd65 3e3f 0d60 973e 29f5 913e
000001b0: dc3b 0f3e 7a85 203f 39d1 0abf 38fc a3be
000001c0: 6a6e cdbd b32b 0abd fed6 8fbe ea38 52bd
000001d0: 0c0c 04be 7b11 cbbd 2e86 a63d 6aea fe3e
000001e0: ea2b 25bf 0807 a6be 79c4 dabe 2f08 8cbe
000001f0: 4181 edbd efda 87be 6a8e f33e b209 563e
0.0063856132 -0.012690684 -0.49802616 0.3820477 0.18184008 -0.370489 0.60756487 -0.18581666
-0.5520333 0.09977746 -0.2269994 -0.25169688 0.6763095 0.27885726 0.60332 0.031193994
0.038180802 -0.15586112 0.18372315 -0.25474963 -0.2578538 -0.29260054 0.016795993 -0.22443987
0.09011433 0.33719897 0.085087456 0.09627504 0.22638457 0.31897962 0.058764044 0.36293665
-0.37705362 0.47908586 -0.31630188 0.25729427 0.27274358 -0.28197417 0.21491615 0.36074197
-0.42564887 -0.0658988 -0.21759789 -0.21884708 0.096246324 -0.21920727 -0.1334758 0.15903272
-0.25061142 0.30073062 -0.013090834 -0.21888395 0.1362123 -0.22626749 0.54720044 0.17381291
-0.6904997 0.17545098 0.25118446 -0.24398719 0.0004845268 0.09805958 -0.32572594 0.020785537
0.5399296 -0.29220703 -0.24670944 -0.10428065 -0.39175704 0.42815942 0.14601892 0.3765113
-0.041512188 -0.18829784 -0.23967016 -0.20612113 0.34761083 0.45403197 0.5053539 -0.53355217
0.36768275 0.18376341 -0.25935638 0.22195351 -0.36980698 -0.24484335 0.2527577 -0.13544047
-0.24561377 0.2516962 0.053584706 -0.11034878 0.39938825 0.12113948 -0.30300277 -0.16602327
0.21958049 0.0032468291 0.28414175 -0.1891423 0.2877366 0.4370028 -0.44863632 -0.09728261
-0.04523293 0.7437437 0.29565468 0.28507355 0.13987678 0.6270367 -0.542255 -0.32028365
-0.100308254 -0.03373308 -0.28093714 -0.05132381 -0.1289522 -0.099154435 0.081310615 0.4978822
-0.6452013 -0.3242724 -0.42728022 -0.27349994 -0.11596919 -0.2653422 0.4756959 0.20902136

critic_network.2.weight f4 [128, 128]
00000000: 29c8 bc3e 8e0c b5be 065b 563e f5ad f5be
00000010: 4829 083f 4524 9e3d 7598 e13e 134f 323e
00000020: 6855 063d d564 cfbe 98cb 7e3e 636d 4e3f
00000030: e052 543f 2a52 023e 905b 5cbe 0e8d 513e
00000040: c996 133d 968d 77bd 5ff2 ce3e 1bdf b33e
00000050: 4ba1 313e 4988 27be 1f16 e3be d8e8 033e
00000060: 9c79 733e ea0a edbe a3fb 7e3e 5032 5abf
00000070: e8d3 083e 1ffd 2e3e 487a 13bf ca45 a6be
00000080: f40f 7cbe f668 c5be 1f95 3a3e 4ea6 cabd
00000090: 0270 c33d c3f3 8fbd f56a 54bf a779 83be
000000a0: cea2 353e 1395 82be 0abb 753e 42e6 01bf
000000b0: 53ef 093f 34a2 3cbe 4925 f53e a495 713e
000000c0: d310 883d a2b7 84bf 836c 8a3e 9f18 853e
000000d0: 235a 3abe 797a 5fbe 4a76 3cbe 5180 d73d
000000e0: 3ec6 b23e 41f0 5fbc 2d9f 8fbe d6f2 013e
000000f0: d44e 8fbf fbc1 65bf f7e2 853d 5e38 0abf
00000100: b257 9cbe 5320 243d b318 823e cd03 20bd
00000110: 1d22 163f bdfa afbe 31c3 0f3f 5f26 b13e
00000120: 5e1a 273f 3031 e53e f7ad d53e 8b66 8bbe
00000130: 3c1b d1bc 4886 9fbd 12c5 00be acff 7b3e
00000140: b904 d2be a658 a43c 75bd 66be 8446 12bf
00000150: a83b 673e bf7a 473f fe5d 0dbf aad1 183e
00000160: b0dc 2ebf cfbe 4cbe 116e 9ebd e666 e13d
00000170: 751d 233d a0d4 babe 9602 d2bb 83c3 0c3f
00000180: f3d4 8cbf 250e cdbe b101 a8be 47fb 7d3e
00000190: 20ab c03e 9cea 59bd 0f52 99be 5cd0 953e
000001a0: fb58 b43e f93f fbbd 4c6e 86be dafa 45bc
000001b0: 7e94 cfbd e338 12be cc79 183f 4f68 5cbe
000001c0: 9f41 a53d 2dd2 343d bf0b b43f dea6 09bf
000001d0: 499e 093d 8b9a e63e 5a6f ee3e e342 02be
000001e0: 5432 833e 8851 573e 7e28 3cbb acc0 d93e
000001f0: 3b7f 05bf 6d4c 0e3f d72c 76bd 8132 6dbe
00000200: 86d0 f43e 1551 88be 2096 363e c848 c7be
00000210: 8ae2 e33e cb8d d3be 8b5d e53e de83 9b3d
00000220: 7a6b 313f b629 5cbf 721b 8f3e 7c1f b73e
00000230: 638b d63c 3214 0b3e abe1 1fbe 34aa 333e
00000240: fc4a 0abf 6a45 f23d 6dfe 7b3e cdac 203e
00000250: 0f25 7d3e 7d4c dd3e 6aea 943d ca83 b4be
00000260: ed38 9dbe 3df5 e0be 0ddf 123f 9657 43bf
00000270: fc32 a23e dd8e ba3e b870 58be 1529 123f
00000280: 38ca 473e 6f84 9fbe 6434 3c3e ec8d c3be
00000290: 7212 283e fe8b ffbd 3324 c8bd 4ccf f2be
000002a0: 1e44 9c3e 6ac4 fbbd c8d4 b5bd 6989 11bf
000002b0: cc6b 003f fe28 c3be 6034 973e 40cb 773e
000002c0: 19fe 873e 0688 83bf 2caa d23e 8933 b4bd
000002d0: 5b19 8cbe 571d a33e f01b 2fbe 4985 2d3e
000002e0: 8447 af3e 5dea d03e f961 32bf a1d5 5c3e
000002f0: ec56 6abf 743f febe 5f88 81be 351f eabe
00000300: 6f92 68be 3eef 283e 7c11 603e 644e e93e
00000310: ad30 223f 0a85 993e a851 ba3e a037 183e
00000320: f49e 883f 20b2 2c3f 432c 913e fc1e 843b
00000330: c7bb 59be 4d01 03bf 194b 55be 758d 313e
00000340: 0c68 79be 5791 de3d e049 96be c907 b0be
00000350: 5780 2c3e 4557 593e 35e9 e1be d3ea bf3d
00000360: 8fe0 b4be bb5c e7bd 33d1 22be 99c5 f0be
00000370: c245 33be ac9b 1cbf 673f 063e ad0f b93e
00000380: aac0 99be 11ed 09bf 1f2b a0be 72b6 0d3f
00000390: 22c4 023f bbf3 91be e2b3 14bf d844 d13e
000003a0: c831 eb3e 5c01 9bbe 1c70 adbe ce7c b4be
000003b0: 82fb 17be 4d33 60be 063f 45be 3bc4 bebe
000003c0: 81f8 4a3d b619 2a3f 79b0 173f 868b e9be
000003d0: b10f 0c3f 50ec 813e 836a 303f 3bfe 1b3e
000003e0: 040a 7d3e eb54 ea3d 5336 adbd 6999 f03e
000003f0: 0f9a e3be b8bc 043f 98f5 b7bd 1387 7dbd
0.3687146 -0.3536114 0.2093316 -0.4798428 0.5318799 0.077217616 0.44061628 0.17412977
0.032796293 -0.40506616 0.24882352 0.8063566 0.8293896 0.12726656 -0.21519303 0.20463964
0.03603247 -0.06043776 0.4041929 0.35131153 0.17346685 -0.16360582 -0.44352815 0.12881792
0.23776859 -0.4629739 0.2490068 -0.8523302 0.13362086 0.17088746 -0.5760846 -0.3247512
-0.2461546 -0.3855664 0.18220948 -0.09895001 0.09542848 -0.07028916 -0.82975703 -0.2567875
0.17737886 -0.2550436 0.23997131 -0.5074197 0.53880805 -0.1842125 0.4788001 0.2359224
0.06643834 -1.036854 0.27035913 0.25995347 -0.18198447 -0.21824063 -0.18404499 0.10522521
0.34916872 -0.013668121 -0.2805113 0.12690291 -1.1195931 -0.89749116 0.06537431 -0.5399226
-0.30535656 0.04006989 0.2540947 -0.039066125 0.586458 -0.34370986 0.56157213 0.34599587
0.6527461 0.4476409 0.41734287 -0.27226672 -0.025525682 -0.07789284 -0.12575176 0.2460925
-0.41019228 0.020061802 -0.2253321 -0.5713885 0.22581351 0.7792167 -0.55221546 0.1492373
-0.6830549 -0.19994663 -0.07735837 0.110059544 0.039823014 -0.36490345 -0.0064089997 0.5498583
-1.1002487 -0.40049854 -0.3281379 0.24802886 0.37630558 -0.053202257 -0.29945418 0.29260528
0.35224137 -0.12268061 -0.26256025 -0.012083733 -0.101357445 -0.14279513 0.5956085 -0.21524166
0.08069157 0.04414575 1.4066085 -0.53770244 0.033598218 0.45039782 0.4656933 -0.12720828
0.25624335 0.21027195 -0.0028710659 0.4252981 -0.52147263 0.55585366 -0.060101356 -0.23163797
0.4781534 -0.2662436 0.17830706 -0.38922715 0.44508773 -0.41319117 0.4479793 0.07593511
0.6930462 -0.86001146 0.27950627 0.35766208 0.026189512 0.13581923 -0.15613429 0.17545396
-0.5402067 0.11829646 0.24608774 0.15690918 0.24721168 0.43222418 0.072712734 -0.35256797
-0.30707493 -0.43937102 0.573716 -0.7630552 0.31679523 0.3643712 -0.21136749 0.57093936
0.19510734 -0.31155726 0.1837936 -0.38194215 0.16413286 -0.12477873 -0.097725295 -0.4742378
0.3052072 -0.122933224 -0.088784754 -0.56850296 0.50164485 -0.38117212 0.29532146 0.24198627
0.2656105 -1.0275886 0.41145456 -0.08798892 -0.27363095 0.31858322 -0.17100501 0.16945376
0.3423425 0.40803805 -0.69680744 0.21565868 -0.9153888 -0.49657786 -0.25299355 -0.45726934
-0.2271211 0.16497514 0.2188167 0.4556762 0.63355523 0.29984313 0.36390424 0.14864969
1.0673509 0.674593 0.28354082 0.004032014 -0.21263038 -0.5117386 -0.20829429 0.17339118
-0.24356097 0.10867565 -0.29353237 -0.3438094 0.16845833 0.21224697 -0.44123235 0.09370961
-0.35327575 -0.11296984 -0.15900116 -0.47025755 -0.17507079 -0.61175036 0.13110124 0.36144772
-0.30029804 -0.5387736 -0.312829 0.55356514 0.51080525 -0.28506264 -0.5808698 0.40872836
0.45936418 -0.30274475 -0.33874595 -0.35251468 -0.14842036 -0.2189457 -0.19262323 -0.37259087
0.049553398 0.6644548 0.5925365 -0.4561426 0.54711443 0.25375605 0.68912524 0.152337
0.24710852 0.11441978 -0.08457627 0.46992043 -0.44453475 0.5185046 -0.0898239 -0.061896395

critic_network.2.bias f4 [128]
00000000: 2950 c7bd a0bf 4fbe 8da0 60be a3ff a4be
00000010: da70 8b3e b40e c63e 1bbe 97be 4614 563e
00000020: b58b e6be 4b05 73be 4472 913e 6df4 e93e
00000030: 15cd f1bd 2a51 89be 512c 25be c6bf a03e
00000040: 7ab0 0f3f bedf 7bbe 8724 9dbe ab3d 90be
00000050: fc4a 773e c005 d4be c6f5 69be 3f86 a83e
00000060: 93f4 503e e9e4 08be dfd6 bc3e 5782 a0be
00000070: 4fd4 38bf 6d9b b43d 777e e1be 5db2 c7be
00000080: cc1c 92be c383 60bd dd50 2f3f 5f10 463e
00000090: 5bc1 e53d 6a04 bcbe f9ee 503e 7379 3dbe
000000a0: c571 e73e b7d3 6c3e 7b65 a53e 2610 1d3e
000000b0: 7e97 e23e 72de c9bd a862 ce3e cd69 f53e
000000c0: 69c2 4abe b94f aebe c8e5 1dbf 2236 e23e
000000d0: 27e5 c03d 3bbe 363e 5eae f53d cd26 b3be
000000e0: fd55 973e 96c6 f4be 5d49 4a3e 2ed5 9d3d
000000f0: 01d9 db3d 3888 113e 209d 003e 214d 91be
00000100: 51de a4be 60e1 f13e 8a6c fa3e 517a 9a3e
00000110: 1061 e13e b933 8dbe 2681 8bbe 0166 55be
00000120: e5d7 073f 0065 31bf c2b2 193e 14f1 d33e
00000130: 9e5b c0be 8522 883e 647e 9fbe 361e 9a3e
00000140: 76be d53e 701f 93be ac6a 0c3f 31ee 853e
00000150: 0e9f cbbe 52f3 13bf 7304 d53e 207a 1e3e
00000160: e2fd a73e 3d84 163e 6902 fc3d e73b 633e
00000170: a60e fdbe 35da 4fbe 3169 2d3e 1224 c6be
00000180: 3323 bc3e 5aa8 b8be 9c63 433e beed 60be
00000190: b96c e13d 92d7 afbd bc8d 503e 6383 893e
000001a0: 525c ff3d df38 d0be d16c ad3e 900a a93e
000001b0: f650 8b3e 63c2 98be 37b3 8bbd 107e ba3e
000001c0: 6ad7 92be 8807 68be 3857 393f 60c7 a33e
000001d0: 96b5 33be 097f e13e 0443 6cbe 212f a3be
000001e0: 8c6e 613e 12d8 d33d 20f9 433c 7fda 263e
000001f0: 4624 b8be ca42 8a3e 3d27 e0be e18a 8a3e
-0.09732086 -0.20287943 -0.21936245 -0.32226285 0.27234536 0.38683093 -0.29637226 0.20906171
-0.45028463 -0.23732488 0.2840749 0.45694295 -0.118066944 -0.26819736 -0.16130187 0.31396312
0.56128657 -0.2459707 -0.3069193 -0.2817205 0.24149698 -0.41410637 -0.22847661 0.32914922
0.20405798 -0.13368572 0.36882684 -0.3134944 -0.7219896 0.088187076 -0.44041798 -0.39003268
-0.28537595 -0.054813158 0.6848276 0.19342183 0.1121852 -0.36722118 0.20403661 -0.1850336
0.45203987 0.23127638 0.32303986 0.15338191 0.44256204 -0.09856881 0.40309644 0.47932282
-0.19800724 -0.340452 -0.61678743 0.44181925 0.09418707 0.17846005 0.119961485 -0.3499054
0.2955779 -0.4780776 0.19754548 0.077066764 0.107347496 0.1421212 0.12559938 -0.28379157
-0.32200864 0.4724226 0.48910934 0.30171445 0.44019365 -0.27578524 -0.2724697 -0.20839693
0.53063804 -0.6929474 0.15009597 0.41394866 -0.37569898 0.26588836 -0.31151116 0.30101174
0.41746873 -0.28734922 0.5485027 0.26158288 -0.39769787 -0.5779315 0.41604957 0.15476274
0.32810885 0.14698882 0.12305147 0.2219082 -0.49425238 -0.20298083 0.16934659 -0.38699394
0.36745605 -0.36065942 0.19080967 -0.21965691 0.11007065 -0.08586039 0.20366567 0.26858053
0.124687806 -0.4066839 0.33872083 0.3301587 0.27210206 -0.29835805 -0.06821292 0.36424303
-0.28679973 -0.22659123 0.7239871 0.3198805 -0.17549738 0.44042233 -0.2307244 -0.31871894
0.22014827 0.103439465 0.0119612515 0.16294287 -0.35965174 0.2700408 -0.43779936 0.2705908

critic_network.4.weight f4 [1, 128]
00000000: 754c 1841 65f4 1641 0ed5 0e41 7b52 3041
00000010: 7221 18c1 b598 0dc1 6636 0f41 3d93 31c1
00000020: a362 0e41 c191 1b41 5a51 35c1 edc7 0ec1
00000030: 3a0c 3741 52ad 1a41 7a02 1641 fe90 3bc1
00000040: 9202 0ec1 f13c 1741 2210 1741 c86a 0e41
00000050: 3573 2fc1 cdda 0e41 5305 1e41 a67f 29c1
00000060: 4728 36c1 2362 2241 97c5 0ec1 6b94 1a41
00000070: 2a09 0f41 967a 2cc1 e1c7 0d41 2f85 2441
00000080: f7e2 3a41 9cc0 1841 3802 0ec1 cb07 16c1
00000090: 32bf 3ac1 822e 2641 92ea 29c1 ee3d 2c41
000000a0: 56d5 0ec1 37e9 0ec1 25e4 0ec1 1e2b 3ac1
000000b0: 1378 0ec1 fd97 3941 9c3f 18c1 cfa6 0ec1
000000c0: 042e 1841 f0bc 0e41 3287 0f41 368d 0ec1
000000d0: d992 37c1 78ff 2cc1 895e 1dc1 74ca 1741
000000e0: 090b 33c1 3689 0e41 5bcd 16c1 94f7 3ec1
000000f0: 5ca5 3ac1 9a54 1ac1 2717 21c1 ca7f 0e41
00000100: ce0a 1941 e51f 0ec1 52a7 0ec1 190e 23c1
00000110: ff4e 0ec1 85c8 2a41 b7fd 1541 c822 3941
00000120: 4f09 0fc1 8acc 0e41 bb65 29c1 0e2a 0fc1
00000130: ea65 0e41 214a 17c1 09a8 0e41 8edf 16c1
00000140: 18d6 38c1 c129 1641 9dac 0fc1 74d4 15c1
00000150: e9a3 0f41 4a84 0e41 5b9f 0ec1 126c 1fc1
00000160: 6fbc 16c1 5ea6 2dc1 f345 1ac1 7ab9 16c1
00000170: 9508 0e41 3436 1541 130f 16c1 0d37 0f41
00000180: 0280 0ec1 c2cc 1741 eb30 1bc1 158e 2d41
00000190: 0375 3ec1 6340 1941 f566 17c1 5771 13c1
000001a0: 3a84 15c1 27d6 0f41 9b79 0ec1 63b4 0ec1
000001b0: 6d9d 16c1 cc05 1441 450e 3641 72e6 0ec1
000001c0: 4317 1a41 e323 1741 14cd 0ec1 54e2 0ec1
000001d0: dc54 1741 ed08 0ec1 b50f 2141 5163 1541
000001e0: 97fb 17c1 6240 13c1 7a08 38c1 aed9 16c1
000001f0: a897 2c41 aa45 0fc1 c251 1741 70f2 17c1
9.518666 9.434667 8.927015 11.020137 -9.508165 -8.849782 8.950781 -11.098447
8.899081 9.723084 -11.332361 -8.92381 11.440485 9.667315 9.375605 -11.7228985
-8.8756275 9.452378 9.441439 8.90107 -10.965627 8.928418 9.8763 -10.593664
-11.384833 10.148959 -8.92324 9.661235 8.939737 -10.779928 8.861299 10.282516
11.680411 9.547024 -8.875542 -9.376903 -11.671679 10.386354 -10.619768 10.76512
-8.927084 -8.931937 -8.930699 -11.635527 -8.904315 11.5996065 -9.51553 -8.915725
9.511234 8.921127 8.970507 -8.909475 -11.4733515 -10.81237 -9.83558 9.486927
-11.190194 8.908499 -9.425136 -11.935444 -11.665371 -9.645655 -10.068152 8.9061985
9.565138 -8.882787 -8.91585 -10.190942 -8.894286 10.673955 9.374442 11.5709915
-8.939773 8.924936 -10.587337 -8.947767 8.899881 -9.455598 8.916024 -9.429579
-11.552269 9.385194 -8.979642 -9.364368 8.977517 8.907297 -8.913905 -9.963884
-9.421004 -10.853117 -9.642077 -9.420282 8.877095 9.325733 -9.37868 8.95094
-8.906252 9.48749 -9.699443 10.847188 -11.903567 9.578219 -9.462636 -9.215171
-9.344782 8.989783 -8.904689 -8.91904 -9.413434 9.251415 11.378484 -8.931261
9.630679 9.446261 -8.925068 -8.930256 9.458218 -8.877179 10.066335 9.336747
-9.498923 -9.203218 -11.502069 -9.428144 10.787025 -8.954508 9.45746 -9.496689
