src/rl/model/actor_model01-08-2024_12-06-12/10.pt (torch, 84710 bytes, 7 tensors)

logstd f4 [4]
0	0xbfbad285	-1.4595495
1	0xbfb41a33	-1.4070495
2	0xbfabac6c	-1.3411994
3	0xbfc10f23	-1.5082744

mean_net.0.weight f4 [128, 27]
0	0xbec405ee	-0.38285774
1	0xbdcb68f7	-0.0993213
2	0xbedd51c8	-0.43226457
3	0xbf207c10	-0.62689304
4	0x3f430449	0.76178414
5	0xbe8c4877	-0.27399036
6	0x3e8c7af2	0.2743755
7	0x400394dc	2.0559607
8	0xc00912fe	-2.1417842
9	0xbe76a7cd	-0.24087448
10	0x3d83471d	0.06410048
11	0xbe6ee85d	-0.23330827
12	0xbf32878b	-0.6973807
13	0x3c4d93e2	0.012547465
14	0xbdc2d288	-0.09512812
15	0xbe811131	-0.25208429
16	0x3de6a25e	0.11261438
17	0x3d8ff564	0.070292264
18	0xbe4b7238	-0.1986779
19	0x3e8655b8	0.26237273
20	0xbf0cba77	-0.5497202
21	0xbd2b862f	-0.041876014
22	0x3f9b24c1	1.2120591
23	0xbe8b9b42	-0.2726689
24	0x3e429a75	0.19004233
25	0xbdacc4f2	-0.08436002
26	0x3e3d777b	0.1850261
27	0x3eada3d2	0.33914047
28	0xbe744c48	-0.23857224
29	0x3e1ad28c	0.1511938
30	0x3e251de3	0.16124682
31	0xbede216b	-0.4338487
32	0x3dd3e212	0.10345854
33	0xbf7dae95	-0.99094516
34	0x3f971b26	1.180516
35	0x3f0f509f	0.55982393
36	0xbf3ab22d	-0.72928125
37	0x3e8d9846	0.27655238
38	0xbdbf32c8	-0.09335858
39	0xbef24829	-0.4732068
40	0xbc958bc9	-0.018255131
41	0xbeb9962f	-0.36247393
42	0x3e2c8301	0.16846849
43	0xbe26fbeb	-0.16307037
44	0xbf757371	-0.95879275
45	0x3f409a8a	0.7523581
46	0xbe436b49	-0.19083895
47	0x3f56651d	0.83748037
48	0xbf1b2f5b	-0.60619134
49	0x3ebef21a	0.37294084
50	0xbebb32d4	-0.36562216
51	0xbe8ca936	-0.27472848
52	0x3d9499ee	0.07255922
53	0x3d78aea7	0.060713436
54	0x3f0d25fa	0.5513607
55	0xbf366e05	-0.71261626
56	0xbd93a81a	-0.07209797
57	0x3f14a37b	0.5806195
58	0xbf85bb56	-1.0447795
59	0xbe120681	-0.14260294
60	0xbeac8ca1	-0.3370104
61	0xbf887918	-1.0661955
62	0xc0101583	-2.251313
63	0xbf8433d9	-1.0328323
64	0xbea9c4cd	-0.3315796
65	0x3eadce2d	0.33946362
66	0x3fa8c40b	1.3184828
67	0xbe98c8df	-0.29840752
68	0x3e245222	0.16046956
69	0x3e3606c7	0.17776023
70	0x3e7ee012	0.24890164
71	0xbf80bb58	-1.0057173
72	0x3f81d96f	1.014448
73	0xbc3099ac	-0.010778826
74	0x3e5f0352	0.2177861
75	0x3e72226b	0.23645942
76	0x3f318fe0	0.6936016
77	0xbd7192af	-0.05897778
78	0x3da3ebd4	0.08003965
79	0x3dd392a2	0.10330702
80	0x3e192928	0.14957106
81	0x3ebc64c5	0.3679563
82	0xbeac141d	-0.33609095
83	0xbe1350c0	-0.14386272
84	0xbe7fcbd7	-0.24980102
85	0x3e464d4f	0.19365428
86	0xbe3138b0	-0.17306781
87	0x3ed42726	0.41436118
88	0x400ee96c	2.232997
89	0xbeceab5b	-0.4036511
90	0x3f089517	0.53352493
91	0xbe6aadb2	-0.22917822
92	0x3e78df21	0.24303867
93	0xbf066192	-0.5249263
94	0x3c0068b2	0.007837461
95	0xbe92fd74	-0.28708994
96	0x3d9dd51b	0.07706662
97	0xbe0312d2	-0.12800148
98	0x3e198124	0.1499067
99	0xbf0e24d3	-0.5552494
100	0xbe0e3d63	-0.13890605
101	0xbf637fc5	-0.88866836
102	0x3e45e81d	0.19326825
103	0x3fd42789	1.6574565
104	0x3e3a97dc	0.18221992
105	0xbe8300df	-0.25586602
106	0x3dfb4658	0.122692764
107	0x3cd547ac	0.026035152
108	0x3f699fc9	0.9125944
109	0xbf214824	-0.630007
110	0xbd9a9e4d	-0.07549725
111	0x3ed0b69a	0.40764314
112	0x3ea25228	0.31703305
113	0x3d8a63cb	0.06757315
114	0x3d815216	0.06314485
115	0xbf878087	-1.0586098
116	0x3e8e1f15	0.2775809
117	0xbd1ada26	-0.0378057
118	0x3ef7b0d3	0.48377094
119	0xbf05782b	-0.52136487
120	0xbf04e1e1	-0.51907164
121	0xbd8b0da3	-0.067897104
122	0x3e90876b	0.28228316
123	0xbea38bdd	-0.31942645
124	0xbd724b2a	-0.059153713
125	0x3fc6486a	1.5490849
126	0x3f6e3e67	0.9306397
127	0x3dadd31f	0.08487534
128	0xbf0a9db8	-0.5414691
129	0x3b182a4a	0.0023218566
130	0x3f510268	0.81644297
131	0x3e3089bd	0.17240043
132	0x3e3a08c3	0.18167405
133	0xbc951751	-0.018199595
134	0xbe2e996c	-0.17050713
135	0xbd7008b3	-0.058602046
136	0xbeb7b624	-0.3588115
137	0xbedb741d	-0.42862025
138	0x3dd6e521	0.104929216
139	0x3e61eecb	0.22063749
140	0xbea8cd3e	-0.32969087
141	0x3e05dd60	0.13072729
142	0x3e0831f9	0.13300313
143	0x3f18fd35	0.59761363
144	0xbc67bd66	-0.014144277
145	0x3f5cd888	0.862679
146	0x3f53ee16	0.82785165
147	0x3e1a9c08	0.15098584
148	0x3e2378ea	0.15964094
149	0xbdc8890f	-0.09791767
150	0xbe3d502a	-0.18487611
151	0x3ead93b1	0.33901742
152	0xbf5f4f30	-0.87230206
153	0x3daaff9e	0.08349536
154	0xbb9c8534	-0.0047766212
155	0xbf53d242	-0.827427
156	0xbdfe9769	-0.12431223
157	0x3edae628	0.4275372
158	0x3de54538	0.11194843
159	0x3eb2993f	0.34882542
160	0x3e2c5321	0.16828586
161	0x3d85b170	0.06527984
162	0x3e8fc1d2	0.2807756
163	0xbe6d9878	-0.23202693
164	0xbe8590bf	-0.26086995
165	0xbe873415	-0.26406923
166	0xbe75f757	-0.24020134
167	0xbe40b5e8	-0.18819392
168	0x3e8f5b40	0.27999306
169	0x3f5b9b9d	0.8578432
170	0xbf053bc3	-0.52044314
171	0x3e9a0a98	0.30086207
172	0xbe23ecc3	-0.16008286
173	0x3c8730b1	0.01650271
174	0x3fcf143b	1.6178049
175	0x3e127570	0.14302611
176	0x3dcfa91a	0.101396754
177	0x3eaf325b	0.34218106
178	0x3e219b20	0.15781832
179	0xbfe62621	-1.7980386
180	0x3fe93e79	1.822219
181	0x3e15c164	0.14624554
182	0xbdcfd1d0	-0.101474404
183	0xbd4d1d80	-0.05007696
184	0x3eeb9aa6	0.46016425
185	0xbdb19ae4	-0.08672121
186	0xbe3cc991	-0.18436266
187	0x3e2083fd	0.1567535
188	0x3e19db16	0.15024981
189	0x3eb0a9d1	0.3450456
190	0x3f52b19c	0.8230226
191	0xbec0c6d1	-0.37651685
192	0xbd9c6e57	-0.07638233
193	0x3fa157ae	1.2604883
194	0x3cf89ac4	0.030347236
195	0x3ffbd3d3	1.9674019
196	0x3e06b052	0.13153198
197	0xbf210479	-0.6289745
198	0x3dd8e0b4	0.10589734
199	0x3c41d416	0.01183035
200	0xbd520521	-0.051274423
201	0x3f12c3ea	0.5733019
202	0xbba0a0c4	-0.0049019773
203	0xbe87ee4c	-0.26548994
204	0x3d1362a5	0.035982747
205	0x3ed1763b	0.40910515
206	0xbebdc6c8	-0.3706572
207	0x3f63c761	0.88976103
208	0xbde59b07	-0.1121121
209	0xbea38f7c	-0.31945407
210	0xbf0fdb03	-0.5619356
211	0x3e09e07a	0.13464537
212	0xbd221d07	-0.039578464
213	0xbcfd616c	-0.030930243
214	0x3dfc7081	0.12326146
215	0xbe903288	-0.28163552
216	0xbe2680a6	-0.16260013
217	0x3cc64918	0.024204776
218	0x3eac685e	0.33673376
219	0xbd5ea214	-0.05435379
220	0xbe845b5a	-0.25850946
221	0xbde6356f	-0.112406604
222	0xbf19ed8c	-0.6012809
223	0x3d3ac712	0.045600004
224	0x3f2a7bfb	0.6659543
225	0x3e8b3386	0.27187747
226	0xbe23556b	-0.15950553
227	0x3ed35c8f	0.41281554
228	0xbeb3b3eb	-0.35098204
229	0x3e554cdd	0.20830102
230	0xbeaaa4d7	-0.33328888
231	0xbe7b2629	-0.24526276
232	0xbd373d2c	-0.044736072
233	0x3f91d35e	1.1392629
234	0x3f4ed778	0.8079753
235	0x3c781855	0.01514252
236	0x3d2b3166	0.041795157
237	0x3fcfd053	1.623545
238	0x3e16bd5d	0.14720674
239	0x3d4ef838	0.05052969
240	0x3eb50310	0.353539
241	0xbed15f6d	-0.40893117
242	0x3ec4ee81	0.38463214
243	0xbe720d12	-0.23637798
244	0xbe9f4d2a	-0.3111356
245	0xbd975a52	-0.07390274
246	0xbd9f82e3	-0.077886365
247	0xbf25144c	-0.64484096
248	0x3d1fe21e	0.039034
249	0x3e952ec5	0.29137245
250	0x3ea8c9b9	0.32966402
251	0xbf522918	-0.82093954
252	0xbef9eaf4	-0.48812068
253	0xbcc44e89	-0.02396323
254	0x3e970115	0.29493013
255	0x3f3a4e2f	0.7277555

mean_net.0.bias f4 [128]
0	0xbdf8511f	-0.121248476
1	0x3dfbda05	0.12297443
2	0xbdb18de7	-0.08669644
3	0x3daf109b	0.08548089
4	0x3d48e0b7	0.04904243
5	0x3d8ac8ac	0.067765564
6	0x3e8d95d4	0.27653372
7	0x3d80df2a	0.06292565
8	0x3c1b0004	0.009460453
9	0xbe239810	-0.15975976
10	0x3e0de9c7	0.1385871
11	0x3e2ddc30	0.16978526
12	0x3d0d5b3f	0.034510847
13	0xbd83e038	-0.06439251
14	0xbdc34cc9	-0.0953613
15	0xbe171aad	-0.1475627
16	0x3ab13150	0.0013518725
17	0x3e628c30	0.2212379
18	0x3c5d13c9	0.013493487
19	0x3d1497d0	0.036277592
20	0x3dc3c79d	0.095595576
21	0xbdcbdd05	-0.099542655
22	0xbddc2c83	-0.107506774
23	0xbc6a4bc9	-0.014300295
24	0x3e776ad3	0.24161844
25	0x3c9efbad	0.019407118
26	0xbe6d49ce	-0.23172686
27	0xbe28a6a8	-0.16469824
28	0xbdb044ee	-0.08606897
29	0x3e043743	0.12911706
30	0x3e2119f8	0.15732563
31	0x3dbc858f	0.09205162
32	0xbe51b0a1	-0.20477535
33	0xbde7db4c	-0.113211244
34	0x3d53a7b2	0.0516736
35	0x3dc37145	0.09543089
36	0x3df42d54	0.11922708
37	0xbe397095	-0.18109353
38	0xbe2f0869	-0.17093052
39	0x3e36b2f3	0.17841701
40	0x3e01be17	0.1267017
41	0x3da11739	0.078657575
42	0x3e137dd5	0.1440347
43	0x3da9a9fa	0.082843736
44	0x3de02c6b	0.10945972
45	0xbd8bee84	-0.068326026
46	0x3e037287	0.12836657
47	0x3baed650	0.0053356066
48	0x3d2cb2f1	0.04216284
49	0xbe075dec	-0.13219422
50	0x3dd17904	0.1022816
51	0x3c46372b	0.012098114
52	0xbd9054a2	-0.070473924
53	0xbd216b14	-0.03940876
54	0xbe8f9eba	-0.28050786
55	0xbceb4500	-0.028719425
56	0x3e115995	0.14194329
57	0xbdb8ab87	-0.09017091
58	0xbe0c48b5	-0.1369961
59	0x3dc227f0	0.09480274
60	0xbe3e6a2c	-0.18595189
61	0x3c9f8e77	0.019477112
62	0xbe8cf5fb	-0.27531418
63	0xbd0eb5c8	-0.03484133
64	0xbc338bfa	-0.010958666
65	0xbca8a987	-0.02058865
66	0x3c506893	0.012720245
67	0xbd1a4d48	-0.037671357
68	0xbc03f8d3	-0.00805493
69	0x3c78d0ec	0.01518653
70	0x3c187abd	0.009306607
71	0xbd8ffc6a	-0.07030566
72	0x3e4e99f7	0.2017592
73	0x3dbf40b1	0.09338511
74	0x3d823ee1	0.063596494
75	0xbe4b698b	-0.1986448
76	0x3cf40c12	0.029790912
77	0x3e042591	0.12904955
78	0xbe739ce4	-0.23790318
79	0x3e374ea0	0.17901087
80	0x3d65f35d	0.056140292
81	0x3c64d288	0.01396621
82	0xbdfd560c	-0.12369928
83	0xbde15ba1	-0.11003805
84	0x3df1b19e	0.11801456
85	0xbd0d9011	-0.03456122
86	0xbd0a42de	-0.033755176
87	0x3ce83f02	0.028350357
88	0x3cb64781	0.022250893
89	0xbe145050	-0.14483762
90	0xbcae23af	-0.02125725
91	0xbe18273f	-0.14858721
92	0x3daf53f2	0.08560933
93	0xbdf0c43a	-0.11756177
94	0x3d98ddd7	0.074641876
95	0x3e4f5981	0.20248987
96	0x3d1078f7	0.03527161
97	0x3cb1d09b	0.021705916
98	0xbc4bc3f6	-0.012436857
99	0x3d970f2c	0.07375941
100	0x3b3cbe97	0.0028800124
101	0x3cc773f3	0.024347281
102	0xbd90f066	-0.07077102
103	0x3e84fcd7	0.25974151
104	0x3db95aaf	0.090505
105	0x3d809f2d	0.0628036
106	0x3e1b38ce	0.15158388
107	0xbe6957b2	-0.2278736
108	0xbe28b905	-0.1647683
109	0x3c5da339	0.013527685
110	0xbdd84513	-0.1056005
111	0x39dc4fa9	0.0004202102
112	0x3d3575c8	0.044301778
113	0xbe6cc522	-0.23122075
114	0xbe5284e4	-0.20558506
115	0xbea5e516	-0.3240134
116	0x3df1e342	0.11810924
117	0xbda4d70b	-0.08048829
118	0x3db30789	0.087416716
119	0xbe1237eb	-0.14279144
120	0x3e867ffc	0.2626952
121	0x3e68595f	0.22690342
122	0xbe936e9b	-0.28795323
123	0xbd370d5e	-0.044690482
124	0xbeb55f51	-0.35424283
125	0x3e5fc3ef	0.21852086
126	0xbc092333	-0.008370209
127	0xbcd78fef	-0.02631375

mean_net.2.weight f4 [128, 128]
0	0x3e4de1fa	0.20105734
1	0xbe709e29	-0.23497833
2	0xbe081aee	-0.13291523
3	0x3e139003	0.14410405
4	0x3de0f374	0.10983935
5	0x3cd3ab09	0.025838392
6	0xbe98bcd4	-0.29831564
7	0x3ea6a05d	0.32544222
8	0xbe8c4df9	-0.27403238
9	0xbea61f46	-0.32445735
10	0x3e8b01e9	0.27149895
11	0x3e3dbb46	0.1852847
12	0x3e159665	0.14608152
13	0xbeefb183	-0.46815118
14	0xbc2db2f7	-0.010601751
15	0x3dcfc0d1	0.10144199
16	0x3d1dfe5f	0.038572665
17	0x3d8e948c	0.06961927
18	0xbe2b4a76	-0.16727623
19	0x3dd65080	0.10464573
20	0x3ecc1872	0.398624
21	0x3e291dfe	0.16515347
22	0x3e81ccce	0.25351566
23	0xbe3d6ec3	-0.18499283
24	0x3e1ae411	0.15126063
25	0x3d0658d9	0.032799575
26	0x3dfa3d10	0.12218678
27	0x3cbb10bb	0.022835126
28	0xbe19b7a2	-0.15011457
29	0x3e89c587	0.26908514
30	0xbe04ec01	-0.12980653
31	0xbe0a7977	-0.13522898
32	0x3ea6dc74	0.32590067
33	0x3c9f5caa	0.019453365
34	0xbe56d65f	-0.20980214
35	0x3db3cb28	0.08778983
36	0xbe27ef70	-0.16399932
37	0x3ea8cbf8	0.32968116
38	0xbe54bdca	-0.20775524
39	0xbe0de8b2	-0.13858297
40	0xbe20840d	-0.15675373
41	0xbdeeaa01	-0.116535194
42	0x3e5fa38a	0.21839729
43	0xbe37861c	-0.17922252
44	0x3ed57523	0.4169093
45	0x3ec6e923	0.38849744
46	0x3d1fa017	0.038971033
47	0xbd85e0d1	-0.06537021
48	0x3e77671d	0.24160428
49	0xbe642ab0	-0.22281909
50	0xbe05e3ac	-0.13075131
51	0xbe57fdfd	-0.21092983
52	0x3ea00ae8	0.3125832
53	0xbde471be	-0.11154507
54	0xbe4f705a	-0.20257702
55	0x3df6ee94	0.12057224
56	0xbf27cc17	-0.6554579
57	0xbdc6914e	-0.096956834
58	0x3e3c33bd	0.18379112
59	0x3debcc75	0.115136065
60	0x3ba8c817	0.0051508057
61	0xbf0dc587	-0.5537953
62	0xbcfa2d5e	-0.03053921
63	0xbe33823c	-0.17530149
64	0x3d7059c7	0.05867937
65	0x3edb634c	0.42849195
66	0x3e9bc111	0.30420735
67	0x3e1e6c99	0.15471114
68	0x3e1eb500	0.15498734
69	0xbe5c5e1b	-0.21520273
70	0x3d40b309	0.04704574
71	0xbca8082b	-0.020511707
72	0x3c9f7f25	0.019469807
73	0x3f05d4c1	0.5227776
74	0xbd47322b	-0.04863183
75	0x3e6ccaaf	0.23124193
76	0x3c4ea7c0	0.012613237
77	0x3dd1acb7	0.10238021
78	0xbc8628c3	-0.016376859
79	0x3e845f2c	0.2585386
80	0xbe2de726	-0.16982707
81	0xbdb30a58	-0.08742207
82	0xbb9867cc	-0.0046510454
83	0x3dff4a60	0.12465358
84	0x3dd0f9f0	0.10203922
85	0xbe54e258	-0.20789468
86	0xbe758c0a	-0.23979202
87	0x3da1789c	0.078843325
88	0xbedf5280	-0.4361763
89	0xbee1cbd0	-0.4410081
90	0xbe2f244a	-0.17103687
91	0xbebaca89	-0.36482647
92	0x3d1589c8	0.03650835
93	0xbf37d471	-0.71808535
94	0xbe931b6a	-0.28731853
95	0xbd750a5f	-0.059824344
96	0xbeb4a2ee	-0.35280555
97	0xbca17a19	-0.019711541
98	0x3ccefca5	0.025266955
99	0x3e48527c	0.19562715
100	0xbd98fd64	-0.074702054
101	0x3ede0e78	0.43370414
102	0x3edff0ca	0.43738395
103	0xbdedac99	-0.11605186
104	0xbe663f3b	-0.22485058
105	0x3e1f1bf3	0.15538006
106	0xbcf0a168	-0.02937384
107	0x3e87c9ef	0.2652125
108	0x3e401ff8	0.18762195
109	0xbd9b26e9	-0.07575781
110	0x3d291bf2	0.041286416
111	0xbd700cae	-0.058605842
112	0xbe0adcd8	-0.13560808
113	0x3e020393	0.12696676
114	0x3eef4718	0.46733928
115	0xbe0180d9	-0.12646808
116	0x3ed21912	0.41034752
117	0xbd8701b8	-0.06592125
118	0x3deec997	0.11659544
119	0x3ddfe758	0.10932797
120	0xbd803e5c	-0.06261894
121	0xbe720a28	-0.23636687
122	0xbcec7fd8	-0.028869554
123	0x3e83e0a9	0.2575734
124	0x3dd86fb5	0.105681814
125	0xbea486a0	-0.3213396
126	0xbcaaa3a0	-0.020829976
127	0xbe8cace3	-0.27475652
128	0xbefa67bc	-0.48907268
129	0x3df4f0b3	0.11959972
130	0xbe45aa54	-0.19303256
131	0xbe6d5463	-0.23176722
132	0x3e8447a7	0.25835916
133	0xbeddaa8a	-0.43294173
134	0xbbbdb7eb	-0.005789747
135	0xbe54bb19	-0.20774497
136	0x3dfd889b	0.12379571
137	0xbf8363c5	-1.0264822
138	0xbea1f7d4	-0.3163439
139	0x3ddfb642	0.10923435
140	0x3eb5569b	0.35417637
141	0xbe3e85e3	-0.18605761
142	0xbe1a2547	-0.15053283
143	0xbe4dea18	-0.20108831
144	0x3ccca810	0.024982482
145	0x3d219f4f	0.03945857
146	0xbe41d183	-0.18927579
147	0x3dc94c44	0.09829
148	0xbe98bef5	-0.2983319
149	0x3dc590c7	0.09646755
150	0x3da22363	0.07916906
151	0xbbc5bef1	-0.006034725
152	0x3d76a1c8	0.06021288
153	0xbeed84a5	-0.46390262
154	0xbe760ef8	-0.24029148
155	0x3e381023	0.17974906
156	0x3ed1c48e	0.40970272
157	0xbeade0eb	-0.3396066
158	0x3d7b8ba3	0.061412465
159	0xbf14f810	-0.58191013
160	0x3eb603d0	0.35549784
161	0x3e2a6bfd	0.16642757
162	0xbe7e89b2	-0.24857214
163	0xbe473df6	-0.1945723
164	0xbad6e6d5	-0.0016395698
165	0x3dd72a14	0.10506073
166	0xbcbda41e	-0.023149546
167	0x3e517f72	0.20458773
168	0xbdf4f17a	-0.119601205
169	0xbd23bd90	-0.039975703
170	0xbeca4fdb	-0.3951405
171	0x39a369aa	0.0003116851
172	0xbd3752fe	-0.044756882
173	0x3e61c922	0.22049382
174	0x3c948c28	0.018133238
175	0x3e8ff342	0.28115278
176	0xbf31f470	-0.6951361
177	0xbd4a7e99	-0.04943714
178	0xbcbb4c97	-0.02286367
179	0xbed78721	-0.42095283
180	0x3c2aba75	0.010420431
181	0xbe25d267	-0.16193543
182	0xbd1169d0	-0.0355013
183	0x3e17d4eb	0.14827316
184	0xbc5ac454	-0.013352472
185	0xbdc8f4ce	-0.09812318
186	0xbe853c3b	-0.26022515
187	0xbd4c5b4e	-0.049891762
188	0x3e97f31a	0.2967766
189	0xbeab07f9	-0.3340452
190	0x3dfa2493	0.12214007
191	0xbe41c8b4	-0.18924218
192	0x3e47977d	0.19491382
193	0x3c0f832b	0.0087593
194	0xbe9e233f	-0.30886266
195	0xbebd4b12	-0.36971337
196	0x3e8494d2	0.2589479
197	0xbe091f26	-0.13390788
198	0x3e67493e	0.22586533
199	0xbedd2db3	-0.43198928
200	0xbdc3897b	-0.09547707
201	0x3d4848aa	0.048897423
202	0xbdee9e14	-0.11651245
203	0x3e020413	0.12696867
204	0x3f352a32	0.7076751
205	0x3e4b84d8	0.19874895
206	0x3d9dd6e7	0.07707005
207	0xbe11d671	-0.14241959
208	0xbdb022c7	-0.08600383
209	0x3edb2d64	0.42808068
210	0xbdb0841c	-0.08618948
211	0x3ce20e2e	0.027594652
212	0x3e8c6dd0	0.2742753
213	0xbe0506c1	-0.12990858
214	0xbe69f402	-0.22846988
215	0x3f10d619	0.5657669
216	0xbd271b56	-0.040797554
217	0x3f1c9fa7	0.6118111
218	0x3e32448d	0.17408963
219	0xbd9f57b5	-0.07780401
220	0x3e277505	0.16353233
221	0xbe58521d	-0.21125074
222	0xbec1e578	-0.37870383
223	0x3e0a4a50	0.1350491
224	0x3e32767f	0.17428015
225	0xbe60ce0a	-0.21953598
226	0x3ea9b4d0	0.3314576
227	0x3d5e3fce	0.054260068
228	0x3e21f800	0.1581726
229	0xbda980e2	-0.082765356
230	0xbe23b9bd	-0.15988822
231	0xbf3af3aa	-0.7302805
232	0x3e6f7a5c	0.2338652
233	0x3e2dd4df	0.16975735
234	0x3eb46e2b	0.352403
235	0xbed21ab6	-0.41036004
236	0xbf068bd9	-0.5255714
237	0x3d7cb326	0.061694287
238	0x3eacbad6	0.33736295
239	0x3e09faf5	0.13474639
240	0x3ea603a7	0.32424662
241	0xbdc55149	-0.096346445
242	0xbe095c7c	-0.13414186
243	0xbdd9757b	-0.10618111
244	0xbf47bc86	-0.7802204
245	0xbee98312	-0.4560781
246	0x3dc60c13	0.09670272
247	0x3de94c51	0.11391509
248	0x3e912ab0	0.2835288
249	0x3ebf5634	0.37370455
250	0x3d2cf849	0.04222897
251	0x3cba7eb2	0.022765491
252	0xbc7d11c6	-0.015446132
253	0x3def63d1	0.1168896
254	0xbe984acf	-0.29744574
255	0xbed280f1	-0.41114

mean_net.2.bias f4 [128]
0	0xbdfc8da2	-0.12331702
1	0x3ddc213e	0.10748528
2	0x3d9ecdf2	0.07754125
3	0xbcd5dcfa	-0.026106346
4	0x3dc6abd5	0.09700743
5	0xbc194d0b	-0.009356747
6	0xbbf5ef24	-0.0075053144
7	0xbbaf39c9	-0.0053474647
8	0xbe0af474	-0.13569814
9	0xbd0eac72	-0.034832425
10	0x3dd77d98	0.10522002
11	0xbe1c32c2	-0.15253738
12	0x3d8cd1df	0.06875967
13	0xbe540928	-0.20706618
14	0x3d27f4d3	0.041004967
15	0xbe39de82	-0.18151286
16	0xbe03971d	-0.12850614
17	0xbda465f9	-0.08027262
18	0xbe306fa5	-0.17230089
19	0xbe6902b2	-0.22754934
20	0x3daac681	0.08338643
21	0x3dd3357e	0.10312937
22	0x3d2c4d38	0.04206583
23	0x3df3f362	0.11911656
24	0xbdc83fbd	-0.09777782
25	0xbd8c5122	-0.06851412
26	0xbd14ec8b	-0.036358397
27	0xbd01db01	-0.031703
28	0xbe86a0c8	-0.2629454
29	0xbc91d2a2	-0.017800633
30	0xbda77765	-0.081770696
31	0x3d9d2e14	0.07674804
32	0x3d2a16d5	0.04152568
33	0x3d36241a	0.044468023
34	0xbd37c862	-0.044868834
35	0xbe8b973b	-0.27263817
36	0x3d123aa9	0.035700474
37	0x3dbe5bdb	0.09294864
38	0x3caedc8a	0.021345396
39	0x3dd6796a	0.10472377
40	0x3dc527f6	0.096267626
41	0xbd7ed6db	-0.06221662
42	0xbe386262	-0.1800628
43	0x3e147fb5	0.14501841
44	0x3ce6eacf	0.028188137
45	0x3cf32194	0.029679097
46	0xbe0b0e1a	-0.13579598
47	0xbd712789	-0.058875594
48	0xbcea55fe	-0.028605457
49	0xbb46e9f0	-0.003035184
50	0xbdf4611c	-0.11932585
51	0xbd6969ac	-0.056985542
52	0x3c86b3d3	0.016443169
53	0xbe3d71b7	-0.1850041
54	0x3c8b220e	0.016984012
55	0x3c887983	0.016659504
56	0x3ca485e0	0.020083368
57	0xbdabc944	-0.08387998
58	0xbe2b1875	-0.16708548
59	0xbd9a1643	-0.07523777
60	0x3c407b9a	0.011748219
61	0x3e104392	0.14088276
62	0xbe0666a8	-0.13125098
63	0x3d78ff0f	0.060790118
64	0xbd3137b2	-0.043266006
65	0x3de176a9	0.11008961
66	0x3e0e3ad4	0.13889629
67	0xbe1af14a	-0.15131107
68	0x3d082e3e	0.033247225
69	0x3c29c64a	0.010362217
70	0xbd5a7471	-0.053333703
71	0xbe35a30d	-0.1773798
72	0x3c4bcd7a	0.012439126
73	0x3d386633	0.04501934
74	0xbd9ecb96	-0.07753675
75	0x3d931a6b	0.07182773
76	0x3b8cd7db	0.004298193
77	0xbca08477	-0.019594414
78	0x3ce4b38c	0.027917646
79	0x3e15822a	0.14600435
80	0xbdeab27c	-0.114598244
81	0xbe0cc68e	-0.13747618
82	0xbe083bf8	-0.13304126
83	0x3e0437c9	0.12911905
84	0x3cc94dfb	0.024573317
85	0xbda03f91	-0.07824624
86	0xbc1ccdec	-0.00957058
87	0xbc5f06c3	-0.013612452
88	0x3dac4bea	0.08412917
89	0x3ca69111	0.020332845
90	0xbded21bd	-0.11578701
91	0x3e157f00	0.14599228
92	0x3da5c173	0.08093538
93	0xbda2b8c2	-0.07945396
94	0x3de3b526	0.11118536
95	0xbd9ed522	-0.077554956
96	0xbe70f31a	-0.23530236
97	0x3d4406dd	0.047858108
98	0xbe2571da	-0.16156712
99	0xbe1602cb	-0.14649503
100	0x3d0e6102	0.034760483
101	0x3e066693	0.13125066
102	0xbdffc719	-0.12489147
103	0xbde31e33	-0.110897444
104	0x3e7998f5	0.24374755
105	0xbd2e879b	-0.042609792
106	0x3c5402cc	0.01294012
107	0x3d175a2b	0.036951225
108	0x3e4eb25e	0.20185229
109	0xbba068e5	-0.004895317
110	0x3d3b78d5	0.04576953
111	0x3c8c4d0a	0.017126579
112	0xbe059348	-0.13044465
113	0xbd9fec2c	-0.07808718
114	0x3c8677cd	0.016414547
115	0x3d2a08e5	0.04151239
116	0xbe0a2734	-0.13491517
117	0xbe49dfbd	-0.19714256
118	0xbd69cec5	-0.057081956
119	0x3cdaa3d0	0.02668944
120	0xbd17c6e7	-0.037054922
121	0xbdddd80a	-0.10832222
122	0x3d631669	0.055441294
123	0x3dd23139	0.10263295
124	0x3e36dd31	0.17857815
125	0xbddbf903	-0.107408546
126	0xbdc0a0a3	-0.09405639
127	0xbd5e20e0	-0.05423057

mean_net.4.weight f4 [4, 128]
0	0x3f027a9b	0.5096833
1	0xbd30bd7f	-0.043149468
2	0xbe8b7176	-0.27235
3	0xbe3d871a	-0.18508568
4	0x3ebd2e13	0.36949214
5	0x3d50009b	0.050781827
6	0x3eccc471	0.39993623
7	0xbe847d44	-0.2587682
8	0xbda6a4b7	-0.081368856
9	0x3e4eb10b	0.20184724
10	0xbedfea58	-0.43733478
11	0x3f02cc81	0.510933
12	0xb8bf96b9	-9.135664e-05
13	0x3e24dabf	0.1609907
14	0x3d8a1dfa	0.06743999
15	0xbdff4538	-0.12464374
16	0xbe855726	-0.2604305
17	0x3e49840b	0.19679277
18	0xbeab75ad	-0.33488217
19	0xbeeff5ad	-0.46867123
20	0xbeeffe98	-0.46873927
21	0xbecd77f5	-0.40130582
22	0x3f2b089e	0.66810024
23	0x3e4ae0d5	0.19812329
24	0xbe97526d	-0.29555073
25	0x3f02e19c	0.511255
26	0x3e59dfd4	0.2127679
27	0x3d277f9d	0.040893186
28	0xbea8a810	-0.32940722
29	0x3e38ff67	0.18066178
30	0xbee6bda9	-0.45066574
31	0xbe74fa2f	-0.23923562
32	0xbe44e771	-0.19228913
33	0x3d3ca032	0.04605121
34	0xbeb5ec21	-0.35531715
35	0x3ec5a8d9	0.38605383
36	0xbdbbf68a	-0.09177883
37	0xbeadad52	-0.33921295
38	0xbddc4b56	-0.10756557
39	0xbea1034c	-0.31447828
40	0x3ceab2a4	0.028649636
41	0xbe2058a2	-0.1565881
42	0xbe8ba15e	-0.2727155
43	0xbec2dd4d	-0.38059464
44	0xbe98aa45	-0.29817405
45	0xbd9e4f78	-0.07730001
46	0xbd998227	-0.07495528
47	0xbede4c4d	-0.43417588
48	0xbc3a9ac5	-0.011389439
49	0xbef19220	-0.47181797
50	0x3dfc8581	0.12330151
51	0x3dbd559a	0.09244843
52	0x3d868278	0.06567854
53	0x3d7f7b2d	0.06237333
54	0x3eecaa40	0.4622364
55	0x3ef2ae89	0.47398785
56	0x3e9accc4	0.3023435
57	0x3eac6d0f	0.33676955
58	0xbece9656	-0.40349072
59	0xbd8a23b2	-0.067450896
60	0xbf0e6211	-0.5561839
61	0xbef3e716	-0.47637242
62	0xbe11eda2	-0.14250806
63	0x3eb3f6b0	0.35149145
64	0xbe9dea1e	-0.3084268
65	0xbe90edb6	-0.2830636
66	0xbf028acf	-0.50993055
67	0xbdd5d38e	-0.104407415
68	0xbe888f0f	-0.26671645
69	0xbf0f71cb	-0.5603301
70	0x3ee79e28	0.4523785
71	0xbec85dcd	-0.39134064
72	0xbe96d395	-0.294583
73	0xbe1f7077	-0.15570246
74	0x3ea42a29	0.32063416
75	0x3d8b86f4	0.0681285
76	0xbeac3d4d	-0.3364052
77	0xbccd3f1c	-0.025054507
78	0xbe784540	-0.24245167
79	0x3c20e161	0.0098193595
80	0xbc3b02a9	-0.011414208
81	0x3e5f1be9	0.2178799
82	0x3ddd65c1	0.10810424
83	0xbeab4714	-0.33452666
84	0x3f180d2b	0.5939509
85	0xbe9d829b	-0.30763707
86	0x3e5375e3	0.20650439
87	0x3eacf041	0.3377705
88	0xbe13f931	-0.14450528
89	0x3ecf81dc	0.40528762
90	0xbe82f614	-0.25578368
91	0xbf1937aa	-0.5985056
92	0xbe9dca09	-0.30818203
93	0xbe9cf175	-0.30652967
94	0xbdded19d	-0.10879824
95	0xbe9c19b0	-0.30488348
96	0x3e96c1d7	0.29444763
97	0xbf1488b3	-0.58021086
98	0x3e320aa7	0.17386876
99	0xbd6b36d3	-0.05742533
100	0x3e51f2b2	0.20502737
101	0x3c8fc32e	0.017549124
102	0x3eda0fc4	0.42590153
103	0x3e27ef12	0.16399792
104	0x3d281698	0.041037172
105	0xbe43a8d3	-0.1910737
106	0x3e3f9b9f	0.18711708
107	0x3daa3c56	0.083122894
108	0xbd7d94c3	-0.06190945
109	0xbd970727	-0.07374411
110	0xbc5c069c	-0.01342931
111	0x3cad6a4f	0.021168856
112	0x3eb2e1b8	0.34937835
113	0x3e2ad5e8	0.16683161
114	0xbe9f8b2f	-0.31160876
115	0x3ddb0d81	0.10695935
116	0x3e8e66eb	0.27812895
117	0x3ea92eaa	0.33043414
118	0x3d275b43	0.04085852
119	0x3dfb732d	0.122778274
120	0x3e65d29a	0.2244362
121	0x3e3f061b	0.18654673
122	0xbd2ff2d0	-0.042956173
123	0x3f06fd3d	0.5273016
124	0xbe8d2cf5	-0.27573362
125	0x3b273c3c	0.002551808
126	0x3ef352cd	0.4752411
127	0x3e7a0571	0.24416138
128	0xbe1d049f	-0.15333794
129	0xbefbda7d	-0.4919013
130	0xbea2e18f	-0.31812713
131	0xbee0dc86	-0.43918246
132	0x3e65d705	0.22445305
133	0xbe5fa42c	-0.2183997
134	0xbf1f39f7	-0.6219782
135	0x3e9604b3	0.2930046
136	0xbe11cbcf	-0.14237903
137	0xbe8c5d0d	-0.27414742
138	0xbf0f00e1	-0.55860716
139	0x3f2286c6	0.634869
140	0x3eb87b81	0.36031726
141	0xbe34e431	-0.17665173
142	0x3e5617ff	0.20907591
143	0x3f6cbdcb	0.924771
144	0x3eb764a5	0.35818973
145	0x3cd71639	0.026255714
146	0xbeae09ea	-0.3399194
147	0xbed679b3	-0.41889724
148	0xbe53abe5	-0.20671041
149	0xbe1a2200	-0.15052032
150	0xbe6d39cd	-0.2316658
151	0xbeca2344	-0.3948003
152	0xbef0cbf2	-0.47030598
153	0x3cd35c53	0.02580086
154	0xbe88b6b3	-0.26701888
155	0xbebe3562	-0.37150103
156	0x3e956762	0.29180437
157	0xbe52b56e	-0.20577022
158	0xbe11d98c	-0.14243144
159	0xbe9d6afb	-0.30745682
160	0x3f1c1438	0.6096835
161	0x3e3d11c5	0.1846381
162	0x3f190344	0.5977061
163	0xbe6f36e4	-0.23360783
164	0x3dd60969	0.104510136
165	0x3dcd805a	0.10034247
166	0xbe7090be	-0.23492715
167	0xbea02b5c	-0.3128308
168	0x3ed40cd3	0.41416034
169	0x3c8a923e	0.016915437
170	0x3f070165	0.527365
171	0xbe96454b	-0.2934974
172	0x3d2dcf0a	0.042433776
173	0xbdab4fd4	-0.083648354
174	0x3e2eb104	0.17059714
175	0xbeb74675	-0.35795942
176	0x3ed1fe2a	0.41014224
177	0xbef1add3	-0.4720293
178	0x3ec7ee28	0.39048886
179	0xbed2f4cc	-0.4120239
180	0x3e0ae349	0.13563265
181	0xbeeeba52	-0.46626526
182	0xbe9a66a5	-0.30156437
183	0xbda96e00	-0.08272934
184	0x3eb360f9	0.35034922
185	0x3f029994	0.5101559
186	0x3ea0bdaf	0.31394717
187	0xbe064819	-0.1311344
188	0xbea2ce60	-0.31798077
189	0x3e92d409	0.28677395
190	0x3eaa102a	0.33215457
191	0xbec2e6b7	-0.38066646
192	0x3efa43d7	0.48879883
193	0xbf0d621b	-0.5522782
194	0x3e6803c9	0.22657694
195	0xbe22fdc0	-0.1591711
196	0xbd5f2ec0	-0.054487944
197	0xbec40f05	-0.3829271
198	0x3ef128f6	0.47101563
199	0xbdb1d0a1	-0.08682371
200	0x3e8bbc2a	0.27291995
201	0x3e60ebff	0.21965025
202	0x3ec7dfd3	0.39037952
203	0xbeef451f	-0.46732423
204	0x3f086dd7	0.532926
205	0x3d93bf9d	0.07214282
206	0x3e6b864f	0.23000453
207	0xbea1ef2c	-0.31627786
208	0x3f0bec13	0.54657096
209	0x3f060b56	0.5236105
210	0x3eca899c	0.39558113
211	0xbe8b140b	-0.2716373
212	0xbe2b02b3	-0.16700248
213	0x3e476f33	0.19476013
214	0x3e7fe42b	0.24989383
215	0xbe052f0e	-0.13006231
216	0x3af8a47e	0.0018969921
217	0xbd88e2ad	-0.0668386
218	0x3eb84fed	0.3599848
219	0x3dea1879	0.11430449
220	0xbd1facbc	-0.03898309
221	0x3e4f2e64	0.2023254
222	0xbf4098db	-0.7523324
223	0xbd15df56	-0.036589943
224	0xbeb9d372	-0.36294132
225	0x3e6784eb	0.22609298
226	0x3ea41e15	0.320542
227	0x3eead9a8	0.45869184
228	0xbe2ae0ca	-0.16687313
229	0x3e995b85	0.29952636
230	0x3cda3a1d	0.026639039
231	0xbe30122d	-0.17194434
232	0xbf13d872	-0.57752144
233	0xbf257640	-0.6463356
234	0x3d39711f	0.045273896
235	0xbdf64e24	-0.12026623
236	0xbf37543f	-0.71612924
237	0x3e721002	0.23638919
238	0xbe11d96f	-0.142431
239	0x3e7665b2	0.24062231
240	0x3e8dd3b2	0.27700573
241	0x3e1c3069	0.15252842
242	0x3cc7a8b3	0.024372434
243	0xbe880e6b	-0.265735
244	0x3ec4d497	0.38443443
245	0x3ea79997	0.32734367
246	0xbf1761ba	-0.59133494
247	0xbd1909a3	-0.037362706
248	0x3da08a95	0.078389324
249	0x3d9d25fa	0.07673259
250	0x3f03ea75	0.5152963
251	0x3de88b47	0.1135469
252	0x3eee47d1	0.46539167
253	0x3f2a41dd	0.6650675
254	0xbe66efe7	-0.22552453
255	0xbe5a54a1	-0.21321346

mean_net.4.bias f4 [4]
0	0xbd1b0a82	-0.037851818
1	0xbdbc7831	-0.09202612
2	0x3d0d23ed	0.03445809
3	0xbe2117c2	-0.15731719
