src/rl/model/critic_model26-09-2024_09-56-27/2280.pt (torch, 23103 bytes, 5 tensors)

critic_network.0.weight f4 [64, 15]
0.04654522 -0.31209114 -0.7638933 -0.021807903 0.38141456 -0.24225593 -1.3938167 0.0845399
0.18062611 -0.1010081 -0.30155537 -0.09025116 0.5873519 -0.03136824 -0.34228885 0.103944056
-0.47756693 -0.60822785 0.9115775 0.18105075 -1.4081597 0.01237038 -1.1053511 -0.05377047
0.0031983345 -0.15031214 -0.11593847 -0.7278303 -0.16784313 0.36234015 0.48034173 -0.45036164
-2.143062 0.91675895 0.27881747 1.6887515 -0.6236048 -0.29647765 0.13652721 0.2433193
-0.05948916 -0.06361323 0.57204765 -1.8639289 -0.49453226 0.086364776 0.49185285 -0.9479493
0.15649688 -0.034897257 -1.8698142 3.5336478 0.50537646 0.01785082 -0.48144665 1.3408021
-0.060058 0.008304176 -1.1225736 -0.38813892 1.097984 -0.27497104 1.080204 1.5066711
-0.086338826 -0.39909145 0.9408746 0.22338073 0.031104947 0.23135239 0.34222066 0.15173344
-1.0315214 0.26400805 -0.96181077 0.1243333 -0.5613285 1.3349875 -1.6415293 0.2971256
-1.4309571 2.2026355 0.530283 -0.17314862 -0.35205624 0.32076904 0.43125594 -0.9239061
0.4321137 -0.5766285 -1.2973229 -0.40491614 -0.3312428 1.2253444 -0.33877203 -1.7215407
0.07784955 0.18202288 0.0051037637 -0.32708383 -0.5154018 0.1778573 -0.99469167 -1.7812395
2.0055969 0.6093306 -0.5192555 1.3026797 0.38465792 -0.66259253 0.031659216 -0.13234323
0.04399142 -0.021277657 -0.20917721 0.054254375 0.11180688 -0.050876997 2.7057946 -0.50896734
-0.20118603 0.15902112 -0.23740968 -0.17187786 -0.009579827 0.40406466 1.908596 -1.4461454
-0.014788086 0.029149007 0.6370718 -0.032640964 0.66041726 0.20454039 0.4570439 0.6514309
-0.07462469 1.2009077 -2.0973513 -0.5285433 2.2247515 -0.6295182 0.38701645 -0.074249394
0.07428706 -0.14422871 -0.22800852 2.9337282 -0.283687 -0.45291045 0.18618844 0.29060736
-0.36615157 -0.2954464 0.07074834 0.07394968 -0.5466351 0.29563355 -0.395832 0.14019613
-0.6029242 -0.17014529 -0.08341384 0.24159631 -0.29314965 -0.3527684 0.07566697 -0.43211934
-1.7012163 0.78387123 -0.22990501 -1.1695827 -0.10599558 0.14574952 -0.18048257 -0.30264688
-0.106439896 1.0337589 1.3357993 0.14289726 0.5070956 0.079895705 0.016924303 0.017861439
0.10429257 -0.10792455 -0.5792187 -0.36341888 0.20122404 -0.1990972 -0.28454232 0.36017454
-0.17473164 -0.43649885 0.06769879 0.65712076 -0.1568863 1.3281224 0.19275953 -0.01470666
0.92584604 1.5415808 0.45938495 0.06441584 0.38965303 0.30216244 -0.53335154 -1.0231096
0.08414843 -0.2639212 0.19551904 -0.18672287 -0.054301314 0.075857386 0.037751902 -0.3630553
1.0531806 -5.9957786 0.12921956 0.35121587 -0.18654786 0.09706039 -0.11087864 0.4150071
-0.78565127 0.25143892 -0.41281876 -0.021524157 -0.33471182 0.15968 0.37705663 0.06744701
0.053412933 0.11298096 -0.23853666 0.5380602 0.04041067 -0.38983518 -1.2525377 0.30624688
0.19914973 -0.056442346 -0.5442378 0.15826988 -0.12333749 -1.5043898 -0.69983 2.22452
-0.11667708 0.5022494 -0.4828284 -0.14405923 0.8054073 0.3779649 -0.44020385 -0.10612362
00000000: 33a6 3e3d 69ca 9fbe 838e 43bf 7da6 b2bc
00000010: c548 c33e f011 78be 9668 b2bf 4123 ad3d
00000020: 0df6 383e 56dd cebd 7765 9abe 9ad5 b8bd
00000030: b25c 163f fc7b 00bd 7c40 afbe 9fe0 d43d
00000040: a783 f4be d2b4 1bbf 255d 693f 5e65 393e
00000050: 943e b4bf 22ad 4a3c 257c 8dbf 6d3e 5cbd
00000060: 269b 513b 6deb 19be 2671 edbd 1653 3abf
00000070: 12df 2bbe a684 b93e 5aef f53e cd95 e6be
00000080: ee27 09c0 b7b0 6a3f 2ac1 8e3e 0229 d83f
00000090: 90a4 1fbf ebcb 97be cacd 0b3e b228 793e
000000a0: e8aa 73bd a747 82bd b771 123f 3995 eebf
000000b0: 5533 fdbe 04e0 b03d 23d4 fb3e ceac 72bf
000000c0: b840 203e 6df0 0ebd 1256 efbf 4927 6240
000000d0: 5a60 013f e23b 923c 2d80 f6be 679f ab3f
000000e0: 61ff 75bd 3d0e 083c 7eb0 8fbf 25ba c6be
000000f0: bd8a 8c3f 01c9 8cbe 2044 8a3f 99da c03f
00000100: 69d2 b0bd b755 ccbe 28dd 703f ebbd 643e
00000110: cdcf fe3c a4e7 6c3e 8c37 af3e 0360 1b3e
00000120: e508 84bf 102c 873e 3b39 76bf 75a2 fe3d
00000130: 39b3 0fbf dfe0 aa3f a21d d2bf d920 983e
00000140: 9a29 b7bf fbf7 0c40 a0c0 073f df4d 31be
00000150: b740 b4be d73b a43e 94cd dc3e 1c85 6cbf
00000160: 023e dd3e ed9d 13bf ad0e a6bf 2b51 cfbe
00000170: a898 a9be 16d8 9c3f 8773 adbe 725b dcbf
00000180: 966f 9f3d 3564 3a3e 793d a73b 8877 a7be
00000190: 5ff1 03bf 3920 363e 1da4 7ebf a8ff e3bf
000001a0: b35b 0040 17fd 1b3f eeed 04bf 35be a63f
000001b0: e2f1 c43e aa9f 29bf 18ad 013d fc84 07be
000001c0: 5930 343d 7b4e aebc 8d32 56be d639 5e3d
000001d0: 01fb e43d 6664 50bd bd2b 2d40 af4b 02bf
000001e0: b603 4ebe 6fd6 223e 861b 73be c000 30be
000001f0: b5f4 1cbc 90e1 ce3e e04c f43f 4b1b b9bf
00000200: ba49 72bc e6c9 ee3c 2317 233f 88b2 05bd
00000210: 1b11 293f 0973 513e a801 ea3e 2dc4 263f
00000220: d4d4 98bd 58b7 993f 013b 06c0 9d4e 07bf
00000230: 5462 0e40 1b28 21bf 0527 c63e 1110 98bd
00000240: d023 983d b1b0 13be 117b 69be 34c2 3b40
00000250: 6c3f 91be e1e3 e7be 2fa8 3e3e 7dca 943e
00000260: 3878 bbbe c044 97be 81e4 903d ee72 973d
00000270: 47f0 0bbf 485d 973e 7eaa cabe 938f 0f3e
00000280: 3e59 1abf 913a 2ebe e0d4 aabd 0665 773e
00000290: b617 96be 0f9e b4be 49f7 9a3d bf3e ddbe
000002a0: 75c1 d9bf c9ab 483f 386c 6bbe e3b4 95bf
000002b0: 3614 d9bd 5d3f 153e 6cd0 38be 88f4 9abe
000002c0: 29fd d9bd 3652 843f 79fb aa3f a953 123e
000002d0: 04d1 013f 5ca0 a33d d6a4 8a3c 2752 923c
000002e0: 5897 d53d 8c07 ddbd ad47 14bf 0a12 babe
000002f0: ad0d 4e3e 23e0 4bbe 88af 91be cc68 b83e
00000300: daec 32be c77c dfbe aaa5 8a3d 1139 283f
00000310: cda6 20be eaff a93f c162 453e 34f4 70bc
00000320: 3f04 6d3f 8552 c53f 8134 eb3e 74ec 833d
00000330: 9a80 c73e 09b5 9a3e ba89 08bf 41f5 82bf
00000340: 0356 ac3d ae20 87be 2536 483e 4834 3fbe
00000350: 0e6b 5ebd 1e5b 9b3d bda1 1a3d 62e2 b9be
00000360: 9fce 863f 6bdd bfc0 2252 043e 91d2 b33e
00000370: 6706 3fbe 99c7 c63d 5714 e3bd d07b d43e
00000380: 7120 49bf 9abc 803e fb5c d3be 6e53 b0bc
00000390: 595f abbe 2783 233e 910d c13e a821 8a3d
000003a0: 85c7 5a3d 9062 e73d f442 74be 50be 093f
000003b0: a985 253d 7a98 c7be 2853 a0bf 64cc 9c3e
000003c0: e8ed 4b3e 1730 67bd 2b53 0bbf 8011 223e
000003d0: 5e98 fcbd d88f c0bf 0f28 33bf 895e 0e40
000003e0: 65f4 eebd 6b93 003f 4935 f7be 4384 13be
000003f0: 2c2f 4e3f 9e84 c13e 6662 e1be 5757 d9bd

critic_network.0.bias f4 [64]
0.4571819 0.5380575 0.82690245 -0.055781566 -0.42288858 0.50832695 -0.46862677 0.4804979
0.1452804 -0.6034059 -0.2104884 -0.3421753 0.15482318 0.2879615 -0.35705796 -0.40522897
-0.20373648 0.94901055 -0.545552 -0.33746704 -0.20192799 0.71563184 -0.53145987 -0.25277194
-0.37800997 -0.5253638 0.17580533 0.22950883 -0.49581409 -0.19657475 0.3076615 -0.47820815
0.06738174 -0.20088711 0.45336762 0.3006215 0.34277505 -0.16615057 0.3215583 -0.1570789
-0.0031874054 -0.122952506 -0.66348517 -0.40527827 0.32997322 0.36694154 -0.4628049 -0.4818808
0.030814204 -0.34934753 0.34113917 0.16838989 0.48324755 0.32138956 0.3278801 -0.24759707
0.67642194 0.618508 0.44696614 0.12417911 0.23181792 0.0035996293 0.39881933 -0.4501035
00000000: bf13 ea3e 23be 093f e1af 533f 367b 64bd
00000010: da84 d8be b721 023f d9ef efbe d203 f63e
00000020: 63c4 143e cf78 1abf 458a 57be 9a31 afbe
00000030: f889 1e3e b16f 933e 4dd0 b6be 2c7a cfbe
00000040: 4ca0 50be 5bf2 723f 4ca9 0bbf 7bc8 acbe
00000050: 36c6 4ebe a633 373f c10d 08bf 536b 81be
00000060: 868a c1be 3e7e 06bf 5006 343e 5d04 6b3e
00000070: 58db fdbe e44a 49be cf85 9d3e b3d7 f4be
00000080: 70ff 893d 5ab5 4dbe cd1f e83e 10eb 993e
00000090: 3680 af3e 6023 2abe 4aa3 a43e 4bd9 20be
000000a0: cae3 50bb 86ce fbbd 2ada 29bf a280 cfbe
000000b0: 40f2 a83e c3df bb3e c4f4 ecbe 15b9 f6be
000000c0: 126e fc3c aedd b2be cba9 ae3e 666e 2c3e
000000d0: 396c f73e 2c8d a43e e7df a73e 168a 7dbe
000000e0: fd29 2d3f 8a56 1e3f bfd8 e43e 9e51 fe3d
000000f0: ad61 6d3e c2e7 6b3b 0c32 cc3e f773 e6be

critic_network.2.weight f4 [64, 64]
-0.13217172 0.26121336 -0.23933715 -0.103982694 -0.31619376 0.44230548 -0.0051251044 -0.010842395
0.7947414 0.4068263 -0.29142728 -0.24760693 0.17112684 -0.61925626 1.8563813 0.19266967
-0.6486427 -0.32052398 0.13528858 0.09678473 -0.21354991 -0.20284759 0.28125858 -0.24153706
-0.57786536 0.1455364 -0.14320704 0.48905239 -0.14156456 0.26996925 0.0030586538 -0.51984304
0.111026585 0.16944401 -0.21075901 0.5042184 -0.13942134 -0.05998238 0.38402593 -0.671139
0.20499499 -0.2486875 0.21842854 0.029763002 0.16533053 -0.32200307 0.030598579 -0.059894484
0.39772236 -0.4514406 0.28709134 0.79539025 0.09217531 0.83930314 0.04653787 -0.10186628
0.26214102 -0.25726315 0.9237304 -0.79956007 0.5348282 0.86342347 0.048782192 -0.22095275
0.5245745 0.43743467 0.85258186 0.28254667 -0.0028873906 0.034077335 0.08879873 -0.0050209216
-0.44362265 -0.69796854 0.03994631 -0.05225463 0.003762271 -0.101438306 0.06712214 -0.31286532
0.07839229 0.5218882 -0.20646727 -1.0152073 -0.22558033 0.2489882 -0.43542612 -0.04457621
-0.1264747 -0.1102311 -0.004804429 0.01625187 -0.40237904 -0.33574134 0.793408 0.39819998
0.4345639 0.12006197 0.21736902 -0.14412305 0.5453052 -0.10166653 -0.03380118 -0.8489208
0.60289925 0.46449527 -0.020539679 -0.1391146 -0.07370534 -0.033767655 -0.3798878 -0.1721537
0.090088725 -0.010009063 -0.13366655 0.18878333 0.5456061 0.14326628 -0.023937412 -0.18985476
0.47407034 0.08514676 0.045671888 0.5119271 0.28520492 -0.20263223 0.35386652 0.059159547
0.04361755 0.706106 0.12811361 0.8254308 0.25414824 -0.08368386 -0.54344505 -0.42500117
-0.17567378 -0.32643586 -0.3507686 -1.0614395 0.5456569 -0.5994434 -0.26240307 -0.040274996
0.10731497 -0.15156882 -0.2885786 0.0704093 -0.18400583 -0.0103199305 -0.01726889 -0.020088907
-0.37868017 0.016010763 0.1664706 0.1289555 -0.022225104 -0.5812368 0.22900008 -0.62533766
0.37583643 0.15688132 0.109766245 -0.10430588 0.47746503 0.14771366 0.38416028 -0.39637646
-0.16602653 -0.15216425 -0.5896745 -0.0454451 0.1417092 -0.08428655 0.14623901 0.026628638
0.56408757 0.16227186 -0.11205006 0.40194225 -0.23310769 0.11222993 0.2940711 -0.2077166
0.37618795 -0.21206504 -0.5006772 -0.8779953 -0.15508056 -0.34680828 -0.52580476 -0.12622207
-0.055759117 0.11556865 0.026130326 0.06797167 0.20818852 0.1979154 0.21399564 0.118161984
0.61868155 0.26501358 -0.2892038 0.060708363 -0.030817123 -0.25748998 1.0433786 -0.14142215
-0.6469458 0.013529372 -0.15756014 0.04022797 -0.6578817 0.03271401 -0.023063842 -0.31163055
0.107938424 0.03380734 -0.09970351 -0.042196482 -0.17940217 -0.09522568 -0.17022489 -0.33596334
-0.018597627 0.071687646 0.3016479 0.10224878 -0.023445977 0.1604364 0.16172822 -0.24177246
-0.3862963 -0.38982707 -0.14153166 -0.08782805 0.16232035 0.17138568 0.11594974 -0.09111056
0.10098096 -0.18704087 0.04597131 0.1785753 -0.113191515 0.3536723 0.18721299 0.043572716
0.02851663 -0.01969793 0.4886991 -0.39791927 0.28716534 0.32738176 -0.08038923 -0.20504215
00000000: 0658 07be c2bd 853e cc14 75be e1f4 d4bd
00000010: 26e4 a1be dd75 e23e 7ef0 a7bb 4da4 31bc
00000020: 2c74 4b3f 894b d03e f535 95be ac8c 7dbe
00000030: e03b 2f3e 9487 1ebf e79d ed3f 334b 453e
00000040: 730d 26bf b81b a4be 1789 0a3e 1337 c63d
00000050: d4ac 5abe 47b7 4fbe 2001 903e 7e55 77be
00000060: fcee 13bf 7e07 153e dea4 12be 1365 fa3e
00000070: 4df6 10be 6939 8a3e b273 483b 6f14 05bf
00000080: e861 e33d bb82 2d3e 36d1 57be 7514 013f
00000090: 78c4 0ebe 16b0 75bd 0c9f c43e c4cf 2bbf
000000a0: 35ea 513e f0a7 7ebe bbab 5f3e 8ad1 f33c
000000b0: 684c 293e 96dd a4be dfa9 fa3c eb53 75bd
000000c0: 44a2 cb3e 3923 e7be a3fd 923e b29e 4b3f
000000d0: 69c6 bc3d 92dc 563f 7e9e 3e3d 459f d0bd
000000e0: 5937 863e ffb7 83be 9879 6c3f f8af 4cbf
000000f0: 80ea 083f 5209 5d3f d6cf 473d 7041 62be
00000100: 844a 063f 70f7 df3e ce42 5a3f f5a9 903e
00000110: 603a 3dbb ad94 0b3d 1cdc b53d 8b86 a4bb
00000120: 8222 e3be 11ae 32bf be9e 233d f308 56bd
00000130: 6f90 763b e3be cfbd 5577 893d e22f a0be
00000140: 238c a03d 779a 053f 286c 53be 50f2 81bf
00000150: 88fe 66be c3f6 7e3e 2cf0 debe 8b95 36bd
00000160: 9582 01be d8c0 e1bd 796e 9dbb a422 853c
00000170: a004 cebe 4ae6 abbe c91c 4b3f dee0 cb3e
00000180: 297f de3e 0de3 f53d fc95 5e3e fe94 13be
00000190: 1f99 0b3f 8b36 d0bd 1b73 0abd e052 59bf
000001a0: 9b57 1a3f 53d2 ed3e d442 a8bc 0f74 0ebe
000001b0: d3f2 96bd f44f 0abd a780 c2be 0f49 30be
000001c0: 7080 b83d 0efd 23bc e2df 08be 6b50 413e
000001d0: d7ac 0b3f 65b4 123e 6418 c4bc 4969 42be
000001e0: 59b9 f23e 6d61 ae3d 7212 3b3d a80d 033f
000001f0: 6106 923e d37e 4fbe fe2d b53e 4851 723d
00000200: 51a8 323d 5dc3 343f 3730 033e 6f4f 533f
00000210: b81f 823e 7262 abbd 371f 0bbf c199 d9be
00000220: d4e3 33be 9a22 a7be f197 b3be 40dd 87bf
00000230: 2cb0 0b3f 1f75 19bf b259 86be 65f7 24bd
00000240: f3c7 db3d db34 1bbe 93c0 93be c032 903d
00000250: 066c 3cbe ed14 29bc 7d77 8dbc 7e91 a4bc
00000260: 5ee2 c1be 0129 833c 4577 2a3e e90c 043e
00000270: 6c11 b6bc efcb 14bf ff7e 6a3e 2116 20bf
00000280: a26d c03e 7fa5 203e 20cd e03d 529e d5bd
00000290: 4c76 f43e 4042 173e a8b0 c43e dbf1 cabe
000002a0: dc02 2abe f2d0 1bbe e8f4 16bf a424 3abd
000002b0: 371c 113e 6d9e acbd aebf 153e 4d24 da3c
000002c0: 0b68 103f 982a 263e 807a e5bd 60cb cd3e
000002d0: c8b3 6ebe ced8 e53d 7d90 963e a9b3 54be
000002e0: b59b c03e 9427 59be 622c 00bf 4dc4 60bf
000002f0: 70cd 1ebe db90 b1be 249b 06bf 5c40 01be
00000300: ac63 64bd 42af ec3d 440f d63c bb34 8b3d
00000310: 5f2f 553e 56aa 4a3e ac21 5b3e e9fe f13d
00000320: ea61 1e3f dcaf 873e 8512 94be 55a9 783d
00000330: 3174 fcbc bad5 83be 6e8d 853f f8d0 10be
00000340: 3d9e 25bf 4daa 5d3c 7257 21be 15c6 243d
00000350: ef6a 28bf 20ff 053d 62f0 bcbc 0a8e 9fbe
00000360: d20e dd3d 9179 0a3d 5b31 ccbd 38d6 2cbd
00000370: 34b5 37be ae05 c3bd 6f4f 2ebe 6303 acbe
00000380: 0d5a 98bc f9d0 923d 9871 9a3e cf67 d13d
00000390: c711 c0bc 7149 243e 159c 253e 3393 77be
000003a0: a1c8 c5be 6a97 c7be aded 10be 31df b3bd
000003b0: 4e37 263e ba7f 2f3e 0f77 ed3d 2c98 babd
000003c0: 1bcf ce3d a487 3fbe 6a4c 3c3d 72dc 363e
000003d0: f4d0 e7bd 8914 b53e c3b4 3f3e 4e79 323d
000003e0: b59b e93c 8e5d a1bc c536 fa3e 13bc cbbe
000003f0: 5607 933e 959e a73e 1ca3 a4bd 92f6 51be

critic_network.2.bias f4 [64]
-0.29054606 0.38048965 0.1933523 0.23183475 0.28172034 -0.25180003 0.13156098 0.026546933
0.022719927 -0.15753005 -0.18935014 -0.0898513 0.012517426 -0.29781118 -0.19171868 -0.01517349
-0.2743992 -0.022687802 0.19402315 -0.07143517 -0.093096726 0.22602579 -0.032543596 0.046960104
0.12269395 0.019494971 -0.19303954 -0.2274505 -0.15537445 0.27091372 -0.27917272 -0.07922769
-0.058324248 0.12402685 0.17508575 0.092433 0.17616932 -0.42913523 0.1564475 0.30855045
-0.13649632 0.07954351 -0.23829596 -0.32490847 0.019820586 -0.03158231 0.20498212 -0.29809442
0.16712324 0.33944336 0.2557681 0.38110256 0.15808831 -0.051123254 -0.2619389 0.021332424
-0.3258167 -0.030807672 -0.0443639 -0.13132237 -0.12833866 0.11066328 -0.20897922 0.0603258
00000000: 74c2 94be 8acf c23e 25fe 453e 1766 6d3e
00000010: a63d 903e efeb 80be ecb7 063e f478 d93c
00000020: 241f ba3c 8f4f 21be 01e5 41be f503 b8bd
00000030: e415 4d3c b57a 98be e751 44be 3b9a 78bc
00000040: 0d7e 8cbe c5db b9bc 01ae 463e 9a4c 92bd
00000050: 7fa9 bebd 4e73 673e 6f4c 05bd 3d59 403d
00000060: f746 fb3d ebb3 9f3c 28ac 45be c9e8 68be
00000070: 7b1a 1fbe 34b5 8a3e baef 8ebe 2142 a2bd
00000080: 68e5 6ebd ca01 fe3d ae49 333e 834d bd3d
00000090: bb65 343e 9db7 dbbe c633 203e 53fa 9d3e
000000a0: b1c5 0bbe b5e7 a23d db03 74be 675a a6be
000000b0: c85e a23c 745c 01bd d5e6 513e d59f 98be
000000c0: 5b22 2b3e 85cb ad3e 09f4 823e e01f c33e
000000d0: e7e1 213e 9e66 51bd db1c 86be 56c1 ae3c
000000e0: 72d1 a6be 5f60 fcbc ecb6 35bd 5f79 06be
000000f0: 366b 03be 6ea3 e23d a6fe 55be 3018 773d

critic_network.4.weight f4 [1, 64]
2.0018942 -1.7342304 2.0362952 -1.7936101 -1.7367702 1.7437466 2.0908487 2.0932848
1.7622852 1.7508942 -2.109833 1.8135538 -1.7651198 1.7507288 1.8260027 1.7635309
1.7220151 1.8037037 -1.7329642 1.7608073 -2.0811505 -1.8310369 2.0103083 -1.9123907
2.051987 -1.8240879 1.7651625 1.7717109 2.0615816 2.1048272 1.7775007 -1.980688
2.1325603 2.1053867 2.053346 2.0387065 -1.7550815 1.7357955 -1.8392624 -1.7056847
-2.0444262 -1.7549282 -2.0836246 1.713576 -2.113708 2.0589173 2.091632 1.7331938
-1.735754 -1.7264593 -1.7756876 -1.7665881 -1.877096 1.993513 1.7582499 -2.1106143
1.7475023 -2.0549781 -2.029666 -2.1015623 -2.0211887 -1.9469041 1.749921 -2.083122
00000000: 091f 0040 43fb ddbf a952 0240 0495 e5bf
00000010: 7c4e debf 1733 df3f 77d0 0540 61f8 0540
00000020: 9092 e13f 4d1d e03f 8107 07c0 8822 e83f
00000030: 72ef e1bf e217 e03f 75ba e93f 61bb e13f
00000040: fe6a dc3f c3df e63f c5d1 ddbf 2262 e13f
00000050: 9231 05c0 6b5f eabf e4a8 0040 38c9 f4bf
00000060: c153 0340 b67b e9bf d8f0 e13f 6cc7 e23f
00000070: f4f0 0340 7db5 0640 2585 e33f 2f87 fdbf
00000080: de7b 0840 a8be 0640 056a 0340 2b7a 0240
00000090: 83a6 e0bf 8c2e de3f f36c ebbf e053 dabf
000000a0: e1d7 02c0 7da1 e0bf 1b5a 05c0 7556 db3f
000000b0: fe46 07c0 4dc5 0340 4cdd 0540 4bd9 dd3f
000000c0: 302d debf 9efc dcbf bb49 e3bf 8f1f e2bf
000000d0: af44 f0bf 6f2b ff3f 550e e13f 4e14 07c0
000000e0: 28ae df3f c384 03c0 0ce6 01c0 ff7f 06c0
000000f0: 285b 01c0 2734 f9bf 69fd df3f df51 05c0
