src/rl/model/critic_model15-08-2024_20-51-36/1780.pt (torch, 80959 bytes, 5 tensors)

critic_network.0.weight f4 [128, 23]
0.08282865 0.11534154 -0.19600342 0.06104176 -0.018192772 0.20199762 -0.12880652 -0.1310282
-0.039805967 0.32075286 -0.11173179 0.48221755 0.06333116 -0.28911957 -0.20348276 0.10899617
0.047899816 0.45288524 0.06042173 -0.31712142 0.07063728 -0.34653118 0.23520066 -0.21110912
-0.24494386 -0.043404836 -0.06670091 -0.41868654 0.4545479 -0.3901548 0.055669427 0.076570846
-0.03148964 -0.04872443 0.21852791 -1.9698876 -0.3331583 -0.055010024 -0.104597546 -0.19044816
0.03644139 -0.052334905 0.20308603 -0.04341233 -0.13977459 -0.26686776 -1.0752709 -2.1881151
0.13323867 1.5759379 1.0859921 -0.5809451 -0.27623922 -0.27113536 -0.027522728 0.27805427
-0.09179287 -0.14491838 0.07673891 -0.53997284 1.0567492 -0.81775445 1.0371205 -0.6831557
0.9689082 -0.677081 -0.0056085633 0.119342014 -1.4177802 0.017974008 -0.080777496 0.06133825
-0.03613002 -0.021596039 -0.15800463 -0.35814217 0.077104054 -0.013728082 -0.1302271 -0.10164989
-0.20988505 -0.03877437 0.14371707 -0.1086683 0.13792758 0.2851256 -0.27191547 0.062147655
0.22305211 0.20085992 0.14907579 -0.024832813 0.8366464 -0.024714464 0.120419584 -0.34488755
0.4980065 -0.02678871 0.5330591 -0.82617813 -0.13670038 0.141297 0.10958541 0.16386402
-1.4648418 -0.21729589 -0.062470507 0.20619978 0.3402702 0.46257496 0.025004795 0.3164631
-0.24536201 -0.16557494 -0.13982965 2.7704823 -1.2765154 -0.02599767 -1.777893 0.26228005
0.033189535 -0.14751002 0.115898535 -0.23650889 -0.30238122 0.16445923 -0.33402088 1.7010735
-0.07509499 -1.0529878 -0.0063731563 -1.0603657 -0.20312871 -0.19256128 2.278607 -0.020983588
-0.18906315 0.8521966 -0.46848327 -0.19102879 -0.057306334 0.23711608 -0.21836343 -0.2722635
0.20698819 -0.17456019 -0.18597834 -0.26528537 -0.1452749 -0.014471923 1.3577138 -0.3255871
-0.08890674 -0.41929618 -0.40920153 -0.3479134 -0.20089617 0.07278181 0.15086792 0.106909715
0.33718282 0.7080841 -1.2216963 -0.071518406 -1.0356208 -0.95323205 -0.3215177 0.067778416
0.14334808 1.5916533 0.7239044 -0.25736654 0.8045462 -0.4841455 -0.04979246 -0.29902542
-0.11909229 0.026060035 0.3169929 -0.45176655 -0.15409726 -0.006421021 -0.21009476 0.28746194
-0.00036581338 0.11749121 0.4165579 -0.00013142593 0.013454794 -0.2604703 -0.12381457 -0.08252373
0.06531111 0.044104267 -0.31250829 -0.34952188 0.19573502 0.20917682 0.4941712 0.32134366
0.36460242 -0.20794204 0.062818885 0.39901015 0.05041006 0.026899708 0.082939 -0.07109384
-0.10078257 0.020128703 0.017649852 0.04802367 -0.11734035 -0.18017234 -0.18783103 0.12783343
0.3037619 -0.0638464 0.056757625 0.10850105 0.12489074 0.13297804 0.2203873 0.20934492
-0.116525464 -0.11551801 0.010324121 0.08262262 -0.0048189573 0.2949499 0.0023229604 -0.24323073
-0.6231912 -0.2454643 -0.09381994 -0.2738468 0.24366854 -0.6842705 0.58103526 0.113706395
0.05412113 -0.10631391 -0.9662108 -0.09618234 0.13378757 -0.13079067 -0.092630185 0.29670283
-0.18307604 -0.3955617 -0.104897074 0.14201005 0.25879124 0.19248876 -0.019440047 -0.2973612
00000000: 11a2 a93d 2f38 ec3d 1fb5 48be ed06 7a3d
00000010: 0209 95bc 77d8 4e3e dbe5 03be 422c 06be
00000020: 950b 23bd b839 a43e a3d3 e4bd 38e5 f63e
00000030: c4b3 813d 7b07 94be c95d 50be 6239 df3d
00000040: 9932 443d 93e0 e73e c77c 773d bd5d a2be
00000050: 47aa 903d 896c b1be 71d8 703e fd2c 58be
00000060: 90d2 7abe 45c9 31bd 7d9a 88bd 155e d6be
00000070: 81ba e83e 5fc2 c7be a005 643d 2dd1 9c3d
00000080: 48fb 00bd 4593 47bd c8c5 5f3e 4725 fcbf
00000090: ba93 aabe 3152 61bd 3d37 d6bd d804 43be
000000a0: 9143 153d 205d 56bd c9f5 4f3e 21d1 31bd
000000b0: 1221 0fbe e4a2 88be 7aa2 89bf 140a 0cc0
000000c0: b86f 083e 55b8 c93f ca01 8b3f d1b8 14bf
000000d0: 3a6f 8dbe 41d2 8abe 5877 e1bc 215d 8e3e
000000e0: e6fd bbbd 7c65 14be 4a29 9d3d a93b 0abf
000000f0: 8f43 873f 5b58 51bf 5dc0 843f 4be3 2ebf
00000100: 5e0a 783f 2e55 2dbf 0ac8 b7bb 9669 f43d
00000110: d279 b5bf 3a3e 933c ac6e a5bd d13d 7b3d
00000120: 12fd 13bd 2dea b0bc f7cb 21be 695e b7be
00000130: bbe8 9d3d c0eb 60bc 415a 05be d12d d0bd
00000140: 1bec 56be e0d1 1ebd 912a 133e 7c8d debd
00000150: e33c 0d3e fcfb 913e 8138 8bbe 8a8e 7e3d
00000160: c667 643e 39ae 4d3e 53a7 183e 2f6e cbbc
00000170: 752e 563f fd75 cabc 8b9e f63d 1a95 b0be
00000180: b5fa fe3e ff73 dbbc 9076 083f 6980 53bf
00000190: 2ffb 0bbe 29b0 103e 516e e03d f8cb 273e
000001a0: f07f bbbf d082 5ebe 13e1 7fbd 0926 533e
000001b0: e537 ae3e a0d6 ec3e dbd6 cc3c 7407 a23e
000001c0: 2e40 7bbe 7a8c 29be 812f 0fbe 954f 3140
000001d0: db64 a3bf 11f9 d4bc ff91 e3bf 9249 863e
000001e0: c0f1 073d de0c 17be 365c ed3d 632f 72be
000001f0: b6d1 9abe 0068 283e c904 abbe c7bc d93f
00000200: 67cb 99bd 4ec8 86bf e9d5 d0bb 10ba 87bf
00000210: f900 50be c92e 45be b2d4 1140 c6e5 abbc
00000220: c599 41be 8e29 5a3f 0add efbe 0d9d 43be
00000230: 0cba 6abd 8fce 723e aa9a 5fbe 1f66 8bbe
00000240: b6f4 533e e8bf 32be 1b71 3ebe 7cd3 87be
00000250: f2c2 14be a51b 6dbc 91c9 ad3f 5ab3 a6be
00000260: bd14 b6bd fdad d6be dd82 d1be b521 b2be
00000270: bab7 4dbe a10e 953d 1f7d 1a3e 7bf3 da3d
00000280: 3aa3 ac3e 0045 353f 8b60 9cbf 3e78 92bd
00000290: 398f 84bf 0407 74bf f89d a4be 69cf 8a3d
000002a0: d7c9 123e 4cbb cb3f cc51 393f 8cc5 83be
000002b0: bdf6 4d3f ebe1 f7be 2ef3 4bbd dc19 99be
000002c0: a9e6 f3bd db7b d53c e54c a23e f24d e7be
000002d0: accb 1dbe 6e67 d2bb 1523 57be 362e 933e
000002e0: a4ca bfb9 3b9f f03d 1447 d53e 61cf 09b9
000002f0: 7f71 5c3c 5d5c 85be 7e92 fdbd 3402 a9bd
00000300: d5c1 853d ada6 343d 1601 a0be 88f4 b2be
00000310: c36e 483e 7332 563e 0204 fd3e 2887 a43e
00000320: 2bad ba3e c2ee 54be 30a7 803d 0f4b cc3e
00000330: c77a 4e3d c75c dc3c ecdb a93d a699 91bd
00000340: 1867 cebd f3e4 a43c 6c96 903c 78b4 443d
00000350: 2350 f0bd 197f 38be c756 40be c4e6 023e
00000360: ae86 9b3e e7c1 82bd af7a 683d cc35 de3d
00000370: b7c6 ff3d 652b 083e 35ad 613e 845e 563e
00000380: e7a4 eebd b594 ecbd 8126 293c 0c36 a93d
00000390: 58e8 9dbb ac03 973e cf3c 183b 7a11 79be
000003a0: 7589 1fbf fe5a 7bbe ab24 c0bd a635 8cbe
000003b0: 3f84 793e 5a2c 2fbf babe 143f e6de e83d
000003c0: 1eae 5d3d 1bbb d9bd 9759 77bf 3ffb c4bd
000003d0: 9cff 083e fded 05be e5b4 bdbd 6fe9 973e
000003e0: 4978 3bbe 1087 cabe 47d4 d6bd 156b 113e
000003f0: 4980 843e c61b 453e bc40 9fbc ba3f 98be

critic_network.0.bias f4 [128]
-0.32145217 0.309268 0.06596907 0.21805012 0.1826816 0.11007125 0.19015226 0.051393375
0.37590766 0.26064864 -0.2166999 -0.09096871 0.26728955 0.36764038 0.5554411 -0.062226236
-0.02495248 0.27523795 0.6683414 0.029173722 -0.12828943 -0.10955705 0.14167684 0.21933796
-0.34456238 0.18642284 0.10255591 0.21161395 0.026434643 0.021909963 0.049933854 0.5250732
1.209826 0.18286934 0.37389898 0.00031759872 -0.00987552 -0.23613742 0.27103665 0.37520483
-0.13733676 0.36935237 -0.18752028 0.04188925 -0.3182198 0.53328806 0.30567178 -0.28658214
0.1250583 -0.32286733 0.1450306 -0.7078927 0.05484861 -0.18662474 0.20922127 -0.57504416
0.16059612 0.22910011 0.18977992 0.096028395 -0.3312164 -0.16406716 0.63385475 -0.32180324
-0.13397539 -0.52002543 -0.60445446 0.32536513 0.2846735 -0.22943057 0.80952495 -0.073747195
-0.20195249 0.08139041 0.17766094 -0.02719937 -0.07086904 -0.02421205 0.20106326 0.27733043
0.7366465 -0.07190387 -0.1558834 -0.26954496 -0.36913678 0.36504805 0.24388862 0.3218647
-0.74826777 0.13442467 0.36103058 -0.55537313 0.55807894 -0.23170754 -0.15704572 0.090223074
-0.4215291 -0.1659887 -0.16998054 0.50131637 0.09125322 0.27989814 0.44585323 -0.14502957
0.22570816 -0.13063993 -0.054626502 0.26947948 -0.110923335 0.024213446 -0.29956716 -0.061949167
-0.65211535 -0.18655905 0.050819084 0.004914873 0.38994503 -0.12132872 0.36206627 0.0025907438
0.10030189 0.12241142 0.20457636 -0.30154324 -0.23422758 0.17513613 0.05524395 0.18360457
00000000: 6195 a4be 6058 9e3e cb1a 873d 8848 5f3e
00000010: e310 3b3e 096d e13d 46b7 423e dc81 523d
00000020: f876 c03e bd73 853e 94e6 5dbe ce4d babd
00000030: 2dda 883e 5c3b bc3e 6331 0e3f f0e0 7ebd
00000040: 2569 ccbc fdeb 8c3e 6c18 2b3f bbfd ee3c
00000050: 4e5e 03be 725f e0bd bc13 113e 219a 603e
00000060: 7b6a b0be a1e5 3e3e d508 d23d 54b1 583e
00000070: 778d d83c 867c b33c 7187 4c3d 326b 063f
00000080: 94db 9a3f 1a42 3b3e b06f bf3e 6183 a639
00000090: efcc 21bc 02ce 71be 51c5 8a3e d91a c03e
000000a0: 02a2 0cbe c11b bd3e 5105 40be 1094 2b3d
000000b0: b5ed a2be 9185 083f 0381 9c3e e5ba 92be
000000c0: 480f 003e de4e a5be e782 143e 7538 35bf
000000d0: f0a8 603d 8e1a 3fbe 1a3e 563e 1836 13bf
000000e0: 4f73 243e 3899 6a3e ab55 423e 89aa c43d
000000f0: 3295 a9be 3901 28be 4e44 223f 65c3 a4be
00000100: d830 09be 6320 05bf 87bd 1abf 4296 a63e
00000110: bac0 913e d9ef 6abe 073d 4f3f c508 97bd
00000120: a2cc 4ebe 04b0 a63d c0ec 353e 37d1 debc
00000130: ca23 91bd 5958 c6bc 87e3 4d3e 41fe 8d3e
00000140: dd94 3c3f 5642 93bd e69f 1fbe cc01 8abe
00000150: 7fff bcbe 94e7 ba3e f0bd 793e 73cb a43e
00000160: 7a8e 3fbf 9fa6 093e 00d9 b83e ef2c 0ebf
00000170: 43de 0e3f be44 6dbe 98d0 20be e0c6 b83d
00000180: aad2 d7be f1f8 29be 610f 2ebe 4556 003f
00000190: f8e2 ba3d cf4e 8f3e e046 e43e a282 14be
000001a0: 0a20 673e 79c6 05be 0ac0 5fbd 37f9 893e
000001b0: c62b e3bd 475b c63c de60 99be 69be 7dbd
000001c0: 08f1 26bf 5609 3fbe ac27 503d f10c a13b
000001d0: e0a6 c73e 317b f8bd c060 b93e 78c9 293b
000001e0: 146b cd3d d7b2 fa3d 777c 513e e063 9abe
000001f0: 5bd9 6fbe e356 333e 7b47 623d d602 3c3e

critic_network.2.weight f4 [128, 128]
-0.59541184 0.823301 -0.2262964 0.6654792 -0.5939474 -0.9381088 0.6791549 0.3510852
0.80700237 0.16588086 0.76128775 -0.4434332 0.23203 -0.53854597 -0.33967647 -0.27807024
-1.7116196 0.42542398 -0.47165477 0.5181696 -0.18040313 -1.0286342 -0.3607895 1.879603
-0.5758184 -1.3066698 -0.95089513 0.6990834 2.1886656 -1.9084249 -1.0351347 0.032060057
-0.2704212 0.11039378 -0.7011551 -0.62264425 -0.907799 -0.18899599 -0.82180387 -0.595235
-1.1303055 -0.7469329 -0.066021785 0.22146067 -0.552319 -0.5502773 0.40560204 0.439728
0.28313816 -0.30360097 -0.58516455 -0.4933511 0.0835888 0.061869953 -1.3704125 -0.052569892
-0.46661085 0.8310328 -2.07273 0.24185692 0.31183213 -1.9882503 0.07094461 -0.17431708
-0.4523869 0.54245025 -1.2286865 -0.06377278 0.35014203 -0.6298709 -0.053045057 -2.3069177
2.1034355 1.473329 -0.4732593 0.7275671 1.8588117 0.18812056 0.3231468 -0.546247
-0.8463214 0.40282825 0.8254159 -0.29156446 -0.2991368 0.283092 -0.760725 0.21769452
0.2957323 -1.3556052 0.45322436 -0.36062855 -0.29157698 0.33772025 -0.3667741 2.1525855
-0.45289066 -0.46230778 -0.23237042 -0.44176033 1.5266291 -0.07294479 -0.6453974 0.018987
0.3863545 -1.3898779 -0.05472514 -0.8751326 -1.2235066 0.92678094 0.4209921 0.02434871
-0.9864814 0.012445625 -0.8627701 0.5805492 -0.7019355 0.29123926 0.15308627 -0.015602087
-1.1847167 0.16951676 0.6495989 -0.2953372 -0.66092074 -1.5583693 0.30593142 -0.60584974
-0.4003279 -0.39108443 -0.27032852 0.2379175 -0.0070455084 0.06534683 -0.657302 0.38064596
0.8004839 0.28644195 0.63340014 -0.10342367 0.5241625 -0.5694368 -0.17508736 0.6974585
-1.4989545 0.22932032 -0.3523587 0.6239561 0.05592226 -0.022000935 -0.707731 0.6767679
-0.35703573 -0.6239369 -0.72501045 0.14735764 2.012477 -0.64494467 -1.4374883 -0.25941086
0.034292094 -0.8604947 -0.8016721 -0.9140071 -0.122840025 -0.12241017 -0.34319705 -0.28597042
-0.54208344 -0.7612075 -0.12660821 0.5304044 -0.20639196 -0.55218905 0.067309186 0.7005947
0.49193478 -0.25474787 -0.7778676 -0.21901906 -0.15739627 -0.7317869 -0.812795 0.24880546
0.24314852 0.12291487 -0.57227147 0.063347846 0.3139391 -0.5598222 -0.22000284 -0.37775162
0.90565866 0.7768101 -0.13781774 -0.22640434 -0.034902938 -0.43343058 -0.548981 -0.03319564
1.4935325 1.9188675 -0.9132137 2.0262492 0.6420169 -0.40702945 0.83712316 -0.441121
-0.35893744 0.61339265 0.6789873 -0.2212969 -0.39899307 0.2690674 -0.5053807 0.21096863
-0.15385173 -0.8019524 0.2627601 -0.3704658 0.56487006 0.91293836 -0.588256 1.0012622
-0.62028676 -0.32438037 -0.31274748 -0.5613912 1.1225177 0.17507982 0.52446336 -0.76563704
0.2532187 -1.2926011 -0.2982392 -0.46227083 -1.1885953 0.8154002 0.40941292 1.4012609
-0.23550531 1.1396587 -0.42810208 0.8860808 -0.44583464 1.0307825 0.33528236 -1.0842122
-0.30894145 0.5876332 0.14597066 -0.23662874 -0.42828256 -0.15873459 1.0604985 0.16163155
00000000: e96c 18bf dbc3 523f 3eba 67be d85c 2a3f
00000010: f00c 18bf e627 70bf 18dd 2d3f 70c1 b33e
00000020: b597 4e3f acdc 293e c1e3 423f ad09 e3be
00000030: 4699 6d3e 26de 09bf 13ea adbe 395f 8ebe
00000040: 5a16 dbbf 2cd1 d93e bc7c f1be c3a6 043f
00000050: 99bb 38be 49aa 83bf 67b9 b8be d596 f03f
00000060: d668 13bf f540 a7bf dd6d 73bf 21f7 323f
00000070: 1913 0c40 4447 f4bf 4b7f 84bf 6851 033d
00000080: a674 8abe 2216 e23d e77e 33bf 9d65 1fbf
00000090: 8465 68bf 2a88 41be bd61 52bf 5261 18bf
000000a0: daad 90bf ff36 3fbf 6e36 87bd 96c6 623e
000000b0: c764 0dbf f9de 0cbf 12ab cf3e 0724 e13e
000000c0: 7cf7 903e 9671 9bbe 58cd 15bf 8498 fcbe
000000d0: 9b30 ab3d 596b 7d3d ad69 afbf 8753 57bd
000000e0: 9ee7 eebe 91be 543f 9ca7 04c0 57a9 773e
000000f0: 76a8 9f3e fc7e febf 684b 913d 2d80 32be
00000100: 419f e7be 05de 0a3f 9945 9dbf 4e9b 82bd
00000110: d145 b33e 383f 21bf c645 59bd 8aa4 13c0
00000120: b09e 0640 0b96 bc3f 0b4f f2be d641 3a3f
00000130: 8bed ed3f ada2 403e 7f73 a53e d8d6 0bbf
00000140: 85a8 58bf 813f ce3e 754e 533f f047 95be
00000150: 7528 99be 6ff1 903e e0be 42bf 50eb 5e3e
00000160: 396a 973e 7984 adbf 060d e83e 4ea4 b8be
00000170: 9449 95be abe9 ac3e d1c9 bbbe f6c3 0940
00000180: 49e1 e7be 9bb3 ecbe 83f2 6dbe 692e e2be
00000190: 9568 c33f 1464 95bd c438 25bf a08a 9b3c
000001a0: 42d0 c53e 85e7 b1bf 7827 60bd b108 60bf
000001b0: dd9b 9cbf 8441 6d3f 478c d73e f276 c73c
000001c0: 0c8a 7cbf bce8 4b3c 80de 5cbf df9e 143f
000001d0: 0cb2 33bf 501d 953e a6c2 1c3e e59f 7fbc
000001e0: cca4 97bf cd95 2d3e 1d4c 263f 7036 97be
000001f0: 1a32 29bf a578 c7bf 0ba3 9c3e f818 1bbf
00000200: c7f7 ccbe 383c c8be 8068 8abe a5a0 733e
00000210: 02de e6bb 8fd4 853d f244 28bf 07e4 c23e
00000220: 83ec 4c3f 85a8 923e 8326 223f cacf d3bd
00000230: 832f 063f 9cc6 11bf 1a4a 33be a48c 323f
00000240: bedd bfbf f2d2 6a3e 5c68 b4be 96bb 1f3f
00000250: bd0e 653d 4e3b b4bc dc2d 35bf a940 2d3f
00000260: 63cd b6be 54ba 1fbf 499a 39bf ece4 163e
00000270: 6ccc 0040 181b 25bf 9eff b7bf 80d1 84be
00000280: de75 0c3d 6149 5cbf 623a 4dbf 5ffc 69bf
00000290: 8d93 fbbd 2fb2 fabd 86b7 afbe b76a 92be
000002a0: fbc5 0abf 7fde 42bf 95a5 01be 95c8 073f
000002b0: 6a58 53be 435c 0dbf 66d9 893d 2d5a 333f
000002c0: e0de fb3e 506e 82be 5522 47bf 8846 60be
000002d0: 7d2c 21be 6356 3bbf 5513 50bf dcc6 7e3e
000002e0: edfb 783e cbba fb3d 6280 12bf 84bc 813d
000002f0: a0bc a03e 8250 0fbf 6d48 61be a968 c1be
00000300: 3fd9 673f 07dd 463f 1820 0dbe 8ad6 67be
00000310: 62f6 0ebd 9dea ddbe 058a 0cbf 27f8 07bd
00000320: 132c bf3f 739d f53f 5fc8 69bf 11ae 0140
00000330: 385b 243f 2a66 d0be b44d 563f 9dda e1be
00000340: a6c6 b7be 4d07 1d3f 1dd2 2d3f a89b 62be
00000350: d248 ccbe 34c3 893e a160 01bf 2908 583e
00000360: 4f8b 1dbe c14c 4dbf 7e88 863e b1ad bdbe
00000370: 539b 103f 54b6 693f f297 16bf 5c29 803f
00000380: 1dcb 1ebf 2f15 a6be 7020 a0be 55b7 0fbf
00000390: a9ae 8f3f 2048 333e 3b43 063f ca00 44bf
000003a0: e2a5 813e f473 a5bf cfb2 98be c3ae ecbe
000003b0: e423 98bf 11be 503f 929e d13e 845c b33f
000003c0: 4e28 71be 56e0 913f 3230 dbbe 31d6 623f
000003d0: 7044 e4be aef0 833f 21aa ab3e 77c7 8abf
000003e0: 932d 9ebe 216f 163f 5579 153e ce4e 72be
000003f0: da47 dbbe 528b 22be 6abe 873f be82 253e

critic_network.2.bias f4 [128]
0.32906264 0.35216263 1.1204509 0.36888915 0.13436194 0.70271987 -0.21206431 -0.3263903
-0.2597648 0.19539696 -0.14488581 -0.69839996 -0.1534593 -0.075792305 0.15748917 0.6547116
0.19010544 0.76125205 0.21961454 0.2918561 0.50762075 0.22154813 -0.18509322 -0.25637698
0.29312143 1.1177468 0.3612226 -0.2467128 1.1365871 0.29121217 0.3059566 -0.3319404
0.430775 0.36379072 -0.9633236 0.25651038 -0.2968658 1.351823 0.18582956 -0.21145605
-0.13632372 -0.32628432 1.0556953 -0.36677817 0.3618208 -0.5545476 0.48516962 -0.28931388
0.19471404 0.140357 0.31041095 -0.38238886 -0.044291005 -0.08381814 -0.04564504 0.16643852
0.26507765 -0.15939848 0.2694783 0.22360647 0.37616137 -0.36304143 -0.27506742 0.21898232
-0.21727297 0.17513877 0.28502968 -1.0629066 0.1946278 -0.107650675 -0.23421764 -0.05355537
-0.08254995 1.0785621 0.32983157 -0.62485105 -0.6116609 0.18837488 0.3382197 -0.17947958
0.13218322 0.15981421 0.18722242 0.27300587 -1.253721 0.08454001 0.21087393 -0.23261334
0.29423442 0.5340824 -0.12139354 -0.3536158 0.00025364372 -0.32524553 0.21220157 0.33186093
-0.2777063 0.30177933 0.33272865 -0.34647226 -0.25979733 0.1857817 0.37200877 -0.10638658
0.2644652 -0.12668504 -0.27006653 -0.8609552 -0.15431324 0.32960737 0.22978735 0.22131526
0.2631179 0.22284904 0.10640324 -0.8334997 -0.33816373 -0.2959661 0.74831796 0.2953735
0.061531 0.28537032 -0.21947075 0.12687282 0.15382795 -0.3331819 0.14845371 -0.29498973
00000000: e67a a83e a94e b43e ef6a 8f3f 0adf bc3e
00000010: 2d96 093e 73e5 333f 6327 59be a11c a7be
00000020: e4ff 84be 2416 483e f25c 14be 57ca 32bf
00000030: 6f24 1dbe ff38 9bbd d744 213e 2e9b 273f
00000040: 00ab 423e 6ae1 423f a2e2 603e 2a6e 953e
00000050: 6ff3 013f 83dd 623e 1489 3dbe d843 83be
00000060: 0314 963e 5412 8f3f 2bf2 b83e 48a2 7cbe
00000070: b07b 913f c319 953e 58a6 9c3e 18f4 a9be
00000080: 8a8e dc3e c742 ba3e 609c 76bf 5455 833e
00000090: cbfe 97be 8908 ad3f 1b4a 3e3e ef87 58be
000000a0: 7298 0bbe bd0e a7be 0621 873f 59ca bbbe
000000b0: 9340 b93e d5f6 0dbf 2768 f83e f320 94be
000000c0: 1e63 473e bfb9 0f3e 2fee 9e3e 79c8 c3be
000000d0: 7c6a 35bd d8a8 abbd 4bf6 3abd dc6e 2a3e
000000e0: 42b8 873e 5b39 23be 0ff9 893e 18f9 643e
000000f0: 3998 c03e 91e0 b9be a3d5 8cbe e73c 603e
00000100: ce7c 5ebe 9457 333e 69ef 913e 530d 88bf
00000110: 834c 473e f577 dcbd c0d6 6fbe e05c 5bbd
00000120: f30f a9bd 530e 8a3f afdf a83e 3df6 1fbf
00000130: cf95 1cbf 58e5 403e 222b ad3e 7fc9 37be
00000140: 0a5b 073e 56a6 233e 3cb7 3f3e 6dc7 8b3e
00000150: ee79 a0bf 5023 ad3d 56ef 573e 3132 6ebe
00000160: e5a5 963e a0b9 083f 2d9d f8bd 210d b5be
00000170: 7cfb 8439 9586 a6be 5e4b 593e ade9 a93e
00000180: 852f 8ebe d282 9a3e 695b aa3e d064 b1be
00000190: 2804 85be 8f3d 3e3e ef77 be3e 35e1 d9bd
000001a0: fc67 873e b9b9 01be 2946 8abe 8f67 5cbf
000001b0: 4a04 1ebe 4cc2 a83e 604d 6b3e 78a0 623e
000001c0: 64b7 863e 8a32 643e f1e9 d93d 3d60 55bf
000001d0: cc23 adbe de88 97be c491 3f3f 323b 973e
000001e0: ee07 7c3d 0f1c 923e f1bc 60be f3ea 013e
000001f0: 1385 1d3e d196 aabe 4004 183e e508 97be

critic_network.4.weight f4 [1, 128]
-7.878397 -7.909341 -7.4556346 -8.124481 -9.499927 -7.4919167 9.25923 9.039708
10.278089 -9.124777 11.358896 7.435865 9.17551 14.445712 -14.752544 -7.502758
-9.403446 -7.436304 -8.299494 -7.592802 -7.836311 -9.810559 9.581055 9.059452
-9.696239 -7.4730783 -7.4364834 9.2625475 -7.420517 -9.127141 -9.043705 9.824155
-7.791437 -7.851184 7.435832 -8.666314 7.9640074 -7.4089456 -10.481063 8.659012
9.077115 7.6887608 -7.3976135 11.442272 -9.253859 7.900042 -7.493592 7.568198
-9.523312 -9.743534 -9.8021145 14.594054 11.020102 9.635302 9.781936 -9.02962
-9.328178 9.528095 -9.604533 -10.020884 -9.218427 7.8546476 11.459412 -9.802176
11.24388 -8.266095 -13.966942 7.4383793 -9.184285 9.023901 10.545118 9.704232
9.522511 -7.4198713 -9.439702 7.4579353 7.5240726 -8.783535 -8.02982 9.571069
-9.674671 -10.75232 -8.57656 -7.9401054 7.4070225 -14.04863 -10.184446 7.8481817
-8.996003 -7.940079 10.577679 7.386684 -10.228995 9.283734 -8.6593485 -14.268602
10.852193 -8.932988 -9.62357 7.865641 10.356518 -9.547235 -8.215279 9.558167
-9.836937 8.9010515 11.034443 7.834004 9.303696 -7.8467298 -12.161457 -7.881962
-9.433479 -9.13025 -8.884764 7.4622927 11.148888 9.872767 -7.415139 -8.855155
-9.149724 -9.049202 8.451178 -8.941403 -10.482774 7.906825 -11.2392025 8.737117
00000000: d41b fcc0 5219 fdc0 8f94 eec0 e0fd 01c1
00000010: b3ff 17c1 c8bd efc0 ce25 1441 a5a2 1041
00000020: 0d73 2441 16ff 11c1 0abe 3541 9bf2 ed40
00000030: e4ce 1241 a321 6741 6c0a 6cc1 9816 f0c0
00000040: 8474 16c1 34f6 edc0 baca 04c1 3cf8 f2c0
00000050: 0fc3 fac0 0df8 1cc1 004c 1941 84f3 1041
00000060: cc23 1bc1 7523 efc0 acf7 edc0 6533 1441
00000070: e074 edc0 c508 12c1 04b3 10c1 bd2f 1d41
00000080: 7453 f9c0 e63c fbc0 56f2 ed40 39a9 0ac1
00000090: 26d9 fe40 1516 edc0 6fb2 27c1 508b 0a41
000000a0: dd3b 1141 540a f640 40b9 ecc0 8c13 3741
000000b0: ce0f 14c1 25cd fc40 81cb efc0 ae2e f240
000000c0: 7c5f 18c1 84e5 1bc1 76d5 1cc1 3f81 6941
000000d0: 5652 3041 322a 1a41 cf82 1c41 5379 10c1
000000e0: 3840 15c1 1473 1841 2bac 19c1 8a55 20c1
000000f0: ad7e 13c1 4659 fb40 c059 3741 b7d5 1cc1
00000100: efe6 3341 ed41 04c1 9878 5fc1 3407 ee40
00000110: d5f2 12c1 e661 1041 ceb8 2841 8944 1b41
00000120: 345c 1841 966f edc0 0509 17c1 68a7 ee40
00000130: 34c5 f040 5c89 0cc1 257a 00c1 1923 1941
00000140: 74cb 1ac1 8109 2cc1 9739 09c1 5815 fec0
00000150: 5406 ed40 30c7 60c1 7ef3 22c1 4e24 fb40
00000160: a1ef 0fc1 2115 fec0 2c3e 2941 b75f ec40
00000170: f7a9 23c1 2d8a 1441 b18c 0ac1 324c 64c1
00000180: 95a2 2d41 85ed 0ec1 25fa 19c1 55b3 fb40
00000190: 4cb4 2541 79c1 18c1 c871 03c1 41ee 1841
000001a0: 1864 1dc1 b56a 0e41 148d 3041 29b0 fa40
000001b0: f0db 1441 6918 fbc0 5495 42c1 0839 fcc0
000001c0: 88ef 16c1 8115 12c1 fe27 0ec1 1acb ee40
000001d0: d861 3241 dbf6 1d41 d248 edc0 b7ae 0dc1
000001e0: 4565 12c1 88c9 10c1 0638 0741 fd0f 0fc1
000001f0: 71b9 27c1 b604 fd40 c6d3 33c1 3bcb 0b41
