src/rl/model/critic_model02-09-2024_14-22-48/410.pt (torch, 82999 bytes, 5 tensors)

critic_network.0.weight f4 [128, 27]
0	0xbeb87a39	-0.36030748
1	0x3e6544ec	0.22389573
2	0xbdf85935	-0.1212639
3	0xbe62ba4d	-0.2214138
4	0x3c099193	0.008396524
5	0x3eca8b51	0.39559415
6	0x3f41cd89	0.75704247
7	0xbe0e341d	-0.13887067
8	0xbf87b102	-1.0600893
9	0xbc47120d	-0.0121503
10	0x3e0b72a4	0.1361795
11	0x3d5d60ad	0.054047275
12	0x3d196e69	0.03745881
13	0xbd36a46e	-0.044590406
14	0x3a839b21	0.0010040739
15	0xbe44b830	-0.19210887
16	0x3d31141a	0.04323206
17	0xbdcc121b	-0.09964391
18	0xbe0aa427	-0.13539182
19	0xbdc11864	-0.0942848
20	0xbc853931	-0.016262623
21	0xbf00120b	-0.5002753
22	0x3e51bfde	0.20483348
23	0x3e122b1f	0.14274262
24	0x3c6ab885	0.014326219
25	0x3e67b3f0	0.22627234
26	0xbdc268c4	-0.09492639
27	0xbee22247	-0.44166777
28	0x3e93e7d6	0.28887814
29	0x3ed5a982	0.41730887
30	0x3f872f36	1.0561283
31	0xbe4ba199	-0.19885863
32	0xbdff7ecf	-0.12475359
33	0xbb440f0f	-0.0029916202
34	0x3f44c80f	0.76867765
35	0x3e5c8c26	0.21537837
36	0xbe37bf0a	-0.1794397
37	0x3ef5a005	0.47973648
38	0xbe58c0db	-0.21167319
39	0x3f109466	0.5647644
40	0xbcf3667d	-0.029711956
41	0x3d6ba624	0.05753149
42	0xbd61fc9e	-0.055172555
43	0xbeba5a74	-0.36397135
44	0xbf2469c7	-0.64223903
45	0x3f23362d	0.6375454
46	0x3e851e74	0.25999796
47	0x3ec57c39	0.38571337
48	0x3e31e66f	0.1737306
49	0x3dc06850	0.09394896
50	0x3eea5d5b	0.4577435
51	0x3f3c0787	0.73448986
52	0x3e63d904	0.22250754
53	0x3d4236ca	0.047415532
54	0x3ed68b44	0.41903126
55	0x3f41ec9b	0.75751656
56	0xbce86d66	-0.028372478
57	0x3edf69a0	0.43635273
58	0xbddc9c46	-0.10771994
59	0x3d5c9548	0.053853303
60	0xbf4ce145	-0.80031234
61	0x3fcd27ac	1.6027732
62	0x3f2d2a07	0.67642254
63	0xbe5da414	-0.21644622
64	0x3e18cd72	0.14922121
65	0xbe1e0cfe	-0.15434644
66	0xbf68e646	-0.9097637
67	0x3db4973b	0.088179074
68	0x3e09b618	0.1344837
69	0xbe1559ee	-0.14585087
70	0x3e5af510	0.21382546
71	0xbed9fe6b	-0.42576918
72	0x3df673c5	0.120338
73	0x3e1d8316	0.15382037
74	0x3f1a303b	0.60229844
75	0xbeb9869f	-0.3623552
76	0xbca32e54	-0.019919552
77	0xbe410f47	-0.18853484
78	0x3de3a586	0.111155555
79	0xbddb03f3	-0.10694113
80	0x3c9e9126	0.019356322
81	0x3d817a6e	0.0632218
82	0x3e508786	0.20364198
83	0x3ebfd472	0.3746677
84	0xbeb31af8	-0.34981513
85	0x3f0421ad	0.51613885
86	0x3b4dbab5	0.0031391804
87	0xbe831723	-0.2560359
88	0x3e249df8	0.16075885
89	0xbf200014	-0.6250012
90	0x3eb58070	0.35449553
91	0x3de9a652	0.11408676
92	0x3ef34c68	0.4751923
93	0x3e488a54	0.19584018
94	0x3dd7e6c9	0.10542066
95	0xbbe2661b	-0.0069091446
96	0x3dce841c	0.100837916
97	0xbd2575c2	-0.040395506
98	0x3e9e5b96	0.3092925
99	0xbeab4fe7	-0.33459398
100	0x3b9c7dcb	0.004775738
101	0x3ca62497	0.02028112
102	0xbd92a156	-0.07159679
103	0xbded24a7	-0.115792565
104	0x3ba6a39e	0.0050854227
105	0xbdf94060	-0.12170482
106	0x3e382288	0.17981923
107	0x3d622d07	0.055218723
108	0x3e85278c	0.26006734
109	0xbe111330	-0.14167476
110	0xbb35cd14	-0.0027740644
111	0x3f4e409c	0.80567336
112	0xbe9940df	-0.29932305
113	0xbdaef5f1	-0.08543003
114	0xbe3278ed	-0.17428942
115	0x3f73645b	0.95075005
116	0xbfad833c	-1.3555675
117	0x3f158573	0.5840675
118	0xbd02834e	-0.031863503
119	0x3d29d62c	0.041464016
120	0x3f29c805	0.6632083
121	0x3d94d0c1	0.07266379
122	0xbd2873d5	-0.04112609
123	0xbae50720	-0.0017473437
124	0xbd97fa46	-0.07420783
125	0x3e3b93c0	0.18318081
126	0xbe8beeb1	-0.27330545
127	0x3e056952	0.13028458
128	0xbe98101d	-0.29699793
129	0xbef13644	-0.47111714
130	0x3d1a684e	0.03769713
131	0x3e8842cd	0.26613465
132	0xbd006a96	-0.03135165
133	0x3dc177b4	0.0944666
134	0x3db6fb70	0.08934677
135	0x3de103ac	0.109870285
136	0x3e33b39e	0.17548987
137	0xbe633d2c	-0.22191304
138	0x3ddfe26f	0.10931861
139	0xbe74e6cb	-0.23916166
140	0x3d3d1241	0.046159986
141	0x3e9c3f59	0.3051708
142	0xbe1afb05	-0.15134819
143	0xbec53942	-0.38520247
144	0xba01c6ce	-0.00049505837
145	0x3e69f569	0.22847523
146	0xbe93f2f2	-0.2889629
147	0xbe9a4e86	-0.30138034
148	0xbdb9aaf2	-0.09065808
149	0xbd19fd90	-0.03759533
150	0x3c0203d9	0.007935488
151	0x3cb6e6df	0.022326885
152	0x3e5cca20	0.2156148
153	0xbe838672	-0.2568851
154	0x3e8504e8	0.25980306
155	0x3c954306	0.018220436
156	0x3e799e22	0.24376729
157	0xbdb6c25a	-0.08923788
158	0x3e9c3e1e	0.30516142
159	0xbca15d6b	-0.019697865
160	0x3e15626b	0.14588325
161	0xbd079bfc	-0.033107743
162	0x3ea0a6af	0.3137717
163	0xbcc05879	-0.023479687
164	0xbd4c79b9	-0.04992077
165	0x3f584bfe	0.84490955
166	0x3f0e5c3d	0.55609494
167	0x3d86ed8c	0.06588277
168	0xbe11fe0f	-0.14257072
169	0xbfb29761	-1.3952447
170	0xbf888a7d	-1.0667263
171	0x3f17a0f2	0.5922996
172	0x3ec9b03f	0.39392278
173	0xbebed6ee	-0.37273353
174	0x3eebd7d3	0.46063098
175	0x3dd551e1	0.10416008
176	0x3d87dff3	0.06634512
177	0x3d9a7385	0.07541565
178	0xbd8c8352	-0.06860985
179	0xbe2035c3	-0.15645508
180	0xbe911678	-0.28337455
181	0x3db47071	0.08810509
182	0xbe116a87	-0.14200793
183	0xbf4b3cc6	-0.7938961
184	0xbe237151	-0.15961196
185	0xbe291d97	-0.16515194
186	0xbded9b45	-0.11601881
187	0x3d155a69	0.036463175
188	0x3e3183af	0.1733539
189	0xbc09efff	-0.008419036
190	0x3ca8bfba	0.020599235
191	0xbdd02a2c	-0.10164294
192	0xbede579e	-0.43426222
193	0xbe241eb8	-0.16027343
194	0x3ececcf5	0.40390745
195	0x3d8745a5	0.066050805
196	0x3f68b11e	0.9089526
197	0xbf2f96fb	-0.6858975
198	0x3f0e505e	0.5559138
199	0x3e6d73c7	0.23188697
200	0x3d56b9b1	0.052423183
201	0xbdbe6d79	-0.09298224
202	0xbd026aad	-0.031840015
203	0xbdd29328	-0.10281974
204	0xbda6be56	-0.081417724
205	0xbe3c0d98	-0.1836456
206	0x3ddfce4c	0.1092802
207	0xbdc65bbc	-0.09685466
208	0xbe80accd	-0.25131837
209	0x3e83a7ee	0.25714058
210	0xbdb49897	-0.08818167
211	0x3d92e17f	0.07171916
212	0x3d40c1c7	0.0470598
213	0xbe5c9835	-0.21542437
214	0xbe7e4547	-0.24831115
215	0xbe869c9d	-0.2629136
216	0xbebc61ce	-0.3679337
217	0xbdd8836a	-0.1057194
218	0x3e22af43	0.1588717
219	0x3a4fb9d3	0.00079241133
220	0xbe4664d9	-0.19374408
221	0xbe5d1d0c	-0.21593112
222	0x3e8a1844	0.26971638
223	0x3faa16bb	1.3288187
224	0x3fbf461e	1.4943273
225	0xbe9a8cfc	-0.30185688
226	0xbe33f1ba	-0.1757268
227	0x3eb1a79b	0.34698185
228	0xbe96b8f7	-0.29437992
229	0xbd7714c1	-0.060322527
230	0x3d69ed52	0.057111092
231	0x3e95d672	0.2926517
232	0x3e3ce250	0.18445706
233	0xbf53608e	-0.82569206
234	0x3e897600	0.2684784
235	0x3e6d19c5	0.23154362
236	0x3f624e7f	0.88401026
237	0x3e7d7d56	0.24754843
238	0xbea71ed4	-0.32640707
239	0x3e8e5256	0.27797192
240	0x3ec2b50c	0.38028753
241	0x3ee7bef8	0.45262885
242	0x3ed2a56f	0.4114184
243	0x3e87a3a6	0.2649204
244	0x3e310e00	0.17290497
245	0x3e501b42	0.20322898
246	0x3d1f0a4c	0.03882818
247	0xbd338d01	-0.043835644
248	0xbf3aa430	-0.7290678
249	0xbe46490c	-0.19363803
250	0xbed31878	-0.41229606
251	0x3f6dec4b	0.9293868
252	0xbe94bc43	-0.29049882
253	0x3d99f4e5	0.07517413
254	0xbe2db369	-0.16962971
255	0x3efaa794	0.48955977

critic_network.0.bias f4 [128]
0	0xbdd1dee1	-0.10247589
1	0xbda60bc7	-0.08107715
2	0xbce9670e	-0.028491523
3	0xbecc4903	-0.39899454
4	0xbe941ec1	-0.28929713
5	0xbedbbd92	-0.42918068
6	0x3d52a5b4	0.051427558
7	0xbecf6ba3	-0.40511808
8	0x3f03114e	0.5119828
9	0x3efb1676	0.49040574
10	0x3f04919d	0.5178469
11	0x3d854b1a	0.06508465
12	0x3e0334c2	0.12813094
13	0x3eb6b729	0.35686615
14	0xbe4a734c	-0.19770545
15	0x3e6abc75	0.22923453
16	0x3c628c5f	0.013827412
17	0x3e5440c2	0.20727828
18	0x3eb13e3d	0.34617797
19	0x3d6a4270	0.057192266
20	0xbecb98eb	-0.39765105
21	0xbd9d37d9	-0.07676668
22	0xbe715b56	-0.23569998
23	0x3f1199a1	0.56875044
24	0x3e4d8a8c	0.20072383
25	0x3eaba17e	0.33521646
26	0x3df42f19	0.11923046
27	0xbeb7ba88	-0.358845
28	0x3e949d33	0.29026183
29	0xbd2ec6b6	-0.042669974
30	0x3df27b15	0.11839882
31	0x3eda4fd5	0.42639032
32	0xbf0b277a	-0.5435711
33	0x3e39a7ab	0.18130367
34	0xbe84ef06	-0.2596361
35	0xbea9db2f	-0.33175036
36	0xbd1e35ce	-0.03862553
37	0xbd310b1e	-0.043223493
38	0xbdfc2a2d	-0.12312732
39	0x3eccfc27	0.40036127
40	0x3ef36696	0.47539204
41	0xbe92b04c	-0.2865013
42	0x3f0a50bf	0.5402946
43	0xbe0c0153	-0.1367238
44	0x3dd3bd5a	0.1033885
45	0x3e02a7c0	0.12759304
46	0xbee1f567	-0.4413254
47	0x3ee067cb	0.43829188
48	0x3cb70360	0.022340477
49	0x3e463ca9	0.19359078
50	0x3e0abe15	0.13549073
51	0x3c16a17a	0.009193772
52	0x3ce7bd81	0.028288605
53	0xbdc7f7df	-0.097640745
54	0x3db29126	0.08719091
55	0xbe24acf4	-0.16081601
56	0xbe7f8e5e	-0.24956653
57	0x3e9a1241	0.30092052
58	0xbe6461be	-0.2230291
59	0xbf10f515	-0.56623966
60	0x3e6cf0ba	0.23138705
61	0x3de12fe4	0.109954625
62	0xbe7e7606	-0.2484971
63	0x3ec5106a	0.38489085
64	0x3df754b3	0.12076702
65	0xbdf089e3	-0.1174505
66	0x3ed4b3ff	0.41543576
67	0xbf1667ca	-0.5875212
68	0xbe4e0aaa	-0.20121256
69	0x3b1aff90	0.0023650862
70	0xbe388c7f	-0.18022345
71	0xbefa2efc	-0.4886397
72	0x3e48fe18	0.19628179
73	0xbe6ede8e	-0.23327085
74	0x3e55a527	0.20863782
75	0x3d800847	0.06251579
76	0xbdccab7a	-0.09993644
77	0xbe5dbec0	-0.21654797
78	0xbe7e30d1	-0.2482331
79	0x3dabf8b2	0.08397044
80	0xbd0765e9	-0.033056173
81	0x3e0e7caa	0.13914743
82	0x3eac03d5	0.33596674
83	0xbdc65d77	-0.09685796
84	0x3e4672c9	0.19379725
85	0x3e9c427f	0.30519482
86	0x3edaee0d	0.42759743
87	0xbd42890e	-0.047493987
88	0x3f1b9634	0.60776067
89	0x3ea8a56b	0.32938704
90	0x3ee15809	0.44012478
91	0xbdb41880	-0.087937355
92	0xbea144ac	-0.31497705
93	0x3efda54e	0.4954018
94	0x3c116344	0.008873764
95	0xbc983fde	-0.018585142
96	0x3e42863d	0.1899652
97	0xbecdfa7b	-0.40230164
98	0xbd900313	-0.07031836
99	0xbed07d87	-0.4072077
100	0x3e2092d8	0.15681016
101	0x3f15438e	0.58306205
102	0xbd341c02	-0.043972023
103	0xb9bd7522	-0.0003613616
104	0x3cc82fa4	0.02443678
105	0xbccfe3db	-0.025377205
106	0xbe5d7527	-0.21626721
107	0xbcddf989	-0.027096527
108	0x3ddd6bcf	0.108115785
109	0xbdf19494	-0.11795917
110	0xbe3a39cd	-0.18186112
111	0xbe8c8a0d	-0.27449074
112	0x3e7e4176	0.24829659
113	0x3bb07be0	0.005385861
114	0x3dc03f03	0.093870185
115	0xbe4bcd0f	-0.19902442
116	0xbe519378	-0.20466411
117	0x3deb23ca	0.114814356
118	0x3cabd953	0.020977652
119	0x3df56358	0.11981839
120	0xbef10a32	-0.4707809
121	0xbeacb65c	-0.3373288
122	0x3ea94a26	0.33064383
123	0x3e8546ba	0.26030523
124	0x3ea0395b	0.3129376
125	0x3efe1d91	0.49631932
126	0xbe9fc0ff	-0.31201932
127	0x3e62a80e	0.2213442

critic_network.2.weight f4 [128, 128]
0	0x3dde7ee7	0.108640485
1	0x3d039d37	0.032132354
2	0xbd98e628	-0.07465774
3	0x3e0b232d	0.13587637
4	0x3dd6ec98	0.104943454
5	0xbd86e165	-0.06585959
6	0x3d68f706	0.056876205
7	0xbe9c17cd	-0.3048691
8	0x3e822608	0.2541964
9	0x3e9c0e20	0.30479527
10	0x3dbeb23c	0.09311339
11	0x3e38f9e8	0.18064082
12	0x3d25af52	0.0404504
13	0xbc3ff9a2	-0.011717232
14	0xbe16aabf	-0.14713572
15	0x3d637287	0.055529144
16	0xbd65b5f5	-0.05608173
17	0xbd4a1b44	-0.04934241
18	0x3e032d22	0.12810186
19	0xbdc7074c	-0.09718189
20	0xbe198027	-0.14990292
21	0xbc13b0dc	-0.0090143345
22	0xbd81dbeb	-0.06340774
23	0x3e371116	0.17877612
24	0xbdccafbf	-0.099944584
25	0x3dedc965	0.116106786
26	0x3d25a014	0.040435866
27	0xbe84493c	-0.25837123
28	0xbce3af21	-0.027793469
29	0x3aefc71a	0.001829359
30	0xbd20367d	-0.039114464
31	0x3e039f8d	0.12853833
32	0xbcd6566b	-0.026164254
33	0xbd8b55f5	-0.068035044
34	0x3e24b12c	0.1608321
35	0xbdb23032	-0.08700599
36	0xbdc7066c	-0.09718022
37	0x3e8536fa	0.26018506
38	0xbdad9959	-0.08476514
39	0x3e28e722	0.1649442
40	0x3dc624ad	0.09674964
41	0x3e81eeb3	0.25377426
42	0x3dee76d4	0.116437584
43	0x3e9ea3c2	0.30984312
44	0xbe61f18c	-0.22064799
45	0x3eb7fc06	0.35934466
46	0x3e2ec97e	0.1706905
47	0x3e172f9a	0.14764252
48	0x3df32bbc	0.11873576
49	0x3dc9cc7d	0.09853456
50	0x3e1ef2e0	0.15522337
51	0xbdc99760	-0.098433256
52	0x3e4f21b7	0.20227705
53	0x3d3db6c3	0.046316873
54	0xbe226efc	-0.1586265
55	0xbd863261	-0.06552578
56	0x3dc9d293	0.09854617
57	0x3e69af56	0.22820792
58	0x3dcd08bf	0.10011434
59	0xbea9cbf1	-0.33163407
60	0x3e2fbd3c	0.17162031
61	0xbd88958b	-0.06669148
62	0xbd89573f	-0.06706094
63	0x3e40ee2d	0.18840857
64	0xbe9d9573	-0.30778083
65	0x3adf87d6	0.0017054032
66	0x3e38a308	0.18030941
67	0xbe893a67	-0.2680237
68	0x3e7f2f2c	0.24920338
69	0x3ebb3e69	0.36571053
70	0xbe81e835	-0.25372472
71	0xbe577829	-0.21041931
72	0xbb9e8581	-0.0048376922
73	0xbe4c0e6e	-0.1992738
74	0xbd31fc13	-0.043453287
75	0x3e0b6c1f	0.13615464
76	0x3e84708f	0.25867125
77	0xbe242a98	-0.16031873
78	0xbdf3463a	-0.11878629
79	0x3d745590	0.05965191
80	0x3e19556d	0.14973994
81	0x3e1b0753	0.15139513
82	0xbeeb55bd	-0.4596385
83	0x3e3c5220	0.18390703
84	0x39f06584	0.00045852002
85	0xbdb5f0f5	-0.088838495
86	0x3db6f668	0.08933717
87	0xbeae205f	-0.34009072
88	0x3e1ef57b	0.15523331
89	0x3cf492f9	0.029855238
90	0x3f388d01	0.72090155
91	0xbce2e5c6	-0.027697455
92	0xbe77551a	-0.24153557
93	0x3e39e4e0	0.18153715
94	0xbe9f4b77	-0.31112263
95	0x3e8048da	0.2505558
96	0xbd49311d	-0.049119104
97	0x3e51b8a6	0.20480594
98	0xbda87f39	-0.08227391
99	0xbdd31823	-0.10307338
100	0xbe11f56a	-0.14253774
101	0x3e03d592	0.1287444
102	0xbd52e03c	-0.051483378
103	0x3d9ad9ee	0.07561098
104	0xbed3c77d	-0.41363135
105	0xbe857fb0	-0.2607398
106	0xbdaa1ef5	-0.08306686
107	0x3df62c41	0.120201595
108	0x3ed4485a	0.4146145
109	0x3e328663	0.17434077
110	0xbe6dc784	-0.2322064
111	0xbe67af30	-0.22625422
112	0xbda2adac	-0.079432815
113	0x3e497812	0.1967471
114	0xbe2f5e6a	-0.1712586
115	0x3d694887	0.056953933
116	0x3e034d56	0.1282247
117	0xbeb90933	-0.3613983
118	0xbd93ca4c	-0.072163194
119	0xbe4913f8	-0.19636524
120	0x3d9298f2	0.07158078
121	0x3e83ad8f	0.25718352
122	0xbdf14b7f	-0.11781978
123	0x3dc1dac8	0.09465557
124	0xbd88dda9	-0.06682903
125	0x3ebc69b3	0.36799392
126	0xbd1609f6	-0.036630593
127	0x3d8fb18f	0.070162885
128	0xbed584d5	-0.41702905
129	0xbe9dee7b	-0.3084601
130	0x3dd46e4d	0.10372601
131	0xbe84a153	-0.2590433
132	0x3ed152b2	0.40883404
133	0xbe577da3	-0.2104402
134	0x3ef77ca0	0.4833727
135	0x3d337df6	0.043821298
136	0x3db9fa1a	0.09080906
137	0x3e4aead3	0.19816141
138	0x3e32a4ff	0.17445754
139	0xbe12a3ad	-0.1432025
140	0x3df40dc5	0.11916689
141	0x3efc008e	0.49219173
142	0xbd41d624	-0.04732336
143	0x3ea82b80	0.32845688
144	0x3e12be96	0.14330515
145	0xbe9b57a8	-0.30340314
146	0x3c00b512	0.0078556705
147	0xbe91f45f	-0.28506753
148	0xbe2033f0	-0.15644813
149	0x3e12c90f	0.1433451
150	0xbe0ec502	-0.1394234
151	0x3e3d6f52	0.18499497
152	0x3e15fb6a	0.14646688
153	0x3e8e5959	0.27802542
154	0x3df51572	0.11966981
155	0xbd38d49f	-0.045124646
156	0x3e24f1e2	0.16107896
157	0xbd70838e	-0.05871921
158	0xbeebab5e	-0.4602918
159	0xbc134415	-0.0089884
160	0xbda71606	-0.081584975
161	0x3e7f71cb	0.24945752
162	0x3ba48f2a	0.0050219493
163	0xbe06d7e1	-0.13168289
164	0xbd57421f	-0.052553292
165	0xbe9d8d03	-0.30771646
166	0xbe8fd200	-0.28089905
167	0x3dc93235	0.09824029
168	0x3dafb31b	0.085790835
169	0x3e5dcfe4	0.21661335
170	0x3d458a26	0.04822745
171	0xbda1b91c	-0.07896635
172	0xbe7bf6a8	-0.2460581
173	0x3de51805	0.11186222
174	0x3d39608e	0.045258097
175	0x3dfb7b05	0.122793235
176	0xbec9a659	-0.39384726
177	0x3fa9b655	1.3258768
178	0x3f93f817	1.1560086
179	0xbe2d5209	-0.16925825
180	0xbd58c99b	-0.05292664
181	0x3de51d5d	0.11187241
182	0xbddf6243	-0.10907414
183	0x3eb4ef9e	0.35339063
184	0xbd01b629	-0.031667862
185	0x3dd96821	0.10615564
186	0x3eb292f7	0.3487775
187	0xbdb2103e	-0.08694504
188	0x3b09dd86	0.002103658
189	0xbee54820	-0.4478159
190	0xbc72f94a	-0.014829943
191	0x3dfaa315	0.12238137
192	0xbe74e58a	-0.23915687
193	0x3e5acfa9	0.21368279
194	0x3ccf90bc	0.02533757
195	0xbcd4a984	-0.025959738
196	0x3ed4dc95	0.4157454
197	0xbea26857	-0.3172023
198	0xbf7e3fb4	-0.99315953
199	0xbeacd438	-0.3375566
200	0xbe1f63aa	-0.15565363
201	0xbe9c942c	-0.30581796
202	0x3d08405f	0.033264514
203	0xbdfed6df	-0.12443327
204	0xbd462cef	-0.048382696
205	0x3de31634	0.11088219
206	0xbdb1d2ab	-0.0868276
207	0xbda0a536	-0.078440115
208	0xbb81251a	-0.0039411904
209	0x3f56f233	0.83963317
210	0xbe8ddc6c	-0.2770723
211	0xbc7e0075	-0.015503039
212	0x3dd04be8	0.10170728
213	0xbe95ffaf	-0.29296634
214	0x3c9faed3	0.019492542
215	0xbf276908	-0.6539464
216	0x3e38108e	0.17975065
217	0x3ccfd401	0.025369646
218	0x3dfc0ac0	0.12306738
219	0x3ab176f8	0.0013539484
220	0xbd85fe81	-0.065426834
221	0x3f3febf2	0.749694
222	0x3ee2bc82	0.44284445
223	0xbe44ad23	-0.19206671
224	0x3e6a821c	0.22901195
225	0xbde01a22	-0.109424844
226	0x3f0a3f0f	0.5400247
227	0xbdd8701e	-0.1056826
228	0xbdecdbe0	-0.11565375
229	0x3d107a64	0.03527297
230	0x3e6ca820	0.2311101
231	0x3d0d667f	0.034521576
232	0xbd4cf22a	-0.050035633
233	0x3e116ee3	0.14202456
234	0x3d8e8300	0.0695858
235	0xbe77b323	-0.24189429
236	0xbcfc62da	-0.030808855
237	0x3e5d2e5e	0.21599719
238	0xbf898958	-1.0745039
239	0xbb90210c	-0.0043984707
240	0x3c9bc036	0.019012552
241	0xbe34e8c4	-0.17666918
242	0x3e925e8e	0.28587765
243	0x3f66729a	0.9001862
244	0x3dad10ec	0.08450493
245	0x3d14f541	0.036366705
246	0xbe416df7	-0.18889605
247	0xbedf6b6c	-0.43636644
248	0xbdb5a86c	-0.088700145
249	0x3dfa50d2	0.122224465
250	0x3e23a1fa	0.15979758
251	0xbec95ec1	-0.39330104
252	0xbed33a69	-0.412555
253	0x3d8ff4a3	0.070290826
254	0x3e8dac83	0.27670678
255	0x3d548984	0.051888958

critic_network.2.bias f4 [128]
0	0x3e14f749	0.14547457
1	0x3e4bf76d	0.19918604
2	0x3d54a891	0.05191857
3	0x3e306822	0.17227224
4	0x3e67faa6	0.22654209
5	0xbe06a39d	-0.13148351
6	0xbe03dd46	-0.12877378
7	0x3de9a4ef	0.11408412
8	0x3dd903ca	0.10596426
9	0xbc4f55ad	-0.012654704
10	0x3e29b6db	0.1657366
11	0x3e97bcc5	0.29636207
12	0xbe71097d	-0.23538776
13	0x3e2a0a46	0.16605482
14	0xbcc0223c	-0.023453824
15	0xbe14336e	-0.14472744
16	0x3e7b273b	0.24526684
17	0xbda47be9	-0.080314465
18	0xbd443c71	-0.047909204
19	0x3c9d835e	0.01922768
20	0xbdefc738	-0.1170792
21	0xbe557812	-0.20846584
22	0xbe0d750f	-0.13814186
23	0x3e55adaa	0.20867029
24	0xbc4a2444	-0.012337748
25	0xbd322df1	-0.043500844
26	0x3d11b024	0.03556837
27	0x3dcc4295	0.09973637
28	0x3e1fac51	0.15593077
29	0xbdaf044f	-0.08545744
30	0xbe898440	-0.2685871
31	0xbe663da6	-0.22484455
32	0xbe1cdbfe	-0.15318295
33	0xbd623447	-0.055225637
34	0x3bd39a2c	0.0064575877
35	0xbddde2ff	-0.10834312
36	0x3e3e6c95	0.18596108
37	0xbea7f890	-0.32806826
38	0xbe448d15	-0.19194444
39	0xbeae8101	-0.34082797
40	0xbde9b4de	-0.11411451
41	0x3abe78f2	0.0014531894
42	0xbe3b71ba	-0.18305102
43	0xbecd43eb	-0.4009088
44	0xbe14520f	-0.14484428
45	0x3e597ee9	0.21239819
46	0x3cd60528	0.026125506
47	0xbe507654	-0.20357639
48	0xbde87b57	-0.1135165
49	0xbd486d82	-0.04893256
50	0x3d8e1bf2	0.06938924
51	0xbdbf9e3a	-0.09356351
52	0xbe1c9046	-0.15289411
53	0x3e6334c2	0.22188094
54	0xbde1621f	-0.11005043
55	0xbe4c38e3	-0.19943576
56	0xbe81dd16	-0.25363988
57	0x3e4821b6	0.1954411
58	0xbe788357	-0.24268852
59	0xbe0bbcbc	-0.13646215
60	0xbda7403e	-0.0816655
61	0x3d9f9e45	0.077938594
62	0x3e55e43f	0.2088785
63	0x3e6aaaed	0.22916766
64	0x3e1adb84	0.15122801
65	0xbe550648	-0.20803177
66	0x3e777b2c	0.2416808
67	0x3d2ccba6	0.0421864
68	0x3dc546b4	0.09632626
69	0xbe45fc3b	-0.193345
70	0x3e04ff13	0.12987928
71	0x3dbeebeb	0.093223415
72	0xbdf24d09	-0.118310995
73	0xbd6f6322	-0.05844415
74	0x3e9c828c	0.3056835
75	0x3e8953d5	0.2682177
76	0xbdef5e87	-0.116879515
77	0x3dd1d05d	0.1024482
78	0x3d12804a	0.035766877
79	0x3e00a772	0.12563875
80	0x3e780b6c	0.24223107
81	0x3df8fe2a	0.12157853
82	0xbd99fbe6	-0.07518749
83	0xbe7c9e9e	-0.24669883
84	0xbb590d11	-0.003311936
85	0xbd17cee3	-0.037062537
86	0xbe4b1fbf	-0.19836329
87	0xbdfbb81c	-0.122909755
88	0x3d8e0d33	0.06936111
89	0xbc672c8d	-0.014109743
90	0x3cdfb4aa	0.027307827
91	0x3df9754a	0.12180574
92	0x3e1d893f	0.15384386
93	0xbe321915	-0.1739238
94	0xbe07affc	-0.13250726
95	0xbbe0d4b2	-0.0068612928
96	0x3e268d4d	0.1626484
97	0xbc863ad3	-0.016385471
98	0x3ecf3746	0.40471858
99	0xbe4e36d2	-0.201381
100	0xbd09c81f	-0.033638116
101	0x3e8abfaa	0.27099353
102	0xbcd38ea3	-0.02582485
103	0x3dbfbeca	0.09362562
104	0x3e5909a7	0.21195088
105	0x3ce8204f	0.028335718
106	0x3d8b0f23	0.067899965
107	0xbd645b62	-0.055751212
108	0x3da602fe	0.081060395
109	0xbd8d277a	-0.06892295
110	0x3b80f056	0.0039349003
111	0xbe1c245b	-0.15248244
112	0x3bbda6ea	0.00578772
113	0xbe63d55e	-0.22249362
114	0x3d1dded1	0.038542572
115	0xbe851a1d	-0.25996485
116	0xbd86c52f	-0.065805785
117	0xbe78abf4	-0.24284345
118	0xbde519b0	-0.1118654
119	0xbdde32c2	-0.10849525
120	0xbe9a0e1a	-0.30088884
121	0xbdd6de1a	-0.10491581
122	0x3dc9657e	0.09833811
123	0xbe4f1288	-0.20221913
124	0x3af23132	0.0018477796
125	0xbdf0baff	-0.11754417
126	0x3e4b4c5b	0.19853346
127	0x3e84fb35	0.25972906

critic_network.4.weight f4 [1, 128]
0	0xc09a006b	-4.812551
1	0xc0a47115	-5.138804
2	0xc0a93184	-5.2872944
3	0xc098d1d2	-4.775613
4	0xc0a46948	-5.1378517
5	0x40ac74b3	5.3892455
6	0x4092f7f1	4.5927663
7	0xc09dcb86	-4.931094
8	0xc09a6277	-4.8245196
9	0xc0a6bee0	-5.2108
10	0xc0a58bae	-5.1733007
11	0xc0ac7fb4	-5.3905888
12	0x4096dc7e	4.7144156
13	0xc09912b9	-4.7835355
14	0x40a185ba	5.047574
15	0x409ed8f3	4.963983
16	0xc09a6bec	-4.825674
17	0x409d67f6	4.9189405
18	0x409f4e03	4.978273
19	0xc09dfbdd	-4.936995
20	0x40accdea	5.400136
21	0x40a5b1fa	5.1779757
22	0x40a88ca7	5.2671695
23	0xc0a6e35d	-5.2152543
24	0x40a9649a	5.2935305
25	0x409db50b	4.92835
26	0xc0a825b7	-5.254604
27	0xc0a87e03	-5.2653823
28	0xc0a1240a	-5.0356493
29	0x409ddbb1	4.933068
30	0x40a3ce93	5.1189666
31	0x40acaf39	5.3963895
32	0x40a159ae	5.042197
33	0xc0a11b08	-5.0345497
34	0xc0ac6eca	-5.388524
35	0x409a3266	4.818652
36	0xc0993788	-4.7880287
37	0x409a6dfb	4.8259254
38	0x40ac86e2	5.391465
39	0x40ab1c80	5.347229
40	0x40a76962	5.231614
41	0x40a796cd	5.2371583
42	0x40a31c3b	5.097196
43	0x4098c87f	4.7744746
44	0x40ad8286	5.422183
45	0xc0a37022	-5.107438
46	0x40a120a4	5.0352345
47	0x4099c0e2	4.8047953
48	0x40ace073	5.4023986
49	0x40ac8b72	5.392022
50	0xc0a303fb	-5.094236
51	0x40a4970a	5.1434374
52	0x409aaeac	4.8338223
53	0xc0a79203	-5.2365737
54	0x40aaabab	5.3334556
55	0x40ac8b90	5.3920364
56	0x40ad2092	5.410226
57	0xc09bfe05	-4.8747582
58	0x409b2e69	4.8494153
59	0x40993c67	4.7886233
60	0x40a44840	5.1338196
61	0xc0a406ce	-5.1258307
62	0xc09a9ad9	-4.8314023
63	0xc099f64c	-4.8113155
64	0xc0ac9bf6	-5.394038
65	0x40a036cc	5.006689
66	0xc0ae4192	-5.445504
67	0xc0a0f845	-5.0303063
68	0xc09b7081	-4.8574834
69	0x409a1fc2	4.8163767
70	0xc092c24a	-4.586217
71	0xc09c4fd0	-4.8847427
72	0x40ae9e71	5.456841
73	0x4099a5e2	4.8014994
74	0xc0a1b606	-5.0534697
75	0xc0a60d20	-5.189102
76	0x409ef3d4	4.967264
77	0xc0a20512	-5.063119
78	0xc09d1bd4	-4.909647
79	0xc0a34291	-5.101876
80	0xc0ae97d0	-5.456032
81	0xc09c5d6f	-4.8864055
82	0x40a395d5	5.11204
83	0x40a2fa6f	5.0930705
84	0x409b228e	4.847968
85	0x4099c807	4.8056674
86	0x409af463	4.8423324
87	0x40ad553e	5.4166555
88	0xc09996c0	-4.799652
89	0xc09d8707	-4.922733
90	0xc0968b9c	-4.704542
91	0xc09f0bf8	-4.970211
92	0xc09ae19b	-4.8400397
93	0x409abb48	4.8353615
94	0x40aca563	5.395189
95	0x409d2188	4.910343
96	0xc0a420f4	-5.1290226
97	0x409cee3e	4.9040823
98	0xc0af69f2	-5.481683
99	0x40a36fd6	5.107402
100	0x40a1ca4f	5.055946
101	0xc0a96301	-5.2933354
102	0xc099457e	-4.789733
103	0xc098ff26	-4.781146
104	0xc09a8f1c	-4.8299694
105	0xc09b95e6	-4.862048
106	0x409fa20c	4.988531
107	0x409b5f0d	4.855353
108	0xc0a22fb7	-5.0683246
109	0xc09b7d0b	-4.859014
110	0x409b5d83	4.855165
111	0x40975e1a	4.730237
112	0xc0a0bee4	-5.023302
113	0x40a3453c	5.1022015
114	0xc09c685d	-4.8877397
115	0x40a7c63a	5.2429476
116	0x40a34453	5.1020904
117	0x40aacb43	5.337312
118	0x40a443c8	5.133274
119	0x409a2c60	4.817917
120	0x409ac45a	4.8364687
121	0x40a7024b	5.21903
122	0xc097d499	-4.744702
123	0x40985e4f	4.7615123
124	0xc0a16eba	-5.0447664
125	0x409b8b2d	4.860739
126	0xc0ae360a	-5.4440966
127	0xc09a0c7c	-4.814024
