src/rl/model/actor_model25-09-2024_16-12-21/210.pt (torch, 24047 bytes, 7 tensors)

logstd f4 [4]
000000 4f 09 ed bf ad 64 00 c0 00 e9 23 c0 9b bb 0c c0
       -1.8518466 -2.0061448 -2.5610962 -2.1989505

mean_net.0.weight f4 [64, 15]
000000 eb de 5a bf a5 88 64 bd 44 d1 c0 3f 65 97 a8 3f
       -0.85496396 -0.055794377 1.5063863 1.3171202
000010 d1 a5 b0 be b2 e9 7e 3e 4c 3c 6d 3e 35 f9 31 3e
       -0.34501508 0.24893835 0.23167533 0.17380221
000020 2b 2f b6 3e 85 84 e6 3e 1b 38 53 bf 13 8c 0a 3d
       0.3558286 0.4502298 -0.82507485 0.03382499
000030 ce e8 58 bf 89 d0 e3 3f 0b c5 82 bf 06 d2 b2 bd
       -0.8473023 1.7798015 -1.0216383 -0.08731465
000040 ef 06 6a bf 91 46 96 3f a2 4c 39 40 45 c6 56 3f
       -0.9141683 1.1740285 2.8953023 0.83896285
000050 4b 65 25 be 20 64 7b be ba f9 25 be a2 ff a8 be
       -0.16151921 -0.24549913 -0.16208544 -0.33007532
000060 d5 39 05 be 54 55 89 be e2 0c de be 65 dc 33 bf
       -0.13010342 -0.26822913 -0.43369204 -0.7025817
000070 a2 62 71 3f 37 72 10 c0 01 63 38 3e f8 5c 50 bf
       0.94291127 -2.2569711 0.18006517 -0.8139186
000080 8f 14 a6 3d 0f e4 f2 3f 23 81 cc bf df e4 d4 be
       0.0810939 1.8975848 -1.5976909 -0.41580865
000090 01 69 c2 3e 5f a8 09 3d 1c a9 27 3f d1 cd 8e be
       0.37970737 0.033607837 0.65492415 -0.278914
0000a0 6c 0b cc 3d 54 1b 14 bf c3 af 61 3e 7b 51 c2 bf
       0.09963116 -0.578542 0.22039704 -1.5181116
0000b0 0a 18 ca bf 67 ee a0 3f 4b e8 3e 3d 89 ea 5e bf
       -1.5788586 1.2572755 0.04660825 -0.8707662
0000c0 00 52 8d 3f 1b 3c ab be 2c 55 91 bd f0 27 64 bd
       1.104065 -0.33444294 -0.07096323 -0.05570215
0000d0 24 97 92 3f 46 6b a0 be 0c c6 83 3e 79 a8 56 be
       1.1452374 -0.31331843 0.25737035 -0.20962705
0000e0 0e 2c 24 3f 54 8b 31 3f 7b 94 be 3f b2 1c e1 bf
       0.6412972 0.6935322 1.4889063 -1.7586882
0000f0 7c 2b 0e 3f dc a9 3c bf 64 17 65 bf 25 11 1d c0
       0.555351 -0.73696685 -0.89488816 -2.4541714
000100 be 0d 44 bf 68 e7 31 be 9f cd 13 3c c4 5a bd 3e
       -0.7658347 -0.1737343 0.009021192 0.3698331
000110 5a 05 d0 be 21 cd 4d be 5e 2c 1a bf 9c 8d 6b 3e
       -0.40629083 -0.20097782 -0.6022395 0.23003238
000120 5d 84 c8 3f 3c ce fb 3f ce 3e c7 3f 13 6e df be
       1.5665394 1.9672313 1.5566041 -0.43638667
000130 96 fd 56 3f dc b3 18 be 8d f5 28 3f 96 9b 1f be
       0.8398069 -0.14912361 0.6599968 -0.15586695
000140 bd 4d 05 be 4d 38 0c 3f c9 bf 9a be 9b 92 55 be
       -0.13017936 0.5477341 -0.30224445 -0.20856707
000150 7d 56 10 3b d8 32 ca 3e 2e 45 59 be c1 62 89 be
       0.0022024207 0.39491916 -0.21217796 -0.26833156
000160 d8 7d b4 bf ea 55 14 bd c1 21 27 3e 2e 5a 59 3f
       -1.4100904 -0.036214747 0.1632147 0.8490323
000170 3f cc e8 3f 6b 5d 04 40 e4 e6 09 3e 99 38 0d 3e
       1.8187331 2.0682018 0.13466984 0.13791122
000180 64 92 8b 3e b4 71 ba bd 94 cd 39 bf 91 2e 57 bc
       0.27260125 -0.091037184 -0.7257931 -0.013133661
000190 7f 77 ed 3c 7e 7f db 3c e5 6f 93 40 de 33 0f bf
       0.028987644 0.026794191 4.607409 -0.5593852
0001a0 4e 5e d2 bf f0 a5 4e 3e 62 74 23 3f 49 db d1 be
       -1.643503 0.20180488 0.6384946 -0.40987614
0001b0 0b b6 c1 3f 28 89 96 bf 7e 59 a9 3e cf 4c 05 bf
       1.513368 -1.1760607 0.3307609 -0.52070326
0001c0 52 c0 47 be 9a c4 3c be 2f 1e 51 be 81 a0 fb 3c
       -0.19506958 -0.18434373 -0.2042167 0.030716183
0001d0 eb c0 b5 3e 5d d4 39 3f 5f a8 84 bf a2 f3 c9 bf
       0.35498747 0.72589666 -1.0363883 -1.5777476
0001e0 6e 59 a5 be a2 ec 8b bf 75 aa 6f bc 3e 6f 1c c0
       -0.32294792 -1.093159 -0.0146280425 -2.4442897
0001f0 50 ef d5 be 07 1e d8 be 9b 9d 04 3d 6b 0a 3a 3e
       -0.41784143 -0.4221041 0.032376867 0.18168037
000200 20 b6 0c bd bf 3a 86 3e d1 d4 68 3e e7 9c 7b 3e
       -0.034353375 0.26216695 0.22737433 0.24571572
000210 11 c8 48 40 fa 0e 86 bf 47 f0 c4 3e 7e 9a 5e 3d
       3.137211 -1.047332 0.38464567 0.054346554
000220 dd bb ae bf 0d 98 4a bf d7 39 10 c0 32 76 65 bf
       -1.3651081 -0.7913826 -2.2535303 -0.89633477
000230 d6 ae 2d be 45 d9 98 bd 45 16 a4 be ce d0 06 bf
       -0.16961226 -0.07463316 -0.3204824 -0.5266236
000240 2f 9e b3 3e 2a ab bd 3e 9d 83 8e bd f0 94 39 c0
       0.35081622 0.3704465 -0.06958697 -2.8997154
000250 1d f3 09 c0 28 c0 01 3f 1c ea df 3e c9 10 ab 3e
       -2.1554635 0.5068383 0.437333 0.33411244
000260 55 79 08 3e 7f 2f 98 bf af fb 6c be aa 0d 8b bf
       0.13327534 -1.1889495 -0.23142885 -1.0863545
000270 b3 9c 64 be ed 55 8c 3e d9 3f 55 bd c8 0a b7 bd
       -0.22325401 0.27409306 -0.052062843 -0.08937603
000280 a9 a0 bf 3e 38 05 2d bf 80 cf 0b bf 51 50 2b 3f
       0.3742726 -0.6758609 -0.54613495 0.6691943
000290 cd 38 8f c0 ba 6b ed 3e 9c b7 af be fb 15 d9 bf
       -4.4756837 0.4637125 -0.3431977 -1.6959833
0002a0 84 eb 27 c0 e3 8a 07 3f 66 a7 31 3e d1 09 cb 3d
       -2.6237497 0.529463 0.17349014 0.09913982
0002b0 b1 20 ff bd 44 f4 8a be 8c 32 ae be 02 3a 05 bf
       -0.12457407 -0.27139485 -0.3402294 -0.5204164
0002c0 18 6f 9e 3e a7 99 50 c0 76 0d 88 3f ae 5a bd bf
       0.30944133 -3.2593782 1.0629108 -1.4793298
0002d0 cf 61 ac 3f b0 b1 cc 3e ac 60 89 bf ba b8 cc bf
       1.3467349 0.39979315 -1.0732627 -1.5993874
0002e0 21 b7 92 3d 02 76 a1 bc 0b 28 85 bd fb 55 4d 3e
       0.07163835 -0.01970959 -0.06501778 0.2005233
0002f0 79 ff 3f 3e fc 6c b9 3e e4 da b5 3e de 51 00 3d
       0.18749799 0.3621596 0.35518563 0.031328075
000300 d3 88 06 40 ed d5 a4 3f 3d 9a 5d c0 b9 bb 3a bf
       2.102101 1.2877785 -3.462539 -0.7294269
000310 63 90 83 3e b5 f7 9e bf 3a 9c f5 3e 88 40 1e 3f
       0.25696096 -1.2419344 0.47970754 0.61817217
000320 4c d7 d4 3a 52 f3 15 bd b1 1e 7d 3e e4 cc ad be
       0.001623848 -0.036609 0.24718739 -0.33945382
000330 04 b7 71 3f de 91 c9 3e f3 30 bd be 88 4c a3 3f
       0.94419885 0.393691 -0.36951408 1.275773
000340 e0 b9 ec bf 0c 73 1c 40 37 0a fd bd 96 f5 fe bc
       -1.8494225 2.444522 -0.12355464 -0.031122964
000350 c5 a6 bf bf b9 96 fa 3d b6 39 94 3f ff 26 af 3e
       -1.4972769 0.12235779 1.1580112 0.3420944
000360 54 a3 00 bf 6e 4c d6 3e 0b a6 81 3e c1 76 1c 3e
       -0.5024922 0.41855186 0.25321993 0.15279676
000370 f6 1b 10 3d 90 b8 73 3d d3 c4 80 c0 2f 0b ea bf
       0.035182916 0.059502184 -4.0240264 -1.8284663
000380 22 39 d3 3f c2 09 5a 3d f4 da f9 be 87 d6 1f 40
       1.650181 0.053231962 -0.4879986 2.4974687
000390 56 57 a3 bf d1 53 0c bf b9 71 be 3e d4 f8 7f be
       -1.2761028 -0.54815394 0.37196139 -0.24997264
0003a0 e9 3f 97 3e 66 ea a1 3d 09 15 94 be ed d5 22 3d
       0.29540947 0.07906036 -0.289223 0.039754797
0003b0 ae af 68 be af 14 c5 3f 27 8b e5 bf 98 1c 93 bf
       -0.22723266 1.5396937 -1.7933091 -1.1493101
0003c0 d7 63 09 3f 1d 0c 23 3f bc 77 31 bf b8 61 61 be
       0.5366797 0.6369036 -0.69323325 -0.22009933
0003d0 74 57 0a 3f 3a f8 12 3e 65 c1 8a bd f9 05 a3 bd
       0.5403969 0.14352503 -0.06775168 -0.079601236
0003e0 ae b8 ce 3e 19 52 29 be 9c 3b 0b 3f 17 03 9f 3e
       0.40375274 -0.16535224 0.5438783 0.31057045
0003f0 d6 2b 73 3f 40 a5 e0 3f d2 6b 4c 3d 54 c9 56 3e
       0.94988763 1.755043 0.049907513 0.20975238

mean_net.0.bias f4 [64]
000000 d4 89 ef bd 66 ac 8d be fa 25 2f 3e a6 b9 6d be
       -0.116962105 -0.27670592 0.1710433 -0.2321535
000010 f5 e8 e1 bd b0 b2 d2 be 45 14 14 be d1 21 45 3e
       -0.11030761 -0.41151953 -0.14460857 0.19251181
000020 2c a6 b2 bd 1e 11 c0 bd c6 74 a5 bd 4e 71 3c bf
       -0.08723101 -0.09378265 -0.080789134 -0.7361039
000030 51 03 3e bd 9c 6e 9e 3e 52 f6 3c be 8d 55 28 be
       -0.04638988 0.30943763 -0.18453339 -0.16438885
000040 9f dc fe 3e 1d 2e ab be c7 01 18 bf 2e 70 2f 3e
       0.49777696 -0.3343362 -0.5937771 0.17132637
000050 6d 42 ca 3e 44 43 0a bd d6 28 41 be f5 25 2a be
       0.39503804 -0.033755556 -0.18863234 -0.16616042
000060 f0 76 d9 3e 5c 20 12 bf 30 17 05 3e 93 e5 79 3e
       0.42473555 -0.57080626 0.12997127 0.24403982
000070 fe cb 4b 3d d3 0e 99 3e c4 49 cf 3d c2 a1 bd be
       0.04975509 0.29894122 0.101214916 -0.37037474
000080 16 9e ec bb 77 99 ce 3d c6 e7 91 3c 1e 6a ab 3d
       -0.0072209937 0.10087865 0.017810713 0.083698496
000090 c3 84 12 be b9 5c e9 be 4d 5d b6 3e fd 52 c6 be
       -0.14308457 -0.45578554 0.35618058 -0.3873519
0000a0 a4 79 ad bd 9f ab 88 bd d9 f7 92 be c9 11 b0 3e
       -0.08470467 -0.06673359 -0.28704718 0.3438857
0000b0 fc 5d 51 be 18 a4 a2 be 03 0b f3 3e ff 56 28 be
       -0.20446008 -0.3176582 0.4746934 -0.16439436
0000c0 67 ec 8e bd 87 5f 3a 3e e6 4e ba 3e 34 94 c5 be
       -0.06978684 0.18200503 0.3638832 -0.38589633
0000d0 60 f0 64 3e 82 ea 9c bd 63 8d ea 3e 1c 6a 9e bd
       0.22357321 -0.07661916 0.45810995 -0.077350825
0000e0 33 56 32 be 3f eb c4 bd 59 07 e7 3d 22 c3 ad be
       -0.17415695 -0.09615182 0.11280698 -0.33937937
0000f0 dd f0 47 bd 51 46 c1 3e 96 57 3c be b2 ca b4 3d
       -0.04881369 0.3774896 -0.18392786 0.088277236

mean_net.2.weight f4 [64, 64]
000000 c6 16 9a 3d 92 2c 35 be 20 a2 2a 3e ea 26 b5 3d
       0.07523875 -0.17692783 0.16663408 0.08845313
000010 7b b5 f2 bc c4 d6 19 be 8f a5 60 bd 97 1c 0d 3e
       -0.029627552 -0.15023333 -0.05484539 0.13780437
000020 d1 8f 08 be de e8 ac be 1e 2a 8c be 97 7e e7 bd
       -0.13336112 -0.33771414 -0.27375883 -0.11303442
000030 25 e6 e9 bc 8c bc a0 be c6 87 d4 3d 53 19 9e bc
       -0.028552124 -0.3139385 0.10377459 -0.019299185
000040 97 bc f2 3d 2d 9a 13 3d 67 af c8 be 1a 0e 72 3c
       0.11852377 0.036035705 -0.3919632 0.01477387
000050 fa 4c 6c be 4c 8f 56 bf f4 5c a3 bd 34 37 99 be
       -0.23076239 -0.83812404 -0.07976714 -0.2992493
000060 07 d2 01 3e 82 90 3e 3e 1f 10 ca be b9 a5 fa 3c
       0.12677775 0.18609813 -0.39465424 0.0305966
000070 30 bd 23 3e 16 8f e8 bd a9 a6 a4 3d ac c3 62 be
       0.15990138 -0.113554165 0.080396004 -0.22144955
000080 7c 4a 76 3d 5a 14 13 be 5f 7e 3d 3e 20 eb cf 3c
       0.060129628 -0.14363232 0.18505238 0.025380671
000090 29 03 27 3c a3 35 fa 3d 51 4e ec 3e 75 b1 9b be
       0.0101936245 0.12217262 0.461535 -0.30408826
0000a0 47 57 c9 3d 80 cd a9 3e 72 33 15 be bd 65 23 3e
       0.098311 0.33164597 -0.14570406 0.15956779
0000b0 4e af 7d 3e d2 d7 aa bb 37 93 6a 3c 26 e8 bc 3e
       0.24773905 -0.005213716 0.014317325 0.36895865
0000c0 f4 29 25 bd 71 f7 43 be 27 c2 82 3d 84 f5 08 be
       -0.040323213 -0.1913736 0.06384688 -0.13374907
0000d0 76 1c 42 3e a7 c2 da be 16 6f 32 bd d2 f8 0c bd
       0.1895617 -0.42726633 -0.04356297 -0.03441698
0000e0 18 27 6c bd d5 19 5a 3e bf b5 9c 3e de c1 d6 3d
       -0.05765447 0.21298917 0.3060741 0.10486196
0000f0 e2 6d 38 be 81 a0 40 3d a2 78 c5 bd 17 20 a6 3e
       -0.18010667 0.04702807 -0.096421495 0.32446358
000100 a7 a6 da bd 99 29 f4 be 41 ed 12 bc e0 48 01 3e
       -0.10676318 -0.47687986 -0.008967699 0.12625456
000110 d2 a8 20 3e 9c 24 e5 3c 6a 9b a8 be 9c 14 48 be
       0.156894 0.027971558 -0.32931072 -0.19539112
000120 d1 dd 17 3e b8 f8 8b 3e ce d6 6a 3e 28 a6 5f 3d
       0.1483071 0.27338195 0.22933504 0.05460182
000130 27 0a 6c 3e 4d b5 d7 3e bd 55 1e be 69 0b 9e 3e
       0.23050748 0.4213051 -0.15462394 0.3086808
000140 1b a3 40 be f5 36 35 bd 00 d5 88 be 4a fa a5 3c
       -0.1881222 -0.044241864 -0.26725006 0.020260949
000150 48 27 6a be 3a 12 e8 be 7d 57 9b 3d a8 da 1d bb
       -0.22866547 -0.45326406 0.075850464 -0.0024086628
000160 9a 7e 50 be 3b 12 8f be 6a e5 94 bb d3 e2 73 3e
       -0.20360795 -0.27943596 -0.00454395 0.23816995
000170 4a 3d 1e 3e de 4a a0 be d8 1c 9a 3e d4 5e dd 3d
       0.15453067 -0.3130712 0.3010013 0.10809103
000180 c2 c5 0e 3f e6 14 a4 bd 46 04 2b 3e ca b6 b4 3e
       0.55770504 -0.080117986 0.16700849 0.35295707
000190 06 7f 0e be e7 cb 64 be 6d 2a f4 3e 37 72 e6 bb
       -0.13915643 -0.22343408 0.47688618 -0.0070326584
0001a0 8e 90 1d bd 4d b6 c8 be 2d ed 44 3e cd 19 8d be
       -0.038467936 -0.39201584 0.192311 -0.27558747
0001b0 1e c1 b7 bd 9f a7 b4 be c7 61 e7 3d 15 65 12 be
       -0.08972381 -0.35284135 0.112979464 -0.14296372
0001c0 3f 5d 56 bc 40 44 49 3d 4a 10 1e be 62 d7 3c be
       -0.013083755 0.049137354 -0.15435901 -0.18441537
0001d0 14 85 26 be 45 21 44 3d 0b 65 06 be c8 f1 46 bd
       -0.16261703 0.04788329 -0.13124482 -0.048570424
0001e0 e7 b9 65 3c b9 b7 25 3e 61 64 95 be d3 84 8b be
       0.014021373 0.16183366 -0.29178146 -0.27249774
0001f0 88 b8 66 3c d3 99 42 be f6 77 44 bd 63 94 a0 3e
       0.014082082 -0.19003992 -0.047965966 0.3136321
000200 44 1f 99 be f9 ca a8 bd ce 0d 62 be cf c6 c1 3d
       -0.29906666 -0.08241839 -0.22075579 0.09461748
000210 ad ed 38 3e ed 39 25 be 84 86 6a bd be 91 66 3e
       0.18059416 -0.16135378 -0.05725719 0.22516534
000220 ab 47 a2 3e 8f c8 cc bd 20 f8 c4 be d6 90 cc bc
       0.31695303 -0.09999191 -0.38470554 -0.024971407
000230 ed d1 f9 3d 04 3d 4d bc 77 84 ee 3a 25 22 91 bd
       0.12198243 -0.012526754 0.0018197437 -0.07086591
000240 d2 f9 e3 3d d8 71 52 be bb b2 22 bf 4d 2d a4 be
       0.11131634 -0.2055124 -0.6355397 -0.32065812
000250 97 e1 72 3c 3d 36 00 3e 8f 76 86 3e 41 62 0f 3e
       0.014824293 0.1252069 0.26262328 0.14002325
000260 ff 19 9f 3e e5 73 a4 be 57 ea 2b be 6e 86 0f be
       0.3107452 -0.3211967 -0.16788612 -0.14016125
000270 6d 14 a5 be 38 3c 8b 3e 5b b8 93 3e dc 7d 9e 3c
       -0.32242146 0.2719438 0.2885159 0.019347124
000280 2b bb 5f be 0b 65 28 be 0f 2c 85 3e 01 38 4f be
       -0.21848743 -0.16444795 0.26010177 -0.20236208
000290 5e 88 3a 3d 10 a1 d5 3b 58 d3 c8 be e9 7e c5 3d
       0.045540206 0.0065194443 -0.39223742 0.09643347
0002a0 b3 6f f7 3d 1e ab 22 3d f5 84 89 bd 11 fc d6 3d
       0.12081852 0.03971397 -0.06714813 0.104972966
0002b0 b0 c9 59 3e 92 40 77 be f7 5a 33 3e 8e 98 ca be
       0.21268344 -0.24145725 0.17515169 -0.39569515
0002c0 65 99 41 3e 16 1e 08 3f 5a d0 92 bd 43 47 99 be
       0.18906172 0.5317091 -0.07168646 -0.2993718
0002d0 df 26 46 3e fa b3 91 be 96 fb ed 3b fd 76 9e be
       0.19350766 -0.28457624 0.0072626574 -0.30950156
0002e0 2c d6 9b 3e f0 bd 38 3d 2e 1f d3 3e ed ad 72 be
       0.30436838 0.045103014 0.41234726 -0.2369916
0002f0 30 a8 ad be 4d a0 4b be e2 a0 41 be 61 f5 20 bd
       -0.3391738 -0.19885369 -0.18909028 -0.03929651
000300 44 c3 03 3e 33 37 8b bd 30 91 a5 bd db f8 93 bd
       0.12867457 -0.06797638 -0.08084333 -0.072252
000310 5e 45 85 bd eb 55 4d 3e 48 bc 2a 3e 71 a8 06 be
       -0.06507371 0.20052306 0.16673386 -0.13150193
000320 7e f4 4a bd 66 3a 25 3e 5a 69 1b 3e 8b e2 d5 bc
       -0.049549572 0.16135558 0.15176907 -0.026109
000330 09 b2 28 3c 24 4d 93 3e bc 30 f9 3d 65 f8 18 bc
       0.010296353 0.2876979 0.121674985 -0.009336566
000340 97 15 9f be ec 81 bb bd 1b c7 ca 3e 72 15 30 bd
       -0.3107116 -0.0915564 0.3960503 -0.0429892
000350 b4 d5 00 bf 99 23 c7 be c3 ae 24 bd a7 58 02 be
       -0.50326085 -0.38894346 -0.04020573 -0.1272913
000360 89 51 b7 be 50 a9 84 3e 10 cb 3b 3b 9d 29 22 bd
       -0.35804394 0.25910425 0.002865497 -0.039590467
000370 d1 0a 1d bd fe a1 38 be ec a5 23 be e8 0d 18 3e
       -0.038340393 -0.18030545 -0.15981263 0.14849055
000380 16 fe 39 bd 9f eb 1f be 97 d7 36 3c 7a e9 70 3e
       -0.04540833 -0.15617226 0.011159799 0.23526564
000390 1e e7 35 bf f8 d5 b5 be e0 5d fd bc 4a f5 b4 bc
       -0.7105578 -0.35514808 -0.030928552 -0.02208962
0003a0 71 24 13 be 91 1d 7b be c2 a7 03 bd b9 6d d4 bd
       -0.1436937 -0.24522997 -0.03214241 -0.103724904
0003b0 7b 58 a1 3c 4f 38 29 3e b5 c2 84 bd ed d0 63 3e
       0.019695511 0.16525386 -0.0648245 0.22247668
0003c0 54 98 0b 3e 41 36 bc bd 25 95 97 be 1b d9 ed bd
       0.13632327 -0.091900356 -0.29605976 -0.11613675
0003d0 a3 c2 1e be ee 8a bb 3d d4 68 e0 bc 20 aa 11 3e
       -0.15503936 0.09157358 -0.027393736 0.14225054
0003e0 1d 91 89 3e 6e fd 59 3d bd ab 0f be 87 b8 d1 3d
       0.26868525 0.053220205 -0.14030357 0.10240274
0003f0 1d c6 d0 3d 8e e1 07 bf 06 c4 9c be 26 e5 75 3d
       0.10194037 -0.53078544 -0.30618304 0.060032986

mean_net.2.bias f4 [64]
000000 05 cd df 3d e9 52 c5 3d 4d 76 e5 3e 2d 46 c7 be
       0.10927776 0.096349545 0.4481682 -0.38920727
000010 61 91 20 be fb 78 c4 be 45 76 49 bd ea a9 2d be
       -0.15680458 -0.3837355 -0.049185056 -0.16959348
000020 e8 a5 22 bc b6 e5 c9 3e d5 51 c4 3e c4 c9 85 3d
       -0.00992725 0.39433068 0.38343683 0.06532624
000030 fd 6c 94 3e db dd 83 3e 9b 09 11 3c 49 8e a3 3d
       0.289894 0.257552 0.008852388 0.07986123
000040 b5 fe 06 3e 99 c8 01 3e f5 84 8a be ca 9e 0b be
       0.131831 0.12674178 -0.27054563 -0.13634792
000050 d6 e7 98 bd 8e 10 1e 3e e2 ca f8 be ba f9 e8 3c
       -0.07466094 0.15436003 -0.48592287 0.028439391
000060 0e 82 48 3e e8 90 4c 3e eb 5b ca bd 6c e4 45 3e
       0.19580862 0.19977152 -0.09880813 0.19325417
000070 ad 9e c9 3e dc 44 ba bd fd 48 61 3c 26 31 cf 3e
       0.39378873 -0.09095165 0.013750312 0.40467185
000080 ed df b6 3e 1f df 5b 3e 50 2c c7 3e 02 dc dc be
       0.35717717 0.21471833 0.38900995 -0.43136603
000090 f8 00 aa 3e ad 2f d2 3c cc 26 8c 3e 12 69 a8 3d
       0.33203864 0.0256575 0.2737335 0.082231656
0000a0 90 44 c2 be cb 9d c0 be d3 ce 8b 3e 07 aa 66 3d
       -0.37942934 -0.37620386 0.27306232 0.056314494
0000b0 82 ab 2b be eb 92 2f be d2 b1 fc ba 60 8c 10 bf
       -0.16764644 -0.17145889 -0.0019279069 -0.56464195
0000c0 d6 95 ff be e7 93 82 3d 36 19 14 be d0 3f ca 3c
       -0.49919003 0.063758664 -0.14462742 0.024688631
0000d0 b3 bd 29 3d b8 89 90 be 7b f9 27 3d 1d d4 a2 3c
       0.041440677 -0.2823007 0.041009407 0.019876534
0000e0 bd ee e2 3d 0c bb 6f 3c 49 d7 4b 3e f6 9d 89 3e
       0.11080692 0.014631998 0.19906344 0.26878327
0000f0 af 16 55 3e 9c 1d 6a be f2 d0 97 3d 00 13 62 be
       0.20809434 -0.22862858 0.074129 -0.2207756

mean_net.4.weight f4 [4, 64]
000000 71 e0 0f be 8d 85 c4 be 8f 55 6f 3e 79 62 0b be
       -0.14050461 -0.3838314 0.23372482 -0.13611783
000010 ab ec 74 be 40 fb e1 3c be d1 af be 73 41 b4 bd
       -0.23918407 0.027585626 -0.34339708 -0.08801546
000020 75 8f 0c bf f3 5b 40 bd bd 12 c5 bd c4 cf 49 3e
       -0.549064 -0.04696269 -0.09622715 0.19708163
000030 e7 7d 21 be b2 9d 98 be 22 f1 07 3e cd b3 05 3e
       -0.15770684 -0.29807812 0.13275579 0.1305687
000040 12 f9 12 3d a6 ad 49 be a0 f8 c0 3e 43 30 a5 be
       0.035882063 -0.19695148 0.37689686 -0.32263383
000050 09 29 98 bd 3d e5 84 be 31 5d 11 bd ef 4b 9b 3e
       -0.07429702 -0.25956145 -0.035489265 0.3033137
000060 52 31 0d 3e 42 3a 0d 3e 77 45 dd 3e e4 ce 25 3f
       0.13788345 0.13791755 0.4321706 0.64768815
000070 c5 68 c8 3e e8 d9 2a be f5 61 d5 be 6b 6e 7f 3e
       0.39142433 -0.16684687 -0.41676298 0.24944465
000080 68 ab 77 be 15 4a ef bd 70 3e a1 be 04 18 ac bd
       -0.2418648 -0.11684052 -0.3149295 -0.08403018
000090 0e 01 8a bd d0 8b d3 3e ee 69 99 3e fb 50 a6 bd
       -0.067384824 0.41317606 0.2996363 -0.081209145
0000a0 6c e1 59 bd 05 1f a3 3e e6 00 de bc f5 29 15 3e
       -0.053193495 0.31859604 -0.027100038 0.14566787
0000b0 d5 0b 57 be a3 06 9f be 17 e8 f9 3c 3c 4b 31 be
       -0.21000607 -0.3105975 0.030506177 -0.17313856
0000c0 e1 65 99 be 2c 2f 4f be 9b 96 78 3c 3e cd d6 bd
       -0.2996054 -0.20232838 0.015172626 -0.104883656
0000d0 73 be 9f 3e 1a 99 92 be e0 71 99 be b3 b1 a7 bc
       0.3119999 -0.28632432 -0.29969692 -0.020470476
0000e0 71 b0 41 3e ca ca a9 bd 8a 53 80 be b6 c0 8b be
       0.18914963 -0.08290632 -0.25063735 -0.27295464
0000f0 9d 71 ab 3d 7e 98 70 3e 78 92 be be 39 19 72 be
       0.083712794 0.23495671 -0.37221122 -0.23642434
000100 25 48 ef 3d 93 0e 3a 3e 95 98 96 be 1c b9 1c be
       0.11683682 0.18169622 -0.29413286 -0.15304989
000110 d8 7e 62 3e 3a d4 6f bc 09 f4 45 3d 81 b1 9c 3e
       0.221187 -0.014638001 0.048328433 0.30604175
000120 a6 0b e5 bc df f0 c0 bd a2 75 3d 3e cc 8d ae 3e
       -0.027959656 -0.094209425 0.18501905 0.34092557
000130 66 49 08 3e 64 bd 8e 3e a7 90 d2 bd 0e e1 15 3e
       0.1330925 0.2787887 -0.102814965 0.14636633
000140 3f b4 0c bf d2 1d 9f be 52 cf 86 be 64 bc cb 3c
       -0.54962534 -0.3107744 -0.26330048 0.024870105
000150 7e aa 06 3f 02 5a 65 be f4 24 4d 3c 35 ff d8 3d
       0.526039 -0.22397617 0.012521017 0.10595552
000160 59 38 8b be 0a db 91 3d 8a 6b bc 3b 08 a9 81 3e
       -0.27191427 0.071218565 0.0057501243 0.25324273
000170 64 7c b1 be 65 ef 22 bd 99 a5 3d bd 19 b3 69 3e
       -0.34665215 -0.039779086 -0.046300504 0.22822227
000180 59 ed a8 3e bf a5 1f 3e 7e 7f 34 3e e0 73 02 be
       0.32993582 0.15590571 0.1762676 -0.12739515
000190 78 a2 d2 3e c2 5e 45 3e 07 3d 51 be c8 23 01 be
       0.4113958 0.19274428 -0.20433436 -0.12611306
0001a0 a9 e7 48 be 96 03 d3 3b 58 17 88 3e 59 db 91 3e
       -0.19619621 0.0064396365 0.2658031 0.2848766
0001b0 a4 84 3f be 68 f9 3b 3e 6b 66 06 3e 63 05 07 3e
       -0.18702942 0.1835686 0.13125007 0.13185649
0001c0 f9 07 3b 3e 0d a0 47 3e e3 97 bc be 6e b9 a3 be
       0.1826476 0.19494648 -0.3683463 -0.3197741
0001d0 9c 14 42 be d0 ee 68 be 6a 63 82 3e 28 46 c7 3a
       -0.18953174 -0.2274735 0.25466472 0.0015203403
0001e0 6f 60 da 3e be fa a8 3e 6c 99 da be f2 e4 d5 3d
       0.42651698 0.330038 -0.42695177 0.104440585
0001f0 32 53 60 3e 5f e7 8e 3e 24 c3 73 be e2 24 25 bc
       0.21906736 0.27910897 -0.23804909 -0.010079594
000200 7a b2 5a bd 15 72 06 3d 90 82 a1 be 8f 83 e0 3e
       -0.053392865 0.03282364 -0.31544924 0.4385037
000210 8b 79 0d 3e ca 65 96 3e fb 23 c0 bd f6 e0 99 3e
       0.13815896 0.29374534 -0.09381863 0.30054444
000220 d3 b1 80 3e 4b c9 b2 be 96 bf cc be e0 d0 0e 3d
       0.2513567 -0.349192 -0.39989918 0.034867167
000230 b1 49 31 bf 5b bf 66 be 5b db 02 3e ed 0c a0 3e
       -0.6925307 -0.22533934 0.1277899 0.31259862
000240 27 a8 2c 3e e8 27 95 be 2a bd 40 3f 81 b8 e3 bd
       0.1686102 -0.2913201 0.7528864 -0.11119176
000250 af f9 40 3e 06 09 ac be 99 87 13 3f 21 c8 47 3e
       0.18845247 -0.33600634 0.5762878 0.19509937
000260 89 6f 26 be ff e3 57 be 87 cf ec 3d a4 26 a6 be
       -0.16253485 -0.21083067 0.1156302 -0.32451355
000270 55 91 a9 bc fa cb 6a bd 4e 98 45 3d b8 82 23 be
       -0.020699183 -0.057323433 0.048240952 -0.15967834
000280 14 63 46 be d7 9e 71 be 9e 67 92 bd 8b 06 90 3e
       -0.19373733 -0.23595749 -0.0714867 0.28129992
000290 4c 4f 96 be ef 71 36 be 7a 8d bb bd 4a 82 12 bf
       -0.29357374 -0.178169 -0.09157844 -0.57230055
0002a0 cb a3 a6 3e 3a 41 94 3e a7 d6 71 be 62 fe a0 3d
       0.3254684 0.28956014 -0.2361704 0.0786102
0002b0 87 57 80 3d 42 7e 10 3e b5 7a 06 be 75 26 22 3f
       0.062666945 0.14110664 -0.13132747 0.6333993
0002c0 25 42 01 3f 78 2b 36 3c 0e 89 a4 3e 1e 28 49 3e
       0.50491554 0.011118762 0.32135814 0.1964421
0002d0 45 1b 40 3d 7d 1e 66 3e fd fa 38 3e 42 9d 0b 3d
       0.046901006 0.22472568 0.18064494 0.03408552
0002e0 af 68 22 be e2 b5 64 3e 7a 77 a0 be 04 a6 4e bf
       -0.15860246 0.22335008 -0.31341153 -0.8072207
0002f0 6d 4b 05 bd 60 24 81 3d e1 d3 f1 be b3 25 bf 3e
       -0.032542635 0.06305766 -0.47231963 0.3733345
000300 fa 89 40 be 23 d9 bc 3d 57 f2 19 be 37 14 6f 3e
       -0.18802634 0.09221103 -0.15033852 0.23347555
000310 dc 4e 77 3e 63 6e af be dd 6b 0c be 26 13 9e 3e
       0.24151176 -0.34263906 -0.13713022 0.30873984
000320 9d 56 12 3e f0 bf 63 3e 20 fe e4 3d 8f d2 fc bd
       0.14290853 0.22241187 0.11181283 -0.12344848
000330 37 5d 79 3e a1 38 1b 3d ca fc 0a 3e 2c 36 0c 3e
       0.24351965 0.037895802 0.13572994 0.1369254
000340 40 f2 fe 3e 8e 17 5f 3d 6b 71 86 3d f3 85 46 3e
       0.49794197 0.054465823 0.065646015 0.19387035
000350 49 43 f5 be 7f ca 89 bd b6 e8 9f 3e 18 37 5e be
       -0.47902897 -0.06728076 0.31232232 -0.21700704
000360 0b 4a 8e 3e 0e dd b9 3e a4 73 03 be 4c 18 53 be
       0.27790865 0.36301464 -0.12837082 -0.20614737
000370 30 e8 3f bd 29 28 91 be d5 cd 8b be 52 a2 b0 3d
       -0.04685229 -0.28350952 -0.27305475 0.0862471
000380 6a e3 d5 bd 99 d0 4f 3e 63 9b 23 bd 74 c3 5b be
       -0.104437664 0.20294417 -0.03994311 -0.21461278
000390 d6 1f 34 3e 8a 5d b2 3e 90 62 3a 3d 41 38 55 be
       0.1759027 0.3483699 0.045504153 -0.2082224
0003a0 a2 a9 8f bc 65 ac 72 bd 07 b4 6d 3d db e2 6f be
       -0.017536942 -0.05924644 0.058033016 -0.23426382
0003b0 1f 23 bb be 3e 98 e4 bd 9e 55 8c 3e 30 bd 02 bd
       -0.36550233 -0.111618504 0.2740907 -0.031918705
0003c0 b3 8a d1 bd 67 f1 c4 3c 42 a1 fa 3e e9 e4 5c 3e
       -0.10231533 0.02404089 0.48951155 0.21571697
0003d0 fd 27 c7 bd 96 dc 64 3c ee 84 4d be 6c d6 b6 3e
       -0.09724424 0.013968607 -0.2007024 0.35710466
0003e0 3b a3 18 3e c6 30 9f 3c cb ad ef 3d 93 25 1f 3e
       0.14906017 0.019432437 0.1170307 0.15541677
0003f0 3f 89 9b bc 06 f8 c9 be d6 26 c0 be 4e a0 49 be
       -0.018986342 -0.3944704 -0.3752963 -0.19690058

mean_net.4.bias f4 [4]
000000 8f ed f6 3c 8a 6a bc 3d f3 26 bc be 4a 5d 50 3e
       0.030142574 0.09200008 -0.36748466 0.20348087
