src/rl/model/actor_model15-08-2024_20-47-30/2460.pt (torch, 84728 bytes, 7 tensors)

logstd f4 [4]
000000 0c 2d 30 c0 58 46 27 c0 ae 3d 4e c0 48 15 30 c0
       -2.7527494 -2.6136684 -3.2225146 -2.751299

mean_net.0.weight f4 [128, 27]
000000 1b 61 40 3d 7e f3 28 3e ca 4f b2 be 76 fa cd 3e
       0.046967607 0.16499135 -0.348265 0.4023015
000010 4a 3a 9b 3d fa 23 98 3d 13 95 d6 3d 64 1e a5 3f
       0.07579477 0.07428737 0.104776524 1.28999
000020 2f e3 73 bf 02 ab c2 3e cb 6e a6 3d 7b 9b 4a bf
       -0.9526853 0.38021094 0.08126601 -0.79143494
000030 79 7b 02 bf 68 7d 45 3e 1b 4f 76 be 70 eb 19 3e
       -0.50969654 0.1928612 -0.24053614 0.15031219
000040 55 6a 34 3e 97 f2 82 3f 5d 7a 80 bf 6a ad ba 3d
       0.17618687 1.0230283 -1.0037342 0.09115107
000050 ab cf b7 bb 0d 59 9d be 6c b4 82 3e 71 13 3a be
       -0.0056094727 -0.30732003 0.25528276 -0.18171479
000060 e1 53 66 be 14 f9 d5 be c8 7c 25 3e 7c 88 3e bf
       -0.22492935 -0.41791594 0.16160882 -0.7442701
000070 16 69 b4 3e 63 b3 8f 3e d8 a2 51 bf dd eb 28 3f
       0.35236424 0.2806655 -0.81889105 0.659849
000080 0c aa 88 3e 5b fc 85 3f 66 c1 05 40 9d 9d 6e bf
       0.26692235 1.0467638 2.089929 -0.9320925
000090 ea d8 15 be 8c 37 b7 be 10 91 2f 3e 47 cd e7 3e
       -0.14633527 -0.35784566 0.1714518 0.45273802
0000a0 7f 78 ee 3d b3 ae 0d bb 61 8d f1 3d fd 01 86 bd
       0.116440766 -0.0021619021 0.11794544 -0.06543348
0000b0 80 ff 4b be 0e 2f e6 be a8 fc 90 3c 1b 0b ae bd
       -0.19921684 -0.44957775 0.0176986 -0.08498212
0000c0 9b e5 b2 be 8e f2 3f 3e d5 28 6c 3e 9c d8 02 be
       -0.349408 0.18744871 0.23062451 -0.12777942
0000d0 46 bc a0 3e c4 4d 3d 3d f2 6b 40 3f 82 ff 72 3f
       0.3139364 0.04621674 0.7516471 0.94921124
0000e0 73 eb 88 3e aa 77 d0 3e fa 66 ab 3f 10 50 83 3e
       0.26742133 0.40716296 1.3390801 0.2564702
0000f0 f9 96 1e bf e1 3e 18 c0 46 77 44 be 07 29 82 be
       -0.61949116 -2.3788378 -0.19186124 -0.25421926
000100 37 6a 9b 3e 30 78 0b bf fb fa d5 bb 86 a5 06 3d
       0.30354473 -0.54480267 -0.0065301633 0.0328727
000110 88 3f c6 be 79 a7 46 be 3e d7 35 3d d5 ac b1 3e
       -0.38720345 -0.19399823 0.044394724 0.34702173
000120 91 c6 c7 bf 1a 03 41 be ac f1 f3 3e 42 e9 d6 3d
       -1.5607473 -0.1884884 0.47645319 0.10493709
000130 1d 67 d0 be 09 ac b9 bc fa 46 8f be ba 9f 37 3e
       -0.4070367 -0.02266504 -0.27983838 0.17932025
000140 69 1a 89 3e 42 bf 0e bf 0a bb b0 3e 00 8a 40 be
       0.26777962 -0.55760586 0.345177 -0.18802643
000150 3b e7 e2 bd a8 d5 0a 3f a4 a9 0f bf a1 30 a4 3d
       -0.1107926 0.54232264 -0.56118226 0.08017088
000160 31 52 ad 3f 80 e9 dd be bc f6 c4 be 3f a8 50 be
       1.3540708 -0.4334221 -0.38469493 -0.20376681
000170 ed e0 8c bc 8d 39 bc be cc 96 1e 3e 76 23 6f be
       -0.017197097 -0.36762658 0.15487212 -0.23353371
000180 b9 93 94 3e 20 40 14 be 03 f3 fa bf b8 7f 33 bf
       0.29018953 -0.14477587 -1.9605411 -0.7011676
000190 7f 7d 3a be ca ca d5 3e 49 b8 a5 3d 51 22 8e 3f
       -0.18211935 0.41756278 0.0809179 1.1104223
0001a0 d9 cc 3e 3e 25 c1 0d be ce 13 d3 bd 16 7b 5d be
       0.1863283 -0.1384321 -0.10306512 -0.21628985
0001b0 73 0a 53 3f 10 56 6d 3e c1 c8 a2 bd 93 ef bd 3e
       0.8243782 0.23177361 -0.07948447 0.37096843
0001c0 6e 06 bc bd 25 46 88 bd 19 3e 9a be 0e 7b ee 3f
       -0.09180914 -0.06654004 -0.30125502 1.8631303
0001d0 82 ff 86 3e df 52 6a 3f e2 1c b3 be e3 ca b2 be
       0.26366812 0.915327 -0.34982973 -0.34920415
0001e0 35 81 ce 3e 9e 38 c5 be ad 6f 63 3d c6 5f 2a 3e
       0.40332952 -0.38519758 0.055526424 0.16638097
0001f0 2b f2 05 be 58 ab 19 3f 00 10 dd bf 0e eb a5 3e
       -0.13080661 0.60027075 -1.7270508 0.32405895
000200 ab 88 1c bd 55 1c 62 be cc 8c c9 3e b9 c4 32 3e
       -0.038216274 -0.2208112 0.39365232 0.17457856
000210 aa 7e 61 3e c2 53 98 3d 59 79 ed 3d 42 ec d4 be
       0.22020975 0.074378505 0.11595411 -0.415865
000220 c6 0c 2e 3f 82 03 1d be fc 51 44 3e 1d 2d f3 3e
       0.6798824 -0.1533337 0.191719 0.47495356
000230 5c b1 b7 be 78 ed e3 3d 00 5d a3 bf 51 b8 62 3f
       -0.35877502 0.11129278 -1.2762756 0.88562495
000240 b0 5d cd 3d 9a 58 ff bc ab 4e 82 bd 3a ce 82 bd
       0.10027635 -0.031170178 -0.06362661 -0.06386991
000250 56 ed 6d be ee ad 43 bb f9 66 80 3e 21 c4 21 3d
       -0.23235068 -0.002985831 0.25078562 0.039493684
000260 34 59 ce 3f 7a c9 a7 bd 3d c2 0a 3d 45 3b 9f 3d
       1.6120973 -0.081927255 0.033876646 0.07774977
000270 58 2d 36 3f 42 de a4 3e 89 e0 9a be ab 8d e4 3d
       0.7116294 0.3220082 -0.30249432 0.111598335
000280 10 a7 b6 3e ea d8 31 be d7 76 2e 3d 4d e5 fb 3d
       0.35674334 -0.17367902 0.042593803 0.12299595
000290 71 6d 88 bd 1e b7 e8 bc 7f 05 ec 3e 6d b3 0f 3d
       -0.06661499 -0.02840763 0.46097943 0.035083223
0002a0 33 70 c3 be 28 84 b1 bf 0b a5 8a bd 5b 07 d4 be
       -0.3817154 -1.3868456 -0.06769761 -0.41411862
0002b0 69 13 11 be 9a b6 bf bd 0d fa c1 bf 7a cc 7e bd
       -0.1416756 -0.09361 -1.5154434 -0.062206723
0002c0 78 35 81 be 58 d8 93 be 3a 44 ac 3d 3a af 15 3f
       -0.25236106 -0.28875995 0.08411451 0.584705
0002d0 d2 82 2d bf da 6d 1c be d0 70 0b 3f 12 7f 4b bf
       -0.6777774 -0.1527628 0.54469013 -0.7949077
0002e0 aa f6 bf 3d 37 30 1b bd fb 7c e1 3d 2f 00 ce bd
       0.09373219 -0.037887778 0.11010166 -0.10058629
0002f0 4a 2b 3f bd af 9c 44 bd d9 93 5c 3f a3 93 b1 bd
       -0.046672143 -0.048000988 0.861631 -0.086707376
000300 90 ce 2b be f8 84 03 40 8f 94 bf be bb 23 1a be
       -0.16778016 2.0549908 -0.3741803 -0.15052693
000310 96 ef c9 3f f2 59 a7 3f 4a 20 95 bd c4 30 07 be
       1.5776241 1.3074324 -0.07281549 -0.13202196
000320 24 cd 82 be 26 0f 85 3e 3a a4 b3 3e 70 01 21 bd
       -0.25547135 0.2598812 0.35086232 -0.03930801
000330 c9 39 dc be cd 9f 03 bd 9b 5c 9d 3d 26 b6 5d 3f
       -0.43012837 -0.03213482 0.07683679 0.8660606
000340 04 7a 1a 3b e0 43 8b 3e 8b 46 bc be 01 f1 1f bf
       0.0023571262 0.27200222 -0.3677257 -0.6247712
000350 bb 70 ec bd 06 d2 5f 3e 2b 66 e9 bd c3 10 94 3e
       -0.11544939 0.21857461 -0.1139644 0.28919038
000360 32 b0 92 3e c3 68 1f 3f 55 e2 56 3e 93 c8 1a 3f
       0.2865005 0.6226923 0.20984776 0.604623
000370 df f4 9c 3f e2 c9 8e bd 2a ee bb be 21 88 bd 3f
       1.2262229 -0.069721 -0.36705142 1.4807168
000380 11 2b 63 3e cc ba e3 bd c9 27 df bd 21 9d e4 3e
       0.22184397 -0.11119613 -0.1089626 0.4465113
000390 0b a7 bb 3e fb 47 18 be 83 ff 57 be e8 ba df bc
       0.3665088 -0.14871208 -0.21093564 -0.027310804
0003a0 0d a7 9e 3e ee 02 d9 bd b1 84 8b 3f 5f 9a 1b 3e
       0.30986825 -0.10596262 1.0899869 0.15195607
0003b0 b1 bf 27 be 8f a3 01 3f d9 d5 83 3e f7 f8 b1 bd
       -0.16381718 0.50640196 0.2574909 -0.086900644
0003c0 d5 e5 01 be b5 33 a0 3c 1d 54 86 3d a3 2b a4 3e
       -0.1268533 0.019555906 0.06559012 0.32064542
0003d0 6e f1 06 3f 8d 6c 08 be 26 63 cd 3e c4 35 98 bd
       0.5271214 -0.13322659 0.40114707 -0.0743213
0003e0 8e 52 41 be 3e 4b 5a bf 14 af 3b 3f d2 61 04 c0
       -0.18879148 -0.8527106 0.73314023 -2.0684705
0003f0 c2 de f2 3e d1 29 6d be d9 75 30 3f 73 5a ad bf
       0.47435576 -0.23160483 0.6892982 -1.3543228

mean_net.0.bias f4 [128]
000000 35 32 47 3e 25 46 f1 bd 2d f7 54 3e f0 54 6e 3e
       0.19452746 -0.11780957 0.20797415 0.23274589
000010 e3 08 b9 3d d8 ea 98 bd 8b 6d 57 3e 8f d4 8e bd
       0.09034898 -0.07466668 0.21037881 -0.06974136
000020 c4 12 96 3c 1b 64 bc bd 82 9b b6 3d 3f 58 fc 3d
       0.018319495 -0.09198781 0.089163795 0.12321519
000030 a0 5e 3c 3e 1b 82 db 3d ab 86 7b 3b 95 c0 59 3c
       0.18395472 0.10718175 0.003837983 0.013290544
000040 9e 0f 55 3e 09 ad 83 3e a5 9e 16 be 18 0e 7f 3e
       0.20806739 0.25717953 -0.14708956 0.2490772
000050 ca 87 76 bd 01 d5 45 3e 18 10 ad 3c cc c2 1a bb
       -0.060188092 0.19319536 0.021125838 -0.0023614643
000060 19 78 2f 3e 72 98 e0 3d 5b 4b a1 bd 2d bc 82 3d
       0.17135657 0.10966577 -0.07875701 0.06383548
000070 57 b2 5f bd db 81 e7 3b 29 c1 2c be 57 51 46 be
       -0.054613438 0.0070650405 -0.1687056 -0.19366966
000080 9c 55 b5 3d ca a3 58 be 69 47 72 3e 36 ef ce 3d
       0.08854219 -0.2115623 0.23660053 0.101042196
000090 ee 1b e4 bd 4f 08 13 3e 52 e4 dd 3d c2 f3 2b 3e
       -0.1113814 0.14358638 0.10834564 0.16792205
0000a0 10 c3 48 3e cb 2e a2 bb 28 2c ff bd 24 89 80 bd
       0.1960566 -0.004949426 -0.12459594 -0.062761575
0000b0 34 6f 2d be 0f 84 a5 bd 7a 0c b4 3c 2d b3 7e 3e
       -0.16936952 -0.08081829 0.021978606 0.24873038
0000c0 8f 82 d8 bb 49 8c cc 3d 6f 47 21 be 39 d7 b3 3d
       -0.0066073607 0.09987695 -0.15749906 0.08781285
0000d0 8a 64 62 be 28 8a 0e be c8 ac 9c 3d 5f 45 44 3a
       -0.22108665 -0.1391989 0.07650143 0.0007487144
0000e0 41 74 1b be 92 f1 5b be 0b 52 73 be 79 18 09 3e
       -0.15181066 -0.2147887 -0.23761766 0.13388242
0000f0 b3 eb 46 3e 8f fb f2 3a 97 ea 0a 3c 24 2f 29 3e
       0.1942585 0.0018538105 0.008478782 0.16521889
000100 e1 48 1b 3e 0e a8 84 3d 48 ed 3d 3d e2 39 51 3e
       0.1516452 0.064773664 0.046368867 0.20432237
000110 e8 05 a7 3d ad cc 74 be 75 6e b9 39 ee 44 0b be
       0.081554234 -0.23906203 0.00035368247 -0.13600513
000120 bf 6c 70 3e 5c 80 17 3e fc ad 84 3d fc f4 d6 bb
       0.23478983 0.14795059 0.064784974 -0.006559966
000130 5e 91 42 3e c2 94 c7 bd 97 3d 14 3d 07 43 d6 bd
       0.19000766 -0.0974517 0.03619155 -0.10462003
000140 b5 9f 3d be 30 51 6c 3e 40 00 b0 3d b0 b2 58 3d
       -0.18517955 0.23077846 0.08593798 0.052904785
000150 af a4 01 be 04 fa 9f bd 97 41 02 be 0b 9f 77 3e
       -0.12660478 -0.078113586 -0.12720333 0.24181764
000160 d2 de b1 bd ca 4e 90 3d 16 08 da bd 27 83 6a be
       -0.08685078 0.07046278 -0.106460735 -0.22901593
000170 f7 cb 64 be 41 df 20 3c 9d d7 f5 bd 93 74 1b be
       -0.22343431 0.009818853 -0.120040156 -0.15181188
000180 ab 51 d4 bd ce ae 27 be 35 48 f6 bd 9f 1b 47 bd
       -0.103671394 -0.16375276 -0.12025491 -0.048610326
000190 70 78 34 be f9 40 fc bc 13 91 1f bd 80 f5 ab 3d
       -0.17624068 -0.0307927 -0.038956713 0.08396435
0001a0 c9 f9 32 3d e1 09 e5 bd 19 b3 6d 3e b3 c3 f1 3c
       0.043695245 -0.11183525 0.23212852 0.029512262
0001b0 fa 05 b8 3d 0b ae 3b be b8 0a 35 bb 1b 75 1a 3b
       0.08985515 -0.18328111 -0.0027624797 0.0023568335
0001c0 53 71 ae bd 1b 9f 65 3e 9f 34 e9 3d 47 d8 6f 3b
       -0.08517709 0.22423975 0.1138699 0.0036597417
0001d0 97 bf 72 bd 14 fe 2c be 7d 83 87 be a5 7b d2 bd
       -0.059264746 -0.16893798 -0.26467505 -0.102774896
0001e0 ca 46 41 be cd a0 6f be af a6 d7 3d ed b1 27 3e
       -0.1887466 -0.23401184 0.10529839 0.16376467
0001f0 cf 8f 92 bd 53 97 6d bb 70 7b 97 b9 9a fe 2d 3e
       -0.071563356 -0.0036253526 -0.00028892932 0.16991654

mean_net.2.weight f4 [128, 128]
000000 43 d1 71 be 45 1e 61 3d 30 54 bd 3d 1e 11 77 bd
       -0.23614983 0.054960508 0.09244573 -0.06031906
000010 d7 09 a0 3d 22 41 14 3d e9 60 38 be 49 f3 26 bf
       0.07814377 0.036194928 -0.18005718 -0.65214974
000020 63 ca 5b 3d 6b 66 72 be 1a d1 2c be 9e 15 5d 3d
       0.053659808 -0.23671882 -0.16876641 0.053975694
000030 3f 66 66 bd 7a 7c 49 3e 9a a8 02 bd e0 03 a5 3c
       -0.056249853 0.1967639 -0.031899072 0.02014345
000040 ed 8e 2b 3c 99 bc 9f 3d 7a 91 00 be ad f1 e6 bd
       0.010471088 0.07799644 -0.12555495 -0.11276565
000050 a8 8c ab 3e 8f 8b e4 3d 04 87 fd 3d 9d d3 14 3e
       0.3350575 0.11159431 0.12379268 0.14533849
000060 fc 60 b1 bc c1 0f 1b 3c be 06 22 3e cc 31 b5 3d
       -0.021652691 0.009464205 0.15822884 0.088473886
000070 08 86 0f 3e 41 91 45 3e c4 f5 23 3e 88 54 67 bd
       0.14015973 0.19293691 0.16011721 -0.0564771
000080 95 40 bc bd 7e b8 3f be 48 ee 76 be 16 61 04 3e
       -0.091920055 -0.18722722 -0.24114335 0.1292766
000090 41 38 6b bd 1b a3 44 3d 2b 8a f6 3d fc 7f 56 3e
       -0.057426695 0.048007112 0.12038072 0.2094726
0000a0 b3 21 62 3e 94 10 a6 bd 4a 6b 6e be d8 c5 dc bc
       0.22083168 -0.08108631 -0.23283115 -0.026949808
0000b0 8c 10 27 3d 8d 54 90 3e 9d 78 a0 3e 84 57 97 3d
       0.040787265 0.28189507 0.3134202 0.07389739
0000c0 bf 17 ba 3e 00 8f 89 3c 25 ef ae 3e 02 5b b7 bd
       0.36346242 0.01679182 0.34166828 -0.08952905
0000d0 ed 53 0d b9 ec 08 32 3e c5 9d fa bd 97 bc 23 be
       -0.00013478073 0.17386216 -0.122371234 -0.1598991
0000e0 7f ce cc bd cd 54 32 3e 62 18 e7 bc cc 67 be be
       -0.100003235 0.17415161 -0.028209869 -0.37188566
0000f0 53 31 91 3e ee fa b7 bd 30 f5 dc 3d 04 23 8b 3e
       0.28357944 -0.08983408 0.10788953 0.27175152
000100 f7 b6 97 3e fe 32 d0 3c ee 53 cd bc f3 e5 0d 3d
       0.2963178 0.02541494 -0.025064435 0.034643125
000110 04 c6 bc bd 25 5b ea bc ae 11 96 bd c7 cb 25 3d
       -0.09217456 -0.028607914 -0.07327591 0.04047754
000120 d9 0c 57 be f4 ca 0f bc 87 b3 8e 3d 33 00 c6 3e
       -0.21000995 -0.008776415 0.06967836 0.38672027
000130 16 de fa 3c 33 ef f8 3c 54 af de be cf b3 b0 bd
       0.030623477 0.030387497 -0.4349314 -0.08628046
000140 dd eb 3a 3e 44 b4 0b 3e 59 98 23 3e 1e 3c cc 3d
       0.18254037 0.13642985 0.15976085 0.09972404
000150 33 b4 a4 be 6c 8c 98 3e 3a 88 21 bd 47 5d e9 3c
       -0.3216873 0.29794633 -0.039436556 0.02848686
000160 43 22 d4 3d 6c a6 3e be 8b 7c b1 3e dd e2 7c 3c
       0.103580974 -0.18618172 0.3466533 0.015434948
000170 7f 6e 84 3e 7e 86 1c 3f b0 7c fd 3d 1b d2 c8 bd
       0.25865552 0.6114272 0.12377298 -0.098056994
000180 ca 74 1e bd e4 88 fd bd dd d5 95 3e cc 32 4d 3e
       -0.038685597 -0.123796254 0.29264727 0.20038909
000190 f7 e0 21 3d 9f 73 5b be 0a 40 00 bd a0 47 2c be
       0.039521184 -0.21430825 -0.031311072 -0.16824198
0001a0 15 36 6e 3d 9e cc d3 bc c0 4b 39 be de 55 90 3d
       0.058157045 -0.025854405 -0.18095303 0.07047628
0001b0 80 03 7b bd fa 52 9e be 7f 81 af be 3d a3 42 be
       -0.061282635 -0.3092268 -0.34278485 -0.19007583
0001c0 b9 7b 6a 3d d0 34 32 3d 30 73 99 3d 53 1e 7f bc
       0.057246897 0.043507397 0.074926734 -0.015571195
0001d0 a5 b5 63 bd 67 f4 64 3e 0a c8 b3 3b b3 07 57 bd
       -0.05559315 0.22358857 0.005486493 -0.052497577
0001e0 7a b1 82 3e 60 5b 09 be 23 99 37 3e 70 89 41 3c
       0.2552603 -0.13413763 0.17929511 0.011812553
0001f0 58 38 84 3c 98 b7 85 bd ad dd cf bc 11 fc d9 bd
       0.016140148 -0.06529158 -0.025374258 -0.10643781
000200 6b ea 44 3e f9 33 4b be 62 f9 d0 bd 35 ca 82 3e
       0.19230048 -0.19844045 -0.10203816 0.25544897
000210 25 1c c1 bd 04 e6 a4 3d d9 de 35 3e 79 6d c8 be
       -0.09429196 0.080516845 0.17760791 -0.3914602
000220 e7 3c 8e be a3 09 7f be 32 8c ac 3d df a2 13 3e
       -0.2778084 -0.2490602 0.08425178 0.14417599
000230 5f b4 d3 bd 51 30 b9 bd e6 cc 49 3e 1e 8c 8f bd
       -0.103371374 -0.09042419 0.19707069 -0.07009147
000240 c0 fc 8d 3b f9 e3 d1 bd 68 f2 73 3e dd 3d 1c 3d
       0.0043331087 -0.102485605 0.2382294 0.038144935
000250 3d 7d 5f 3d f0 4b 8e be c6 0c d3 3d 5f df e0 bc
       0.054562796 -0.2779231 0.10305171 -0.027450262
000260 f9 0a 7a 3e aa 9b 8d bc 2e 6a 58 3e f1 bb df 3d
       0.24418248 -0.01728614 0.21134254 0.10924519
000270 32 66 4f bd f1 3b 32 3d 10 17 39 be f8 42 22 3e
       -0.05063457 0.043514196 -0.18075204 0.15845859
000280 e5 1d 08 be 29 e4 41 be ec 0d 5c bd f0 72 1e 3e
       -0.13292654 -0.18934692 -0.053724214 0.15473533
000290 05 fc 35 3e 3d af 18 3f 70 4f bf 3e d2 61 00 bd
       0.17771919 0.5964239 0.37365294 -0.03134329
0002a0 ca 25 60 3e 1e 64 29 bd 39 1f ab 3e a9 97 ef bd
       0.21889415 -0.041355245 0.33422258 -0.11698849
0002b0 17 4e 2f be 18 7a ad bd b2 48 5a be a9 20 71 3d
       -0.17119633 -0.08470553 -0.21316794 0.058869038
0002c0 75 ce 81 be 68 63 ca bd d8 97 6a bd 1d 20 3a be
       -0.25352827 -0.098822415 -0.057273716 -0.18176313
0002d0 c3 3e 1d 3e 4d 8d 89 3e 69 7e 6a 3b 08 97 06 be
       0.15355973 0.26865616 0.0035780913 -0.13143551
0002e0 52 0b 18 3e 6a 17 a5 3e 33 7e aa 3c 3c cb 13 3e
       0.14848068 0.32244426 0.02081213 0.14432997
0002f0 3f 2e 96 bc 3d a3 0d bf 8c 99 81 3e 9e 64 8e be
       -0.018332599 -0.55327207 0.2531246 -0.2781114
000300 e2 11 9a 3e 6d 3e 1c 3d cd e3 56 3e c7 d5 63 be
       0.30091769 0.03814547 0.20985337 -0.22249518
000310 a0 f5 cc 3e 73 b0 93 be 22 0d 03 be 62 37 02 3e
       0.40031147 -0.28845558 -0.12797979 0.1271644
000320 a6 df 36 3e fb 25 fc bc cb f8 6a 3e ce 4b b7 3d
       0.17858753 -0.03077983 0.2294647 0.089500055
000330 48 2b da bc f8 c8 08 3f fb a8 f7 3d c0 a8 59 be
       -0.026631966 0.53431654 0.12092777 -0.2125578
000340 93 9c 2d 3d 35 1d 38 be 1d aa 14 be 51 0a 2d 3e
       0.04238565 -0.17979892 -0.14518018 0.16898467
000350 2a 11 e7 bc 40 06 23 be ba 8e fe bd 32 4b db bd
       -0.028206427 -0.15920353 -0.12429567 -0.10707702
000360 dc be 32 bd 97 79 51 be ba 64 41 3c 05 d4 e0 bc
       -0.04363905 -0.20456539 0.0118038 -0.027444849
000370 9d 34 17 3d 7c 08 27 bc 11 44 02 3d d3 47 be bd
       0.03691541 -0.010194894 0.031803194 -0.09291043
000380 90 37 9d 3e 4b c7 a1 bd 2e 20 f5 bd e1 89 2c 3e
       0.30706453 -0.0789934 -0.119690284 0.16849472
000390 69 57 ac 3e a9 12 09 3d 75 4e b8 3d a9 05 9e bd
       0.3366044 0.03346506 0.089993395 -0.07715923
0003a0 a2 3a 2b 3f a0 3e 45 3d b3 7a 2c 3e 03 be 88 3d
       0.6688634 0.048155427 0.16843681 0.06676867
0003b0 ee 3a ad be 95 a3 39 3b 32 21 6f 3d 86 ba 1e bd
       -0.33834022 0.0028326262 0.058381267 -0.0387521
0003c0 49 e6 8f 3d 0b 94 db 3d 60 3e 6e be 94 07 34 3e
       0.07026345 0.10721596 -0.23265982 0.17581016
0003d0 6b 0c e7 3d b8 3c 71 3c 31 90 57 3e c6 42 40 3d
       0.112816654 0.014723949 0.21051098 0.04693868
0003e0 c3 00 83 3e 8b eb 1e be 48 d8 2e be e8 f0 70 3e
       0.2558652 -0.1551954 -0.17074692 0.23529398
0003f0 f1 78 8d be e5 be 0c be 10 a3 68 be 35 8d 48 3d
       -0.27631333 -0.13744695 -0.22718453 0.04896279

mean_net.2.bias f4 [128]
000000 94 eb 6a 3d be fd 69 bd dc 3e 31 be b2 fb c0 bc
       0.05735357 -0.057126753 -0.17309135 -0.023557518
000010 91 0e 13 3e 80 b4 06 3d 62 c6 24 bc be d3 16 3e
       0.14361025 0.032886982 -0.010057064 0.1472921
000020 93 aa 87 bd 79 25 15 bd 23 c5 03 3e cd 2b 27 be
       -0.06624331 -0.03641269 0.1286817 -0.16325302
000030 63 27 91 3d 56 2c 7f 3e a5 c9 b8 bd e7 fc ad 3d
       0.070875905 0.24919257 -0.09022836 0.08495503
000040 55 ff bf bd 8e 7f fa bd 09 ed 4a bc a6 3d aa 3c
       -0.093748726 -0.122313604 -0.012385615 0.02078135
000050 91 cb 01 3e d0 86 8c bd 32 61 a7 bd fe 9f ab 3d
       0.1267531 -0.06861651 -0.081728354 0.083801255
000060 ac 6a 19 bd fa 15 14 3e e4 d9 2b 3e f0 b8 8e 3e
       -0.037455246 0.14461508 0.16782337 0.2787547
000070 83 aa 47 be 2d 54 7e 3e 47 33 83 3c 87 4b 4a 3e
       -0.19498639 0.24836798 0.016015662 0.19755374
000080 15 05 3e bd 4b 75 f2 bd 6f 0a a7 bd d2 f0 01 be
       -0.046391565 -0.11838778 -0.08156287 -0.12689522
000090 39 1e 97 3b f0 3d 48 3e 84 60 ea 3c 55 3b 01 be
       0.004611757 0.19554877 0.028610475 -0.1262029
0000a0 8a 1c ea 3d 32 33 d7 bd 8a 85 08 be 6d 8a 91 bc
       0.11431225 -0.105078116 -0.13332191 -0.017766202
0000b0 8c f1 75 3e 97 95 d8 3d aa 45 bb 3c e0 60 3a bd
       0.24017924 0.10575407 0.022860367 -0.045502543
0000c0 c5 a1 1e 3d 2b 87 27 bd 46 5f 69 bd 18 87 44 3d
       0.038728494 -0.04090039 -0.056975625 0.047980398
0000d0 d5 b6 42 bd 7a a9 ea bd d2 ed 20 bd 76 3f 00 be
       -0.047537643 -0.11458106 -0.039289303 -0.12524208
0000e0 d8 b7 ec 3c e9 89 b0 bd f7 c3 1b be 0b 74 d6 bc
       0.028896257 -0.08620054 -0.15211473 -0.02617838
0000f0 c2 c7 7e be d5 8e 5f bd 0e 44 cd bd dc 44 e1 3c
       -0.24880889 -0.054579575 -0.10022746 0.027498655
000100 d5 b8 44 3c c3 44 36 bc 74 52 f1 3d c2 b7 a6 bd
       0.012006958 -0.0111247925 0.11783305 -0.08140518
000110 f8 fb ba 3b db 56 1a 3e f7 2c 9b bd 20 f1 3a bb
       0.0057063065 0.15072195 -0.07576936 -0.002852507
000120 41 5a f4 3d f7 31 9f bc 58 d8 b3 3e 44 f0 90 bd
       0.11931277 -0.019433005 0.35125995 -0.07077077
000130 f9 6a c4 3c a4 36 0c be b1 db d9 bd 7b 59 52 be
       0.02397679 -0.13692719 -0.10637606 -0.20541947
000140 71 83 b9 bd 2f 33 b3 3d 32 df 96 bd 3d e8 a5 3c
       -0.090582736 0.08749997 -0.0736679 0.020252341
000150 0b f2 b7 bc 60 e7 dc 3c 41 b0 a8 bd 22 a2 18 be
       -0.022454282 0.026965797 -0.08236743 -0.14905599
000160 27 b0 a1 bd 56 3a c3 3d 16 9c 5b bd 32 c8 63 bd
       -0.078949265 0.09532611 -0.053615652 -0.055610843
000170 2e 72 42 3e 99 ae 07 be 99 04 65 3c 2b 79 0b 3e
       0.18988869 -0.13250197 0.013978147 0.1362044
000180 46 5b 09 3c a2 10 f4 3c 31 32 7b ba 2f 42 0e 3e
       0.008383578 0.029793087 -0.0009582369 0.13892435
000190 54 4c 15 3e 68 ae 84 bd d8 35 44 bd 4c dc 4b bd
       0.14579898 -0.06478578 -0.047902912 -0.04977064
0001a0 68 cc 16 3e cc 8f 3b 3d c8 94 0a bd cf 94 20 3e
       0.14726412 0.045791432 -0.033833295 0.15681766
0001b0 54 5f 51 3d 9e d1 6b bc 74 55 95 bd f7 64 3a 3e
       0.051116303 -0.014393238 -0.072916895 0.18202578
0001c0 6d b7 65 3e 83 10 82 3d 20 29 cd bd 0d 4c 94 3d
       0.22433253 0.063508056 -0.100176096 0.07241068
0001d0 84 66 88 bd c2 9a 6e 3e 65 f4 31 3c 16 0d 72 3d
       -0.06660178 0.23301223 0.010861491 0.05909451
0001e0 73 bc d4 3c 04 39 00 3e 12 f4 83 3d a1 2d ca 3d
       0.025968766 0.1252175 0.06443037 0.09871984
0001f0 10 9b e3 3d db 97 39 3d dc 5c 95 be cb 3f bd 3d
       0.1111356 0.045310836 -0.2917241 0.09240683

mean_net.4.weight f4 [4, 128]
000000 2c 87 ae 3d 9f c4 bd be a8 45 32 3d 64 58 b9 be
       0.08521876 -0.37064072 0.04352346 -0.3620025
000010 98 11 8e be 4e 23 2f 3e 11 d3 8e be 5f bb 8c be
       -0.27747798 0.17103311 -0.27895406 -0.27486703
000020 58 0f 3a 3e 88 fb bc 3d ce 19 d4 bc 11 8d 80 3d
       0.18169916 0.09227663 -0.02589121 0.06276906
000030 f8 94 bf 3c ad c8 c2 be 24 77 94 3e 39 5a 9d be
       0.023386464 -0.38043728 0.28997147 -0.30732897
000040 d3 b8 00 3e fa b2 8d 3d 88 66 ac bd ae 7e 7d be
       0.12570505 0.06918903 -0.08417994 -0.24755356
000050 f1 bd 90 be 7e 8f a6 bd 45 06 0d be 46 45 9c be
       -0.28269914 -0.08132838 -0.13771923 -0.305216
000060 49 7c 9c be a9 59 8a bd 3b 07 b3 3d 15 a0 b8 bd
       -0.30563572 -0.067553826 0.087416135 -0.09014908
000070 6f 9e 36 3e 5a d6 0b bc 0f ad a8 3d 4e 92 44 3e
       0.17833875 -0.008534992 0.08236133 0.19196436
000080 2b 61 3c 3e d7 4d ca 3d 11 41 98 3e a4 f0 82 3d
       0.18396442 0.09878128 0.29737142 0.06393555
000090 c7 b5 d5 3e 03 aa 6d be 23 f3 e5 bc 73 bd 02 be
       0.41740248 -0.23209386 -0.028070038 -0.12767582
0000a0 0f 8f 92 be 94 dd f8 bd e2 b7 5b 3e 21 10 ab bd
       -0.2862477 -0.12151638 0.21456864 -0.08352686
0000b0 a7 95 22 bd 45 ff 11 be 9e 7f 83 bc 56 e9 13 bd
       -0.0396935 -0.14257534 -0.016052064 -0.0361112
0000c0 0f d0 0f be 55 f6 e3 bd 69 14 19 bd 2c ef b5 bd
       -0.14044212 -0.111309685 -0.03737298 -0.08883509
0000d0 d6 57 c6 3d 15 5b a4 3e ed dc 99 3e c7 df a3 3c
       0.09684722 0.3210074 0.30051365 0.020004166
0000e0 ae 3b 27 3e b9 88 d9 bb a4 9f 27 3e 6d fb 26 3e
       0.1633136 -0.006638613 0.16369492 0.16306849
0000f0 88 8a d2 be de 9a e2 3d 36 50 bb be 65 57 90 3b
       -0.41121316 0.11064695 -0.36584634 0.0044049495
000100 42 1b 26 3e 44 6b 64 3e 54 ea 56 be 42 1d e2 3d
       0.16221336 0.22306544 -0.20987827 0.11040737
000110 a5 70 81 3d ff 00 02 3d d0 01 a9 3e 01 10 4e be
       0.06320313 0.03173923 0.33009195 -0.20123293
000120 a4 58 2a be 8c 88 75 3e 8a cb 30 be 82 2e bf be
       -0.16635376 0.2397787 -0.17265144 -0.3734017
000130 30 9c c4 bc 90 f1 82 3e 4f 18 aa 3d b1 73 a6 bb
       -0.024000257 0.25574923 0.08305418 -0.0050797095
000140 3c 96 b5 3d 87 49 6b be 3e 80 5e 3e ec 47 51 be
       0.088665456 -0.22977267 0.21728608 -0.20437592
000150 f6 85 cb bd 93 69 65 3e 15 8e 05 be 67 f2 4b 3d
       -0.099376604 0.22403555 -0.13042481 0.04979172
000160 b5 d3 d2 3d b0 f7 3c 3d 82 4c 06 bc 51 f8 52 bd
       0.10294286 0.04613465 -0.008196952 -0.051506344
000170 b0 0e 72 3e 9c 8f cc bc 68 83 13 be ce e1 8b bd
       0.23638415 -0.024970822 -0.14405596 -0.06830178
000180 32 55 02 3e 6e 5f cf 3d cb 45 02 bd ef 52 e6 bd
       0.12727812 0.10125624 -0.03180484 -0.11246287
000190 6d 51 e6 3e 5f 5b 08 3b 94 cd 2b 3e 03 dd 9b bd
       0.44983998 0.0020806415 0.1677764 -0.07610514
0001a0 50 a3 95 3e 1a ca da 3b c1 3e 23 3d cb 14 d1 be
       0.2922616 0.0066769244 0.03985477 -0.40836176
0001b0 04 e9 7a 3d 29 19 0d bd 88 dd 74 3e 3d 74 40 be
       0.061257377 -0.034447823 0.23912632 -0.18794341
0001c0 df d9 50 be 14 0d ef bd a5 a7 50 3e 50 2a d2 3d
       -0.20395611 -0.11672416 0.20376451 0.10261977
0001d0 72 a9 85 3d 69 79 31 be 05 24 fa bd 71 21 9a 3d
       0.0652646 -0.1733147 -0.122139014 0.0752591
0001e0 b7 ef 13 bd 3b f5 f2 3b 50 ce 9c 3c 17 59 83 be
       -0.03611728 0.0074144877 0.019141346 -0.25653908
0001f0 08 f4 f0 bd ef 2c 6e 3d e5 33 e8 3d a5 be bb be
       -0.11765295 0.05814832 0.11338023 -0.36668888
000200 e4 0a 91 bd c8 a4 60 3b c3 10 81 3e 98 18 ca be
       -0.07082155 0.0034277905 0.252081 -0.3947189
000210 cf a7 3d be 8c 13 08 3d f0 ba 44 be 26 a7 34 3d
       -0.18521045 0.033221766 -0.19211936 0.044104718
000220 2c b3 97 bd 1f 2f b6 3e 83 41 65 be cd e2 d7 be
       -0.07407221 0.35582826 -0.22388272 -0.42165223
000230 6c 95 58 3e 75 9f 26 be a5 d7 ba bd e4 4d e6 bd
       0.2115075 -0.16271766 -0.09123162 -0.11245325
000240 13 7d 3f bd f7 97 20 3e 86 a5 c2 bc 7f 63 9b 3c
       -0.04675014 0.1568297 -0.023760568 0.018968342
000250 5a b2 11 3e 9e 10 17 3e ad c5 21 3e ae 29 58 be
       0.14228192 0.14752433 0.15798064 -0.2110965
000260 89 2e fc bd f6 dc 2c be 76 6f a8 bd 29 2e 0d 3e
       -0.123135634 -0.16881165 -0.082243845 0.1378714
000270 68 78 9e 3d c5 ee 43 be 86 6c a0 be 61 cf c3 be
       0.077378094 -0.19134052 -0.31332797 -0.38244155
000280 44 1a e4 3c 84 8a f0 bd ea ff 21 3c 70 85 f5 3c
       0.027844556 -0.1174517 0.009887675 0.029970855
000290 51 58 00 bc eb 29 a8 3d 8f 06 81 be 12 64 82 3d
       -0.007833556 0.0821112 -0.25200316 0.06366743
0002a0 12 f1 d7 3b 51 eb b6 3d d5 cb 1d bd 6c e1 53 3e
       0.006590017 0.08931602 -0.038524467 0.2069146
0002b0 c2 83 44 be 70 2c d0 3c f9 52 09 bd 70 be c1 bd
       -0.19190887 0.025411814 -0.033526395 -0.09460151
0002c0 23 60 9f be fb cf 4f 3e 25 82 c5 bd 75 f2 8e 3e
       -0.31128034 0.20294182 -0.09643964 0.27919355
0002d0 7c b1 bc be 0a 8b 67 bc df 6c d5 bd 1c e0 cf bd
       -0.3685416 -0.014132271 -0.10421156 -0.10150167
0002e0 3a 54 8a bd 38 85 0c 3a 4b 91 8d 3e cb 07 8a bc
       -0.06754346 0.00053604273 0.27649912 -0.01684942
0002f0 8e ca 1f be 22 5a a0 be ba 21 be 3d ff ef 21 3d
       -0.15604612 -0.31318766 0.092837766 0.03953552
000300 f7 e0 80 3d 88 3e c2 3b 88 52 f6 bd df 4d c0 3d
       0.06292909 0.0059278645 -0.1202746 0.09389853
000310 03 1e 23 be d1 9d 0b be 49 b7 af bd d9 44 38 3e
       -0.15929417 -0.13634421 -0.08579881 0.17995013
000320 97 ef 4b 3e 83 01 98 3c dc ff eb bd 01 71 d6 be
       0.19915615 0.018555408 -0.11523411 -0.4188309
000330 d9 6a 6c be db 55 a7 bd a2 54 c6 3d ae dd 8b be
       -0.23087634 -0.081706725 0.09684111 -0.27317566
000340 22 a8 ea bb 5d 76 78 3e 77 9c ed 3c 1a 7c e4 3c
       -0.0071611563 0.24263902 0.029005272 0.027891207
000350 5e b7 99 be da a7 88 bd 42 2d f9 3c 1c 82 01 be
       -0.3002271 -0.0667264 0.030417088 -0.12647289
000360 00 c4 bc bd c1 a2 c2 bd db 9e ac 3d 06 f8 93 3d
       -0.092170715 -0.09503699 0.08428737 0.07225041
000370 6b 56 44 be fa 73 35 bc 63 b4 2c 3e 59 e5 c5 ba
       -0.19173591 -0.011075014 0.16865687 -0.0015098258
000380 da a5 b6 bb a7 a6 cf 3d fb dc b6 3e 8c c1 e1 3c
       -0.0055739703 0.10139208 0.3571547 0.02755811
000390 ad 8e 7f be d5 b6 b1 3d 34 c0 b0 bd 0e ed 42 3e
       -0.2495677 0.086774506 -0.0863041 0.19035742
0003a0 a7 f1 25 be 64 c1 29 be 35 71 d2 3d 91 cd 78 3a
       -0.16205464 -0.16577679 0.10275499 0.0009491081
0003b0 9b 6f 13 3f 0d 31 d7 3d 28 08 84 3e 19 dc 28 3e
       0.5759217 0.105074026 0.25787473 0.1649021
0003c0 0f 72 06 3e 69 d4 9d bd 2d 61 7f 3e 97 33 8a be
       0.13129447 -0.0770653 0.24939413 -0.26992485
0003d0 07 d1 75 3e 8a 74 a3 bd 38 80 a0 bd e3 14 8d 3e
       0.24005519 -0.079812124 -0.07836956 0.27554998
0003e0 2c d0 fb bb ee af bf be 44 ad a6 3b f5 e5 76 3d
       -0.007684728 -0.3743891 0.005086573 0.060277898
0003f0 80 af 98 3e 60 bb b7 3d f1 7b ae 3e 58 e4 0f 3e
       0.29821396 0.08971286 0.34078935 0.1405195

mean_net.4.bias f4 [4]
000000 46 5a f0 bd 05 df 95 3d 83 34 a8 3c e5 d8 17 3d
       -0.11735968 0.07317928 0.020532852 0.03707208
