src/rl/model/actor_model15-08-2024_20-47-30/3460.pt (torch, 84728 bytes, 7 tensors)

logstd f4 [4]
00000000: f1ee 67c0 003b 5ec0 5e89 61c0 b981 6cc0
-3.6239588 -3.472351 -3.5240092 -3.6954176

mean_net.0.weight f4 [128, 27]
00000000: b4f6 4c3d 2e4f 1b3e ab35 b3be 828b df3e
00000010: 25dc c23d 4fac c63d 5ddb d03d 520d a83f
00000020: 1592 7ebf 6091 c23e e92e bc3d b1f8 49bf
00000030: d712 03bf d5f6 443e 1b62 74be 0139 1a3e
00000040: 169e 333e 21b1 713f f864 7ebf 4677 b83d
00000050: 98f4 6e3c a7ad 9ebe 07f9 803e a535 39be
00000060: 5f20 66be 0010 d7be 1d09 273e be32 3ebf
00000070: 6388 b23e de52 8f3e 3a8a 5abf f26d 2e3f
00000080: 0ffa 803e 722b 863f 50bf 0540 4d55 6ebf
00000090: 9846 13be a120 b5be 532b 353e d2e5 e93e
000000a0: 6083 e33d cec3 a9bb 5af0 f03d 90d0 82bd
000000b0: f531 7bbe ccd0 d4be a65c 863c f207 5bbd
000000c0: 6e88 a7be a119 3c3e cf27 6b3e ea0b 04be
000000d0: 94d0 a03e 86b9 363d 151a 423f 6048 783f
000000e0: 81e3 8a3e bd62 d53e 11c8 aa3f f57c 963e
000000f0: 41f4 1dbf 6ded 18c0 a82f 64be 87f0 79be
00000100: a2be 943e d760 13bf d1f5 1dbb ff2e 243d
00000110: a6e3 c2be 7bf5 46be 2330 593d 006a 933e
00000120: cd2a ccbf 63a9 3cbe 4614 0a3f ce5f ae3d
00000130: e037 d4be f795 c2bc ce14 90be 3594 393e
00000140: fb4f 883e 511a 12bf 8cce af3e 3f96 43be
00000150: 4052 17be bc16 0e3f 1039 0fbf 295b a63d
00000160: 38ea af3f 7ff2 e3be b3a1 c6be 5ccf 4cbe
00000170: 7f0a 2abc 424c bdbe f51c 1b3e 1e05 75be
00000180: 37be 953e 2167 15be 1818 fcbf abaa 31bf
00000190: 52cf 3cbe bfb8 ca3e 5ab5 c93d f488 8f3f
000001a0: 9acd 3e3e 1d2b 0ebe 89b3 d7bd 9a72 5dbe
000001b0: d2b5 4f3f 30f4 4d3e 7f8c a7bd a008 9e3e
000001c0: 3cc5 2fbe 5d00 4abd 0035 99be 06ad ee3f
000001d0: 6f49 5a3e d636 6b3f 4a0b b4be 6100 b7be
000001e0: bf5c cd3e a253 c8be f15e 563d fef4 293e
000001f0: 0a19 03be b4e0 223f 037c e1bf 56d9 a43e
00000200: eb05 76bd b70e 44be 259c c43e 1c1c 313e
00000210: 89a0 633e d8b7 953d cd1f e63d 83be d4be
00000220: b5d0 303f dd38 1cbe ff07 373e 28a0 ed3e
00000230: 3e94 aebe f482 e63d 5c45 a2bf e1cf 643f
00000240: 8efe cc3d 3e7b fabc c688 91bd ae81 86bd
00000250: c466 71be 54df 98ba 34fd 803e acf4 203d
00000260: f0f6 d53f 45e7 c7bd 2425 0e3d 8a65 c53d
00000270: 18ad 333f e23a a63e 021d 9abe 28a0 e53d
00000280: 597d b73e 3943 30be 2197 053d 6054 083e
00000290: 015f 89bd eecb 7abd 2763 013f 303b b33c
000002a0: 3636 c3be 75a6 b1bf 0830 8fbd fa6b d5be
000002b0: 2352 02be 3aa8 35bd 4836 c2bf 6e9c 80bd
000002c0: b3a2 80be 9e9d 96be bd97 b53d 488a 083f
000002d0: 39e5 36bf 9ec3 1bbe 04aa 153f 1a73 4bbf
000002e0: 441b 813d 8232 20bd c6f3 dd3d 14ae cbbd
000002f0: dd4b 3ebd 9f6f 08bd c9e3 643f 42e0 b2bd
00000300: c4e3 57be 9e2b 0240 0b95 b4be 63d7 18be
00000310: 96b5 ca3f 8331 a53f fc0e 94bd 53e4 0abe
00000320: 024c 91be 9a95 863e 9133 b53e cd69 1abd
00000330: 2378 ddbe 534f 18bd 8d64 673d 0bc8 4f3f
00000340: 5f18 f63a eeb1 873e 0477 bdbe 24d2 23bf
00000350: 8582 ebbd 7936 603e e148 ecbd 2c3c 943e
00000360: 1032 933e 9059 2b3f fb27 563e e992 1c3f
00000370: f0f5 993f 25c2 99bd ba17 b8be a7cb bf3f
00000380: d2e8 803e c194 d7bd dafe fdbd df64 d63e
00000390: 86b3 bf3e fcf7 1cbe 0bd4 56be cb4a dfbc
000003a0: b756 9e3e a7f1 37be 1ead 8d3f e62a 1c3e
000003b0: 004c 38be 3e61 083f 5d73 6c3e a5e3 b0bd
000003c0: b591 04be 20f1 9b3c 0e43 873d ceba a63e
000003d0: 2f98 093f 4bfb 08be 8f63 da3e 28cf e5bc
000003e0: 602c 0dbe 441f 5abf 1c67 373f f78c 05c0
000003f0: ad79 f13e d2ad 6ebe 4903 343f 7681 adbf
0.050039962 0.15166923 -0.35001883 0.43661124 0.095146455 0.09700834 0.1019809 1.3129065
-0.99441653 0.38001537 0.09188635 -0.788951 -0.5120062 0.19234784 -0.2386555 0.15060808
0.17540774 0.944109 -0.99372816 0.090071246 0.014584683 -0.3099186 0.25189993 -0.1808687
-0.22473286 -0.42004395 0.1631207 -0.74296176 0.3486968 0.2799291 -0.85367167 0.68136513
0.2519078 1.0482008 2.0898018 -0.9309891 -0.14382398 -0.35376456 0.17692308 0.4568315
0.11109042 -0.0051808124 0.117645934 -0.063874364 -0.24530776 -0.4156555 0.0164016 -0.053474374
-0.32721275 0.18369152 0.22964405 -0.1289517 0.31409132 0.044610523 0.7582105 0.96985435
0.27126697 0.41676894 1.3342305 0.2939221 -0.61700827 -2.3894913 -0.22283804 -0.2440816
0.2905169 -0.5756964 -0.0024102817 0.04008388 -0.38064307 -0.19429581 0.053024422 0.2879181
-1.5950562 -0.18423991 0.53937185 0.08514367 -0.4144888 -0.02375315 -0.28140873 0.18122943
0.2662352 -0.57071406 0.3433727 -0.19100283 -0.1477747 0.5550344 -0.55946445 0.08122856
1.3743353 -0.44520947 -0.38795242 -0.20000976 -0.010378479 -0.36972243 0.15147765 -0.23927733
0.29246685 -0.14590122 -1.9694853 -0.69401044 -0.18438461 0.39594075 0.09849043 1.121367
0.18633118 -0.13883634 -0.105322905 -0.21625748 0.8113681 0.20112681 -0.081810944 0.30865955
-0.17165083 -0.049316753 -0.29923248 1.8646553 0.21317075 0.9188055 -0.35164863 -0.35742477
0.40109822 -0.39126307 0.052336637 0.16597363 -0.1280252 0.6362412 -1.761597 0.32197064
-0.060064238 -0.19146238 0.3840038 0.17295879 0.22229208 0.07310456 0.11236534 -0.415516
0.6906846 -0.15256067 0.17874144 0.46411252 -0.34097475 0.11255446 -1.2677417 0.893797
0.1000949 -0.030576345 -0.071061656 -0.06567703 -0.23574358 -0.0011663237 0.2519318 0.039295837
1.6715984 -0.09760908 0.03470339 0.09638508 0.70185995 0.324668 -0.30100256 0.11212188
0.3583782 -0.17213143 0.03261483 0.13313437 -0.06707574 -0.06122964 0.5054192 0.021878809
-0.38127297 -1.3878924 -0.06991583 -0.41683942 -0.12726645 -0.044349886 -1.5172815 -0.062798366
-0.2512413 -0.29417127 0.088668324 0.53336 -0.71443516 -0.15211341 0.5846255 -0.79472506
0.06304029 -0.039110668 0.10837512 -0.09945312 -0.046459068 -0.033309575 0.8941007 -0.0873418
-0.2108298 2.0339122 -0.3526996 -0.14925914 1.5836666 1.2905735 -0.072294205 -0.13563661
-0.28378302 0.26286012 0.35390905 -0.037698556 -0.4325572 -0.037185024 0.056492377 0.81164616
0.0018775574 0.26502937 -0.37004864 -0.63992524 -0.11499504 0.2189578 -0.11537338 0.28952157
0.28749132 0.66933537 0.20913689 0.6116167 1.2028179 -0.07507733 -0.35955602 1.4984025
0.25177628 -0.105264194 -0.12402125 0.41873834 0.37441653 -0.15328974 -0.20979325 -0.027257344
0.30925533 -0.17963277 1.1068456 0.1525074 -0.17997742 0.5327338 0.23090883 -0.0863717
-0.12946208 0.019035876 0.066045865 0.32564396 0.5374784 -0.1337711 0.42654082 -0.028052881
-0.13786459 -0.8520396 0.7164171 -2.0867288 0.47163144 -0.23308495 0.7031751 -1.3555133

mean_net.0.bias f4 [128]
00000000: c890 473e e12f f3bd b4b6 553e 2e94 6d3e
00000010: 8d4f b73d 8677 97bd d330 563e ad56 8fbd
00000020: 7995 8c3c 03ef bebd 43b7 ad3d e308 fc3d
00000030: f722 3b3e cc65 da3d c7d4 803b 1341 593c
00000040: a920 523e ec48 833e 27e7 16be bb11 813e
00000050: 97e5 80bd 5b5f 463e fa59 b23c b1cc 1cbb
00000060: 473d 303e 8809 df3d 0bdf 9bbd 7475 733d
00000070: 2ebb 78bd 594c f83b ca7e 2dbe af94 48be
00000080: 07b0 b93d 8b76 56be 736f 713e 6302 ce3d
00000090: 826f e5bd 1745 153e defe e23d 73aa 2c3e
000000a0: 12bf 493e ae0c b4bb 58a1 fcbd 3cba 80bd
000000b0: 4c48 2dbe 53c8 a6bd 9ccf b53c c41f 7f3e
000000c0: 9521 ebbb 7faa cc3d bc8f 24be 05c0 b73d
000000d0: 0c83 5dbe 8440 0cbe 7e09 9a3d 9be1 c2b8
000000e0: a9b4 1dbe 79f4 5abe 0b9b 73be d523 073e
000000f0: 8ff3 453e 1a85 fd39 4d7a c33b 856e 2a3e
00000100: 56d6 1b3e 022c 823d a5f9 373d b6d7 513e
00000110: a99d a43d f94c 75be 67c2 a83a e6bd 0cbe
00000120: f0f4 6f3e c91d 183e 13d9 843d e746 bebb
00000130: e9ec 3f3e 0a74 c5bd 0efd 113d 55ea cbbd
00000140: 0dea 3bbe 0ef5 6c3e 255b b53d e51e 553d
00000150: 89c7 01be c058 a2bd 63f4 04be 31f5 763e
00000160: 9442 afbd 6ba2 8e3d 709d ddbd 7205 6abe
00000170: 0cb7 68be 8126 2e3c d3ca f8bd c5e2 1bbe
00000180: 0088 d4bd 1aa1 27be db7e f8bd 7df6 42bd
00000190: 7971 34be 47e9 02bd 8361 21bd 5f65 ac3d
000001a0: 0910 343d ff1f edbd b8d8 6b3e 5942 e53c
000001b0: d505 ba3d 5c2e 3bbe 1231 a8bb 86fb 473b
000001c0: 5375 acbd e064 663e e16a eb3d 3dcb 713b
000001d0: d50a 76bd 79c9 2ebe 6279 87be 4e85 cebd
000001e0: 21e5 3ebe 497c 6cbe 14a9 d63d 05c8 283e
000001f0: 4915 95bd 51a5 33bb 5e40 283a 62c8 2f3e
0.19488823 -0.118743666 0.20870477 0.23201057 0.0895072 -0.07395844 0.20917062 -0.06998954
0.017161118 -0.093229316 0.0848222 0.123063825 0.18275057 0.106639475 0.003931615 0.013260144
0.20520271 0.25641572 -0.14736615 0.2520884 -0.06293791 0.19372313 0.02177142 -0.0023925717
0.17210875 0.1089049 -0.076109014 0.059438184 -0.060725383 0.0075774607 -0.16942897 -0.19587968
0.09066778 -0.20943658 0.23577671 0.10059049 -0.11202909 0.14577137 0.11083768 0.16861896
0.19701794 -0.0054946756 -0.123354614 -0.062855214 -0.1692211 -0.081436776 0.022193722 0.24914461
-0.007175634 0.09993457 -0.16070455 0.08972172 -0.21632022 -0.13696486 0.07521342 -9.292663e-05
-0.15400948 -0.21382321 -0.23789613 0.13197263 0.19331191 0.0004835509 0.005965507 0.16643722
0.15218481 0.0635605 0.044915814 0.20492443 0.08037884 -0.23955144 0.0012875319 -0.13744316
0.2343328 0.14855112 0.06486716 -0.005806792 0.18742718 -0.09641273 0.035641722 -0.09956805
-0.18351002 0.23140356 0.08855275 0.052031416 -0.12673773 -0.07927084 -0.12983851 0.2411697
-0.08557621 0.069645725 -0.108210444 -0.2285364 -0.22726077 0.010629297 -0.12148061 -0.15223224
-0.103775024 -0.16370049 -0.12133571 -0.04759835 -0.17621411 -0.03196075 -0.039399635 0.084177725
0.043960605 -0.115783684 0.2303189 0.027985739 0.090831436 -0.18279403 -0.0051328028 0.003051491
-0.08420815 0.22499418 0.11494995 0.003689482 -0.060068924 -0.17069043 -0.26459795 -0.100840196
-0.18642093 -0.23094286 0.10481468 0.16482551 -0.072794504 -0.0027411769 0.0006418283 0.17166284

mean_net.2.weight f4 [128, 128]
00000000: e014 6abe 6fb8 753d 8bc0 b33d 618b 3cbd
00000010: a596 943d c001 0a3d 0952 2ebe e5b5 2bbf
00000020: bafa 2e3d c6f0 6fbe c2e7 43be 4219 653d
00000030: 8e87 6ebd 4770 493e 669f ffbc eafa dc3c
00000040: 51ad 793c 36d8 923d 70c4 e3bd 253b e0bd
00000050: d16b aa3e 6efb e73d 750e ff3d ab1c 0a3e
00000060: a334 bbbc 0bc2 ccbc ff72 213e f0b2 923d
00000070: b222 0e3e d4d4 443e 0fd5 1e3e 6928 7fbd
00000080: d8b1 ccbd 1119 45be 5167 73be 6258 0a3e
00000090: d2d1 5fbd e460 5a3d 4261 ff3d 0288 553e
000000a0: 79b6 6c3e e4b9 b1bd ab09 56be 5b1f 05bd
000000b0: 2859 253d 6e86 8d3e 0046 a13e 5556 a83d
000000c0: 1007 ae3e 7f99 943c d9d3 a13e 33f1 bcbd
000000d0: 2009 38ba 9808 333e 2dd8 ecbd 0640 27be
000000e0: 5735 c0bd adfa 313e 31db cebc 76a6 bbbe
000000f0: 707b 913e 70b0 c9bd 29e1 073e 8483 8a3e
00000100: 2327 9b3e d435 ed3c d396 74bc 511c 053d
00000110: 66a2 aabd d31e 0abd c833 95bd 3278 023d
00000120: 199a 4fbe 62bd 29bc effe a03d d73b c73e
00000130: d9df 1b3d 7e65 173d e77a dfbe 7357 c3bd
00000140: 1357 343e 4cd7 003e ec7c 143e 4db6 dc3d
00000150: ecbf 9fbe b8aa 983e 5c92 32bd 780f ac3c
00000160: febd c53d 3bfb 39be bcb1 b33e 4d9d 893c
00000170: cd21 853e 266a 1b3f 73ca 073e dcbf d3bd
00000180: 7b9d 25bd 7474 00be a912 983e d2a5 503e
00000190: 36a6 113d 4a2c 6dbe db52 fbbc 8e80 32be
000001a0: 603a b33d e13d f1bc f8e2 27be c523 9e3d
000001b0: 9a81 4dbd ca87 9fbe 4e47 adbe 177f 3dbe
000001c0: ff4a 723d 6fe8 2d3d 2de3 573d 3348 2dbc
000001d0: eff1 6cbd ac41 673e 493b 3cbc 481b 4fbd
000001e0: 114b 893e 725b 0dbe 880a 2c3e dfbb 973c
000001f0: 9efc 033c 9092 98bd b7b2 dbbc c396 c9bd
00000200: 0d47 473e 2daa 4bbe 9453 debd 1266 823e
00000210: b0c4 c7bd d15c 903d b2e3 373e 1f1f ccbe
00000220: b1b0 94be 291f 7ebe 30c7 9f3d 56c6 103e
00000230: 7cd4 d8bd 0c96 c4bd 362b 4e3e 4912 8cbd
00000240: c686 f83a 9d35 d0bd ccd1 793e d319 2b3d
00000250: a53f 513d eba0 8fbe b8bf da3d a209 d2bc
00000260: 7b91 7d3e aeee 0abc f7de 543e 13ee db3d
00000270: 2417 54bd efd3 233d 9166 55be bb51 233e
00000280: 6fd8 05be 7f48 43be 35e9 5fbd 5b80 2c3e
00000290: 92bb 303e 244c 1b3f 610c bb3e 13ae f0bc
000002a0: 239d 623e eb2f 13bd 4dac ab3e b1d8 01be
000002b0: 53e6 2dbe 6d77 acbd 4bbd 5cbe 5d6b 5d3d
000002c0: ac24 8abe a3ed c8bd b915 6cbd 003e 3abe
000002d0: b64c 1e3e a98f 813e 1038 163c b39b 06be
000002e0: ebbf 173e 7aea a73e e46a b13c ea57 153e
000002f0: c23e a5bc 3406 0ebf 84c6 833e c6b7 8cbe
00000300: 2df6 6b3e 2600 213d 2c5f 5c3e 3e31 69be
00000310: 400d c63e 7023 93be 93ad 01be be0e cf3d
00000320: 267d 373e 4b37 0bbd 4f36 703e cc81 b53d
00000330: 9854 3abc 028f 083f 89cc f53d 3e0e 54be
00000340: 85bf 363d ae84 39be a058 1cbe 5c96 2b3e
00000350: ee81 90bd 03a3 25be 6fcd 1abe 4409 dcbd
00000360: f986 42bd 8d43 51be f78d 403c 9386 ebbc
00000370: 0b19 2c3d 4c60 43bc e564 203d 9b50 b3bd
00000380: 024b a63e b670 a8bd 7cb7 01be 5f47 293e
00000390: 403e a93e 0dd0 0e3d baf0 b83d a1ff 9bbd
000003a0: 654f 2c3f 7127 2c3d 0b54 2f3e e744 8d3d
000003b0: 261c a4be 73f9 a03a cf8b 763d 50b6 24bd
000003c0: 1d14 893d e09d d53d 43b2 7cbe a3a5 353e
000003d0: bee0 eb3d 31b9 6d3c 7b87 523e 3cc2 373d
000003e0: e64a 813e 2eb3 1dbe 9165 32be b7ea 743e
000003f0: c222 8fbe aa29 0dbe 09e0 68be 594f 3c3d
-0.22859526 0.059990343 0.08776959 -0.04603136 0.07255296 0.033693075 -0.17023481 -0.67074424
0.04271958 -0.23431692 -0.19131377 0.05593229 -0.058234744 0.19671737 -0.031203937 0.026975114
0.015239076 0.07170145 -0.11121452 -0.10948781 0.33285382 0.11327253 0.12453929 0.13487498
-0.022852248 -0.02499487 0.15766524 0.07163036 0.13880423 0.19221812 0.15510963 -0.062294398
-0.099948585 -0.19247843 -0.23769881 0.13510278 -0.05464346 0.05331506 0.12469722 0.20852664
0.23116483 -0.08678034 -0.20902126 -0.032500606 0.04036823 0.27641624 0.31498718 0.082195915
0.33989763 0.018139599 0.3160694 -0.092256926 -0.00070204027 0.17483747 -0.1156467 -0.16333017
-0.09385174 0.17380781 -0.025251003 -0.36650437 0.28414488 -0.09848106 0.13269486 0.27053463
0.30303296 0.028956331 -0.014928537 0.032497708 -0.08331756 -0.033720803 -0.07285267 0.03185291
-0.20273627 -0.010360094 0.07861125 0.38912842 0.038055275 0.036962025 -0.43648455 -0.09538164
0.17611341 0.12582129 0.14500779 0.107769586 -0.31201112 0.29817748 -0.04359661 0.02100347
0.09655379 -0.18162243 0.35096538 0.01679864 0.2600235 0.60708845 0.13260822 -0.10339329
-0.04043339 -0.12544423 0.29701737 0.20375755 0.0355589 -0.23161426 -0.030679157 -0.17431852
0.087513685 -0.029448451 -0.16395175 0.07721666 -0.050172426 -0.31158286 -0.33843464 -0.18505512
0.059153553 0.042457994 0.052706886 -0.010576296 -0.057847913 0.22583646 -0.011488744 -0.050563127
0.26815084 -0.13804415 0.16800892 0.018522201 0.008055834 -0.074498296 -0.026818616 -0.09843209
0.19460697 -0.19889136 -0.10855785 0.25468498 -0.09754312 0.07048953 0.17957953 -0.39867494
-0.29041055 -0.24816574 0.07801664 0.14138159 -0.10587403 -0.09598932 0.20133671 -0.06839425
0.0018961064 -0.10166476 0.24396437 0.041772675 0.051086087 -0.28052458 0.10681099 -0.025639359
0.24762528 -0.008479757 0.2078818 0.107387684 -0.05177988 0.039997038 -0.20839907 0.15949146
-0.13070844 -0.19070624 -0.054665763 0.16845839 0.17259052 0.60663056 0.36532882 -0.02937988
0.22130255 -0.03593437 0.33529893 -0.12680317 -0.16982393 -0.08421216 -0.21556585 0.054057468
-0.26981103 -0.098109506 -0.057637904 -0.18187714 0.1545895 0.25304917 0.00916864 -0.13145332
0.14819305 0.3279608 0.021657415 0.14584318 -0.020171527 -0.55478215 0.25737393 -0.27483958
0.23043127 0.039306782 0.2152068 -0.2277269 0.38681984 -0.28737974 -0.1266387 0.10110234
0.17918834 -0.03398828 0.23458217 0.088626474 -0.011372708 0.5334321 0.120019026 -0.20708558
0.04461624 -0.1811702 -0.15268183 0.16756576 -0.07056032 -0.16175465 -0.15117429 -0.10743955
-0.047492 -0.20435925 0.011752597 -0.028750693 0.04201607 -0.011924814 0.03915872 -0.08755609
0.324791 -0.08224623 -0.1266765 0.16531132 0.33055305 0.03486638 0.0903029 -0.07617117
0.67308646 0.0420298 0.17121904 0.06897908 -0.32052726 0.0012281373 0.060191926 -0.04021293
0.066932894 0.10430503 -0.24677376 0.17738967 0.115174755 0.014509485 0.20559494 0.04486297
0.25252455 -0.15400383 -0.17421557 0.23917662 -0.27956206 -0.13785425 -0.22741713 0.04597411

mean_net.2.bias f4 [128]
00000000: 65c2 643d f7dd 6bbd 4cf4 31be fbe8 b5bc
00000010: 22eb 133e 5eab f13c bd3b 49bc 4c5a 1c3e
00000020: 4f3b 8fbd fe3c 14bd d90b 013e a20c 25be
00000030: 825d 8d3d ea29 803e 2ade b8bd 6f0e b23d
00000040: d642 bfbd 7621 f9bd cfb4 9ebb 8e86 be3c
00000050: 90ce 023e c81b 8ebd 65d4 9dbd 24a0 a53d
00000060: 3805 27bd d251 143e 0d53 2e3e dfec 8f3e
00000070: 4e2f 48be dc37 823e 8a23 ed3b 9747 4c3e
00000080: 7e2c 4abd 63fa f9bd 918e a4bd 79fd 01be
00000090: 48e8 e53b 1b59 423e ae74 e03c 12c3 02be
000000a0: 89b8 e83d ec22 ddbd 87e9 0fbe 78a0 43bc
000000b0: a4f4 753e eb66 e03d 5def b03c 1fa2 41bd
000000c0: f67c 183d cd92 27bd b344 76bd 35fc 473d
000000d0: 25e6 43bd 1fe4 e9bd 5c6e 14bd 2d7a 08be
000000e0: 9ffc e53c 1b8a b0bd e8af 1ebe e564 eebc
000000f0: 3d51 80be dfb3 3ebd 52e9 cebd 8f2b f73c
00000100: 80fd 273c d9b4 37bc d2fd e43d d93d b3bd
00000110: b36e 183c 641e 253e 21ed 9dbd 3a50 073b
00000120: 6c87 ff3d c3d9 ddbc a9db b83e ff1f 93bd
00000130: 8b45 b53c b1c2 0abe 04ba dcbd 2bd8 4ebe
00000140: ed16 bebd 797d b13d ce20 a0bd f9c8 c23c
00000150: 99f8 bebc 64df cd3c 1d70 a6bd cd5c 1cbe
00000160: 5f90 a3bd 504e ca3d d4de 5dbd bc9a 73bd
00000170: 2c8a 423e 6e58 05be f832 4d3c b657 053e
00000180: 7488 423c 6aa9 fc3c b5f1 3cba c747 113e
00000190: e8ab 143e f006 8bbd 77f9 6abd 12e2 21bd
000001a0: 5c8f 173e 576c 3d3d b4f5 03bd 3d1e 1d3e
000001b0: 294b 5c3d d067 0fbc 6ec9 97bd 28e8 383e
000001c0: de06 683e 1eed 823d 8aaf cebd a65b 9f3d
000001d0: 299a 7fbd c577 6d3e 2e76 8c3b 5ecd 7d3d
000001e0: 7b02 dc3c bd15 003e 629c 853d 9f2d c43d
000001f0: 839d e73d f6db 373d 730f 96be 2c7f c23d
0.05584945 -0.05758473 -0.17378348 -0.02220582 0.14445165 0.02950066 -0.012282309 0.1526882
-0.06993734 -0.03619098 0.12602176 -0.161181 0.06902601 0.25031978 -0.090267494 0.08694159
-0.0933892 -0.12164585 -0.0048433314 0.02325752 0.1277411 -0.069388926 -0.07706527 0.08087185
-0.04077646 0.14484337 0.17023869 0.28110406 -0.19549295 0.25433242 0.0072369026 0.19949184
-0.049358837 -0.122059606 -0.08035005 -0.12694348 0.0070162155 0.18979304 0.027399387 -0.12769726
0.11363322 -0.107976764 -0.14053927 -0.011940114 0.24019104 0.1095713 0.021598512 -0.04727375
0.037228547 -0.040911485 -0.06012411 0.048824508 -0.047826905 -0.11420464 -0.03623806 -0.13327856
0.02807456 -0.086200915 -0.1549679 -0.029100845 -0.2506198 -0.046558257 -0.10103096 0.030172138
0.01025331 -0.011212551 0.11181225 -0.08752031 0.0093037365 0.16124874 -0.077112444 0.0020647184
0.124770015 -0.027081376 0.36105087 -0.07183837 0.022127887 -0.13550831 -0.10777667 -0.20199649
-0.092817165 0.0866651 -0.07818757 0.023777472 -0.0233119 0.025130935 -0.08126853 -0.15269776
-0.07986521 0.09878218 -0.054167584 -0.059473738 0.18998021 -0.13022014 0.012524359 0.1302174
0.011873353 0.030842502 -0.0007207648 0.14187537 0.14518702 -0.067884326 -0.057366814 -0.039522238
0.14800781 0.0462459 -0.032216743 0.15343566 0.053782616 -0.008752778 -0.074114665 0.1805731
0.2265887 0.06392883 -0.10092075 0.077811524 -0.062402878 0.2319022 0.004286549 0.06196343
0.026856652 0.12508292 0.06523968 0.09579014 0.1130934 0.044887505 -0.29308662 0.09496912

mean_net.4.weight f4 [4, 128]
00000000: f21f ae3d 35ed bcbe 3a5d 243d 3561 b5be
00000010: 56a8 8fbe e888 2f3e fb96 8bbe 7ef5 8dbe
00000020: fe06 3a3e 0f01 c33d 36a1 babc 8e8a 713d
00000030: 8f7b b13c d3d4 c0be b2fe 933e d550 9bbe
00000040: 063e 013e 172a 823d d64e c1bd 06da 7ebe
00000050: 755b 90be eade 9dbd 37ea 0bbe ae98 98be
00000060: 5c92 9dbe c954 89bd dea1 b73d d7e5 bcbd
00000070: 30ee 2e3e 87a1 20bc 3503 a93d e78c 453e
00000080: 591e 413e c70f cf3d 8d23 993e d19b 963d
00000090: 9dd3 d03e 4e1b 74be 65b3 dcbc 90ed 01be
000000a0: 8d3a 91be ca06 f1bd 8f44 583e 2290 a8bd
000000b0: 9bd9 34bd c1a8 13be 52c1 743b 6712 1abd
000000c0: 791b 0dbe 5180 e1bd cc1e 25bd a4a7 c7bd
000000d0: ce12 d43d abdd a33e 8a19 993e 197b c13c
000000e0: 4170 203e 72f1 13bc 14e0 233e d88b 223e
000000f0: 1a80 d5be 0ecb d33d 5dc2 bcbe f54f 573b
00000100: 07e0 253e 37b9 543e 86c3 57be 786e d63d
00000110: 73c5 813d bb9a 1b3d fdad a63e e434 52be
00000120: 40f8 2bbe 1873 793e 1a8c 34be 1050 c7be
00000130: 4583 93bc 2531 823e 6e9c ab3d ef49 e2bb
00000140: 4806 b83d 2bd5 67be 5e1b 533e 9cc2 4fbe
00000150: 1bdc cabd d915 633e 4aa1 04be c38b 6a3d
00000160: 0f89 c83d f8a5 353d f299 28bc 03d6 55bd
00000170: 1863 6a3e d415 8bbc b89e 0abe e5fa 8bbd
00000180: a1a4 043e 4e8f c93d 73fd eebc c14e e7bd
00000190: 1264 e63e 098d 983b 1028 2a3e 93cc 9dbd
000001a0: 3a05 973e 07a8 b93b 979b f73c 320f d3be
000001b0: c279 6a3d 884a fcbc 31b3 713e 3572 3dbe
000001c0: e9af 4ebe bef5 f4bd 6971 4e3e 874f d03d
000001d0: 484c 8b3d 5e34 34be 72e5 fcbd b39a 953d
000001e0: 2bb6 02bd 08bb bf3b 81a4 373a 93b1 82be
000001f0: d87e f2bd beeb 863d 4ec9 f73d d52e bdbe
00000200: 0240 95bd 3a1f 943b 4dbb 7c3e 74c5 cdbe
00000210: b7b7 48be 38f9 0f3d 43e9 42be 984b 373d
00000220: 6323 9bbd 8909 ba3e b562 63be 8a08 d4be
00000230: 26ad 503e e31f 17be 93d1 b7bd fa8c e7bd
00000240: 6f28 2fbd 795a 223e b920 98bc a721 af3c
00000250: 86c9 103e 6307 183e 878f 213e 81ea 62be
00000260: 1356 ffbd 7904 2fbe d1d4 c0bd c228 f73d
00000270: 9374 8e3d 22a1 3cbe 4411 9dbe 918a b8be
00000280: d287 0c3d e31b eabd b290 1f3c 3af3 273d
00000290: 80e6 94bc 631f b83d 8949 81be b5ec 963d
000002a0: 5f1f 3a3c 6caa c43d f396 4cbd f5f0 623e
000002b0: 5295 4dbe dc3e e43c 5467 06bd b929 c0bd
000002c0: 5411 9fbe 1b18 543e 7916 bdbd 268f 933e
000002d0: 32ab bbbe f020 99bc 86d3 dcbd b99f d4bd
000002e0: f40b 7dbd 3389 c1bb 2ee0 8b3e 234a 7cbc
000002f0: 1ae4 19be 8302 a3be 91dd c13d 1a6a 2f3d
00000300: d67b 843d 8686 c73c 1018 04be 4064 c03d
00000310: 1159 22be 46bd 08be 4c39 b1bd cd18 393e
00000320: e015 4f3e 4c72 d33c 1c09 efbd bc5f e2be
00000330: cb87 6dbe fe78 b0bd 265e d33d b271 8abe
00000340: f3f9 a6bb 4446 6e3e 9717 d13c 548c cf3c
00000350: 238a 9bbe 7b31 80bd 6137 d43c fa68 f9bd
00000360: 52e8 bfbd 07da c7bd c7b4 a43d 104e a23d
00000370: bacd 45be dde9 54bc 9901 423e d46a c3ba
00000380: 7e81 12bc fcad c63d da9a b23e 449c ee3c
00000390: b20b 82be 29ce b73d 47f6 aebd 1f43 413e
000003a0: 8d16 28be 1baa 29be b287 ba3d d75d ca3b
000003b0: 8229 133f d962 de3d 5e7e 853e 4365 2a3e
000003c0: c70c 003e 3162 aabd 9033 803e fbbf 90be
000003d0: 2aa0 7c3e 0ca6 95bd 59b7 abbd b037 753e
000003e0: 7396 39bc fc54 c1be 4d77 81bb a5ff 583d
000003f0: 6910 a23e bac6 c93d c9bb b03e 49bb 223e
0.08502187 -0.36899725 0.04012797 -0.35425726 -0.28058118 0.1714207 -0.27263626 -0.27726358
0.1816673 0.09521686 -0.02278195 0.058970027 0.021665363 -0.37662372 0.28905255 -0.30335107
0.12621316 0.06355684 -0.09438865 -0.24887857 -0.28194776 -0.07708533 -0.13663565 -0.29803985
-0.30775726 -0.067056246 0.089664206 -0.09223526 0.17083049 -0.009804136 0.08252565 0.19292031
0.18859233 0.10110431 0.29909936 0.07353938 0.40786448 -0.23838541 -0.02694101 -0.12688279
-0.28364983 -0.11768873 0.21119903 -0.08230616 -0.044152837 -0.14419843 0.0037346673 -0.037615206
-0.13780011 -0.110108025 -0.040312573 -0.09748772 0.10355149 0.32005057 0.29902297 0.023618268
0.15667821 -0.009029733 0.16003448 0.15873659 -0.41699296 0.10341464 -0.36867037 0.0032854055
0.16198741 0.20773779 -0.2107068 0.10470289 0.063364886 0.03798936 0.32554618 -0.20527989
-0.16793919 0.24360311 -0.1763157 -0.3892827 -0.01800693 0.2542812 0.08379446 -0.006905786
0.08985573 -0.22639911 0.20615909 -0.20289081 -0.09905263 0.22176303 -0.12952152 0.057262193
0.09791767 0.044347733 -0.01029061 -0.05220605 0.22889364 -0.016978182 -0.13537109 -0.06834964
0.12953426 0.09841786 -0.029173588 -0.11294318 0.44998223 0.0046554846 0.16616845 -0.07705035
0.29496175 0.0056657824 0.030225558 -0.4122253 0.057245024 -0.030797258 0.23603512 -0.18500598
-0.20184292 -0.11960934 0.2016045 0.10171419 0.06801659 -0.17598101 -0.12348451 0.07304897
-0.03191201 0.0058511533 0.0007005409 -0.25526103 -0.118406 0.06587933 0.12098943 -0.36949793
-0.07287599 0.004520324 0.24680825 -0.40189707 -0.19601332 0.035149783 -0.19034295 0.044749826
-0.07575109 0.363354 -0.22205622 -0.41412765 0.20378551 -0.14758258 -0.0897552 -0.11306186
-0.04276317 0.15854825 -0.01857029 0.021378351 0.14139375 0.14846568 0.15777408 -0.22159769
-0.12467589 -0.1709155 -0.094155915 0.12068321 0.069558285 -0.18420842 -0.30677235 -0.36043218
0.034309216 -0.114311 0.009739088 0.041003443 -0.018176317 0.089903615 -0.25251415 0.07369367
0.0113600185 0.09602818 -0.049948644 0.2216223 -0.20076492 0.027862005 -0.032813385 -0.09382958
-0.31067908 0.2071232 -0.09232802 0.2882015 -0.3665405 -0.018692464 -0.107825324 -0.10382027
-0.061778978 -0.005906248 0.27319473 -0.015398535 -0.1502842 -0.31837854 0.094660886 0.042825796
0.06468932 0.024356138 -0.12899804 0.09394121 -0.15854289 -0.13353452 -0.08653507 0.18075867
0.20223188 0.025811337 -0.11671659 -0.44213665 -0.23196332 -0.086168274 0.10320692 -0.27039868
-0.0050957142 0.23268992 0.025523944 0.025335468 -0.30378827 -0.06259438 0.025905313 -0.12178226
-0.093704835 -0.09758382 0.08042293 0.079250455 -0.1931676 -0.0129952105 0.18945922 -0.0014909157
-0.008942006 0.09701154 0.34883767 0.029127248 -0.25399548 0.08974869 -0.085430674 0.18873261
-0.16414852 -0.16568796 0.09107913 0.0061757374 0.5748521 0.108586974 0.26072973 0.16640191
0.12504874 -0.0831951 0.2503934 -0.2827147 0.24670473 -0.073070616 -0.0838458 0.23947024
-0.011327374 -0.3776015 -0.0039509893 0.052978177 0.31653145 0.09852357 0.3451827 0.15891756

mean_net.4.bias f4 [4]
00000000: 86de f6bd 0b4e 993d a69a 973c 3719 003d
-0.12054162 0.07485589 0.01850636 0.031274047
