src/rl/model/actor_model15-08-2024_20-47-30/3650.pt (torch, 84728 bytes, 7 tensors)

logstd f4 [4]
000000 48 33 6f c0 8c 4f 66 c0 f6 4c 66 c0 cc f0 72 c0
       -3.737505 -3.5986052 -3.5984473 -3.795947

mean_net.0.weight f4 [128, 27]
000000 e6 df 5e 3d 45 f2 1d 3e 0b 50 b3 be 96 60 e5 3e
       0.054412745 0.1542445 -0.35022005 0.44800252
000010 6f 10 dd 3d 62 1e dc 3d b3 a9 cf 3d 90 fe a8 3f
       0.1079415 0.107479826 0.101397894 1.3202686
000020 18 01 7f bf b5 70 c2 3e 02 55 b7 3d fd da 4a bf
       -0.99611044 0.37976614 0.08951761 -0.792404
000030 85 ba 02 bf 74 90 45 3e 6a 0e 75 be f1 bc 1a 3e
       -0.51065856 0.19293386 -0.2393128 0.15111138
000040 90 39 34 3e 9d a4 74 3f 5f 02 7e bf 43 7b b8 3d
       0.17600083 0.9556368 -0.9922237 0.09007885
000050 9a 89 31 3c d7 8f 9e be 0b 97 85 3e 27 01 39 be
       0.010836029 -0.30969116 0.260918 -0.18066846
000060 43 b4 65 be eb 1c d7 be dc dc 26 3e df 23 3e bf
       -0.22432046 -0.4201425 0.16295189 -0.74273485
000070 0d af b3 3e 99 1c 8f 3e 33 13 5c bf a0 6e 2f 3f
       0.3509449 0.27951506 -0.85966796 0.68528175
000080 70 33 80 3e 78 30 86 3f ef c1 05 40 b6 14 6d bf
       0.25039244 1.0483541 2.0899618 -0.9260973
000090 92 c0 12 be d0 6b b4 be 47 7a 30 3e f4 20 ea 3e
       -0.14331272 -0.35238504 0.17234145 0.45728266
0000a0 7f f3 e1 3d c8 ca c0 bb 79 79 f0 3d 8e aa 82 bd
       0.11032771 -0.0058835484 0.11741919 -0.06380187
0000b0 55 4c 82 be ac d6 d4 be e4 39 84 3c 49 cb 69 bd
       -0.25448862 -0.41570032 0.016140886 -0.057078633
0000c0 b4 30 a6 be 11 86 39 3e ce d0 6a 3e 18 5a 04 be
       -0.32459033 0.18117549 0.22931215 -0.12924993
0000d0 f0 c5 a0 3e fa b3 34 3d 5f a8 42 3f 12 64 78 3f
       0.31401014 0.04411695 0.76038164 0.97027695
0000e0 ee 17 8b 3e e6 24 d5 3e c5 61 aa 3f 2e ce 92 3e
       0.27166694 0.41629714 1.3311087 0.28672928
0000f0 31 9a 1d bf bb 04 19 c0 19 2b 6b be 1a 69 79 be
       -0.615634 -2.3909137 -0.22965659 -0.243565
000100 04 62 97 3e 53 e9 13 bf d9 77 81 bb 72 5c 23 3d
       0.29566967 -0.577779 -0.0039510545 0.039883085
000110 9f f1 c2 be 7b 93 47 be be 62 5c 3d 45 d8 92 3e
       -0.38074967 -0.19489853 0.053805105 0.28680626
000120 fa 4e cc bf 57 9c 3c be 6e 8e 09 3f fd ba b4 3d
       -1.5961602 -0.18419014 0.53732955 0.08824728
000130 53 52 d6 be 3c 9e c2 bc ad 11 90 be 18 71 39 3e
       -0.41859683 -0.023757093 -0.28138486 0.18109548
000140 da 57 88 3e 4e 7d 11 bf df f1 af 3e f7 fa 43 be
       0.26629525 -0.56831825 0.3436422 -0.19138704
000150 04 99 10 be 77 9d 0f 3f f2 40 0e bf 63 f4 a4 3d
       -0.14120871 0.5609965 -0.5556785 0.080544256
000160 f1 27 af 3f 43 33 e5 be d5 83 c6 be 0f 27 50 be
       1.3684064 -0.44765672 -0.38772455 -0.203274
000170 25 71 46 bc 0e b7 bd be 9a 79 1a 3e 19 71 74 be
       -0.012111937 -0.37053722 0.1508545 -0.23871268
000180 5c df 95 3e 27 1f 15 be a8 6a fc bf f9 03 33 bf
       0.29271972 -0.14562665 -1.9720049 -0.69927937
000190 ba a3 3c be 43 b0 c7 3e d3 d5 d0 3d d1 6b 8f 3f
       -0.18421832 0.39001665 0.10197034 1.1204778
0001a0 b1 b5 3e 3e 13 e1 0d be 84 7c d7 bd 41 70 5d be
       0.18623997 -0.1385539 -0.10521796 -0.21624853
0001b0 ad 00 50 3f 05 f8 4d 3e e2 1a a9 bd a0 11 9f 3e
       0.8125103 0.20114143 -0.082570806 0.31068134
0001c0 61 ec 1d be bc 36 53 bd c6 65 99 be 5f c6 ee 3f
       -0.15422203 -0.05156587 -0.2996046 1.8654288
0001d0 46 47 54 3e 0f 4e 6b 3f f8 4b b4 be d7 64 b4 be
       0.20730314 0.9191598 -0.3521421 -0.35233185
0001e0 88 f9 cc 3e d1 94 c8 be c3 5c 56 3d ac 1a 2a 3e
       0.40034127 -0.39176038 0.05233456 0.16611737
0001f0 23 5e 03 be 2e 7e 23 3f 7b 5e df bf f2 d0 a4 3e
       -0.12828879 0.6386441 -1.7450708 0.32190663
000200 ea 1f 6f bd 1e 80 46 be 6a 8c c4 3e 4b b1 30 3e
       -0.058380045 -0.1938481 0.38388377 0.17255132
000210 38 4e 63 3e 19 59 95 3d f2 e9 e4 3d 0d 36 d5 be
       0.22197807 0.07292385 0.11177434 -0.416428
000220 6c e6 30 3f 2d 98 1c be 78 69 40 3e 77 cb f3 3e
       0.69101596 -0.15292425 0.18790233 0.4761617
000230 79 5a b2 be c9 94 e4 3d 80 ab a1 bf a8 db 64 3f
       -0.3483465 0.11161191 -1.2630463 0.8939767
000240 ff 8e cc 3d ce 9c ff bc 56 f9 8c bd 83 05 88 bd
       0.09988212 -0.0312027 -0.068834946 -0.06641676
000250 91 e4 71 be 2d ce ac ba c1 f6 80 3e d8 e2 1d 3d
       -0.23622347 -0.0013184004 0.25188258 0.038546413
000260 79 1e d6 3f b9 88 af bd 30 b4 0e 3d d7 0d dc 3d
       1.672805 -0.08571 0.03483981 0.10744827
000270 f0 12 35 3f ed 84 a7 3e 6c 0e 9a be f5 e6 e4 3d
       0.7073202 0.32718602 -0.30089128 0.11176864
000280 84 84 b7 3e fb 86 30 be 87 7d 11 3d b4 8b 04 3e
       0.3584329 -0.17238991 0.035520103 0.12943918
000290 1f db 87 bd 5e 62 61 bd 15 e6 fb 3e ff 78 5f 3c
       -0.06633591 -0.05502545 0.49198976 0.013639688
0002a0 a6 80 c3 be c5 06 b2 bf 2e 87 82 bd db b6 d5 be
       -0.38184088 -1.3908316 -0.0637344 -0.4174107
0002b0 cd a9 fb bd a7 13 4c bd 31 5d c2 bf dc e9 7c bd
       -0.12288246 -0.04982343 -1.518469 -0.061746463
0002c0 fe bb 80 be 78 6e 96 be 5e d0 b7 3d 1c 2a 08 3f
       -0.25143427 -0.29381156 0.0897529 0.53189254
0002d0 9f b7 38 bf 6e 37 1b be cd cc 14 3f 6c 62 4b bf
       -0.72155184 -0.15157863 0.58125 -0.79447055
0002e0 41 c5 82 3d ff 9d 1c bd 4c c7 de 3d f2 0a cb bd
       0.063852794 -0.038236614 0.108778566 -0.09914197
0002f0 99 a2 3b bd 72 5a 1a bd 95 5f 64 3f d2 14 b3 bd
       -0.045809362 -0.03768391 0.89208347 -0.087442055
000300 1b 9a 58 be a3 45 02 40 72 5a b7 be 7c 98 18 be
       -0.21152537 2.0355003 -0.35811192 -0.14901918
000310 cb 7b ca 3f 93 6e a5 3f 9d 14 93 bd d3 f3 0a be
       1.5819029 1.292437 -0.07181666 -0.13569574
000320 69 4e 94 be d3 a3 86 3e 9b 49 b5 3e fc ff 15 bd
       -0.28966072 0.26296863 0.3540772 -0.03662108
000330 27 bc dd be ce c6 19 bd af f2 69 3d 19 72 50 3f
       -0.4330761 -0.03754311 0.057116207 0.814241
000340 e3 2f e5 3a da 31 8a 3e c7 9f bd be a0 be 24 bf
       0.0017485585 0.2699116 -0.37035963 -0.6435337
000350 25 93 eb bd 6f 46 60 3e da 70 ec bd 49 67 94 3e
       -0.11502675 0.21901868 -0.11544962 0.2898505
000360 94 11 92 3e 32 ba 2b 3f 34 93 55 3e 16 5b 1c 3f
       0.28529036 0.67080986 0.20856935 0.61076486
000370 37 3f 9d 3f 75 24 91 bd d9 c6 b7 be 74 c9 bf 3f
       1.2284917 -0.07087032 -0.35893896 1.4983354
000380 c6 db 81 3e 1a fc d5 bd b9 4d fc bd c1 e5 d2 3e
       0.25362986 -0.10448475 -0.12319512 0.41190913
000390 78 a4 bd 3e 05 f0 1c be da 65 56 be 2e 62 ea bc
       0.37039542 -0.15325935 -0.20937291 -0.028611269
0003a0 97 68 9d 3e 7c 97 33 be b1 6b 8c 3f b6 93 1b 3e
       0.30743858 -0.17538255 1.0970365 0.15193066
0003b0 3c 9e 36 be f2 67 08 3f 2d 97 76 3e ab e1 b1 bd
       -0.17833799 0.5328361 0.24081106 -0.08685621
0003c0 06 44 05 be 30 e0 98 3c 8b ef 86 3d 68 3d a6 3e
       -0.1301423 0.018661588 0.06588658 0.32468724
0003d0 9b cf 09 3f f0 2c 09 be ac 16 d5 3e 3d 74 b2 bc
       0.53832406 -0.13396049 0.4161886 -0.021783942
0003e0 6e 8e 16 be 5e 2a 5a bf 45 e6 36 3f d3 dc 05 c0
       -0.1470277 -0.852209 0.71445113 -2.091603
0003f0 b0 78 f1 3e 8f 61 73 be e9 ba 33 3f 24 aa ad bf
       0.4716239 -0.23767684 0.7020708 -1.3567548

mean_net.0.bias f4 [128]
000000 a4 ad 47 3e 10 e5 f3 bd 57 c7 55 3e 6b 89 6d 3e
       0.19499832 -0.119089246 0.20876823 0.23196952
000010 8b aa b6 3d 23 d9 97 bd 88 bd 56 3e d8 f4 8e bd
       0.08919247 -0.074144624 0.20970738 -0.06980294
000020 92 98 88 3c 6d fa be bd 70 50 ac 3d 16 5d fd 3d
       0.016674314 -0.09325109 0.0841378 0.1237127
000030 c3 ff 3a 3e 53 92 db 3d 6d b3 98 3b 27 50 56 3c
       0.18261628 0.107212685 0.004660061 0.013080633
000040 6b de 51 3e 85 2d 83 3e 04 c0 16 be f2 11 81 3e
       0.20495002 0.25620666 -0.14721686 0.25209004
000050 a1 75 81 bd 33 1f 46 3e af 3e ae 3c 79 da 0a bb
       -0.06321264 0.19347839 0.021270124 -0.0021187349
000060 cd 68 30 3e d6 9f dd 3d 51 bb 9b bd 05 59 73 3d
       0.17227478 0.10821502 -0.07604087 0.059411068
000070 82 71 7b bd e4 55 fe 3b fc c9 2d be 27 8b 48 be
       -0.061387546 0.007761704 -0.16971582 -0.19584332
000080 11 95 ba 3d ac c3 56 be b3 a6 71 3e ad c1 cd 3d
       0.091104634 -0.2097308 0.23598747 0.10046706
000090 b2 67 e5 bd 51 b3 15 3e d6 d8 e3 3d 69 67 2c 3e
       -0.11201419 0.14619185 0.111253425 0.16836323
0000a0 fb b6 49 3e dd c2 ac bb b3 d2 fc bd 6f 58 7e bd
       0.19698708 -0.005272253 -0.12344875 -0.062096056
0000b0 e4 8e 2d be 5f 79 a6 bd f6 04 b3 3c f0 45 7f 3e
       -0.1694904 -0.081286184 0.021852951 0.24929023
0000c0 6b 35 f1 bb de 66 cc 3d 7a 90 24 be ce 15 b8 3d
       -0.0073611042 0.09980558 -0.16070738 0.08988534
0000d0 fb 61 5d be aa 00 0c be 6e 30 99 3d 51 ce 25 b9
       -0.21619408 -0.13672128 0.0747994 -0.00015812485
0000e0 02 fc 1d be 47 ef 5b be e5 0b 74 be c7 03 07 3e
       -0.15428165 -0.21477996 -0.23832662 0.13185035
0000f0 bf 84 45 3e 16 79 14 3a 2e 36 c8 3b 40 8c 2a 3e
       0.1928892 0.0005663795 0.0061099743 0.16655064
000100 8c c9 1b 3e 18 4e 82 3d aa 91 37 3d 38 89 52 3e
       0.15213603 0.063625515 0.04481665 0.20560157
000110 ed 58 a4 3d 5f 69 75 be 3b db 92 3a 12 ec 0c be
       0.08024774 -0.23965977 0.0011204252 -0.13761929
000120 2b 06 70 3e 9e 0b 18 3e 6f dc 83 3d 49 fc d7 bb
       0.23439853 0.14848182 0.06438529 -0.006591354
000130 d1 ad 3e 3e 65 5a c5 bd 70 00 12 3d 85 83 cb bd
       0.18620993 -0.09636382 0.03564495 -0.09937195
000140 29 a9 3b be 1b 35 6d 3e 52 a5 b5 3d 0a 97 52 3d
       -0.18326248 0.2316479 0.08869423 0.051413573
000150 98 5c 01 be 3d 7d a2 bd ea b4 04 be 53 09 77 3e
       -0.12632978 -0.079340436 -0.12959638 0.2412465
000160 c6 fd ae bd c7 36 8e 3d ff 13 de bd 8f 7b 6a be
       -0.08544497 0.06944042 -0.10843658 -0.22898696
000170 b8 30 69 be ec aa 32 3c f2 34 f9 bd 29 25 1c be
       -0.22772491 0.010905009 -0.12168302 -0.1524855
000180 15 84 d4 bd 78 0b 28 be 35 04 f9 bd b8 1b 43 bd
       -0.10376755 -0.16410625 -0.121590056 -0.047633857
000190 23 6b 34 be 94 dc 01 bd 80 52 21 bd a9 31 ad 3d
       -0.17618994 -0.0317045 -0.03938532 0.084567375
0001a0 04 f3 33 3d dd 85 ec bd 14 c7 6b 3e 96 8a e6 3c
       0.04393293 -0.1154897 0.23025161 0.028142255
0001b0 93 21 ba 3d 66 4c 3b be 77 10 b5 bb b4 43 3e 3b
       0.09088435 -0.18290862 -0.0055256444 0.0029032053
0001c0 15 6a ac bd 15 64 66 3e 0a b3 eb 3d 44 61 75 3b
       -0.08418671 0.22499116 0.11508758 0.0037442008
0001d0 af f4 75 bd b8 f0 2e be b2 60 87 be 6b 97 ce bd
       -0.0600478 -0.17084014 -0.2644096 -0.100874744
0001e0 4a 1b 3f be 1f 6f 6c be 2a 25 d6 3d 12 84 28 3e
       -0.18662754 -0.23089264 0.10456307 0.16456631
0001f0 10 d6 95 bd d1 cd 34 bb 2a 9f 13 3a 2f f4 2f 3e
       -0.0731622 -0.0027588496 0.0005631322 0.17182992

mean_net.2.weight f4 [128, 128]
000000 23 a6 6a be c8 07 76 3d 90 84 b3 3d 91 bd 39 bd
       -0.22914939 0.060066015 0.08765519 -0.0453468
000010 7d 22 95 3d 9e f5 13 3d 21 bf 2d be a9 8b 2c bf
       0.07281969 0.03612291 -0.16967441 -0.67400604
000020 60 41 2e 3d 88 8a 6e be 7b da 4b be d1 10 65 3d
       0.042542815 -0.23295033 -0.19907562 0.05592424
000030 9f 21 6f bd 8b 02 4a 3e 8a 64 03 bd 9b a9 d7 3c
       -0.058381673 0.19727533 -0.032078303 0.026325991
000040 3f 52 76 3c 6f 6e 90 3d 1e 83 ea bd c0 c0 e2 bd
       0.015034257 0.070523135 -0.1145079 -0.110719204
000050 98 8e a9 3e e5 8f e3 3d 2b 05 ff 3d 1f 19 09 3e
       0.33116603 0.1111143 0.124521576 0.13388489
000060 84 8e b9 bc dc 6d f4 bc 9f 1a 21 3e 93 3c 85 3d
       -0.022650965 -0.029837541 0.15732811 0.06505694
000070 79 9a 0d 3e ca 41 44 3e 34 ce 20 3e 99 a4 8c bd
       0.13828458 0.19165722 0.1570366 -0.06867332
000080 99 a4 cf bd 76 c6 44 be 38 70 6f be 87 e8 09 3e
       -0.101388164 -0.19216332 -0.23382652 0.13467608
000090 0f 6c 60 bd f8 33 58 3d 3e 5e ff 3d c1 ba 56 3e
       -0.054790553 0.052783936 0.12469147 0.20969678
0000a0 21 0f 6c 3e d5 0f b3 bd 2c de 55 be 4a b2 f6 bc
       0.23052646 -0.08743254 -0.20885533 -0.030114312
0000b0 ca 52 1f 3d 99 8d 88 3e 8c 15 a2 3e 2e 4a aa 3d
       0.038897313 0.2667053 0.31657064 0.0831493
0000c0 f5 2c ae 3e e6 36 9f 3c 57 76 a4 3e 48 46 be bd
       0.34018674 0.019435357 0.32121536 -0.09290749
0000d0 ee 4d e4 b8 ba 17 34 3e 82 7d ea bd 10 3d 27 be
       -0.00010886403 0.17587176 -0.1144972 -0.16331887
0000e0 1c 56 c0 bd 3b aa 2e 3e 85 02 c5 bc 72 a0 bb be
       -0.09391424 0.17057125 -0.024049053 -0.36645848
0000f0 5d c9 91 3e 18 97 c9 bd d6 26 00 3e 82 21 8a 3e
       0.2847394 -0.09843272 0.12514815 0.2697869
000100 99 75 9e 3e f7 9d f9 3c b0 d6 4b bc 1d 7e 05 3d
       0.30949095 0.030470831 -0.012441322 0.032590974
000110 08 fd ab bd fc 6b 09 bd 21 04 95 bd 6b 91 ff 3c
       -0.08397871 -0.033550248 -0.07276178 0.03119727
000120 be 15 51 be a1 0c 34 bc 35 4b a1 3d cb f5 c7 3e
       -0.2041845 -0.010989339 0.07875673 0.39054713
000130 d1 62 18 3d e8 91 17 3d 68 80 e0 be f9 7f c4 bd
       0.037203614 0.03700438 -0.43847966 -0.09594721
000140 29 b6 35 3e 97 af 02 3e 5d 70 12 3e 52 b2 dd 3d
       0.1774527 0.12762295 0.14300676 0.108250275
000150 1d 35 a0 be 59 fc 94 3e d0 4c 4c bd 9d 18 a9 3c
       -0.31290522 0.29098776 -0.04987794 0.02064162
000160 99 cd c5 3d ac 9a 37 be 48 1a b4 3e c2 06 8a 3c
       0.09658355 -0.17930096 0.351763 0.016848926
000170 df 4c 85 3e 1b bb 1a 3f f4 21 07 3e 28 9c d1 bd
       0.2603521 0.6044175 0.13196546 -0.102348626
000180 c0 fb 33 bd 40 a5 00 be a1 18 99 3e 2a 96 41 3e
       -0.04394126 -0.12563038 0.29901603 0.1890494
000190 6d 36 0b 3d 26 b7 72 be 75 7c 00 bd a6 51 32 be
       0.03398745 -0.23702678 -0.03136869 -0.17413959
0001a0 d0 e7 b3 3d 0e d8 f0 bc b0 df 28 be c4 58 9f 3d
       0.08784449 -0.029399898 -0.1649158 0.077806026
0001b0 ab 92 4b bd 96 e9 9f be 04 0d ad be c0 ac 3d be
       -0.04970042 -0.312329 -0.33798993 -0.1852293
0001c0 c2 30 6f 3d a1 ed 03 3d 67 9b 5a 3d c3 67 0e bc
       0.05839611 0.032209042 0.05337086 -0.008691731
0001d0 e2 64 6a bd c4 a7 68 3e 0c 84 5d bc 14 08 49 bd
       -0.057225116 0.22720248 -0.013520252 -0.04907997
0001e0 2b 76 8a 3e 2a 96 0d be c9 1c 2a 3e 62 39 9a 3c
       0.2704328 -0.13826814 0.16612543 0.01882619
0001f0 fa 24 d2 3b 36 ab 9a bd ef 7a c8 bc 0c a2 ca bd
       0.0064130994 -0.07552187 -0.024472682 -0.09894189
000200 74 b2 47 3e b2 4c 4b be ab 99 df bd d6 83 83 3e
       0.19501668 -0.19853476 -0.10917982 0.2568652
000210 a1 f3 c6 bd 32 c2 8f 3d 81 9a 37 3e 03 ac cc be
       -0.09714437 0.07019462 0.17930032 -0.39974985
000220 5e 19 95 be 76 c6 7e be c9 d5 9d 3d b6 e8 10 3e
       -0.29120916 -0.24880394 0.07706792 0.14151272
000230 f5 9b d9 bd f0 8d c5 bd 83 40 4f 3e f0 5f 8a bd
       -0.106254496 -0.09646213 0.20239453 -0.0675658
000240 8a 15 d8 3a 6b 26 cf bd c2 18 7d 3e 3f 18 2e 3d
       0.0016485911 -0.101147495 0.24716476 0.04250359
000250 2c c9 53 3d 9f 6f 8f be 49 96 dc 3d 5b a1 d2 bc
       0.051705524 -0.28014848 0.10770852 -0.025711706
000260 61 00 7d 3e 6f ab 59 bc f2 a1 53 3e d4 22 de 3d
       0.24707176 -0.013285502 0.20667246 0.10846487
000270 7e b0 55 bd 0e cf 24 3d 2f 6d 5e be a5 ab 23 3e
       -0.05217027 0.040236525 -0.21721338 0.15983446
000280 9e 25 07 be a2 e2 43 be 81 cb 61 bd c2 98 2e 3e
       -0.13197944 -0.19129422 -0.055125717 0.1705046
000290 7c 7d 27 3e 75 b2 1b 3f 16 65 bb 3e e7 8f ee bc
       0.16356462 0.6081918 0.3660056 -0.029121352
0002a0 17 35 64 3e 44 02 09 bd e2 db ab 3e 01 ee 03 be
       0.22285877 -0.033449426 0.33566195 -0.1288376
0002b0 14 9c 2e be 8c 07 aa bd 76 5b 5d be 64 29 6c 3d
       -0.17051727 -0.08302221 -0.21616921 0.05765666
0002c0 cd 08 8b be e7 31 cc bd c8 25 69 bd b1 19 3a be
       -0.27155152 -0.099704556 -0.056920797 -0.18173863
0002d0 36 af 1d 3e 91 00 80 3e 7d 90 28 3c a2 f4 07 be
       0.15398869 0.25000432 0.010288355 -0.13276914
0002e0 69 d9 17 3e be 15 aa 3e 08 5f ae 3c 32 b2 13 3e
       0.14829029 0.33219713 0.021285549 0.14423445
0002f0 60 43 a6 bc e1 ea 0e bf 1a 18 85 3e 98 bd 8b be
       -0.020295799 -0.55827147 0.2599495 -0.27293086
000300 1e 86 70 3e 04 1c 1e 3d 14 a8 5d 3e ea df 69 be
       0.23488662 0.038600937 0.21646148 -0.22839323
000310 b5 03 c6 3e 37 58 93 be 29 35 01 be 44 2c c4 3d
       0.38674703 -0.2877824 -0.12617935 0.095787555
000320 35 4b 38 3e 64 ea 07 bd 4f 3b 71 3e 2a 12 b5 3d
       0.17997439 -0.033182517 0.2355778 0.08841355
000330 cf aa 31 bc 25 8a 08 3f ac b9 f7 3d 0f 24 52 be
       -0.010843947 0.5333579 0.12095961 -0.20521568
000340 b5 fd 34 3d 77 61 3d be 41 b8 1d be fa 99 2b 3e
       0.044187266 -0.18494211 -0.15402319 0.16757956
000350 df 93 ae bd 4a 40 25 be f3 ea 14 be da 86 da bd
       -0.08524298 -0.16137806 -0.14542751 -0.10670252
000360 2f 55 44 bd 34 26 51 be b2 c0 43 3c ce 57 ee bc
       -0.0479328 -0.2042473 0.011947798 -0.029094603
000370 a9 04 2c 3d 17 d9 3c bc 6c e3 20 3d d0 ea b1 bd
       0.04199663 -0.011526368 0.039279386 -0.08687365
000380 cf b2 aa 3e b9 ed a8 bd 8d ed 02 be d4 aa 2e 3e
       0.33339545 -0.08248467 -0.12785931 0.17057353
000390 ee d0 a8 3e 83 ff 08 3d 86 94 bc 3d 68 29 9d bd
       0.329719 0.0334468 0.09208016 -0.07673913
0003a0 8c 52 2c 3f 14 6d 0c 3d b1 a2 2b 3e 32 54 8c 3d
       0.67313457 0.034283713 0.1676128 0.068519965
0003b0 c3 3c a1 be b6 c2 71 3a ce f8 76 3d 91 75 24 bd
       -0.3149167 0.00092224346 0.060295872 -0.040151183
0003c0 53 35 87 3d d0 18 d6 3d 70 52 7f be 57 87 35 3e
       0.06601968 0.10453951 -0.24933791 0.1772741
0003d0 0b a0 ea 3d 57 20 5a 3c 5a b1 4f 3e 33 5f 38 3d
       0.11456307 0.0133133745 0.20282498 0.045012664
0003e0 05 93 82 3e 38 56 1d be 41 ac 31 be d4 08 74 3e
       0.25502792 -0.15364921 -0.17350866 0.23831493
0003f0 ec f9 8e be fe 57 0e be 53 5f 68 be c3 a9 42 3d
       -0.2792505 -0.13900754 -0.22692613 0.04752518

mean_net.2.bias f4 [128]
000000 26 eb 62 3d 51 b0 69 bd b7 62 32 be ab 76 b8 bc
       0.055400036 -0.057052914 -0.17420469 -0.022517523
000010 c3 45 14 3e aa 69 e6 3c 50 d3 4a bc 00 8a 1d 3e
       0.14479737 0.028126556 -0.012379482 0.15384674
000020 be aa 91 bd ab 5f 15 bd c9 e2 00 3e 05 1d 24 be
       -0.071126446 -0.03646819 0.12586512 -0.16026695
000030 d0 49 8d 3d bf 61 80 3e 86 b9 b9 bd a3 4e b3 3d
       0.06898844 0.25074574 -0.09068589 0.08755233
000040 29 3d c1 bd d1 a4 f9 bd e0 e7 8a bb 70 9a b8 3c
       -0.094354935 -0.12189639 -0.0042390674 0.022534579
000050 35 d3 02 3e 20 38 8e bd 03 79 9b bd 62 c0 a6 3d
       0.12775882 -0.06944299 -0.075914405 0.08142163
000060 49 3c 26 bd c3 63 14 3e 32 9b 2d 3e 1f d0 8f 3e
       -0.040584836 0.14491181 0.16953734 0.2808847
000070 0f 54 48 be f5 03 82 3e d6 c5 f1 3b cf 5e 4c 3e
       -0.19563316 0.25393644 0.00737832 0.19958042
000080 ad 8b 4d bd 75 4d fc bd 3f 85 a5 bd 17 14 02 be
       -0.050182033 -0.12319461 -0.08082055 -0.12702976
000090 0d f4 ec 3b 31 6c 41 3e 0e e6 e2 3c ba 59 01 be
       0.0072312416 0.18888928 0.02769759 -0.12631884
0000a0 e1 31 e9 3d b0 26 db bd 9a 96 10 be 0c f8 3e bc
       0.11386467 -0.107007384 -0.1411995 -0.011655819
0000b0 f2 2d 76 3e 29 f1 e2 3d 25 4e a9 3c a2 42 47 bd
       0.24040964 0.11081154 0.020667145 -0.04864753
0000c0 ae 97 18 3d 19 b6 2a bd 30 ca 75 bd 96 28 47 3d
       0.037254028 -0.041677568 -0.060007274 0.04862269
0000d0 7b 2e 44 bd 54 77 ea bd 6c 44 18 bd 8c 4f 08 be
       -0.04789589 -0.11448541 -0.037174627 -0.13311595
0000e0 82 4d e3 3c 8c 51 af bd b9 de 21 be 50 e4 ee bc
       0.02774692 -0.08560476 -0.15807618 -0.029161602
0000f0 99 44 80 be b2 45 3d bd 1b 3b ce bd aa 5e 04 3d
       -0.25052336 -0.046209045 -0.10069867 0.03231684
000100 d6 29 1e 3c e9 65 39 bc db e1 e5 3d 3b 70 b3 bd
       0.009653529 -0.011315801 0.11224719 -0.08761641
000110 16 71 12 3c ce e9 23 3e f6 86 9e bd ce c7 09 3b
       0.008938095 0.16007158 -0.077405855 0.0021023634
000120 34 8b ff 3d a4 c5 e0 bc ed 81 b9 3e 90 8b 93 bd
       0.12477723 -0.027437992 0.36231938 -0.07204354
000130 53 2c af 3c e7 9a 0b be 3f 27 de bd dc 75 4e be
       0.02138344 -0.1363331 -0.10847329 -0.20162147
000140 ca b1 bf bd ff f4 b2 3d a7 56 a1 bd c8 bf ca 3c
       -0.093600824 0.087381355 -0.07877856 0.024749652
000150 ce 8d bb bc 40 1e d3 3c bb 55 a6 bd a7 aa 1d be
       -0.022894766 0.02577126 -0.081218205 -0.1539713
000160 93 ee a3 bd f7 76 ca 3d a5 dd 5e bd c3 71 73 bd
       -0.08004489 0.09885972 -0.054410595 -0.059434664
000170 87 81 42 3e 99 a7 04 be 7f 07 46 3c bb 3f 04 3e
       0.18994723 -0.12954558 0.012086748 0.12914936
000180 0d fe 4c 3c dd 7b fa 3c 0c c1 b0 ba ac 24 12 3e
       0.012511742 0.03057664 -0.0013485267 0.14271802
000190 f0 72 14 3e 01 4f 89 bd 94 1e 68 bd 68 5d 28 bd
       0.1449697 -0.06704522 -0.056669787 -0.041104704
0001a0 dd 49 17 3e 18 e4 3b 3d b5 cb 07 bd 69 7a 1c 3e
       0.1477427 0.045871824 -0.033153255 0.15281071
0001b0 f1 5f 5d 3d a0 95 f5 bb fd fc 96 bd cc 05 39 3e
       0.054046575 -0.0074946433 -0.073724724 0.18068618
0001c0 0d 19 67 3e 3f a7 87 3d b2 85 cf bd b1 73 9f 3d
       0.2256815 0.066236965 -0.10132922 0.07785738
0001d0 5b 90 7e bd 90 61 6d 3e 40 e7 78 3b bf ff 7d 3d
       -0.062149387 0.23181748 0.0037979633 0.062011477
0001e0 9b 4f da 3c 6d ab fe 3d bf 35 85 3d 13 4e c6 3d
       0.026649287 0.124350406 0.06504392 0.0968286
0001f0 70 37 e6 3d 90 39 35 3d c6 2f 96 be a6 69 c3 3d
       0.112410426 0.04424435 -0.29333323 0.09541635

mean_net.4.weight f4 [4, 128]
000000 67 82 ae 3d bd e2 bc be d3 67 23 3d 62 3f b5 be
       0.08520966 -0.36891738 0.039893936 -0.3539992
000010 7f cc 8f be d1 b5 2f 3e 24 64 8b be c7 41 8e be
       -0.28085706 0.17159201 -0.2722484 -0.2778456
000020 ec a2 39 3e 2d 4f c3 3d 1f b8 b3 bc aa e5 6f 3d
       0.18128556 0.09536586 -0.021938382 0.058568634
000030 90 eb a9 3c 8b f6 c0 be 69 44 94 3e 71 d3 9a be
       0.020742208 -0.37688097 0.28958443 -0.30239442
000040 d3 a7 01 3e 9d 9e 80 3d d8 73 c4 bd 6c b3 7e be
       0.12661676 0.06280253 -0.09592408 -0.24873132
000050 81 86 90 be 52 b9 9d bd f2 a0 0b be 21 a5 98 be
       -0.28227618 -0.07701363 -0.13635615 -0.29813483
000060 a2 3d 9d be 97 fc 89 bd c8 80 b9 3d b9 ef bc bd
       -0.30711085 -0.06737631 0.09057766 -0.09225411
000070 b9 62 2e 3e 6a cf 22 bc e6 3b a9 3d 5f 0c 45 3e
       0.17029847 -0.009937147 0.08263378 0.19243
000080 ac 90 41 3e 82 d4 d0 3d 4c ed 98 3e 8c c9 95 3d
       0.18902844 0.10196783 0.29868543 0.07313833
000090 27 75 d0 3e 21 22 73 be cd e6 da bc 27 9d 01 be
       0.4071438 -0.23743488 -0.026721383 -0.12657605
0000a0 8d c9 90 be 4d 5d f0 bd 06 3a 58 3e 30 73 a8 bd
       -0.2827877 -0.11736546 0.21115884 -0.08225095
0000b0 a2 fb 35 bd 85 00 14 be e9 1e 6d 3b 49 a0 18 bd
       -0.04442943 -0.14453323 0.0036181754 -0.037262235
0000c0 ae b0 0c be 69 71 e1 bd bf 8c 25 bd e3 82 c7 bd
       -0.13739273 -0.110079594 -0.04041743 -0.097417615
0000d0 c8 81 d6 3d 6b fb a3 3e c6 f9 98 3e e0 ef c2 3c
       0.104739726 0.32027754 0.29878062 0.023796022
0000e0 43 de 1f 3e bc 98 1e bc cc 0a 23 3e 05 ba 22 3e
       0.1561213 -0.009679969 0.15922087 0.15891273
0000f0 28 b1 d6 be 03 0e d4 3d a2 4d bd be af 7c 49 3b
       -0.41932034 0.10354235 -0.36973292 0.0030744483
000100 c9 46 25 3e 38 42 56 3e a0 6e 56 be 25 af d6 3d
       0.16140284 0.20923698 -0.20940638 0.10482625
000110 7f 52 80 3d ea 5a 1b 3d 9f 7b a6 3e 1a 38 52 be
       0.06265735 0.0379285 0.3251619 -0.20529214
000120 5f 44 2c be de a4 79 3e 7c f8 34 be be e5 c8 be
       -0.16822957 0.24379298 -0.17672914 -0.3923778
000130 0d ce 8f bc 04 a2 81 3e 8f 52 aa 3d 68 a4 f8 bb
       -0.017554307 0.2531892 0.08316528 -0.007587958
000140 50 a9 b9 3d 86 ff 67 be 57 af 51 3e 16 26 4f be
       0.09065497 -0.22656068 0.20477043 -0.20229372
000150 d1 62 ca bd 17 55 63 3e 60 ec 04 be 63 9b 69 3d
       -0.09882129 0.22200428 -0.12980795 0.057032954
000160 2c 08 ca 3d 06 fb 34 3d 91 9d 25 bc 78 ea 52 bd
       0.0986484 0.044184707 -0.010108368 -0.051493138
000170 27 a1 69 3e 13 c5 91 bc 13 b6 08 be 99 88 8b bd
       0.22815381 -0.017794168 -0.13350706 -0.06813163
000180 03 73 04 3e ac 2b ca 3d ca 87 f6 bc 02 2a e6 bd
       0.12934498 0.09871611 -0.030094046 -0.11238481
000190 03 71 e6 3e 97 62 9f 3b 89 9d 2a 3e cc 69 9e bd
       0.45008096 0.0048640477 0.16661657 -0.07735023
0001a0 ab ec 96 3e 38 95 b0 3b 72 8c f4 3c b4 12 d3 be
       0.29477438 0.005388882 0.029852126 -0.41225207
0001b0 2e 04 69 3d 10 b0 ff bc ea 82 71 3e 2b 4a 3d be
       0.05688875 -0.031211883 0.23585096 -0.18485324
0001c0 3c b0 4e be ff d7 f4 bd 92 d4 4d 3e 4f ee cf 3d
       -0.20184416 -0.119552605 0.2010062 0.10152876
0001d0 11 d5 89 3d 95 5f 34 be 6c b3 fd bd 1e 3f 91 3d
       0.06730092 -0.17614587 -0.12387738 0.07092117
0001e0 66 b3 04 bd f5 b1 ba 3b 28 bb e9 ba 44 ce 82 be
       -0.03239765 0.0056974837 -0.0017832266 -0.25547993
0001f0 7a 68 f2 bd 60 e0 87 3d da 04 f6 3d 7b 5b bd be
       -0.118363336 0.06634593 0.12012644 -0.36983857
000200 34 f8 95 bd 5c 65 86 3b 94 75 7d 3e 38 00 ce be
       -0.073227316 0.0041014384 0.24751884 -0.40234542
000210 92 b0 49 be d7 c8 12 3d c1 86 43 be 01 22 3a 3d
       -0.19696262 0.035836067 -0.19094373 0.045442585
000220 a9 01 9c bd 86 89 ba 3e 5a 5e 63 be ab 4e d4 be
       -0.07617504 0.36433047 -0.22203961 -0.4146627
000230 e7 e6 51 3e 99 47 16 be fd 9a b8 bd df 72 e9 bd
       0.20498239 -0.1467575 -0.09013937 -0.11398863
000240 80 6c 2e bd 90 6e 21 3e 32 3b 92 bc d6 71 bd 3c
       -0.042583942 0.15764832 -0.017850492 0.02312557
000250 66 e9 10 3e ca 56 19 3e 9d 82 1f 3e 84 62 64 be
       0.14151534 0.14974514 0.15577169 -0.22303206
000260 9f 38 ff bd e0 a5 2f be a0 04 c1 bd 45 de f4 3d
       -0.124619715 -0.1715312 -0.0942471 0.11956457
000270 9c 71 8f 3d 48 46 3c be 08 0b 9d be 1c 31 b7 be
       0.07004091 -0.18386185 -0.3067248 -0.35779655
000280 b7 68 0d 3d 9b a4 e9 bd 1d 5e 1f 3c 34 9c 22 3d
       0.034523692 -0.11408349 0.009727028 0.03969975
000290 5f a2 8b bc 74 9d ba 3d c7 22 81 be bf be 95 3d
       -0.017045198 0.09112063 -0.25221846 0.073117726
0002a0 3b 32 27 3c 80 78 c4 3d d0 2b 4c bd 4e 43 63 3e
       0.010204847 0.09593296 -0.04984647 0.22193643
0002b0 f4 a8 4d be 39 f8 e5 3c 32 f0 0b bd 0f 2d bf bd
       -0.20083982 0.028072463 -0.034164615 -0.09334766
0002c0 84 d3 9e be 61 0a 54 3e 31 b1 bd bd 2c bd 94 3e
       -0.3102075 0.20707084 -0.09262312 0.29050577
0002d0 bf 68 ba be 7e 15 96 bc 8c d6 dc bd 13 98 d5 bd
       -0.3640804 -0.018320795 -0.10783109 -0.104293965
0002e0 d6 6a 82 bd 2b ca c6 bb d1 73 8b 3e bb af 7d bc
       -0.063680336 -0.006066581 0.27236798 -0.015483792
0002f0 51 f0 17 be 24 3b a3 be 40 53 c1 3d aa 2c 2f 3d
       -0.14837767 -0.31881058 0.09439707 0.042767204
000300 7f a1 84 3d 1e e2 e0 3c eb e3 03 be cd 6a c2 3d
       0.064761154 0.027451571 -0.12879913 0.09493027
000310 31 ef 21 be 87 75 07 be ff e0 b0 bd a5 51 3a 3e
       -0.158139 -0.13228427 -0.086366646 0.18195207
000320 45 cf 4e 3e 6e 3d d9 3c 32 90 ed bd d3 1d e2 be
       0.20196255 0.02651855 -0.11599769 -0.4416338
000330 89 c2 6d be fe ed b0 bd c9 9f d4 3d 73 0e 8a be
       -0.2321874 -0.086391434 0.10382039 -0.2696415
000340 62 ed a8 bb 68 05 6e 3e 40 cf d4 3c 99 c7 cc 3c
       -0.0051552514 0.2324425 0.02597773 0.02499752
000350 91 4a 9b be 23 6d 85 bd dd bd d3 3c 7d 35 f9 bd
       -0.30330327 -0.06514957 0.02584737 -0.12168405
000360 82 d1 c0 bd 31 57 c8 bd 5e 7e a3 3d d3 bc a3 3d
       -0.094149604 -0.097822554 0.07983087 0.07995
000370 8c 77 46 be 51 ae 76 bc a0 8a 41 3e 95 b3 cb 39
       -0.19381541 -0.015056209 0.18900537 0.00038852976
000380 dd b0 14 bc e1 e9 c5 3d 7c 91 b3 3e a3 38 e8 3c
       -0.009075371 0.096637495 0.35071933 0.028347319
000390 0c e2 81 be c6 ac b6 3d a0 bd ae bd 52 72 41 3e
       -0.25367773 0.08919673 -0.08532262 0.18891266
0003a0 99 0d 29 be e2 bd 28 be 77 68 b9 3d 58 ca af 3b
       -0.16509093 -0.16478685 0.09053128 0.0053646974
0003b0 38 1c 13 3f 01 9b de 3d b6 07 85 3e 66 c1 2a 3e
       0.57464933 0.108694084 0.25982445 0.16675338
0003c0 14 e1 ff 3d 86 72 a9 bd ea bf 80 3e c8 aa 90 be
       0.12494102 -0.08273797 0.2514642 -0.28255296
0003d0 12 2c 7c 3e fb 83 91 bd f0 be ac bd 46 5d 74 3e
       0.24626186 -0.071052514 -0.08434856 0.23863706
0003e0 50 9e 2c bc 8d 52 c1 be 74 21 ae ba 4f d0 59 3d
       -0.0105357915 -0.37758294 -0.0013285116 0.053177174
0003f0 9d 6e a2 3e cd 7c c9 3d 53 e9 b0 3e 9a e2 21 3e
       0.31725016 0.09838257 0.34553012 0.15809098

mean_net.4.bias f4 [4]
000000 a3 b7 f7 bd c7 59 99 3d b5 6b 97 3c 77 79 fe 3c
       -0.12095573 0.07487827 0.018483976 0.031063778
