src/rl/model/actor_model15-08-2024_20-47-30/380.pt (torch, 84719 bytes, 7 tensors)

logstd f4 [4]
-1.1165916 -1.3728613 -1.0437393 -1.4185095
00000000: 79ec 8ebf ebb9 afbf 4099 85bf b891 b5bf

mean_net.0.weight f4 [128, 27]
-0.07356343 0.15780322 -0.31570092 0.4265047 -0.102464 0.006931362 0.09603244 1.1453378
-0.72562236 0.37180683 -0.02340676 -0.8310221 -0.5420313 0.18035282 -0.23775779 0.15557842
0.15485163 0.80179155 -0.87036127 0.09618906 -0.18813579 -0.2747077 0.17184809 -0.19144858
-0.23289956 -0.407414 0.15257515 -0.7255301 0.40957847 0.28193954 -0.77666306 0.27327195
0.16948588 1.0365418 2.145466 -0.9421975 -0.1523809 -0.37212968 0.1582248 0.4242195
0.14372027 0.022062374 0.11414447 -0.09850163 -0.20279704 -0.51375073 0.022021217 -0.04091874
-0.368552 0.30264115 0.24560228 -0.1280567 0.30696845 0.058043804 0.80929935 0.73148644
0.24602868 0.19621797 1.0765021 0.119011484 -0.6174884 -2.2305396 -0.2409946 -0.25077158
0.3019385 -0.32706565 0.029138668 0.04600795 -0.37768784 -0.16401383 0.031670988 0.07061512
-1.599469 -0.18538779 0.39293486 0.3078533 -0.34240577 -0.0075001386 -0.26686025 0.19429468
0.27776444 -0.38735196 0.14174262 -0.14903675 -0.2065974 0.359766 -0.3682232 0.08009712
1.4382229 -0.29858285 -0.39358926 -0.16759618 0.09052108 -0.38195655 0.15750097 -0.2176877
0.27268937 -0.15282665 -1.6330494 -0.8519375 -0.17753556 0.46119186 0.09363748 1.1327324
0.17926727 -0.13970281 -0.095944636 -0.22598039 0.71720546 0.261162 -0.04986198 0.43106773
-0.23558459 0.009832922 -0.29654142 1.6887087 0.26460752 0.91357064 -0.39100516 -0.37008455
0.39852768 -0.33401993 0.057556573 0.14770074 -0.11726634 0.78999215 -1.782891 0.33596396
-0.18719473 -0.21896806 0.33787853 0.16815078 0.2218761 0.08168556 0.11816168 -0.30687594
0.6469258 -0.151757 0.17344183 0.35090247 -0.12873647 0.10686757 -1.2722136 0.7877402
0.095404804 0.014942689 -0.18577987 -0.038023762 -0.20842354 -0.015967263 0.23268245 0.06020695
1.8823684 0.009269461 0.029670753 0.104037724 0.6075013 0.30576518 -0.3026344 0.109111436
0.3425837 -0.17652015 -0.046945527 -0.042615477 -0.087976344 0.017021518 0.5113319 0.018152645
-0.39383736 -1.2218645 -0.084894374 -0.4018562 -0.13268699 -0.02953187 -1.4287195 -0.0760983
-0.2121476 -0.25113508 0.08296986 0.0863834 -0.47832367 -0.14785683 0.7365538 -0.38973442
0.066112645 -0.04272991 0.11438232 -0.09525851 -0.04786847 -0.05893719 0.73781323 -0.07452539
-0.24141829 1.8147373 -0.09939465 -0.16431682 1.584316 1.0693144 -0.09746147 -0.17290258
-0.20261683 0.24105433 0.31971768 -0.078818604 -0.40545768 -0.057599735 -0.34498587 0.64085734
-0.004153398 0.2255452 -0.34317866 -0.606481 -0.12002153 0.20740454 -0.11010222 0.27245003
0.16631562 0.6176563 0.20887625 0.6675982 1.3620223 -0.038412865 -0.41867474 1.3152132
0.09972094 -0.12607925 -0.1086606 0.17326698 0.34141558 -0.14194976 -0.17647444 -0.012303977
0.2875664 -0.13826895 0.91695076 0.15254319 -0.20089531 0.38288406 0.4013763 -0.07483953
-0.10624865 0.025254644 0.08700927 0.4565937 0.37958583 -0.11700966 0.31053936 0.0098540215
-0.26084527 -0.8441207 0.7980707 -1.9633244 0.4577941 -0.2732002 0.6209808 -1.3502032
00000000: 6ca8 96bd 2b97 213e 8da3 a1be d35e da3e
00000010: a5d8 d1bd 7b20 e33b a8ac c43d 6e9a 923f
00000020: 63c2 39bf 775d be3e 89bf bfbc ddbd 54bf
00000030: 90c2 0abf 69ae 383e c776 73be f34f 1f3e
00000040: 6d91 1e3e 3642 4d3f ffcf 5ebf c5fe c43d
00000050: aba6 40be 7da6 8cbe f2f8 2f3e 190b 44be
00000060: 397d 6ebe 9198 d0be a93c 1c3e 57bc 39bf
00000070: 45b4 d13e 615a 903e 64d3 46bf 4dea 8b3e
00000080: b58d 2d3e 67ad 843f 514f 0940 db33 71bf
00000090: bd09 1cbe c887 bebe af05 223e 4c33 d93e
000000a0: 682b 133e 27bc b43c 93c4 e93d 39bb c9bd
000000b0: 07aa 4fbe 2b85 03bf d765 b43c 699a 27bd
000000c0: d9b2 bcbe c8f3 9a3e 2a7f 7b3e 4c21 03be
000000d0: f82a 9d3e 57bf 6d3d 3e2e 4f3f b242 3b3f
000000e0: f1ee 7b3e 5ded 483e d2ca 893f 4bbc f33d
000000f0: b813 1ebf 29c1 0ec0 4ac7 76be 2265 80be
00000100: af97 9a3e 2675 a7be 37b4 ee3c d572 3c3d
00000110: 4d60 c1be 3ef3 27be 70b9 013d a99e 903d
00000120: 66bb ccbf 4cd6 3dbe c22e c93e f39e 9d3e
00000130: cf4f afbe b9c3 f5bb e8a1 88be 2ff5 463e
00000140: 2437 8e3e ff52 c6be fa24 113e 179d 18be
00000150: 458e 53be 4033 b83e c087 bcbe f509 a43d
00000160: b017 b83f dadf 98be 8884 c9be 559e 2bbe
00000170: 1e63 b93d cf8f c3be ef47 213e 86e9 5ebe
00000180: f19d 8b3e 977e 1cbe c307 d1bf 9318 5abf
00000190: e2cb 35be 5721 ec3e 02c5 bf3d 60fd 903f
000001a0: d791 373e 410e 0fbe 9f7e c4bd 6767 67be
000001b0: c79a 373f 07b7 853e 133c 4cbd e9b4 dc3e
000001c0: 163d 71be 441a 213c 47d4 97be 9b27 d83f
000001d0: a37a 873e c4df 693f d431 c8be b97b bdbe
000001e0: d20b cc3e a904 abbe 71c0 6b3d dd3e 173e
000001f0: 5629 f0bd ed3c 4a3f c635 e4bf 7803 ac3e
00000200: faaf 3fbe 2a39 60be 6afe ac3e b82f 2c3e
00000210: 7d33 633e c24a a73d c0fe f13d d81e 9dbe
00000220: ee9c 253f 3066 1bbe bc9a 313e 7da9 b33e
00000230: 7ed3 03be 62dd da3d e5d7 a2bf 57a9 493f
00000240: 9863 c33d 2ed2 743c 143d 3ebe cebe 1bbd
00000250: fb6c 55be c7cd 82bc 4f44 6e3e 909b 763d
00000260: 73f1 f03f f0de 173c 1410 f33c bb11 d53d
00000270: 3585 1b3f 418d 9c3e e5f2 9abe d175 df3d
00000280: 2167 af3e b3c1 34be f449 40bd 918d 2ebd
00000290: f12c b4bd b670 8b3c a6e6 023f dbb4 943c
000002a0: 0da5 c9be 0e66 9cbf 1add adbd 19c0 cdbe
000002b0: 19df 07be d2ec f1bc 48e0 b6bf 6dd9 9bbd
000002c0: 383d 59be c794 80be 1aec a93d c8e9 b03d
000002d0: d7e6 f4be c867 17be ca8e 3c3f 458b c7be
000002e0: 1166 873d 8f05 2fbd 4741 ea3d e516 c3bd
000002f0: bb11 44bd 1f68 71bd 54e1 3c3f c5a0 98bd
00000300: 5b36 77be 5049 e83f 6c8f cbbd ab42 28be
00000310: deca ca3f 4bdf 883f e199 c7bd 600d 31be
00000320: c97a 4fbe f2d6 763e 09b2 a33e a66b a1bd
00000330: 2698 cfbe b3ed 6bbd fda1 b0be 3a0f 243f
00000340: 3a19 88bb 52f5 663e 1db5 afbe 5742 1bbf
00000350: d9cd f5bd db61 543e 467d e1bd 927e 8b3e
00000360: a44e 2a3e b91e 1e3f a8e3 553e b7e7 2a3f
00000370: bf56 ae3f cf56 1dbd 895c d6be e858 a83f
00000380: 7e3a cc3d eb1a 01be 7389 debd e66c 313e
00000390: 06ce ae3e 475b 11be b7b5 34be 9f96 49bc
000003a0: e73b 933e 6096 0dbe 49bd 6a3f 4834 1c3e
000003b0: 80b7 4dbe 6109 c43e 3281 cd3e 7845 99bd
000003c0: e498 d9bd d4e2 ce3c eb31 b23d a6c6 e93e
000003d0: 1359 c23e c3a2 efbd 04ff 9e3e c372 213c
000003e0: 838d 85be 4b18 58bf 5d4e 4c3f 374e fbbf
000003f0: fd63 ea3e e6e0 8bbe 99f8 1e3f 75d3 acbf

mean_net.0.bias f4 [128]
0.19014487 -0.11374864 0.21720429 0.2298792 0.09566705 -0.076638736 0.20888455 -0.077457964
0.04156846 -0.079128884 0.08425962 0.11334178 0.18976189 0.093576945 0.012274265 -0.00047385876
0.21396436 0.25812334 -0.17516752 0.23807798 -0.066460714 0.18735597 0.026579056 -0.0020791898
0.16813664 0.10710529 -0.07558979 0.0875072 -0.086366795 0.0032644088 -0.17242408 -0.19142817
0.098262966 -0.20577842 0.22055894 0.11012894 -0.102043 0.12758443 0.08846296 0.16355711
0.19701415 -0.0033074368 -0.12499749 -0.05091555 -0.16771074 -0.09137115 0.028123803 0.23935366
-0.0013697349 0.09873458 -0.16310374 0.102199726 -0.23840389 -0.14260527 0.07674189 -0.0005812916
-0.1534506 -0.21097507 -0.22694048 0.13237657 0.2026332 0.01431773 0.02473897 0.15952913
0.14823005 0.062461693 0.04494643 0.20358245 0.07052423 -0.225665 0.00083951914 -0.13844675
0.21662061 0.15716873 0.076054715 0.02333043 0.1967391 -0.10004266 0.03548109 -0.10208465
-0.19305687 0.27697486 0.09502337 0.049138602 -0.11836909 -0.07651364 -0.11969923 0.2402012
-0.0790439 0.08066638 -0.11536928 -0.24682589 -0.21514602 -0.0006659324 -0.113582745 -0.14817059
-0.11205876 -0.15540707 -0.11447168 -0.06414601 -0.17669083 -0.01632208 -0.034901556 0.07285999
0.037480157 -0.106033556 0.23159005 0.036275093 0.10599039 -0.18070737 0.0040079993 0.0051023928
-0.09039502 0.2138874 0.10992688 -0.002937703 -0.0584639 -0.16770709 -0.26833507 -0.12222546
-0.2062763 -0.1938861 0.11928702 0.14804862 -0.05357684 -0.0039964328 -0.00028449862 0.15378699
00000000: 56b5 423e 0cf5 e8bd cd6a 5e3e 7465 6b3e
00000010: 16ed c33d c5f4 9cbd d5e5 553e 48a2 9ebd
00000020: b143 2a3d 530e a2bd 4f90 ac3d bc1f e83d
00000030: f150 423e 45a5 bf3d 001a 493c 3f70 f8b9
00000040: 7919 5b3e be28 843e 1d5f 33be b7ca 733e
00000050: 8e1c 88bd 3eda 3f3e 52bc d93c 0443 08bb
00000060: 032c 2c3e 055a db3d d2ce 9abd fa36 b33d
00000070: 13e1 b0bd b1ef 553b f08f 30be bf05 44be
00000080: 183e c93d 94b7 52be 34da 613e 488b e13d
00000090: ecfb d0bd 7ea5 023e 122c b53d 847b 273e
000000a0: 14be 493e 95c1 58bb affe ffbd d38c 50bd
000000b0: 5dbc 2bbe cc20 bbbd e463 e63c 2019 753e
000000c0: ad88 b3ba 5b35 ca3d ab04 27be 174e d13d
000000d0: 2620 74be 1e07 12be da2a 9d3d d261 18ba
000000e0: 2722 1dbe d909 58be 1663 68be b98d 073e
000000f0: 147f 4f3e ea94 6a3c 61a9 ca3c 9b5b 233e
00000100: 9ec9 173e d5d7 7f3d bf19 383d eb77 503e
00000110: 026f 903d ba14 67be 2d13 5c3a fcc4 0dbe
00000120: cbd1 5d3e d7f0 203e 93c2 9b3d 751f bf3c
00000130: fa75 493e 2be3 ccbd 9f54 113d c211 d1bd
00000140: b3b0 45be a6cf 8d3e 9d9b c23d 8f45 493d
00000150: 7e6b f2bd 2fb3 9cbd df24 f5bd 4ef7 753e
00000160: c5e1 a1bd 6a34 a53d bb46 ecbd edbf 7cbe
00000170: 3d4f 5cbe f891 2eba 129e e8bd 08ba 17be
00000180: 107f e5bd 0823 1fbe 2170 eabd fc5e 83bd
00000190: 71ee 34be e2b5 85bc eff4 0ebd 9e37 953d
000001a0: cb84 193d 1f28 d9bd f125 6d3e 3195 143d
000001b0: 7d11 d93d 5a0b 39be 8955 833b f931 a73b
000001c0: 0621 b9bd 4c05 5b3e 5821 e13d 7a86 40bb
000001d0: d877 6fbd 68bb 2bbe 3763 89be 5851 fabd
000001e0: 183a 53be 148a 46be c14c f43d 0f9a 173e
000001f0: 6373 5bbd 82f4 82bb c228 95b9 567a 1d3e

mean_net.2.weight f4 [128, 128]
-0.23644993 0.104995675 0.071814105 -0.12782626 0.054008104 0.07986227 -0.16911043 -0.37036166
0.0425869 -0.2688007 -0.1464484 0.06097525 -0.044946276 0.18158263 0.022956759 0.0041168756
-0.01063479 0.08824009 -0.14466648 -0.094324745 0.2228143 0.10231004 0.16123118 0.11295643
-0.0046002455 0.002791794 0.21053843 0.058960833 0.088655785 0.18655476 0.15757744 -0.0787364
-0.08777568 -0.16044976 -0.13632949 0.0056182584 0.1395643 0.059007373 0.088682845 0.22505899
0.2646196 -0.07118227 -0.072597764 -0.010955872 0.010729084 0.07861328 0.19083546 0.04466092
0.26793274 -0.023487424 0.27569768 -0.08090933 0.0051608593 0.14730099 -0.12698428 -0.15400293
-0.058730647 0.12106218 -0.03767246 -0.37311044 0.23059508 -0.075735494 0.062044602 0.118215136
0.15706079 -0.0030789452 0.06849319 -0.016629564 -0.0673528 -0.031039365 0.011842911 0.028229075
-0.21929727 -0.0011286432 0.12858205 0.37468347 0.019267267 0.010737596 -0.24650446 -0.092891715
0.18295093 0.15580803 0.15658619 0.13544168 -0.007620922 0.2543011 -0.10502912 0.0076617445
0.10331052 -0.14379916 0.3326036 0.011093854 0.2671989 0.4886815 0.098942064 -0.070592605
0.010222424 -0.11940537 0.25760493 0.17901823 0.099994704 -0.19245702 -0.022838956 -0.108198844
0.047566306 0.022037312 -0.21017674 0.111780435 -0.07427471 -0.23427065 -0.3208532 -0.1698316
0.045373686 -0.01150532 0.09176846 0.069249555 -0.010405846 0.16108996 0.008176692 0.008026617
0.199863 -0.10353386 0.20308328 0.002669699 -0.024459347 -0.11394053 -0.0326971 -0.09704718
0.19511306 -0.19670495 -0.005009542 0.18872693 -0.10786289 0.12986957 0.15028383 -0.2457396
-0.20845318 -0.24456498 0.057502817 0.17314719 -0.103004314 -0.07854856 0.20653918 -0.06563132
0.049914666 -0.1026626 0.22402233 0.034041885 0.10155436 -0.27636147 0.08467423 -0.023350084
0.23388551 0.015714884 0.20922513 0.12679511 -0.03354728 0.02920825 -0.107106976 0.16393615
-0.12786512 -0.1841743 -0.036893208 0.08660624 0.21683489 0.5898675 0.31833684 -0.011191185
0.2051691 -0.052501854 0.3036985 -0.07106783 -0.14522295 -0.13290915 -0.1759627 0.04292179
-0.12961516 -0.09365221 -0.030722983 -0.15394436 0.16204797 0.24135801 -0.022138154 -0.11312714
0.15943405 0.22668526 0.0296698 0.15792991 -0.02797976 -0.5345682 0.18207802 -0.19450068
0.17511567 0.052252043 0.16312812 -0.21406364 0.40920407 -0.24569756 -0.10486496 0.17239088
0.15782084 -0.049583238 0.18648538 0.084531166 -0.04940126 0.5200183 0.08480175 -0.20524068
0.050104015 -0.11432748 -0.028956536 0.11189368 0.10998925 -0.17185204 -0.079753235 -0.120653614
-0.043030463 -0.17860942 0.017949631 -0.0110226935 0.06282248 -0.003078532 -0.026741289 -0.102534145
0.39935562 -0.078906596 -0.09806934 0.21239953 0.3146514 0.016854761 0.08063769 -0.07499921
0.59164804 0.08326124 0.09573262 0.06522344 -0.4362291 -0.018089507 0.061197698 -0.033825547
0.07476399 0.12300775 -0.1375686 0.1747669 0.09585782 0.037802514 0.23005451 0.05721575
0.1912026 -0.114820234 -0.15802908 0.20156263 -0.26446334 -0.11980509 -0.25825417 0.12102104
00000000: ee1f 72be f907 d73d 4613 933d e3e4 02be
00000010: 9a37 5d3d d48e a33d 492b 2dbe 0ba0 bdbe
00000020: 9a6f 2e3d 3fa0 89be 92f6 15be 2fc1 793d
00000030: 9619 38bd ccf0 393e d00f bc3c dbe6 863b
00000040: 8b3d 2ebc 38b7 b43d 7323 14be 552d c1bd
00000050: 6f29 643e ed87 d13d c919 253e b355 e73d
00000060: a8bd 96bb 88f6 363b 6397 573e ea80 713d
00000070: 2a91 b53d 3608 3f3e fb5b 213e 8d40 a1bd
00000080: bcc3 b3bd f14c 24be f599 0bbe 5e19 b83b
00000090: f2e9 0e3e b7b1 713d 5a9f b53d dd75 663e
000000a0: 387c 873e 03c8 91bd 23ae 94bd 4280 33bc
000000b0: 0ac9 2f3c 0000 a13d 5f6a 433e 5eee 363d
000000c0: 7b2e 893e b368 c0bc 3f28 8d3e cab3 a5bd
000000d0: 6d1c a93b 12d6 163e 2b08 02be f2b2 1dbe
000000e0: 8c8f 70bd 73ef f73d 704e 1abd 5508 bfbe
000000f0: 1e21 6c3e 361b 9bbd 7b22 7e3d c71a f23d
00000100: 8bd4 203e 21c8 49bb 2846 8c3d b93a 88bc
00000110: 44f0 89bd 4446 febc c508 423c a940 e73c
00000120: 778f 60be fbee 93ba 03ab 033e 83d6 bf3e
00000130: 63d6 9d3c beec 2f3c aa6b 7cbe 033e bebd
00000140: 7d57 3b3e 248c 1f3e 2158 203e 39b1 0a3e
00000150: edb8 f9bb c133 823e 8219 d7bd 5f0f fb3b
00000160: 7794 d33d 1640 13be 054b aa3e ffc2 353c
00000170: 4bce 883e 7634 fa3e 23a2 ca3d db92 90bd
00000180: f47b 273c cd8a f4bd cbe4 833e 8e50 373e
00000190: 06ca cc3d 7413 45be c318 bbbc 5b97 ddbd
000001a0: e3d4 423d 9887 b43c 9238 57be 24ed e43d
000001b0: 571d 98bd a5e4 6fbe df46 a4be 56e8 2dbe
000001c0: c2d9 393d cf80 3cbc 1af1 bb3d b6d2 8d3d
000001d0: 487d 2abc c4f4 243e 88f7 053c 1282 033c
000001e0: e3a8 4c3e 8f09 d4bd 10f5 4f3e 1ef6 2e3b
000001f0: f85e c8bc a759 e9bd 65ed 05bd acc0 c6bd
00000200: b8cb 473e 066d 49be 1627 a4bb a241 413e
00000210: 38e7 dcbd 87fc 043e 01e4 193e 29a3 7bbe
00000220: c074 55be 3e6f 7abe 1388 6b3d 7f4d 313e
00000230: edf3 d2bd 11de a0bd 027f 533e b769 86bd
00000240: 5273 4c3d c540 d2bd 1c66 653e 816f 0b3d
00000250: bbfb cf3d 407f 8dbe af69 ad3d ad48 bfbc
00000260: af7f 6f3e 80bc 803c 1d3f 563e 94d6 013e
00000270: df68 09bd 2446 ef3c e75a dbbd e1de 273e
00000280: 13ef 02be 3098 3cbe 551d 17bd 9d5e b13d
00000290: f709 5e3e 8e01 173f 0cfd a23e 3b5b 37bc
000002a0: d917 523e 2f0c 57bd 5f7e 9b3e 038c 91bd
000002b0: 53b5 14be 5619 08be 912f 34be c2ce 2f3d
000002c0: d6b9 04be bbcc bfbd c4ae fbbc 97a3 1dbe
000002d0: e7ef 253e 8e26 773e 135b b5bc 34af e7bd
000002e0: ae42 233e 2e20 683e 150e f33c 61b8 213e
000002f0: cf35 e5bc 76d9 08bf a972 3a3e 302b 47be
00000300: 8651 333e 3d06 563d 0f0b 273e 8033 5bbe
00000310: 3283 d13e 2498 7bbe 71c3 d6bd 3c87 303e
00000320: c99b 213e cb17 4bbd 06f6 3e3e ad1e ad3d
00000330: fa58 4abd eb1f 053f 8aac ad3d 9d2a 52be
00000340: de39 4d3d 8724 eabd 4236 edbc 8428 e53d
00000350: 0b42 e13d fbf9 2fbe aa55 a3bd 3e19 f7bd
00000360: b640 30bd 63e5 36be 1b0b 933c 8798 34bc
00000370: 13a9 803d 32c1 49bb 8c10 dbbc 6cfd d1bd
00000380: 5778 cc3e c899 a1bd 94d8 c8bd 437f 593e
00000390: fd19 a13e ff12 8a3c 6025 a53d 3099 99bd
000003a0: 3f76 173f de84 aa3d 770f c43d de93 853d
000003b0: 6c59 dfbe 7230 94bc 70aa 7a3d a88c 0abd
000003c0: dd1d 993d 7deb fb3d c8de 0cbe 18f6 323e
000003d0: 1b51 c43d cfd6 1a3d 6993 6b3e 105b 6a3d
000003e0: 9dca 433e df26 ebbd 60d2 21be 6f66 4e3e
000003f0: bd67 87be 5f5c f5bd e439 84be e1d9 f73d

mean_net.2.bias f4 [128]
0.056016292 -0.0639955 -0.15494007 -0.035540663 0.14716804 0.047257055 -0.008392961 0.13374609
-0.08430997 -0.021858895 0.12513444 -0.16043295 0.09548687 0.23400803 -0.065518655 0.089348406
-0.095768996 -0.13002972 -0.029647605 0.007947809 0.10333213 -0.06266159 -0.08655192 0.096761994
-0.024801278 0.13461058 0.15141858 0.24592371 -0.19318369 0.23537453 0.008521086 0.21427149
-0.033127226 -0.09000355 -0.080921404 -0.13122861 -0.021074798 0.19671904 0.017289728 -0.13267474
0.11431269 -0.082258835 -0.13374081 -0.010894503 0.19413485 0.106779225 0.02857614 -0.06886647
0.026643239 -0.047493037 -0.07210156 0.011147778 -0.062927715 -0.08951175 -0.07075195 -0.115541525
0.04146753 -0.0822973 -0.12261856 -0.048356473 -0.24483815 -0.060292397 -0.102246 0.033375714
0.015907567 -0.013744577 0.111178875 -0.10204463 0.027372349 0.14013083 -0.050668985 0.017606193
0.111960985 -0.025692549 0.33300716 -0.07106335 0.0462112 -0.12957615 -0.12269592 -0.21714579
-0.11284745 0.08820674 -0.059391417 0.043504644 -0.009906284 0.027584378 -0.055464603 -0.13842797
-0.081472255 0.10019648 -0.056947283 -0.060167693 0.1782885 -0.13006201 0.03069129 0.14582744
0.009522646 0.03730965 -0.008905196 0.11718663 0.14282635 -0.045225278 -0.034865893 -0.043731462
0.12304159 0.058840856 -0.050051395 0.15597771 0.011216106 -0.0016146542 -0.068796836 0.17232315
0.22006898 0.038867828 -0.091827326 0.057050508 -0.0770051 0.21305285 0.0020641475 0.060671013
0.01259495 0.12991983 0.07081757 0.06461359 0.08595614 0.06087652 -0.2504425 0.05829865
00000000: 5771 653d 1310 83bd 9ca8 1ebe 1693 11bd
00000010: 38b3 163e 9d90 413d a182 09bc bcf4 083e
00000020: b5aa acbd 6d11 b3bc 3e23 003e 8948 24be
00000030: 9f8e c33d cd9f 6f3e a52e 86bd 4cfc b63d
00000040: 8922 c4bd 8326 05be 89df f2bc 8737 023c
00000050: cc9f d33d b854 80bd 2242 b1bd 272b c63d
00000060: 0d2c cbbc 5bd7 093e 790d 1b3e 6dd3 7b3e
00000070: f2d1 45be 0506 713e 069c 0b3c fc69 5b3e
00000080: 6ab0 07bd c853 b8bd 1fba a5bd cb60 06be
00000090: 0ea5 acbc b770 493e 30a3 8d3c e3db 07be
000000a0: c61c ea3d 5277 a8bd 5af3 08be dc7e 32bc
000000b0: 49cb 463e 11af da3d 8218 ea3c dd09 8dbd
000000c0: ec42 da3c 0f88 42bd fca9 93bd 2ba5 363c
000000d0: 3fe0 80bd f051 b7bd 66e6 90bd 09a1 ecbd
000000e0: dbd9 293d 7d8b a8bd 711f fbbd 7011 46bd
000000f0: dab6 7abe 29f5 76bd 5a66 d1bd f9b4 083d
00000100: 9650 823c ef30 61bc c0b1 e33d c6fc d0bd
00000110: fa3b e03c 757e 0f3e 488a 4fbd dd3a 903c
00000120: cd4b e53d 2e79 d2bc ea7f aa3e a989 91bd
00000130: f547 3d3d 9caf 04be 0048 fbbd 775b 5ebe
00000140: 901c e7bd bca5 b43d 6a44 73bd ed31 323d
00000150: f74d 22bc a2f8 e13c da2e 63bd 10c0 0dbe
00000160: edda a6bd d033 cd3d 8e41 69bd 6672 76bd
00000170: 4391 363e fa2e 05be 4d6c fb3c ca53 153e
00000180: df04 1c3c 01d2 183d 19e7 11bc 8bff ef3d
00000190: 1241 123e 243e 39bd 8acf 0ebd c31f 33bd
000001a0: 3bfd fb3d 1c03 713d b102 4dbd 9fb8 1f3e
000001b0: c2c3 373c cea2 d3ba 5be5 8cbd 7b75 303e
000001c0: c359 613e df33 1f3d f70f bcbd cbad 693d
000001d0: dab4 9dbd 872a 5a3e a646 073b 2b82 783d
000001e0: 0d5b 4e3c b409 053e cd08 913d 2154 843d
000001f0: c609 b03d a859 793d 003a 80be 91ca 6e3d

mean_net.4.weight f4 [4, 128]
0.07425113 -0.36413997 0.047594614 -0.358854 -0.30955774 0.17026883 -0.30548304 -0.27112812
0.18130326 0.109383635 -0.018004196 0.056628004 0.03940089 -0.3927233 0.31358606 -0.3138591
0.123003155 0.17103662 -0.1375317 -0.28397545 -0.39801905 -0.0773631 -0.14201921 -0.3075354
-0.30721202 -0.07132518 0.10025464 -0.102183945 0.20602816 -0.03200108 0.07512112 0.24262275
0.26980275 0.113682 0.3668107 0.04788258 0.42202905 -0.2442587 -0.010897942 -0.13815114
-0.271635 -0.14948955 0.22287655 -0.1128663 -0.039350376 -0.17792854 0.016257333 -0.035030074
-0.16202626 -0.12008587 -0.0345298 -0.08765994 0.065009624 0.32230434 0.28173193 0.027474096
0.15880084 0.010139237 0.1706889 0.15583771 -0.43820247 0.14447883 -0.35409144 0.0038847404
0.18206021 0.38916755 -0.24849176 0.120254375 0.08115245 0.031716544 0.37059423 -0.18120034
-0.15124664 0.22279279 -0.1808608 -0.49493945 -0.030919673 0.26190698 0.09356634 -0.0066801156
0.058723696 -0.28609776 0.24800451 -0.22000326 -0.101240896 0.26689392 -0.12964456 0.020246716
0.091008306 0.044445347 -0.0034742805 -0.07698145 0.23020342 -0.057048343 -0.18205844 -0.06549428
0.15824331 0.12760195 0.0120632555 -0.13440911 0.46363533 -0.020840725 0.19168794 -0.06672961
0.27916327 0.04069034 0.058638126 -0.4575219 0.06831924 -0.023876548 0.24707906 -0.20337783
-0.23958597 -0.11550971 0.221036 0.06927481 0.08127213 -0.18390313 -0.14180021 0.06168979
-0.04273004 0.00036409532 0.020600267 -0.27423134 -0.121122114 0.051384978 0.08993085 -0.37897202
-0.062494304 0.025789715 0.25104448 -0.38619688 -0.20471464 0.050407365 -0.17550328 0.025845928
-0.069414675 0.36795846 -0.2535965 -0.43433833 0.21361403 -0.1667909 -0.077762 -0.09061969
-0.050263137 0.16513216 0.018553913 0.006521932 0.20207542 0.17706293 0.13865599 -0.1585608
-0.11949562 -0.18350804 -0.040875796 0.14477775 0.03220794 -0.21233386 -0.36395708 -0.4446076
0.025223637 -0.13942344 0.024968829 0.052794915 -0.035715394 0.042478696 -0.27284142 0.059642978
0.022400184 0.09417782 -0.055801578 0.25768316 -0.19494511 0.011876264 0.0012089896 -0.10102523
-0.3078238 0.21111068 -0.09590467 0.23001568 -0.39546075 -0.016868958 -0.095382236 -0.16021226
-0.06204768 0.015805084 0.26567227 0.005211884 -0.21678643 -0.34128034 0.10958645 0.040248644
0.068863146 0.026355194 -0.13837281 0.085954465 -0.17032361 -0.10926358 -0.053027112 0.19869754
0.18641746 0.004299375 -0.11481579 -0.35701364 -0.17092355 -0.06799467 0.0686097 -0.29036266
-0.015365924 0.24164966 -0.030700792 0.07816411 -0.34767756 -0.051557187 0.022468744 -0.17469387
-0.11543578 -0.08490841 0.11046521 0.08299704 -0.19907136 -0.012833073 0.16116674 -0.013990059
-0.0018849317 0.10888084 0.35781077 0.014172183 -0.25174773 0.09807368 -0.04455785 0.21346085
-0.16682531 -0.17756177 0.089287505 0.0050952053 0.55737156 0.12212033 0.2713753 0.19324242
0.16741642 -0.10539283 0.28058437 -0.32976177 0.21989857 -0.06702834 -0.046730805 0.30124995
0.010425914 -0.39098695 -0.0002891643 0.057045724 0.28730884 0.101073585 0.32871175 0.13380316
00000000: fa10 983d 8e70 babe 92f2 423d b6bb b7be
00000010: 5a7e 9ebe f45a 2e3e 4668 9cbe 4ed1 8abe
00000020: 90a7 393e 8704 e03d 897d 93bc c4f2 673d
00000030: d462 213d 0713 c9be 5a8e a03e 24b2 a0be
00000040: 14e9 fb3d 3924 2f3e 1cd5 0cbe 3b65 91be
00000050: 27c9 cbbe 8c70 9ebd 7c6d 11be 4875 9dbe
00000060: e54a 9dbe f012 92bd 4e52 cd3d d145 d1bd
00000070: 0cf9 523e 9113 03bd 1ad9 993d 1972 783e
00000080: 9623 8a3e 1cd2 e83d 9dce bb3e 8620 443d
00000090: 3114 d83e f41e 7abe 488d 32bc 7e77 0dbe
000000a0: be13 8bbe ca13 19be c039 643e 7226 e7bd
000000b0: dc2d 21bd e632 36be 192e 853c b27b 0fbd
000000c0: 36ea 25be 95ef f5bd 1f6f 0dbd 0e87 b3bd
000000d0: c423 853d 1305 a53e 2b3f 903e 5b11 e13c
000000e0: b09c 223e 0b1f 263c 12c9 2e3e ec93 1f3e
000000f0: 135c e0be 42f2 133e 794b b5be 2197 7e3b
00000100: fe6d 3a3e f840 c73e a074 7ebe ed47 f63d
00000110: 4133 a63d 35e9 013d 87be bd3e 958c 39be
00000120: 66e0 1abe cb23 643e 9333 39be b468 fdbe
00000130: 414b fdbc ac18 863e b69f bf3d dfe4 dabb
00000140: 4288 703d 687b 92be e5f4 7d3e 8948 61be
00000150: 6357 cfbd 52a6 883e 8bc1 04be 71dc a53c
00000160: 9062 ba3d 530c 363d c1b0 63bb 73a8 9dbd
00000170: 72ba 6b3e 86ab 69bd 876d 3abe dd21 86bd
00000180: 890a 223e 16aa 023e f6a4 453c 8ba2 09be
00000190: 9c61 ed3e 2bba aabc d849 443e 89a9 88bd
000001a0: 7dee 8e3e eaaa 263d 882e 703d 4f40 eabe
000001b0: f5ea 8b3d c098 c3bc 4b02 7d3e 4742 50be
000001c0: 0656 75be 5b90 ecbd 4357 623e f4df 8d3d
000001d0: 0172 a63d 1a51 3cbe 1334 11be 6fae 7c3d
000001e0: b205 2fbd 0ce4 be39 e4c1 a83c 0d68 8cbe
000001f0: df0e f8bd 0e79 523d aa2d b83d 9f08 c2be
00000200: 07fa 7fbd f444 d33c e788 803e 99bb c5be
00000210: b7a0 51be f477 4e3d 22b7 33be d7ba d33c
00000220: 4829 8ebd 0d65 bc3e 67d7 81be 9861 debe
00000230: a3bd 5a3e 3ccb 2abe af41 9fbd d196 b9bd
00000240: b8e0 4dbd 6818 293e 60fe 973c eeb5 d53b
00000250: dcec 4e3e fc4f 353e d6fb 0d3e c35d 22be
00000260: 1fba f4bd 88e9 3bbe 616d 27bd 9e40 143e
00000270: 79ec 033d 0c6e 59be 9558 babe 9ba3 e3be
00000280: cda1 ce3c 05c5 0ebe 6e8b cc3c 7b3f 583d
00000290: 4e4a 12bd 24fe 2d3d dfb1 8bbe 324c 743d
000002a0: 9780 b73c 4de0 c03d 3290 64bd 0cef 833e
000002b0: b19f 47be a994 423c f676 9e3a 51e6 cebd
000002c0: 159b 9dbe 662d 583e ab69 c4bd 3b89 6b3e
000002d0: d579 cabe c530 8abc c357 c3bd af0e 24be
000002e0: b525 7ebd aa79 813c 3206 883e 74c8 aa3b
000002f0: 43fd 5dbe 4cbc aebe dc6e e03d c3db 243d
00000300: 1f08 8d3d d9e6 d73c 9ab1 0dbe e508 b03d
00000310: 5069 2ebe 95c5 dfbd f532 59bd 5e77 4b3e
00000320: 38e4 3e3e c6e1 8c3b 8a24 ebbd 7eca b6be
00000330: 9506 2fbe ca40 8bbd 3e83 8c3d 6aaa 94be
00000340: 5bc1 7bbc 0273 773e 3a80 fbbc 8114 a03d
00000350: cb02 b2be a12d 53bd 5f10 b83c f3e2 32be
00000360: 9869 ecbd 76e4 adbd 963b e23d 5afa a93d
00000370: 5dd9 4bbe cf41 52bc e508 253e 8f36 65bc
00000380: d00f f7ba ebfc de3d f932 b73e 7232 683c
00000390: 14e5 80be dbda c83d 4b82 36bd 7b95 5a3e
000003a0: 41d4 2abe c1d2 35be 5edc b63d aef5 a63b
000003b0: e7af 0e3f 391a fa3d b4f1 8a3e 57e1 453e
000003c0: 366f 2b3e 32d8 d7bd c1a8 8f3e 89d6 a8be
000003d0: 172d 613e 2846 89bd cd68 3fbd 6f3d 9a3e
000003e0: 74d1 2a3c 712f c8be fa9a 97b9 c7a8 693d
000003f0: 251a 933e abff ce3d e84c a83e b203 093e

mean_net.4.bias f4 [4]
-0.11375393 0.07557138 0.02510628 0.038889103
00000000: d2f7 e8bd 2bc5 9a3d afab cd3c 2e4a 1f3d
