src/rl/model/critic_model31-07-2024_16-44-24/160.pt (torch, 80951 bytes, 5 tensors)

critic_network.0.weight f4 [128, 23]
000000 19 93 13 3b 2c 7b 53 3f 45 64 fe bc 4f 81 fd bd
       0.0022518097 0.8260982 -0.031053672 -0.12378179
000010 4c eb b6 be da ce 6c 3e 8e c5 a8 bc b5 9d c3 bd
       -0.35726392 0.23125783 -0.020602014 -0.095515646
000020 f8 76 91 bc e5 53 fc 3c 4a bb e3 3d c8 90 29 bd
       -0.017756924 0.030801723 0.11119707 -0.04139784
000030 34 ff 80 bf 52 be 41 3c 45 70 47 3d c6 fb db 3c
       -1.0077882 0.011825161 0.048691053 0.026853453
000040 6d c0 4d 3d ae 80 78 3c f5 9a 75 3d 8e d7 ea bd
       0.05023234 0.015167398 0.05996223 -0.11466895
000050 23 1c 1b be 14 b2 79 3d 0f 57 20 3e ba 13 4b 3d
       -0.15147452 0.060960844 0.1565821 0.04957936
000060 ab e7 2b be 02 62 f6 3e b2 0e 69 be 6a ca 25 3e
       -0.16787593 0.4812165 -0.22759512 0.16190496
000070 dd 18 d6 3e 29 cd bc 3d ee 6a c9 3d 5c 5b 55 3d
       0.41815844 0.09218819 0.09834848 0.05208908
000080 6c 48 77 bd 39 72 4a bc 2a 88 b2 be 21 de 29 3f
       -0.0603718 -0.012356334 -0.3486951 0.66354567
000090 c8 91 15 3d 58 65 97 3d ba 66 0a 3d e3 a1 c5 3d
       0.03651598 0.07392377 0.033789374 0.09650018
0000a0 17 20 31 bd 7f 79 1c be b8 de 47 be 94 79 80 bd
       -0.043243494 -0.15280722 -0.19518554 -0.06273189
0000b0 d9 d3 50 3e 33 fe 95 be 27 98 d3 3d 8d 1b 04 be
       0.20393313 -0.292955 0.10331755 -0.12901135
0000c0 fe 9f 4f 3f af 41 be 3c d9 16 58 be 56 91 b2 3d
       0.81103504 0.02322468 -0.21102466 0.08719127
0000d0 f1 10 26 be 17 3c 4a bf 2c 1f 6a bf 23 6b 3b bd
       -0.162174 -0.7899794 -0.91453815 -0.04575647
0000e0 a1 89 0c bf e0 3d f7 be 07 85 dc be 08 79 36 3b
       -0.54897505 -0.48289394 -0.43070242 0.0027843136
0000f0 6a 62 49 3c b1 36 67 bb 08 f1 32 3c 65 c4 86 3d
       0.01229153 -0.0035280401 0.010921724 0.06580428
000100 cc 99 0c be d6 0f 9c bd e7 0d 51 3f 9d 3e 25 3f
       -0.13730544 -0.07620208 0.8166184 0.64548665
000110 2b 84 ab bd d7 7b fe 3b 91 a4 7d be c4 80 70 3f
       -0.083748184 0.0077662277 -0.24769808 0.9394648
000120 d8 53 94 3d 30 f4 25 bc e3 90 93 3e 29 ee 2d 3d
       0.072425544 -0.01012902 0.28821477 0.042463455
000130 47 f2 8a be 3b 54 4d bf 50 0e 33 bd 58 33 53 be
       -0.27137968 -0.8020665 -0.04371482 -0.20625055
000140 00 cb 1a be bb 35 43 be b0 43 d9 3c 26 13 04 3d
       -0.15116501 -0.19063465 0.026521534 0.032244824
000150 92 e7 5e 3d 62 e0 07 3c 5b c4 c2 3d cb a1 84 bc
       0.05442006 0.008293243 0.09510108 -0.01619043
000160 b6 ae 11 bd bf 82 45 bd a1 09 ae bd 0f c3 61 3c
       -0.035567008 -0.048220392 -0.0849793 0.013779416
000170 6b c6 ba 39 c2 2b 46 3d 5b 6e 89 3e 85 e5 87 3d
       0.00035624517 0.048381574 0.26842007 0.06635574
000180 7c 0f ec 3d cc d1 15 3e 0b 5f 8b 3a 43 f2 92 bd
       0.11526391 0.14630812 0.0010633183 -0.07175114
000190 fc cc 04 3e 56 84 73 bd 1e 75 83 3f d2 1b 7b 3f
       0.1296882 -0.059452377 1.0270116 0.98089325
0001a0 e3 de f2 bd 7c 93 05 bd 0e 5b f5 bc d7 cb 12 bd
       -0.118589185 -0.032611355 -0.029950645 -0.035838928
0001b0 e5 29 2a bd 68 94 d1 bc 25 aa 37 be 65 20 3c 3e
       -0.04154386 -0.02558346 -0.17935999 0.18371733
0001c0 92 32 cc bf 36 43 ad bf 37 58 a8 3e 32 3d 8c be
       -1.5952933 -1.3536136 0.32879803 -0.27390438
0001d0 b5 75 ca bc 3c 10 35 be 0a 59 85 3d 94 6f d3 bd
       -0.02471433 -0.17681974 0.065111235 -0.10324016
0001e0 6c 73 bf be 9c c5 a1 bd b9 14 a9 3b 01 a7 2d bd
       -0.37392747 -0.07899019 0.005159941 -0.042395595
0001f0 30 80 2b bd f3 f0 47 be 90 5d 9b 3c 15 88 91 3f
       -0.041870296 -0.19525509 0.018965513 1.1369654
000200 d1 0f dd 3c fc 27 59 bd ed e4 3d 3d af 26 6a bd
       0.02698508 -0.053016648 0.0463609 -0.057165798
000210 d9 4d b1 3d 53 50 0e bd 68 24 29 3e 45 4a 09 3e
       0.086574264 -0.034744572 0.16517794 0.13407238
000220 7b 78 cc bd 93 f5 89 bf 48 3f 9a 3d 9a b6 6e bc
       -0.09983917 -1.0778068 0.07531601 -0.014569903
000230 4b ac 60 3f 7a 32 1d be 6e 45 e2 3c bd a9 38 3e
       0.877629 -0.15351287 0.027620997 0.180335
000240 16 73 20 3e 47 d8 93 3d 9f 28 32 be 16 79 31 bd
       0.15668902 0.07218986 -0.17398308 -0.043328367
000250 5d cc 0d be 54 ff e4 be fb d2 06 3f ac 42 12 bd
       -0.1384749 -0.4472605 0.5266568 -0.035708115
000260 db ff 51 bd a4 86 0c bd 54 a8 f9 bc f4 cf ac bd
       -0.051269393 -0.03430809 -0.030475773 -0.084381014
000270 06 80 20 3e 39 14 b4 3d e8 c0 d0 3e 69 5f 44 3f
       0.15673837 0.0879292 0.40772176 0.76708084
000280 9c 69 4f 3e 47 c7 b1 3e b8 c6 6b bc fb d4 16 bf
       0.2025513 0.3472235 -0.01439064 -0.5891873
000290 0c bc f1 bd 35 b5 5b 3e b2 1e 94 be d4 45 1b be
       -0.11803445 0.21455844 -0.2892967 -0.15163356
0002a0 94 90 27 bc ca 12 77 be 37 c4 20 3e a6 50 3f 3e
       -0.010227341 -0.24128261 0.1569985 0.18683109
0002b0 c5 13 46 3b 30 75 89 3f 36 fa ad 3c c9 ca d9 bc
       0.0030224186 1.0738888 0.021237474 -0.026585953
0002c0 43 28 f0 bb 6b ec 1d bd dd db f9 bc 89 cc 03 be
       -0.0073290183 -0.038555544 -0.030500347 -0.12870993
0002d0 74 cc fa 3d f0 8f 4b bd 75 2a 01 be d7 d3 7e be
       0.122460276 -0.049697816 -0.12613852 -0.24885498
0002e0 0d ca cc 3d 76 8e 69 be 88 d3 c9 3e 4e ea 0a be
       0.09999476 -0.22808251 0.39419198 -0.13565943
0002f0 8a ce 8c 3d 6e 9a 2f 3e ca 00 b5 3d 64 21 ed bc
       0.06875332 0.17148754 0.08838041 -0.028946586
000300 99 b1 42 bd 71 46 5d 3c 60 56 8b bd ae 0e 1e be
       -0.04753265 0.013505564 -0.06803584 -0.15435287
000310 f8 b8 8d 3f 2d 8d 4e bd 08 e1 2c bd ae 49 b2 3d
       1.1072073 -0.050427604 -0.042206794 0.087054595
000320 8a ba c2 bd 25 5f 18 be 6f 89 e1 bd e4 76 1b be
       -0.09508236 -0.14880045 -0.110125415 -0.15182072
000330 af cf 4e 3e 78 e2 94 bc 84 40 41 bf 0d 52 94 3e
       0.20196413 -0.018174395 -0.7548907 0.2896885
000340 b4 7c f6 3d 67 e3 85 ba 71 ee 83 3e 5f 95 13 bb
       0.12035504 -0.0010214866 0.25767854 -0.0022519452
000350 15 1c 52 3e 7e 71 97 be 10 eb e4 bd 8d 31 9a 3e
       0.20518525 -0.29578775 -0.11177647 0.3011593
000360 4a 9f cb 3d 4c e0 2e 3d 29 29 0a 3c 9f be a5 bf
       0.09942491 0.042694375 0.008432665 -1.2948798
000370 fa 81 1b 3d d2 28 03 3d 02 63 18 3d 9c 6e cc 3c
       0.037965752 0.03202135 0.037203796 0.024955086
000380 12 94 fe bc 24 d5 90 3d 3f 33 62 be 8a e0 a0 3c
       -0.031076465 0.07071903 -0.22089861 0.019638319
000390 9e de 4f bc 5d 03 1e 3f c0 ce b0 be b3 d9 b4 bd
       -0.012687353 0.6172388 -0.34532738 -0.08830585
0003a0 74 9a 91 3e ce d1 1e 3e f8 48 ac 3d da 9f 27 3f
       0.2843815 0.15509722 0.08412355 0.6547829
0003b0 18 e5 45 be f3 05 d4 bd 70 94 89 be 6c d9 18 be
       -0.19325674 -0.10352697 -0.2687106 -0.1492669
0003c0 b1 3b 91 be a6 d2 86 3d 15 c6 a7 bf d8 51 5c bd
       -0.28365853 0.06583147 -1.3107325 -0.05378899
0003d0 2d ff ce bc b8 f4 12 bd 97 bd 8e bc 27 95 13 bd
       -0.025268162 -0.035877913 -0.017424388 -0.036030915
0003e0 36 c0 5e 3d 96 64 1d 3e bb 4c 71 3e 09 84 aa be
       0.054382525 0.15370402 0.23564427 -0.3330386
0003f0 8c 33 62 be 05 2c 3c be 01 5b 09 38 c4 25 09 3f
       -0.22089976 -0.18376167 3.27481e-05 0.5357325

critic_network.0.bias f4 [128]
000000 2f a3 d4 be 1d 61 74 be 2a 00 be 3e 64 7a 28 be
       -0.4153075 -0.23865171 0.371095 -0.16452938
000010 8b 0d ff be 82 33 ce 3d b0 b0 49 bf 1f 15 ce 3e
       -0.4981502 0.10068418 -0.7878523 0.4025049
000020 30 94 a7 be b2 53 00 3f c7 2c 32 be 98 b9 0f 3f
       -0.32730246 0.5012771 -0.17399894 0.5614257
000030 60 94 8f 3e e6 16 3a be dc 35 8c be a9 83 21 3e
       0.2804289 -0.18172798 -0.2738484 0.1577288
000040 1b a4 11 bf 2e a0 b1 3d 40 4a 57 3f 7b c2 10 bd
       -0.5689103 0.0867313 0.8409767 -0.03534172
000050 a4 98 bb be a3 35 00 3e ec 4e 97 be b0 30 94 3c
       -0.36639893 0.12520461 -0.295524 0.018089622
000060 b1 da 86 3e 87 49 09 3f eb a8 cb 3e 64 6e 1c bf
       0.26338723 0.5362782 0.39777312 -0.6110594
000070 0c 31 9a be 96 ba 3e 3e db 48 7c 3f 41 a0 2f 3f
       -0.30115545 0.18625864 0.9854867 0.68603903
000080 a9 56 f4 3d 11 37 2d 3f aa 7a 9e be 2f 3a 44 3d
       0.119305916 0.6766215 -0.3095296 0.04790705
000090 6c 48 96 3d 2f 2e 97 3e 4f 6f 31 bf 34 a3 01 3f
       0.07338032 0.29527423 -0.6931047 0.50639653
0000a0 de 1b c5 bd 5d 9a 74 bf c6 24 40 bd 63 ea f9 be
       -0.09624456 -0.9554804 -0.04691007 -0.48811635
0000b0 83 42 47 bd 92 24 d5 be c0 23 71 3e 5f b8 de 3e
       -0.048647415 -0.41629463 0.23548794 0.4350004
0000c0 5d 33 61 3e dc be d1 be a8 06 01 bf 45 ad 02 3f
       0.2199225 -0.40965927 -0.5040078 0.5104564
0000d0 a0 5d db 3e 89 ce d1 3e dd d3 17 3e 6f c1 65 be
       0.42844868 0.40977886 0.14826913 -0.2243707
0000e0 09 ef 85 bf f3 71 06 be 59 26 1f 3f 97 db 61 3f
       -1.0463573 -0.13129406 0.6216789 0.8822569
0000f0 9a 7e 5a bf 8d 7a 56 be 82 e2 90 be 19 c3 88 bd
       -0.8534943 -0.20945187 -0.28297812 -0.06677837
000100 7e 49 19 3f e3 ef 37 3f 42 03 e1 bd f6 f1 fb 3e
       0.59877765 0.71850413 -0.109869495 0.4920804
000110 0c 80 d3 be b9 fc 03 bf 82 b4 47 be 6c 14 7a 3f
       -0.4130863 -0.515575 -0.19502452 0.9768741
000120 c9 eb 77 3d 5e 26 a5 be a9 75 82 3e 44 9b e3 3e
       0.060527597 -0.32255834 0.25480393 0.44454396
000130 b8 da 83 be 45 7a d3 3e 67 21 df be 66 fc 49 be
       -0.25752807 0.41304222 -0.4358017 -0.19725189
000140 9a a0 27 3f 08 a6 85 bd f9 f3 d5 bd d6 e4 a0 be
       0.65479434 -0.065258086 -0.10446925 -0.31424588
000150 88 c4 ef 3e 5e c3 05 bf 3e 4d 7f 3f 1f b4 0b bf
       0.4682963 -0.5225123 0.9972724 -0.5457172
000160 4d 7a 7e 3e 4f 44 0a bf 63 72 cc be 1e 60 42 bf
       0.24851342 -0.5401048 -0.3993102 -0.75927913
000170 88 42 5b 3e 8e 84 e3 3e 9a 7d a0 bd 13 7e 9a be
       0.21412098 0.4443707 -0.078364566 -0.30174312
000180 b3 6d 3f bf de 11 5c 3f 3c 9c f3 3e e8 4b 46 3e
       -0.7477676 0.85964763 0.47580135 0.19364893
000190 05 51 40 3f 5f c3 f4 be 96 36 69 3e ce 73 5a 3f
       0.75123626 -0.47805306 0.22774729 0.85332954
0001a0 16 85 12 3f 51 29 76 be 97 d1 90 be aa fb 34 bf
       0.57234323 -0.24039198 -0.28284904 -0.7069651
0001b0 22 95 d4 be 7b bd a7 be a9 91 92 3e b1 c6 9c be
       -0.4152003 -0.3276175 0.28626755 -0.3062034
0001c0 26 24 1b be c9 a4 51 3f 5f b3 d7 be c3 25 56 3e
       -0.15150508 0.8189207 -0.42129037 0.20912842
0001d0 7c 4e b4 3e eb 17 d4 3e dd 6e c9 bd 75 f8 d7 be
       0.3521613 0.41424498 -0.098355986 -0.42181745
0001e0 63 bf 13 3f 43 3b 00 3e 70 60 59 3e 81 da f1 be
       0.5771391 0.12522607 0.21228194 -0.47237018
0001f0 77 75 a1 be eb 93 dd 3b fe 68 62 bf 73 da 87 3e
       -0.3153493 0.006762018 -0.88441455 0.2653385

critic_network.2.weight f4 [128, 128]
000000 5a 74 77 3e e1 dd 2a 3e 01 1a fe 3e 76 a5 1f be
       0.24165478 0.16686203 0.49629214 -0.15590462
000010 1b 5b 05 bf ad 62 1d be 3e 25 28 3d 91 23 3b 3c
       -0.5209214 -0.15369673 0.041051142 0.011422054
000020 5e d8 0f be ba 22 ba 3d 8e 99 ae 3d dc b0 f4 3c
       -0.14047381 0.09088655 0.08525382 0.02986949
000030 56 08 30 be 57 51 30 be 26 09 15 be 6c 2f c8 3c
       -0.1719068 -0.17218529 -0.14554271 0.024436675
000040 ba e2 d1 3c cf 94 45 3d 23 ef b6 bd 0d 43 6b bd
       0.025620807 0.048237618 -0.089323305 -0.05743699
000050 1e a4 3f be 33 0e 36 be 64 4a 35 3d fa c3 2b be
       -0.1871495 -0.17778854 0.044260398 -0.16773978
000060 05 ae 70 3e d9 8c dc bc 94 d8 06 3c b3 70 03 bf
       0.23503883 -0.02692263 0.008230347 -0.5134384
000070 2a 44 09 3c 83 86 ca 3d c1 87 e7 be dc 97 a0 be
       0.008378068 0.09888937 -0.4522076 -0.3136586
000080 b5 f7 36 3d 5a 06 06 be c0 d5 9e 3d a8 9c 36 bd
       0.044669826 -0.1308836 0.07755613 -0.044582993
000090 40 2b c9 bd 77 21 97 3b a7 0e 49 3e 5a c9 0a bd
       -0.098227024 0.0046121436 0.19634496 -0.03388343
0000a0 14 1e 80 3e 26 8b d1 be d3 98 82 bd 7d f9 6e be
       0.25022948 -0.40926474 -0.06376805 -0.2333736
0000b0 99 31 8a bb 51 65 6d be 79 98 f4 3e bb 1f 09 3e
       -0.0042173383 -0.2318318 0.47772577 0.1339101
0000c0 ac f3 09 be e0 8a 7b 3d 29 00 af 3c 7e 73 02 3e
       -0.1347186 0.06141174 0.021362381 0.1273937
0000d0 16 08 02 3f 9c e3 03 3d ca db 84 3e ff 54 5c be
       0.5079359 0.032199487 0.25948936 -0.21516798
0000e0 06 38 24 3d 79 38 bb 3e 0a 57 c4 3d ba 19 b0 3e
       0.04009249 0.36566523 0.09586914 0.34394628
0000f0 54 48 0e be 95 fd 70 be 87 2e 00 3e fb 51 0c be
       -0.13894778 -0.23534234 0.12517749 -0.13703148
000100 c8 2f 7b 3d cd c6 05 bf e7 02 48 be 48 bd d8 bd
       0.061324865 -0.5225647 -0.19532357 -0.105829775
000110 0a a4 55 3d 8e 3d 0e bf fb a3 02 3e 4a 79 7c bd
       0.052158393 -0.55562675 0.12757866 -0.061639108
000120 c1 cf 27 3e a7 da c8 3c 98 0a 77 3e d0 e2 87 3e
       0.16387846 0.024518324 0.24125135 0.26540232
000130 79 07 46 be 17 59 19 bd 02 a1 00 be 54 20 c6 be
       -0.19338788 -0.03743848 -0.1256142 -0.3869654
000140 09 21 dd bc 0d 66 9e 3d 6e b8 8c be 5f 0f 35 3d
       -0.026993291 0.077343084 -0.2748446 0.044204112
000150 08 74 dd 3d 20 3a e7 3d 36 4a f7 bd 41 6a b8 be
       0.10813147 0.11290383 -0.120747015 -0.36018565
000160 66 23 aa bd 13 b7 93 3e fe ba 33 be 6c 32 1f bf
       -0.08307533 0.28850612 -0.175518 -0.6218631
000170 9f 19 0c bd 10 c4 9e 3e 04 ef e6 3d 59 71 8d 3c
       -0.03420412 0.3100896 0.11276057 0.017265962
000180 5e d0 ca be 1a 34 61 3e b7 c5 68 3e 54 4c 64 3c
       -0.39612097 0.21992531 0.22731672 0.013934214
000190 7a 93 00 3e 16 31 f9 3d f5 74 aa bd 40 70 93 3d
       0.12556258 0.121675655 -0.08323089 0.07199144
0001a0 39 0d 84 3e 8d c9 f8 be 4b e7 f9 bd df 19 94 bd
       0.25791338 -0.4859127 -0.12202319 -0.07231497
0001b0 ef 1a 62 bf 14 59 c2 3c 3a 07 82 3e 46 36 da 3d
       -0.8832235 0.023724116 0.25396138 0.10654883
0001c0 02 c8 82 be e5 ee 1d 3e 02 ec 02 3e 29 3f fa 3d
       -0.2554322 0.15423162 0.12785342 0.12219078
0001d0 0c ba b1 bc a7 1b a4 3e e8 f1 84 3e dd ce ce be
       -0.02169516 0.32052347 0.2596581 -0.403922
0001e0 ba 4c db 3e 94 67 bc 3d ab ef b7 be 93 7d 12 bf
       0.42831975 0.091994435 -0.3592504 -0.5722286
0001f0 1c 55 6f bd 2b 9d 83 be 15 e2 05 3e 32 a5 97 3e
       -0.058430776 -0.25705847 0.13074525 0.29618222
000200 eb 61 a3 bd 71 f4 35 be 20 f4 1c be e3 aa 46 3d
       -0.07977661 -0.17769028 -0.15327501 0.048502814
000210 a4 dd b8 3e 6f 5c 45 be 08 3a 2f be 04 7c 00 3c
       0.36106598 -0.19273542 -0.17111981 0.007842068
000220 6a e2 a7 bd b9 38 c2 3e ac 61 5a 3d e9 d1 40 3e
       -0.08197482 0.379339 0.053315803 0.18830074
000230 c4 b8 c6 3b 51 87 c4 bc c5 ba 8b 3d 32 70 23 3e
       0.0060645062 -0.023990305 0.06822733 0.15960768
000240 ac da c5 be d0 e6 af be 24 d0 5d 3e 0f 86 34 3e
       -0.38643396 -0.34355783 0.2166143 0.17629264
000250 b4 10 dd bd 55 26 74 3d 27 a4 f7 bc 2f d0 62 3e
       -0.107942015 0.05960687 -0.030229641 0.22149728
000260 08 e9 c6 bc d7 2a 0a 3e fa fb 83 bd e0 23 45 be
       -0.02428104 0.13492905 -0.06444545 -0.19251966
000270 9b ff bf 3d 8e 25 83 3e a1 ab 8a be 91 88 a0 be
       0.09374925 0.2561459 -0.27084067 -0.31354192
000280 e0 f1 9c 3e fa 70 a3 3e ca c6 cb 3d 83 cc 0a 3e
       0.30653286 0.31922132 0.099500254 0.13554578
000290 6c 76 39 be 12 8a d6 bd d2 55 8f bd 9a 20 ee bc
       -0.1811158 -0.104755536 -0.06998791 -0.02906828
0002a0 9b 7c c7 be eb de a0 3e 15 c8 7d 3e 3a 54 0a be
       -0.38962254 0.31420073 0.24783356 -0.13508692
0002b0 80 c1 a8 3e 10 75 7e 3d bc c3 73 3e 0a 95 da 3e
       0.3296013 0.06212336 0.23805135 0.42691833
0002c0 4d ea 46 3e d2 20 64 bd 33 a4 f9 3d 26 dd 13 be
       0.19425316 -0.055695362 0.12189522 -0.1443983
0002d0 a0 b7 b1 be 26 f5 85 3e 74 30 8a be 17 d1 8c bd
       -0.34710407 0.26163596 -0.26990092 -0.06875818
0002e0 fe e9 14 bf 35 2b 13 be c8 87 f6 bd 49 dd 15 3e
       -0.58169544 -0.14371951 -0.12037617 0.14635195
0002f0 52 43 82 be cb 8b 16 3d 32 7f a7 3d 16 ab 78 bd
       -0.25441986 0.03675441 0.081785575 -0.060710035
000300 28 d3 17 3e 44 5e c6 be 20 79 5e be b0 59 cc 3d
       0.14826643 -0.38743794 -0.21725893 0.09978044
000310 ea 5a 8b be f2 00 83 3e 55 a1 fd bd 5e c9 49 3e
       -0.272178 0.2558666 -0.12384287 0.19705722
000320 bb 4d 89 bd 5d 0e 3b 3d ba 9c f5 3d 8c 99 3a 3d
       -0.06704279 0.045667995 0.11992784 0.04555659
000330 35 a3 84 be 9f 0d 84 3d 73 05 86 3d d2 7a 11 3c
       -0.25905767 0.064479105 0.06544008 0.00887938
000340 32 3e 24 3e c7 c1 72 3d ff 82 31 3e e6 f6 e3 be
       0.1603935 0.05926683 0.17335127 -0.44524306
000350 cf e8 e3 bd db 40 5b bd 96 c1 b9 bd 16 d5 56 bd
       -0.11128389 -0.053528648 -0.09070127 -0.05244931
000360 de 26 80 bd 36 6a ff bd 6a 3c 60 bd 39 7f 19 3e
       -0.06257413 -0.1247143 -0.054745115 0.14989938
000370 6e 9b 84 be 57 74 86 bc 23 e2 5e 3d 9d af 31 3c
       -0.25899833 -0.016412897 0.05441488 0.010845092
000380 14 1e 34 be 9a 6a 1c 3e 0f 5e c2 3e cd 93 38 3e
       -0.17589599 0.1527504 0.37962386 0.18025132
000390 4a 46 cd 3e 12 37 88 3e 76 eb d8 3d 8f 46 96 be
       0.4009269 0.26604515 0.105917856 -0.29350707
0003a0 9b d9 19 bc aa 1d eb 3b 43 02 3b 3d 52 07 6e be
       -0.00939026 0.007175167 0.045656454 -0.2324498
0003b0 43 07 7e 3c e7 8f 25 be 0f 1e 98 3e da e2 a5 3d
       0.015504661 -0.16168176 0.29710433 0.08099909
0003c0 91 3a 9b bd a2 52 2b 3f 81 83 e8 bd 59 09 eb 3e
       -0.0757953 0.6692296 -0.113532074 0.4590557
0003d0 db 4e 35 3e 0e d8 99 3e 75 ad b3 bd 98 01 d0 bd
       0.17705862 0.3004765 -0.08773319 -0.10156554
0003e0 b2 88 c7 be 42 49 6b 3e 34 3c 39 be f4 c8 86 3e
       -0.38971478 0.22977164 -0.18089372 0.2632519
0003f0 9b 18 8c be 18 98 ff bd e6 26 ff be 6b ce 0b bf
       -0.27362522 -0.124801815 -0.49834365 -0.54611844

critic_network.2.bias f4 [128]
000000 f4 b1 bf 3e 44 af 2e 3e 2b 68 c1 3d 3f 56 05 bd
       0.37440455 0.17059046 0.094436966 -0.032552954
000010 e4 d1 9b 3d f6 13 98 be 1b bc f5 3d 4d cc 05 be
       0.07608393 -0.2970273 0.11998769 -0.13066216
000020 c2 ba 3d 3e 2b 91 90 3e 04 1b 97 be 9a a8 a4 3d
       0.18528274 0.28235754 -0.295128 0.08039971
000030 a8 9b 48 be 83 2a a8 3e 4d 16 1b bf 1a df b2 3e
       -0.19590628 0.32844934 -0.60580903 0.34935838
000040 b1 98 34 3e 3e 55 35 3e fe f1 20 3e 6f 26 b6 3d
       0.17636372 0.17708299 0.15717313 0.088940494
000050 5f b4 90 3e 7c 95 55 be 9e 53 5b bd 5d 86 39 bd
       0.28262612 -0.20857805 -0.05354654 -0.045294154
000060 c2 2e 86 3e bb 36 3c 3b 39 f6 91 3e af 75 b2 3d
       0.26207548 0.0028719145 0.28508165 0.087138526
000070 b5 32 02 bd 20 34 99 3e a5 55 07 be d2 23 2b be
       -0.03178664 0.2992258 -0.13216265 -0.16712883
000080 46 57 11 3e 32 cd c1 3e 39 24 6e be 8b ca a6 3e
       0.14193448 0.37851864 -0.23256005 0.32576403
000090 52 ae 4c be b3 f7 bd be 17 c8 81 be 89 ae 34 3f
       -0.19988373 -0.37103042 -0.2534797 0.7057882
0000a0 dd 39 1e 3e 48 1b a4 bd ec d1 ef bd 68 e9 e1 3e
       0.1545176 -0.08013016 -0.11709961 0.44123387
0000b0 30 29 e4 3d f7 8e 93 3e 7a 33 2a 3e 7b 37 89 bd
       0.111406684 0.2882001 0.16621199 -0.06700035
0000c0 8f 08 da 3d 61 32 b9 3e a9 ba 82 bd bc 9a 73 be
       0.10646164 0.3617125 -0.06383259 -0.23789495
0000d0 df 17 da be 39 94 be be 83 d5 84 be 85 d0 ff 3d
       -0.42596337 -0.3722246 -0.25944147 0.12490944
0000e0 09 08 26 3f 43 18 80 3d 0f d9 ae be d0 fa 95 be
       0.6485601 0.062546276 -0.34149978 -0.29292917
0000f0 c1 9f 18 bb 88 4e 06 3e e1 bf 44 3e 2e df 5d bf
       -0.002328858 0.13115895 0.19213821 -0.8666867
000100 57 c0 8f bd d5 92 98 3c d9 bc 87 3e 70 65 0e be
       -0.07019108 0.018624702 0.26511267 -0.13905883
000110 79 43 40 3d be 35 6d bd 42 74 06 3f 5d 23 18 3e
       0.046939347 -0.05791258 0.52521145 0.1485724
000120 c7 66 b5 3e 9b 4c f9 3d a5 59 65 be 57 18 2a be
       0.35429975 0.121728145 -0.22397478 -0.16610847
000130 cc df f8 3e c7 42 8f bc e5 a5 00 be 2c 5a 96 3e
       0.48608243 -0.017487897 -0.12563284 0.2936567
000140 3e 34 9d 3e 9c a1 d6 bd 31 44 a5 3e 5b cd 72 3e
       0.3070392 -0.10480043 0.32278588 0.2371115
000150 53 af 9b 3e cc b4 b8 be c6 6d 15 bd 8c 45 1b bd
       0.304072 -0.36075437 -0.03648164 -0.037908122
000160 cc 80 31 3e 27 12 c8 3d 2b ec 10 3e 25 22 04 3e
       0.17334288 0.09769087 0.14152591 0.1290365
000170 66 5c ec 3e fe 76 4d 3e 39 67 01 be 97 2a 3d be
       0.46164244 0.20064923 -0.12637033 -0.18473278
000180 c0 46 3d 3f f9 8f a6 bd 4c 95 55 be 2f 23 48 3e
       0.7393608 -0.08132929 -0.20857733 0.19544671
000190 4a 1c 66 3e 2c 1e 10 be 49 e4 0e 3e ab d7 71 be
       0.22471729 -0.1407401 0.13954271 -0.23617427
0001a0 b1 97 06 bf de dd 8f 3e f5 3a a1 be 19 18 3f be
       -0.5257521 0.2809896 -0.31490293 -0.18661536
0001b0 03 e3 3b 3e 55 9f 5b 3b ab 21 7c be c1 8d a3 be
       0.18348317 0.0033511717 -0.24622218 -0.31944087
0001c0 e7 5b 45 3e a5 16 d9 3d 52 50 ce 3e 61 69 96 be
       0.19273339 0.10600022 0.40295655 -0.29377273
0001d0 7d fb be 3e 1a e2 33 3f 92 ca 24 be d7 70 95 3e
       0.37301245 0.7026688 -0.160929 0.29187652
0001e0 db a5 02 be c9 a4 9a be 36 4e 0e 3e 49 e9 ff 3e
       -0.12758581 -0.30203846 0.13897023 0.4998267
0001f0 7d b0 5d 3e ab ee 5a bf 08 54 01 3d 3a 12 4f bd
       0.21649356 -0.8552043 0.03157428 -0.05055449

critic_network.4.weight f4 [1, 128]
000000 41 b2 86 bf 9e cd 85 bf 39 fe 91 bf e3 95 8a 3f
       -1.0523149 -1.0453374 -1.1405708 1.0826992
000010 77 d3 8b bf 20 88 89 3f 36 63 8b bf 18 21 8d 3f
       -1.0923909 1.0744667 -1.0889652 1.1025724
000020 33 c3 85 bf 21 6b 8a bf de c8 85 3f 6a 3d 87 bf
       -1.0450195 -1.0813943 1.0451925 -1.0565617
000030 92 f3 88 3f 00 d5 85 bf e6 d4 84 3f 54 53 83 bf
       1.0699332 -1.0455627 1.0377471 -1.0259805
000040 9c 70 8d bf 3d 04 84 bf aa 81 86 bf ec 20 89 bf
       -1.1049991 -1.0313793 -1.050832 -1.0713172
000050 f4 27 87 bf 25 a0 8b 3f 94 74 52 bf 0a 99 8f bf
       -1.0559068 1.0908247 -0.82209134 -1.1218579
000060 78 d9 8f bf b6 7f 8d 3f 50 6f 8b bf a2 38 86 bf
       -1.1238241 1.1054599 -1.0893345 -1.0486033
000070 f9 42 87 3f 5e 05 8f bf c5 2c 8a 3f 46 82 8b 3f
       1.0567313 -1.1173513 1.0794913 1.0899131
000080 8c 8a 4d 3f 62 4a 85 bf e4 58 88 3f ec 8c 84 bf
       0.8028953 -1.0413325 1.0652127 -1.0355506
000090 99 be 8d 3f 0d b3 84 3f 59 46 8b 3f 45 64 87 bf
       1.1073791 1.0367142 1.0880843 -1.0577475
0000a0 e4 7d 88 bf cc ce 4e bf 2b f5 8b bf 76 a3 87 bf
       -1.0663419 -0.80784297 -1.0934194 -1.0596759
0000b0 cc a5 46 3f 9f 17 86 bf 7a b0 45 bf 82 46 8e 3f
       0.77596736 -1.0475959 -0.77222407 1.1115267
0000c0 8e cb 89 bf 5c 11 87 bf 17 60 85 3f b3 0d 8f 3f
       -1.0765245 -1.0552173 1.0419949 1.1176056
0000d0 10 9f 89 3f 97 57 43 3f 68 13 8c 3f 15 10 90 bf
       1.0751667 0.76305526 1.0943422 -1.1254908
0000e0 b2 b3 86 bf f8 76 89 3f 5f 09 90 3f 52 42 84 3f
       -1.0523589 1.0739431 1.125286 1.0332739
0000f0 09 b3 90 bf 87 51 83 bf 39 df 88 bf 78 18 89 3f
       -1.1304637 -1.0259255 -1.0693122 1.0710592
000100 96 51 85 3f 24 3c 5b bf 23 4d 88 bf f4 84 90 3f
       1.0415523 -0.8563864 -1.064854 1.1290574
000110 61 96 89 bf 48 b9 8b 3f 0a 59 84 bf 7f ba 8e bf
       -1.0749017 1.0915918 -1.0339673 -1.1150664
000120 38 25 89 bf 95 82 88 bf b9 ba 8a 3f dd e5 8e 3f
       -1.0714483 -1.066485 1.0838233 1.1163899
000130 20 ec 89 bf 0c ef 8c bf 7b 84 88 3f f1 f4 84 bf
       -1.0775185 -1.1010451 1.066543 -1.038725
000140 8d 63 92 bf d0 75 87 3f f3 cb 8a bf 7d c7 8d bf
       -1.143663 1.0582829 -1.084349 -1.1076504
000150 60 ed 83 bf 5e 11 84 3f 00 27 8b 3f 33 8e 8f 3f
       -1.0306816 1.03178 1.0871277 1.1215271
000160 12 71 89 bf 66 76 8b bf 80 14 85 bf 02 45 90 bf
       -1.0737631 -1.0895507 -1.0396881 -1.127106
000170 7c 9b 87 bf aa e8 83 bf df 7d 8c 3f 2b 62 8a bf
       -1.0594325 -1.0305378 1.0975913 -1.0811208
000180 2f 69 87 bf 0f df 90 bf 0e bd 87 3f 33 cd 86 bf
       -1.0578974 -1.1318072 1.060457 -1.0531372
000190 58 32 84 bf 7e 26 84 3f a7 61 8c bf 8a 4d 8d 3f
       -1.0327864 1.0324247 -1.0967301 1.1039288
0001a0 b0 4c 87 3f 6d ee 87 bf 02 fb 89 3f a2 cb 8c 3f
       1.0570278 -1.0619637 1.0779727 1.0999644
0001b0 b2 66 87 bf 67 83 8e bf 6e f3 8c 3f 3a 96 88 3f
       -1.0578215 -1.1133851 1.1011789 1.0670846
0001c0 c1 d0 8e bf b4 b2 8d bf 87 34 91 bf b0 b7 8c 3f
       -1.1157457 -1.1070161 -1.1344155 1.0993557
0001d0 bb 89 92 bf 33 f9 87 bf b4 38 86 3f 62 68 8a bf
       -1.1448282 -1.0622925 1.0486054 -1.0813105
0001e0 5b 29 8f 3f 70 6b 8e 3f 59 5e 87 bf d0 79 83 bf
       1.1184496 1.1126537 -1.0575668 -1.0271549
0001f0 9a ec 83 bf 23 9e 89 3f d9 d0 8e bf b6 79 8c 3f
       -1.030658 1.0751384 -1.1157485 1.0974643
