src/rl/model/critic_model31-07-2024_16-44-24/190.pt (torch, 80951 bytes, 5 tensors)

critic_network.0.weight f4 [128, 23]
0.0091477325 0.81707567 -0.026811205 -0.11137457 -0.34484467 0.22042713 -0.01415952 -0.09952574
-0.0139604565 0.028433854 0.11881967 -0.04342536 -1.0239637 0.01216914 0.04546281 0.024520308
0.04990002 0.0034193438 0.0598194 -0.112446144 -0.15098879 0.06748218 0.13315842 0.040410496
-0.16012743 0.49106482 -0.23808023 0.1661488 0.41395655 0.10949632 0.106310196 0.07549761
-0.023505341 -0.0099974675 -0.38365242 0.6563305 0.038531914 0.07149845 0.034226023 0.09628346
-0.05309109 -0.17413577 -0.18325193 -0.1016189 0.255381 -0.30794704 0.09869464 -0.11302991
0.80935866 0.01081041 -0.18734083 0.0990485 -0.18534149 -0.8359302 -0.9256481 -0.054959185
-0.54977673 -0.49817216 -0.45303804 -0.004695055 0.012545485 -0.006571484 0.012894152 0.0819799
-0.16056985 -0.0749829 0.79908985 0.6384185 -0.25374356 -0.010570761 -0.24092266 0.9582847
0.06856153 -0.010909577 0.2728992 0.077369206 -0.27146846 -0.742662 0.023601117 -0.23032278
-0.14653161 -0.1775717 0.014552764 0.021788543 0.050051328 0.000588235 0.085243605 0.01175329
-0.043474674 -0.019048098 -0.08384883 0.021322953 -0.0040403632 0.040687863 0.30919632 0.06661563
0.13191114 0.10814112 -0.019095594 -0.11192028 0.09748634 -0.07882586 1.0200168 0.97861
-0.17134328 -0.032070443 -0.028564237 -0.03812448 -0.041843344 0.003516211 -0.18976556 0.18749009
-1.6003422 -1.3664355 0.2965501 -0.26901597 -0.026993671 -0.18475907 0.06001703 -0.10319355
-0.36244577 -0.1009304 0.0111429775 -0.048344847 -0.033259332 -0.21338747 0.02378725 1.1441797
0.02210648 -0.0537576 0.042789776 -0.05868482 0.07901222 -0.03354998 0.16021909 0.13995233
-0.108438805 -1.0698068 0.050941132 -0.0068185623 0.8614802 -0.1517957 0.021990066 0.13801977
0.17507008 0.09159114 -0.14985111 -0.061936792 -0.13506007 -0.45855466 0.52689767 -0.03329168
-0.047707867 -0.046641927 -0.034157757 -0.055174727 0.13069455 0.09290048 0.40111867 0.8147549
0.1898901 0.35762832 -0.013348721 -0.58716094 -0.12258423 0.20900512 -0.28766462 -0.20097393
-0.023336923 -0.24529807 0.16193101 0.184556 0.016857894 1.0744269 0.020117575 -0.029673787
-0.0038139627 -0.034737322 -0.022996422 -0.13261633 0.12554759 -0.060336523 -0.11707578 -0.25448528
0.083311215 -0.22349519 0.39882767 -0.13908952 0.064223014 0.16814463 0.08884356 -0.024500856
-0.032493077 0.0126707 -0.08506027 -0.15207748 1.0969887 -0.044639446 -0.04374386 0.08074265
-0.08302119 -0.16269037 -0.09055075 -0.14373225 0.1959746 -0.012939638 -0.782714 0.32150173
0.10050124 0.0049798414 0.2599535 -0.01239574 0.22067451 -0.28788173 -0.12482257 0.2942407
0.10794189 0.039808575 0.0071843173 -1.3070798 0.039644945 0.02966934 0.035409074 0.028164817
-0.02718659 0.049496356 -0.21755773 0.032511808 -0.020970501 0.58780694 -0.34307167 -0.0827557
0.28064924 0.16853116 0.09928589 0.64334095 -0.18721402 -0.18068638 -0.334723 -0.13838334
-0.30943754 0.09497146 -1.3149788 -0.04917807 -0.025787055 -0.038154937 -0.01432386 0.0063657486
0.01813659 0.14791736 0.2695458 -0.36373425 -0.16369954 -0.17500801 -0.04620039 0.5555733
00000000: 5fe0 153c df2b 513f 2ca3 dbbc 5a18 e4bd
00000010: 7b8f b0be a6b7 613e 55fd 67bc 27d4 cbbd
00000020: 66ba 64bc 1dee e83c ba57 f33d cade 31bd
00000030: 3e11 83bf 1361 473c 3637 3a3d d0de c83c
00000040: f763 4c3d 1217 603b 3005 753d 2a4a e6bd
00000050: ce9c 1abe 1934 8a3d ae5a 083e 7a85 253d
00000060: 72f8 23be d96c fb3e 4ecb 73be e922 2a3e
00000070: 1df2 d33e 9b3f e03d 29b9 d93d 7e9e 9a3d
00000080: 468e c0bc 6bcc 23bc 176e c4be 4705 283f
00000090: a4d3 1d3d c86d 923d 9630 0c3d 4330 c53d
000000a0: 0b76 59bd a650 32be 65a6 3bbe 921d d0bd
000000b0: 4cc1 823e 3cab 9dbe 6a20 ca3d 3a7c e7bd
000000c0: 2132 4f3f 251e 313c 46d6 3fbe f1d9 ca3d
000000d0: 29ca 3dbe 86ff 55bf 46f7 6cbf e21c 61bd
000000e0: 2bbe 0cbf 6c10 ffbe 9af4 e7be fad8 99bb
000000f0: 948b 4d3c 9a55 d7bb fe41 533c 14e5 a73d
00000100: 6c6c 24be a290 99bd 2791 4c3f 656f 233f
00000110: adea 81be fc30 2dbc 6eb4 76be 2552 753f
00000120: fd69 8c3d 15be 32bc 72b9 8b3e bf73 9e3d
00000130: eafd 8abe 191f 3ebf 2157 c13c bcd9 6bbe
00000140: 620c 16be 5bd5 35be b76e 6e3c e37d b23c
00000150: 9f02 4d3d c833 1a3a 3394 ae3d df90 403c
00000160: 8012 32bd c20a 9cbc efb8 abbd 79ad ae3c
00000170: 0665 84bb 51a8 263d fb4e 9e3e c76d 883d
00000180: b713 073e 1779 dd3d 5d6e 9cbc 7636 e5bd
00000190: eba6 c73d 746f a1bd e98f 823f 2f86 7a3f
000001a0: 9d74 2fbe 4c5c 03bd 8cff e9bc 6a28 1cbd
000001b0: ed63 2bbd 3b70 663b e751 42be 67fd 3f3e
000001c0: 03d8 ccbf 5ce7 aebf 6ad5 973e 76bc 89be
000001d0: d521 ddbc 7b31 3dbe 6bd4 753d 2457 d3bd
000001e0: 7e92 b9be 99b4 cebd 0991 363c 3f05 46bd
000001f0: f03a 08bd 3f82 5abe 7bdd c23c 7b74 923f
00000200: a618 b53c ee30 5cbd 5544 2f3d 7e5f 70bd
00000210: 29d1 a13d b46b 09bd 7910 243e aa4f 0f3e
00000220: 2a15 debd 6eef 88bf a6a7 503d 3f6e dfbb
00000230: f789 5c3f 5570 1bbe 8324 b43c 0e55 0d3e
00000240: 9245 333e 2394 bb3d 9272 19be 6fb1 7dbd
00000250: 304d 0abe adc7 eabe c4e2 063f db5c 08bd
00000260: 5369 43bd 9b0b 3fbd 01e9 0bbd e5fe 61bd
00000270: cbd4 053e 9b42 be3d 6d5f cd3e c793 503f
00000280: 8d72 423e 0f1b b73e 98b4 5abc 2e50 16bf
00000290: 710d fbbd 7005 563e c748 93be 1ccc 4dbe
000002a0: 132d bfbc 6b2f 7bbe 3ed1 253e 40fc 3c3e
000002b0: 9119 8a3c d286 893f 9dcd a43c 7116 f3bc
000002c0: adf3 79bb b948 0ebd fe62 bcbc 93cc 07be
000002d0: 8c8f 003e 6e23 77bd 6dc5 efbd e54b 82be
000002e0: 129f aa3d ecdb 64be 2433 cc3e 7c6d 0ebe
000002f0: 5b87 833d 1b2e 2c3e 9df3 b53d 05b6 c8bc
00000300: 7617 05bd c598 4f3c 1434 aebd 33ba 1bbe
00000310: 206a 8c3f dad7 36bd c32c 33bd 675c a53d
00000320: 0307 aabd 4e98 26be ac72 b9bd 8c2e 13be
00000330: 91ad 483e c700 54bc f25f 48bf e09b a43e
00000340: 98d3 cd3d f02d a33b a018 853e 8017 4bbc
00000350: 80f8 613e 3c65 93be faa2 ffbd b8a6 963e
00000360: a310 dd3d 510e 233d 6c6a eb3b 644e a7bf
00000370: bd62 223d 1e0d f33c 1b09 113d e7b9 e63c
00000380: 69b6 debc b1bc 4a3d 74c7 5ebe 1a2b 053d
00000390: 54ca abbc 847a 163f 17a7 afbe d27b a9bd
000003a0: 42b1 8f3e 6f93 2c3e 6756 cb3d feb1 243f
000003b0: 08b5 3fbe da05 39be d060 abbe 5db4 0dbe
000003c0: 996e 9ebe 6680 c23d 3a51 a8bf f26e 49bd
000003d0: 603f d3bc 5a48 1cbd a0ae 6abc c597 d03b
000003e0: 3093 943c a677 173e e801 8a3e 603b babe
000003f0: daa0 27be 4d35 33be 9f3c 3dbd 0d3a 0e3f

critic_network.0.bias f4 [128]
-0.40962052 -0.23816493 0.34004906 -0.17654903 -0.47012386 0.0893938 -0.8047827 0.40770757
-0.3216977 0.49633837 -0.18014391 0.5689685 0.26561987 -0.18717878 -0.25416186 0.16830723
-0.56827664 0.06971542 0.8439316 -0.05453386 -0.37334022 0.122079894 -0.29338145 0.024186619
0.24403742 0.5241292 0.4037716 -0.6104758 -0.2971111 0.19157961 1.0274855 0.6999446
0.12471974 0.66883326 -0.27779683 0.038034577 0.07368787 0.29041314 -0.6989647 0.49409714
-0.10119346 -0.9884961 -0.090952955 -0.47711942 -0.05110886 -0.41702992 0.23174848 0.44315344
0.22270085 -0.40922722 -0.501833 0.50797457 0.4285565 0.39832547 0.13757932 -0.2409428
-1.0760901 -0.13321988 0.6250307 0.88220817 -0.8706856 -0.18619893 -0.24694291 -0.040137827
0.6231341 0.7329798 -0.11411529 0.5123643 -0.4359615 -0.50289536 -0.18132639 0.98974216
0.08666119 -0.30491078 0.23872389 0.44423568 -0.26451448 0.40970337 -0.43267772 -0.18425032
0.66672254 -0.082748495 -0.076441206 -0.32054815 0.46561354 -0.52528566 1.0316772 -0.5630384
0.23110178 -0.59373003 -0.39864445 -0.7464283 0.20694111 0.46754718 -0.077084124 -0.29471844
-0.7562295 0.8705562 0.476821 0.19664796 0.7553223 -0.47245818 0.2296298 0.8470003
0.5473685 -0.23277229 -0.28203112 -0.72369945 -0.41662782 -0.32034138 0.28802174 -0.3109396
-0.14686285 0.88590366 -0.42671353 0.19969933 0.34783393 0.41134167 -0.120047264 -0.42001927
0.56894445 0.13197772 0.21492796 -0.47415337 -0.2839405 0.033197228 -0.9067092 0.22097062
00000000: c8b9 d1be 82e1 73be e91a ae3e 45c9 34be
00000010: 13b4 f0be 1914 b73d 3d06 4ebf 0cbf d03e
00000020: 90b5 a4be 1020 fe3e a577 38be eba7 113f
00000030: 54ff 873e cbab 3fbe 8121 82be bb58 2c3e
00000040: 947a 11bf f5c6 8e3d e70b 583f e65e 5fbd
00000050: 7326 bfbe 0605 fa3d 1836 96be 0423 c63c
00000060: f2e4 793e 552d 063f 27bb ce3e 2448 1cbf
00000070: f21e 98be 722d 443e a584 833f 922f 333f
00000080: 106d ff3d a838 2b3f 633b 8ebe 25ca 1b3d
00000090: aae9 963d 08b1 943e 5aef 32bf 4dfa fc3e
000000a0: 843e cfbd 150e 7dbf 8b45 babd ff48 f4be
000000b0: 8657 51bd f284 d5be 794f 6d3e 02e5 e23e
000000c0: b10b 643e 3b86 d1be 2178 00bf 9f0a 023f
000000d0: c26b db3e 51f1 cb3e 98e1 0c3e b6b9 76be
000000e0: 52bd 89bf cb6a 08be 0302 203f 65d8 613f
000000f0: 40e5 5ebf efaa 3ebe 9ade 7cbe 9067 24bd
00000100: b785 1f3f 90a4 3b3f 47b5 e9bd 4f2a 033f
00000110: 5936 dfbe c0bd 00bf a0ad 39be be5f 7d3f
00000120: 6c7b b13d 441d 9cbe 0974 743e dc72 e33e
00000130: 716e 87be a4c4 d13e ef87 ddbe 1eac 3cbe
00000140: 54ae 2a3f 0b78 a9bd 358d 9cbd e31e a4be
00000150: e664 ee3e 1f79 06bf 000e 843f 4923 10bf
00000160: f2a5 6c3e b1fe 17bf 201b ccbe ed15 3fbf
00000170: 5fe8 533e 5862 ef3e 48de 9dbd 56e5 96be
00000180: 4298 41bf c5dc 5e3f e221 f43e 155e 493e
00000190: cd5c 413f 0ae6 f1be 1324 6b3e 03d5 583f
000001a0: 5820 0c3f dc5b 6ebe 6266 90be 5e44 39bf
000001b0: 3e50 d5be c903 a4be 9677 933e 7a33 9fbe
000001c0: 3763 16be 95ca 623f 327a dabe fb7d 4c3e
000001d0: 4a17 b23e 609b d23e 57db f5bd c40c d7be
000001e0: 58a6 113f 2b25 073e 1316 5c3e 3bc4 f2be
000001f0: a660 91be d1f9 073d 181e 68bf 1f46 623e

critic_network.2.weight f4 [128, 128]
0.23351476 0.25418645 0.53479236 -0.091236345 -0.5318252 -0.11361001 0.07256879 0.03748298
-0.050924927 0.053199343 0.063590065 0.030633017 -0.18883978 -0.18503101 -0.09796732 0.023807373
0.043259222 0.03545381 -0.09405585 -0.09498943 -0.18075657 -0.18760987 0.029336868 -0.1968072
0.2559928 -0.013344033 0.020862369 -0.56435454 0.014684339 0.09642411 -0.44786242 -0.3507871
0.0120134475 -0.1703416 0.12248499 -0.024483453 -0.12500933 0.004939385 0.2012464 0.018611498
0.28459457 -0.43050927 -0.07257722 -0.25382832 -0.033390626 -0.23497877 0.430061 0.090105824
-0.17421174 0.08473752 0.020020587 0.14877623 0.55128366 0.0378714 0.28006554 -0.18543793
0.15369262 0.37996766 0.08695016 0.33730185 -0.12661539 -0.27544338 0.13565668 -0.12997413
0.07491362 -0.56101704 -0.18706584 -0.097413346 0.015690159 -0.51405704 0.14424582 -0.05701727
0.16801095 0.024818067 0.25764897 0.24788508 -0.16525918 -0.027615512 -0.12886448 -0.41251314
-0.03239163 0.13421462 -0.316027 0.054289445 0.10768266 0.10913968 -0.12756771 -0.3855505
-0.08572485 0.23905425 -0.1744247 -0.5119735 -0.04664623 0.27120483 0.10923402 -0.013772861
-0.41030544 0.21570326 0.1820786 0.006091028 0.105115436 0.10339491 -0.055142682 0.056194406
0.22464596 -0.43529606 -0.09917069 -0.07804126 -0.91114885 0.052067097 0.24664018 0.10871129
-0.23831348 0.049917016 0.14795046 0.08551008 -0.04659317 0.34646517 0.2917461 -0.39327842
0.391967 0.010363403 -0.35632437 -0.568644 -0.023371503 -0.23018047 0.15152586 0.2507003
-0.020986462 -0.18025567 -0.1700924 0.06550247 0.43923956 -0.22442406 -0.2309475 0.0067733605
-0.08722068 0.44593218 0.07308794 0.21929115 -0.013447671 -0.045646634 0.091670305 0.10524982
-0.36633313 -0.25331625 0.22683097 0.1648004 -0.09204094 0.101316415 -0.013079861 0.19870612
-0.07610119 0.1358914 -0.023318252 -0.19776684 0.10183149 0.23068085 -0.28318903 -0.29842654
0.30126217 0.31802082 -0.0029585757 0.14018805 -0.20901532 -0.092383794 -0.044132397 -0.06291505
-0.3558189 0.29196513 0.19728036 -0.1545941 0.32051045 0.09555237 0.28855178 0.40880078
0.17721194 -0.050835688 0.15578799 -0.20359586 -0.35529533 0.26025423 -0.32026935 -0.07952587
-0.50762516 -0.11367162 -0.12350295 0.14175259 -0.25579467 -0.0053064614 0.10580306 -0.017441459
0.14733101 -0.38710523 -0.20681591 0.035986494 -0.2311461 0.14054674 -0.060857255 0.2098661
-0.10409354 0.07841418 0.10089665 0.054827675 -0.2986219 0.0528814 0.10725377 -0.005271642
0.14986587 0.028388469 0.11858675 -0.45549172 -0.13707107 -0.04926852 -0.088302046 -0.05696097
-0.091745764 -0.108489946 -0.02998289 0.20717321 -0.29911658 0.0018256041 0.09186541 0.05166986
-0.16504036 0.15390001 0.3684477 0.13169052 0.40676615 0.3145603 0.09431774 -0.31257373
-0.03681285 0.15886019 0.023808079 -0.22886139 -0.050328065 -0.098895155 0.28065726 0.1322256
-0.051208537 0.67218125 -0.1148906 0.46093178 0.1881642 0.35890496 -0.053069763 -0.096280344
-0.26007223 0.23543033 -0.22471082 0.31059834 -0.28582785 -0.100618586 -0.5004347 -0.6124578
00000000: 7e1e 6f3e ba24 823e 27e8 083f 1fda babd
00000010: b225 08bf 5dac e8bd f29e 943d c187 193d
00000020: a896 50bd 8ee7 593d 823b 823d 18f2 fa3c
00000030: 375f 41be c578 3dbe 17a3 c8bd ae07 c33c
00000040: 9530 313d 0438 113d 5aa0 c0bd d189 c2bd
00000050: 4018 39be cd1c 40be df53 f03c d487 49be
00000060: 7d11 833e eea0 5abc 8fe7 aa3c 8a79 10bf
00000070: 9596 703c 017a c53d 394e e5be 5e9a b3be
00000080: 0dd4 443c 076e 2ebe 69d9 fa3d 8691 c8bc
00000090: 7202 00be 91da a13b 8913 4e3e 2477 983c
000000a0: 61b6 913e b66b dcbe 5ea3 94bd c9f5 81be
000000b0: 9cc4 08bd 469e 70be f530 dc3e 6789 b83d
000000c0: 9064 32be dd8a ad3d 3702 a43c cc58 183e
000000d0: ed20 0d3f 0b1f 1b3d c064 8f3e 71e3 3dbe
000000e0: 9961 1d3e 1f8b c23e ed12 b23d d4b2 ac3e
000000f0: 77a7 01be ea06 8dbe 96e9 0a3e f017 05be
00000100: 506c 993d d09e 0fbf 308e 3fbe a680 c7bd
00000110: a688 803c 3e99 03bf 2db5 133e f18a 69bd
00000120: 100b 2c3e 424f cb3c 91ea 833e 96d5 7d3e
00000130: b439 29be ed39 e2bc 0df5 03be ec34 d3be
00000140: 16ad 04bd 8f6f 093e 4ace a1be 9c5e 5e3d
00000150: ba88 dc3d a084 df3d 1ca1 02be e066 c5be
00000160: 8390 afbd a3ca 743e 639c 32be b210 03bf
00000170: 1e10 3fbd 5cdb 8a3e 16b6 df3d 91a7 61bc
00000180: 8e13 d2be 51e1 5c3e d072 3a3e 3f97 c73b
00000190: c346 d73d b6c0 d33d 4bdd 61bd 1b2c 663d
000001a0: 9709 663e 20df debe 011a cbbd 19d4 9fbd
000001b0: 0d41 69bf 4f44 553d 3e8f 7c3e 06a4 de3d
000001c0: 7308 74be c975 4c3d 5380 173e e91f af3d
000001d0: 7bd8 3ebd e263 b13e bf5f 953e ca5b c9be
000001e0: e6af c83e 43cb 293c 2670 b6be a792 11bf
000001f0: 9875 bfbc 6eb4 6bbe 9829 1b3e ca5b 803e
00000200: cdeb abbc f194 38be b42c 2ebe 2926 863d
00000210: 02e4 e03e 6ccf 65be 807d 6cbe 11f3 dd3b
00000220: c2a0 b2bd 3951 e43e 21af 953d dc8d 603e
00000230: 9f53 5cbc f7f7 3abd a4bd bb3d 388d d73d
00000240: 0490 bbbe abb2 81be 6146 683e 70c1 283e
00000250: f67f bcbd fb7e cf3d ea4c 56bc 9e79 4b3e
00000260: f1da 9bbd 1d27 0b3e eb05 bfbc 6483 4abe
00000270: 078d d03d 9a37 6c3e 27fe 90be 5dcb 98be
00000280: 093f 9a3e a0d3 a23e aae4 41bb 758d 0f3e
00000290: 1d08 56be b733 bdbd 2cc4 34bd 9bd9 80bd
000002a0: e52d b6be 747c 953e dd03 4a3e ea4d 1ebe
000002b0: f219 a43e f6b0 c33d 0fbd 933e 564e d13e
000002c0: 0c77 353e 1539 50bd e386 1f3e 6f7b 50be
000002d0: 45e9 b5be 0b40 853e 58fa a3be 76de a2bd
000002e0: b9f3 01bf abcc e8bd 1def fcbd 9727 113e
000002f0: 85f7 82be d3e1 adbb 46af d83d 64e1 8ebc
00000300: f1dd 163e a832 c6be 8dc7 53be 9366 133d
00000310: 90b1 6cbe 7ceb 0f3e 7545 79bd 24e7 563e
00000320: fe2e d5bd 9d97 a03d e7a2 ce3d fc92 603d
00000330: f8e4 98be 2b9a 583d dda7 db3d bdbd acbb
00000340: 7076 193e ef8e e83c 9cdd f23d 3636 e9be
00000350: 5c5c 0cbe cacd 49bd b4d7 b4bd e84f 69bd
00000360: 34e5 bbbd fa2f debd ad9e f5bc 3725 543e
00000370: cf25 99be 1c49 ef3a ef23 bc3d c6a3 533d
00000380: 5700 29be f797 1d3e 2da5 bc3e e1d9 063e
00000390: a743 d03e 0c0e a13e a929 c13d aa09 a0be
000003a0: 12c9 16bd 3fac 223e 2909 c33c a45a 6abe
000003b0: cd24 4ebd 8b89 cabd 4fb2 8f3e 2666 073e
000003c0: 0bc0 51bd 1214 2c3f c34b ebbd 40ff eb3e
000003d0: 1eae 403e 64c2 b73e ae5f 59bd a12e c5bd
000003e0: 3028 85be a614 713e 981a 66be bf06 9f3e
000003f0: 0758 92be 1e11 cebd 7d1c 00bf 09ca 1cbf

critic_network.2.bias f4 [128]
0.3669664 0.17869766 0.10590457 -0.029075192 0.07570881 -0.32039064 0.10568478 -0.14082234
0.18380967 0.2719914 -0.28821167 0.070413925 -0.19098143 0.348084 -0.5951544 0.34942546
0.16778928 0.16241337 0.16801767 0.103378765 0.30352172 -0.2015279 -0.0651795 -0.05495063
0.22566876 0.01959888 0.29092234 0.099124484 -0.03912967 0.29342857 -0.11609881 -0.17707825
0.14676958 0.3968306 -0.23366351 0.32342455 -0.21236745 -0.39446467 -0.26425716 0.70078266
0.15970165 -0.105137825 -0.11295672 0.4534458 0.10635945 0.29038516 0.17253993 -0.052197095
0.09791989 0.34180152 -0.06508782 -0.23152348 -0.41991225 -0.37518114 -0.25550413 0.12747438
0.65243584 0.07322314 -0.37810516 -0.30897716 -0.0042174943 0.1337274 0.18785201 -0.84027046
-0.05525211 0.013710603 0.26356044 -0.148994 0.039742533 -0.036832742 0.5082588 0.13464987
0.34698617 0.13053931 -0.22776534 -0.16546963 0.48272163 -0.008375297 -0.12352295 0.30342466
0.29190657 -0.121645845 0.3228043 0.24483608 0.311523 -0.3536856 -0.005896873 -0.03450054
0.16733351 0.08862723 0.14998418 0.097749725 0.45436522 0.206813 -0.13308124 -0.19519724
0.7280515 -0.07549451 -0.21831948 0.19008292 0.21259342 -0.14163841 0.13977765 -0.2517861
-0.50890046 0.2905696 -0.32506064 -0.1815985 0.18973142 -0.008420144 -0.24760221 -0.32777455
0.19983394 0.11436207 0.391213 -0.30666408 0.3837163 0.6990348 -0.15876165 0.3199941
-0.13758999 -0.29193395 0.112425976 0.5167892 0.22692877 -0.8486611 0.034664974 -0.040016808
00000000: 05e3 bb3e 85fc 363e 7fe4 d83d 192f eebc
00000010: 380d 9b3d 3e0a a4be 4371 d83d bb33 10be
00000020: 9a38 3c3e 7542 8b3e 7b90 93be 2d35 903d
00000030: a390 43be 1138 b23e 0a5c 18bf e5e7 b23e
00000040: f4d0 2b3e b14f 263e d30c 2c3e 3fb8 d33d
00000050: 3367 9b3e 545d 4ebe d47c 85bd e913 61bd
00000060: b615 673e d58d a03c c6f3 943e c701 cb3d
00000070: 6f46 20bd 453c 963e 37c5 edbd 0054 35be
00000080: c44a 163e 612d cb3e 7d45 6fbe e797 a53e
00000090: da76 59be 46f7 c9be b74c 87be 7e66 333f
000000a0: d488 233e 8052 d7bd da55 e7bd 0c2a e83e
000000b0: fcd2 d93d 5dad 943e 4fae 303e 9fcc 55bd
000000c0: 398a c83d 9c00 af3e c34c 85bd 7e14 6dbe
000000d0: bdfe d6be be17 c0be 70d1 82be a588 023e
000000e0: 0906 273f 03f6 953d 0097 c1be 4132 9ebe
000000f0: e832 8abb d6ef 083e 475c 403e f71b 57bf
00000100: 0950 62bd 70a2 603c 65f1 863e e291 18be
00000110: 11c9 223d eedd 16bd 401d 023f a8e1 093e
00000120: 2ca8 b13e 19ac 053e 513b 69be df70 29be
00000130: 4a27 f73e 8b38 09bc 9af9 fcbd 7a5a 9b3e
00000140: c774 953e 7521 f9bd 9b46 a53e 4fb6 7a3e
00000150: f17f 9f3e 4716 b5be 8e3a c1bb 7050 0dbd
00000160: 7a59 2b3e 3182 b53d 7495 193e 0231 c83d
00000170: 8fa2 e83e c9c6 533e 7346 08be c9e1 47be
00000180: 9561 3a3f de9c 9abd 248f 5fbe 19a5 423e
00000190: 17b2 593e a909 11be df21 0f3e 1cea 80be
000001a0: 4d47 02bf 8ac5 943e 596e a6be f5f4 39be
000001b0: f448 423e a5f4 09bc 6f8b 7dbe 11d2 a7be
000001c0: 45a1 4c3e a936 ea3d 124d c83e 1303 9dbe
000001d0: 7676 c43e f2f3 323f 6a92 22be 44d6 a33e
000001e0: 64e4 0cbe 5e78 95be 973f e63d 4c4c 043f
000001f0: 0460 683e db41 59bf dcfc 0d3d aae8 23bd

critic_network.4.weight f4 [1, 128]
-1.0532668 -1.0417986 -1.1406852 1.0817323 -1.0907979 1.0735543 -1.0872569 1.1010593
-1.0399619 -1.0851483 1.0418279 -1.0548314 1.0672562 -1.0417536 1.0360067 -1.0219467
-1.1042192 -1.0299227 -1.050297 -1.069039 -1.0495462 1.0943891 -0.8282901 -1.1247879
-1.1280643 1.1070478 -1.0835418 -1.0472422 1.0568589 -1.1128306 1.0776359 1.086475
0.80646974 -1.0433416 1.0646191 -1.0376482 1.1039904 1.033832 1.082028 -1.0578587
-1.0653102 -0.81257516 -1.0955268 -1.0615711 0.77920026 -1.0444468 -0.77658993 1.1128013
-1.0756816 -1.0552217 1.0407723 1.1199127 1.0773965 0.76711434 1.0910448 -1.1239601
-1.0543195 1.076144 1.1206378 1.0296111 -1.1292865 -1.0239316 -1.067132 1.071
1.0402639 -0.85958123 -1.0653797 1.127338 -1.0742078 1.0931705 -1.0320274 -1.1128405
-1.0670934 -1.064228 1.0822365 1.1141367 -1.0744191 -1.1038707 1.0661408 -1.0371594
-1.1412455 1.0543134 -1.0822542 -1.1003934 -1.0252038 1.0313878 1.087862 1.1203338
-1.068753 -1.0869246 -1.0371053 -1.1269443 -1.0597063 -1.0313681 1.0979836 -1.0822859
-1.058845 -1.1354704 1.0593852 -1.0526526 -1.0308129 1.0287061 -1.0967965 1.1049933
1.0591832 -1.0626793 1.0747434 1.0973227 -1.0554265 -1.1141362 1.097113 1.0702205
-1.1126299 -1.1030226 -1.1314214 1.0938189 -1.1445997 -1.0640407 1.0510741 -1.0820074
1.1194526 1.1159455 -1.0578556 -1.0273837 -1.0269213 1.0727934 -1.1152666 1.0958763
00000000: 72d1 86bf a859 85bf f901 92bf 3476 8a3f
00000010: 449f 8bbf 3a6a 893f 3c2b 8bbf 83ef 8c3f
00000020: 791d 85bf 24e6 8abf 9e5a 853f b704 87bf
00000030: da9b 883f 2f58 85bf de9b 843f 26cf 82bf
00000040: 0e57 8dbf 82d4 83bf 2270 86bf 45d6 88bf
00000050: 8857 86bf f114 8c3f d20a 54bf 0df9 8fbf
00000060: 6964 90bf beb3 8d3f 7fb1 8abf 080c 86bf
00000070: 2747 873f 3c71 8ebf f9ef 893f 9d11 8b3f
00000080: cd74 4e3f 388c 85bf 7045 883f a8d1 84bf
00000090: 8f4f 8d3f 9b54 843f e57f 8a3f ea67 87bf
000000a0: 165c 88bf ed04 50bf 393a 8cbf 90e1 87bf
000000b0: ab79 473f 6fb0 85bf 99ce 46bf 4670 8e3f
000000c0: efaf 89bf 8111 87bf 0738 853f 4d59 8f3f
000000d0: 21e8 893f 9b61 443f 5ba7 8b3f eddd 8fbf
000000e0: f1f3 86bf 16bf 893f 0f71 8f3f 4cca 833f
000000f0: 768c 90bf 3110 83bf c897 88bf 8716 893f
00000100: 5e27 853f 840d 5cbf 5d5e 88bf 9d4c 903f
00000110: a47f 89bf 03ed 8b3f 7919 84bf 8f71 8ebf
00000120: 8496 88bf a038 88bf ba86 8a3f 089c 8e3f
00000130: 9186 89bf a34b 8dbf 4d77 883f a4c1 84bf
00000140: 5514 92bf bef3 863f 4e87 8abf b1d9 8cbf
00000150: e139 83bf 8404 843f 103f 8b3f 1967 8f3f
00000160: e6cc 88bf 5820 8bbf debf 84bf b63f 90bf
00000170: 75a4 87bf df03 84bf ba8a 8c3f 5888 8abf
00000180: 3c88 87bf 1857 91bf ef99 873f 52bd 86bf
00000190: adf1 83bf a4ac 833f d463 8cbf 6c70 8d3f
000001a0: 5193 873f e005 88bf 3191 893f 1275 8c3f
000001b0: 3718 87bf 049c 8ebf 336e 8c3f fcfc 883f
000001c0: a86a 8ebf d82f 8dbf 6bd2 90bf 4202 8c3f
000001d0: 3e82 92bf 7c32 88bf 9989 863f 387f 8abf
000001e0: 394a 8f3f 4dd7 8e3f d067 87bf 4f81 83bf
000001f0: 2872 83bf 4b51 893f 0ec1 8ebf ad45 8c3f
